ldm_checkpoints/ldm_epoch_90.pth (torch, 9162 bytes, 12 tensors)

conv1.weight f4 [4, 4, 3, 3]
0	0x3db47646	0.08811621
1	0x3e39a4da	0.18129292
2	0x3e1271a5	0.14301164
3	0x3e21c918	0.15799367
4	0xbd9c0faf	-0.07620179
5	0x3de4fd14	0.11181083
6	0xbdf0ae3e	-0.11751984
7	0x3e2e1981	0.17001916
8	0xbc98ebee	-0.018667188
9	0xbd3a7f9f	-0.045531865
10	0x3dae2b8f	0.08504402
11	0x3daf5dba	0.08562799
12	0xbd8d9274	-0.06912699
13	0x3de93cc0	0.1138854
14	0xbd41e5f5	-0.047338445
15	0x3e2052be	0.15656564
16	0x3c50c2e5	0.012741779
17	0x3e27b1a0	0.16376352
18	0xbcfb8bcf	-0.030706314
19	0x3df84f39	0.121244855
20	0x3cc6c99f	0.024266062
21	0x3e050e95	0.12993844
22	0xbd019273	-0.031633805
23	0xbda8a8b5	-0.08235303
24	0xbe0f39e6	-0.1398693
25	0x3d3aad75	0.045575578
26	0x3d108a60	0.035288215
27	0xbc9b2184	-0.01893688
28	0x3e1e8d7b	0.15483658
29	0xbde88be6	-0.113548085
30	0x3dcd1c7e	0.100152
31	0xbdecad5f	-0.115565054
32	0xbd7d8ac3	-0.06189991
33	0x3dbc77f2	0.09202565
34	0x3cf25523	0.029581612
35	0x3d501dfa	0.050809838
36	0xbdd2022d	-0.10254321
37	0xbe0f1bd6	-0.13975462
38	0x3e04d991	0.1297362
39	0x3d39a89d	0.045326818
40	0x3cc1dd0f	0.02366498
41	0xbe308a3c	-0.17240232
42	0xbd5a5844	-0.053306833
43	0xbd5116f0	-0.051047266
44	0x3d85b68f	0.06528961
45	0xbdc72b7b	-0.0972509
46	0x3db86594	0.090037495
47	0xbdc61611	-0.096721776
48	0xbcfe6234	-0.031052686
49	0x3daa9343	0.08328869
50	0x3ceceeb9	0.028922426
51	0xbd98be4f	-0.074581735
52	0x3e467956	0.19382223
53	0xbcd32b13	-0.025777375
54	0xbd17c890	-0.037056506
55	0x3da5dd49	0.080988474
56	0x3ddbe937	0.107378416
57	0x3e2d32ca	0.16913906
58	0x3dcf2213	0.10113921
59	0x3d99a425	0.07502011
60	0xbdc07c97	-0.093987636
61	0x3e55db5a	0.20884457
62	0x3de9a736	0.11408846
63	0x3d7c9b65	0.061671633
64	0xbdfc0210	-0.12305081
65	0x3db34b65	0.08754615
66	0xbb588b2f	-0.0033041944
67	0xbd9f052c	-0.07764658
68	0x3dd4680c	0.10371408
69	0x3e24bca1	0.16087581
70	0x3df13023	0.117767595
71	0xbda2ce93	-0.07949557
72	0x3e4dfb6c	0.20115441
73	0x3d964448	0.07337242
74	0x3e378736	0.17922673
75	0xbd866132	-0.06561507
76	0xbd3940d7	-0.04522785
77	0xbd4cda68	-0.050012976
78	0x3d7c3db6	0.06158229
79	0x3e59ea96	0.21280894
80	0xbd4585e8	-0.048223406
81	0x3ddb5d17	0.10711115
82	0x3c93e559	0.018053697
83	0xbd1c4dfd	-0.038160313
84	0xbe3188bd	-0.17337318
85	0xbe41a7ef	-0.18911718
86	0xbd6f2992	-0.058389254
87	0x3d4f4057	0.05059847
88	0xbe1f8568	-0.15578234
89	0x3cc6bf4a	0.024261136
90	0x3dad825f	0.08472132
91	0x3c13b70e	0.009015812
92	0x3e17a15c	0.14807647
93	0x3df1b4ea	0.11802085
94	0x3e5173b4	0.20454293
95	0xbd793033	-0.060836982
96	0x3e05e529	0.13075699
97	0xbd74ec7e	-0.05979585
98	0x3db7b114	0.08969322
99	0xbd0ea3b5	-0.034824092
100	0xbc13a158	-0.009010635
101	0xbd73a9eb	-0.05948822
102	0x3ddb344c	0.10703334
103	0xbdf650a9	-0.120271035
104	0xbdc7ed55	-0.09762064
105	0xbe0acfe9	-0.13555874
106	0x3d03db61	0.032191638
107	0x3d876330	0.066107154
108	0x3db92495	0.090401806
109	0x3e10447e	0.14088628
110	0x3e188b4b	0.14896886
111	0x3e42d8d7	0.1902803
112	0xbe0102f5	-0.12598784
113	0xbd81218a	-0.06305225
114	0xbe00f8e7	-0.12594949
115	0x3e0c8323	0.137219
116	0xbe076da3	-0.13225417
117	0x3d884474	0.066536814
118	0x3db3fb7b	0.087882005
119	0xbda87094	-0.082245976
120	0x3e00cf04	0.1257897
121	0x3e31b06c	0.17352456
122	0x3d47df19	0.048796747
123	0x3e15d0e2	0.14630464
124	0xbc0d4e77	-0.0086246645
125	0x3dfe6b52	0.124228135
126	0x3de68369	0.11255533
127	0x3e190381	0.14942743
128	0x3dd9278f	0.10603248
129	0xbe048b59	-0.12943782
130	0xbe029a48	-0.12754166
131	0x3e30db4e	0.17271158
132	0x3d56971e	0.05239021
133	0xbdd73751	-0.10508598
134	0xbe0758df	-0.13217495
135	0xbdb9d4b2	-0.090737715
136	0x3da77de2	0.08178307
137	0xbd881809	-0.06645209
138	0x3ce3f8d5	0.027828613
139	0xbe3b5695	-0.18294747
140	0xbdbc7e56	-0.09203784
141	0x3d4c10bb	0.049820643
142	0xbe1fd8f6	-0.15610108
143	0xbd0e2f21	-0.034712914

conv1.bias f4 [4]
0	0x3c8e838d	0.017396713
1	0x3e3524d8	0.17689836
2	0xbd06934a	-0.03285531
3	0x3da6071e	0.08106826

conv2.weight f4 [4, 4, 3, 3]
0	0x3cfe681a	0.031055499
1	0x3e3fa2f9	0.18714513
2	0xbdf9693c	-0.12178275
3	0x3e3cbcf2	0.18431452
4	0x3e496026	0.19665584
5	0x3caceee7	0.021110011
6	0x3e330b41	0.17484762
7	0x3da5bbbd	0.08092449
8	0x3e1f1bd0	0.15537953
9	0x3cf10b92	0.029424462
10	0x3d7512df	0.05983245
11	0xbe1cdeaf	-0.15319322
12	0xbe35cc95	-0.17753823
13	0xbdb72823	-0.08943202
14	0x3de073df	0.10959601
15	0x3dd88142	0.10571529
16	0xbe072d84	-0.13200957
17	0x39ac3620	0.00032846723
18	0x3d30b555	0.04314168
19	0xbbdde2cc	-0.006771421
20	0xbdf1ba1c	-0.11803076
21	0x3cde0845	0.027103553
22	0x3e2e2c66	0.17009124
23	0x3e2e3d95	0.17015679
24	0xbc074681	-0.008256556
25	0x3c97ad66	0.0185153
26	0x3e160b77	0.14652811
27	0xbdf700c3	-0.12060692
28	0xbc34f5e8	-0.011044957
29	0xbd49a9db	-0.049234252
30	0xbd78b7d3	-0.060722183
31	0xbdb0bd71	-0.08629883
32	0x3de75ce5	0.11297015
33	0x3b55e27a	0.0032636211
34	0x3e3aaf62	0.18230966
35	0x3d457f90	0.048217356
36	0x3e4d0e68	0.20025027
37	0x3e4fc0cf	0.20288394
38	0x3e33b510	0.17549539
39	0x3e199377	0.1499766
40	0x3d2f38fa	0.042778946
41	0x3d11b2c7	0.035570886
42	0x3bb3e3c0	0.0054897964
43	0xbaab2afe	-0.0013059077
44	0xbd8bbf9e	-0.068236575
45	0x3d9c6cd2	0.07637943
46	0xbdc4884b	-0.09596308
47	0xbbe792df	-0.007067069
48	0x3e47f39c	0.19526523
49	0x3c3da569	0.011575081
50	0x3cc44f6d	0.023963654
51	0xbe0a42c1	-0.13502027
52	0x3dcb14ae	0.09916054
53	0x3d513b74	0.05108209
54	0xbde97b6e	-0.114004955
55	0xbe2c8ed4	-0.1685136
56	0xbd4e5734	-0.050376132
57	0x3cf8c4cc	0.030367278
58	0xbe21e841	-0.15811254
59	0xbb62609c	-0.0034542447
60	0xbd09fa19	-0.033685777
61	0xbe079f40	-0.13244343
62	0xbd9e2059	-0.077210136
63	0xbdd6bd70	-0.10485351
64	0x3e18027f	0.14844702
65	0xbd69dcd6	-0.05709537
66	0x3d21ec0e	0.03953176
67	0x3dc6fbc0	0.09715986
68	0x3e18ff26	0.14941081
69	0xbcd53582	-0.026026491
70	0x3daa788b	0.08323773
71	0x3c987c3c	0.018613927
72	0xbd97c304	-0.07410243
73	0xbd0ac490	-0.033878863
74	0xbc59bb15	-0.013289233
75	0x3cd90fcd	0.026496792
76	0x3d65cc49	0.056103025
77	0xbdbef2aa	-0.09323628
78	0x3d875cbd	0.06609485
79	0x3e07ca25	0.13260706
80	0xbdfa8428	-0.12232238
81	0xbc805206	-0.015664112
82	0x3e1a44bd	0.15065284
83	0x3da9418a	0.08264454
84	0x3df1066a	0.117688015
85	0x3db429a7	0.08797007
86	0x3da95b4b	0.08269366
87	0xbd2f3ca0	-0.042782426
88	0x3d8ac0d1	0.06775058
89	0x3e16583e	0.14682099
90	0xbd0f16fa	-0.03493402
91	0xbd2c86ce	-0.042120747
92	0xbc8c0b5c	-0.01709526
93	0xbc2d02da	-0.010559762
94	0x3e2b1cb9	0.16710176
95	0x3e14ab42	0.14518455
96	0x3e354461	0.17701866
97	0x3da8e40d	0.08246622
98	0x3e35055d	0.17677827
99	0xbd878bd8	-0.0661847
100	0xbdad7157	-0.084688835
101	0x3d3acae2	0.04560364
102	0xbc146658	-0.009057604
103	0x3de5eec1	0.11227179
104	0x3da24742	0.079237476
105	0x3d70a565	0.058751483
106	0xbdb4bb06	-0.088247344
107	0xbd2fbe49	-0.04290608
108	0xbd08ab88	-0.03336671
109	0x3e1af972	0.15134218
110	0x3e0e170a	0.13875976
111	0x3d922a0f	0.07136928
112	0xbe02c79e	-0.1277146
113	0x3b084ea0	0.0020798817
114	0x3dd221e5	0.10260371
115	0x3e1649b1	0.14676549
116	0x3e1ecc3d	0.15507598
117	0x3c3ea630	0.011636302
118	0x3c9e746a	0.01934262
119	0x3e0eeb68	0.13956988
120	0xbc03abef	-0.008036598
121	0xbdfea344	-0.12433484
122	0x3e258402	0.16163638
123	0x3cd1a9e9	0.025593715
124	0xbdda4a1e	-0.10658668
125	0x3dfb06cb	0.12257155
126	0x3da1e90d	0.07905779
127	0xbd25f38c	-0.040515468
128	0x3c96553f	0.018351195
129	0xbe0d061f	-0.13771866
130	0xbdb14454	-0.08655611
131	0x3d05c14f	0.032655057
132	0xbe3aa09e	-0.18225333
133	0xbcb8cbf0	-0.022558182
134	0xbd870e31	-0.06594504
135	0xbd6b10e1	-0.057389144
136	0xbd70f2fc	-0.058825478
137	0xbd9fa1ce	-0.07794534
138	0xbd80b4cc	-0.06284484
139	0xbd38467f	-0.044989105
140	0xbe019af7	-0.1265677
141	0xbe21d784	-0.15804869
142	0xbca0a1d3	-0.019608414
143	0xbd03e147	-0.032197263

conv2.bias f4 [4]
0	0xb9d6e908	-0.00040990883
1	0x3c39a7c3	0.011331501
2	0xbd8395cc	-0.06425056
3	0x3e023ac1	0.12717725

exp_avg f4 [4, 4, 3, 3]
0	0xbbe03b2d	-0.006842992
1	0xbc52ea09	-0.012873181
2	0xbbd34197	-0.006447028
3	0xbc6cf65b	-0.014463033
4	0xbcc6571a	-0.024211455
5	0xbc86998f	-0.016430644
6	0xbc4677e5	-0.012113546
7	0xbc9ad1a9	-0.018898802
8	0xbc5e076c	-0.013551574
9	0xbc1ddc0e	-0.009634985
10	0xbc09e387	-0.008416063
11	0xbb13b808	-0.002254011
12	0xbc5f44ad	-0.013627213
13	0xbc88eb5d	-0.016713792
14	0xbc10ac47	-0.008830137
15	0xbbd08d45	-0.006364497
16	0xbc2281ad	-0.009918612
17	0xbb8829a0	-0.0041553527
18	0x3bc292dd	0.0059379176
19	0x3b9a7864	0.0047140587
20	0x3b03352f	0.0020020714
21	0x3b790797	0.0037998909
22	0x3b679ab9	0.0035340025
23	0x3adbcc1e	0.0016769206
24	0xbb00b54c	-0.0019639311
25	0xb972a9d3	-0.00023142183
26	0x3a0582dc	0.0005093047
27	0xbc06617e	-0.008201955
28	0xbc92c06c	-0.01791402
29	0xbca06119	-0.01957755
30	0xbc16bd04	-0.009200338
31	0xbcaa8b16	-0.020818274
32	0xbcb7933a	-0.02240907
33	0xbb4a0ba7	-0.00308297
34	0xbc45f35b	-0.012081946
35	0xbc6a036e	-0.014283044
36	0xbb8d4059	-0.0043106494
37	0xbaa23864	-0.0012376425
38	0x3a5f1baf	0.00085109
39	0x38088125	3.2545202e-05
40	0x3b4032d4	0.002932717
41	0x3b25550a	0.002522769
42	0x3b089ca7	0.0020845325
43	0x3b81967a	0.003954706
44	0x3b282c05	0.0025661003
45	0xbc2a5292	-0.010395663
46	0xbc259e54	-0.010108549
47	0xbc012dab	-0.007884423
48	0xbc281497	-0.010258815
49	0xbc23b375	-0.009991516
50	0xbc053bde	-0.008131949
51	0xbbb53184	-0.0055295844
52	0xbb962a6c	-0.004582694
53	0xbb84bda3	-0.004050927
54	0xbc99b1f2	-0.018761609
55	0xbc900db9	-0.017584668
56	0xbb97aebc	-0.0046289843
57	0xbcc4f88c	-0.024044298
58	0xbcc3b7eb	-0.02389141
59	0xbc03cdad	-0.008044642
60	0xbc749506	-0.014928108
61	0xbc5bc8db	-0.013414587
62	0xbb0030ac	-0.001956026
63	0xbbf89a22	-0.0075867334
64	0xbbbf04c4	-0.0058294255
65	0x3a38a1e3	0.0007043166
66	0xbbf06fdd	-0.007337554
67	0xbbc6f17e	-0.0060712686
68	0x398d317b	0.00026930482
69	0xba86c9cd	-0.001028353
70	0xbaa7de71	-0.0012807382
71	0x3a5c719d	0.00084092637
72	0xbbc8a497	-0.0061231363
73	0xbc1764c5	-0.009240334
74	0xbbca726c	-0.006178191
75	0xbbfa6299	-0.0076411483
76	0xbc480807	-0.012208945
77	0xbc1d45fb	-0.009599204
78	0xbac686dc	-0.0015146392
79	0xbba4323e	-0.005010872
80	0xbbb06af7	-0.005383845
81	0x3b4381d9	0.0029832034
82	0x3b44082c	0.0029912097
83	0xba7af294	-0.000957289
84	0x39efd735	0.00045745974
85	0x3aa1f170	0.0012355279
86	0xbaf74061	-0.0018863791
87	0xbb2f608d	-0.002676043
88	0xbb19a2ab	-0.0023442905
89	0xbb64cd25	-0.0034912315
90	0xbc0217a6	-0.007940209
91	0xbc571c6f	-0.013129338
92	0xbc01e46c	-0.007927995
93	0xbbcc8742	-0.00624171
94	0xbc46e1a0	-0.012138754
95	0xbbfd4a86	-0.007729831
96	0x3ac664ef	0.0015136282
97	0xbb007351	-0.0019599984
98	0xba876eb6	-0.0010332677
99	0x3b087b06	0.002082528
100	0x3b6f34c7	0.0036499964
101	0x3b1adf9e	0.0023631821
102	0x3a6ffd72	0.0009154893
103	0x3b615f84	0.0034389207
104	0x3b2bef75	0.0026235257
105	0xbb23607a	-0.002492933
106	0xb8ab0dfc	-8.15652e-05
107	0x3a3d495e	0.00072207104
108	0x3b7c8d6a	0.0038536438
109	0x3b6a0ecb	0.0035714384
110	0x3b46a773	0.003031221
111	0x3ad5b917	0.0016305771
112	0x3acaad38	0.0015463
113	0x3a8e4bd7	0.0010856342
114	0x3a52ebad	0.00080459827
115	0x3a8969c0	0.0010483786
116	0xb7b778f9	-2.1871632e-05
117	0xbb5d69de	-0.0033785026
118	0xbbdf5331	-0.006815337
119	0xbbade709	-0.0053070826
120	0xbb9f0451	-0.0048528095
121	0xbc198a75	-0.00937139
122	0xbbd93bf0	-0.0066294596
123	0xbb05a5e3	-0.0020393066
124	0xbbb38610	-0.005478628
125	0xbb7606fa	-0.003754078
126	0x3b1ca5c2	0.002390251
127	0x3b3a787e	0.0028453167
128	0x3b2878b0	0.00257067
129	0xbb1d28a6	-0.0023980527
130	0xbb1468ad	-0.00226454
131	0xba89684b	-0.0010483352
132	0xbb8da67f	-0.0043228264
133	0xbb9fbe0d	-0.0048749507
134	0xbb72a8f4	-0.0037026973
135	0x3c31f313	0.010861176
136	0x3c522d0c	0.012828123
137	0x3c0834c7	0.008313364
138	0x3c5f731c	0.013638284
139	0x3c81bfb1	0.015838476
140	0x3c2bb8a0	0.01048103
141	0x3c1107d9	0.008851969
142	0x3c22425c	0.009903517
143	0x3bcfa555	0.006336848

exp_avg_sq f4 [4, 4, 3, 3]
0	0x389079f0	6.889168e-05
1	0x39208a5f	0.00015310336
2	0x38a3345f	7.7822006e-05
3	0x39021334	0.0001240492
4	0x39974c32	0.00028857734
5	0x39304192	0.00016809095
6	0x3892725c	6.9831236e-05
7	0x3923c019	0.00015616453
8	0x38cab7cd	9.666346e-05
9	0x3870bcc1	5.739625e-05
10	0x38870b9d	6.439465e-05
11	0x37d3e012	2.5257501e-05
12	0x3904db78	0.0001267026
13	0x394f18df	0.00019750324
14	0x38cb83b0	9.704323e-05
15	0x389570d3	7.125889e-05
16	0x39088693	0.00013020104
17	0x38880be0	6.487197e-05
18	0x372ad0fa	1.0181446e-05
19	0x369a2663	4.5940264e-06
20	0x3688ee8a	4.0808854e-06
21	0x36aa1913	5.069314e-06
22	0x36399946	2.7656365e-06
23	0x367340a6	3.6247452e-06
24	0x35a9fd81	1.266526e-06
25	0x35a8db53	1.2580807e-06
26	0x35acf0e9	1.2885113e-06
27	0x38acf9dd	8.24814e-05
28	0x394c8e4d	0.00019507967
29	0x39332cb8	0.0001708743
30	0x38d58c50	0.00010182767
31	0x3981b3ae	0.0002473867
32	0x395fcf55	0.00021344174
33	0x3818168c	3.6260622e-05
34	0x38d2e622	0.00010056446
35	0x38c10c69	9.205269e-05
36	0x364d5609	3.059746e-06
37	0x358ce2bc	1.0496801e-06
38	0x36005f7c	1.9129066e-06
39	0x359e43ec	1.1791685e-06
40	0x367ff7dc	3.8142234e-06
41	0x3658225d	3.220651e-06
42	0x36457c88	2.9427774e-06
43	0x36b6b9b4	5.4456414e-06
44	0x3635c75c	2.7087144e-06
45	0x37fd2cae	3.0180756e-05
46	0x37ea1d26	2.7908547e-05
47	0x37934af9	1.7558677e-05
48	0x37dd672b	2.6393294e-05
49	0x37cdd8e7	2.4538907e-05
50	0x379968dc	1.828785e-05
51	0x36eaa6a1	6.9931416e-06
52	0x36aeabd3	5.205607e-06
53	0x36bad9e9	5.5686e-06
54	0x391eb16f	0.00015134153
55	0x3916c3cd	0.00014378056
56	0x37c95391	2.399998e-05
57	0x3985c318	0.00025513093
58	0x398bd64e	0.00026671815
59	0x3872cf03	5.789009e-05
60	0x39043ff6	0.00012612328
61	0x39029868	0.00012454542
62	0x37cddb74	2.4540095e-05
63	0x37f4400f	2.9116896e-05
64	0x372beda8	1.0247728e-05
65	0x360152ed	1.9270767e-06
66	0x3801f63a	3.0985313e-05
67	0x3726ed60	9.949639e-06
68	0x365f551b	3.3279127e-06
69	0x37007941	7.657626e-06
70	0x35dee6d0	1.6607464e-06
71	0x361bb218	2.3200464e-06
72	0x37881c94	1.6225771e-05
73	0x37eabc23	2.7982582e-05
74	0x376169a6	1.3435643e-05
75	0x37bd3c67	2.2558683e-05
76	0x3841bfa0	4.619325e-05
77	0x37fcdd67	3.014384e-05
78	0x36814fa9	3.8537733e-06
79	0x3750c2f8	1.2443161e-05
80	0x37595bd7	1.2955591e-05
81	0x37071062	8.0504415e-06
82	0x3710f804	8.6408145e-06
83	0x35c65fdc	1.4780048e-06
84	0x36ac00b1	5.12608e-06
85	0x36fef2b0	7.5980424e-06
86	0x36287f6d	2.5108122e-06
87	0x36101ef4	2.147569e-06
88	0x3654fd49	3.1737893e-06
89	0x3631f159	2.6515538e-06
90	0x38729e11	5.7844507e-05
91	0x38ce5979	9.839511e-05
92	0x38299dca	4.0439692e-05
93	0x38593bb5	5.1792438e-05
94	0x38c4005b	9.3460745e-05
95	0x382c7b39	4.1122756e-05
96	0x3709be00	8.210074e-06
97	0x37788de5	1.4814989e-05
98	0x36e5c02f	6.847105e-06
99	0x371ae749	9.232966e-06
100	0x37dd27a7	2.6363718e-05
101	0x37c25f24	2.3170905e-05
102	0x37117f00	8.672243e-06
103	0x37eb36d5	2.8039716e-05
104	0x37d10cff	2.4920793e-05
105	0x3614d94d	2.2180204e-06
106	0x36de3d6a	6.623265e-06
107	0x36e7f013	6.912285e-06
108	0x36af916e	5.2323367e-06
109	0x36cce432	6.106239e-06
110	0x3637513f	2.7316416e-06
111	0x36c72ae0	5.9356535e-06
112	0x36e92a08	6.948834e-06
113	0x363d4ca3	2.8207803e-06
114	0x35f7f98a	1.847556e-06
115	0x35fcd6ef	1.8838017e-06
116	0x359a4ea6	1.1496784e-06
117	0x3691f732	4.350114e-06
118	0x3734f184	1.0785068e-05
119	0x36d0a26e	6.2177924e-06
120	0x36f964e9	7.4325258e-06
121	0x37995999	1.8280743e-05
122	0x370cbe65	8.38898e-06
123	0x361778a8	2.2570985e-06
124	0x36e6ceb6	6.8785985e-06
125	0x363efd02	2.8459476e-06
126	0x36e8e401	6.940682e-06
127	0x370c20d9	8.352298e-06
128	0x368b161e	4.1450976e-06
129	0x37a47c95	1.9608337e-05
130	0x37b534dc	2.1601496e-05
131	0x36f26ac8	7.224593e-06
132	0x379f4f21	1.8991124e-05
133	0x37b53526	2.160163e-05
134	0x3713c624	8.808016e-06
135	0x3867bdfa	5.525162e-05
136	0x38c2cda6	9.288946e-05
137	0x38674aa2	5.51442e-05
138	0x38c2d083	9.289479e-05
139	0x391a8220	0.0001473506
140	0x38b28828	8.5130625e-05
141	0x38474488	4.7509122e-05
142	0x38968d46	7.1788716e-05
143	0x382acc3c	4.0721367e-05

exp_avg f4 [4]
0	0xbcd6d1c4	-0.02622307
1	0x3a67ba74	0.00088397344
2	0xbcddb011	-0.027061494
3	0xbc7a72da	-0.015286172

exp_avg_sq f4 [4]
0	0x39c7cbbe	0.00038108038
1	0x3761348a	1.3423278e-05
2	0x39b14038	0.00033807917
3	0x3909fd69	0.00013159741

exp_avg f4 [4, 4, 3, 3]
0	0xbb626b28	-0.0034548733
1	0xbb6648e0	-0.0035138652
2	0xbb339467	-0.0027401687
3	0xbbd1e9ce	-0.0064060455
4	0xbbdfe23a	-0.006832388
5	0xbbc58299	-0.0060275313
6	0xbc0b1701	-0.008489371
7	0xbc1798ba	-0.009252721
8	0xbc0aedb1	-0.008479522
9	0x3c017f90	0.007903948
10	0x3bea2a0d	0.007146126
11	0x3bb794c4	0.005602451
12	0x3c0d0e70	0.008609399
13	0x3c05bd7e	0.008162854
14	0x3be2982f	0.0069151144
15	0x3c07062e	0.008241219
16	0x3c08d0ee	0.008350594
17	0x3bfbc4f8	0.0076833926
18	0x3958635e	0.00020636382
19	0xba69625d	-0.0008902902
20	0xba97a1e2	-0.001156863
21	0xba38dae9	-0.0007051663
22	0xbacdf67e	-0.0015713719
23	0xbae0471e	-0.0017111038
24	0xbb268dc6	-0.0025414093
25	0xbb5356bd	-0.0032247745
26	0xbb5167d3	-0.0031952753
27	0x3ba9dc68	0.005183745
28	0x3babc68a	0.0052421736
29	0x3bab3ede	0.005226
30	0x3b97fa0f	0.0046379636
31	0x3b8b0095	0.0042420127
32	0x3b7e709d	0.0038824447
33	0x3b42f8f5	0.002975044
34	0x3b18249f	0.0023215187
35	0x3afde216	0.0019369747
36	0xb8adfdc2	-8.296549e-05
37	0x3a19b35e	0.00058632146
38	0x3af26cd5	0.0018495569
39	0xb8e9aace	-0.00011142121
40	0x3a375905	0.0006994161
41	0x3b102468	0.0021994356
42	0xb9a7d61f	-0.00032012255
43	0x3a1b1924	0.0005916527
44	0x3b11ccb3	0.0022247254
45	0xbb8eddc9	-0.004359935
46	0xbb7fa3e6	-0.0039007603
47	0xbac078dc	-0.0014684456
48	0xbb51d2d9	-0.0032016544
49	0xbb29498b	-0.0025831189
50	0xb9422fc8	-0.00018519082
51	0xba8a73ea	-0.001056311
52	0xb9a14bac	-0.00030764693
53	0x3aefefa5	0.0018305673
54	0x3bf1b7a2	0.007376627
55	0x3c070d16	0.008242866
56	0x3c0c8056	0.00857552
57	0x3bb99e53	0.0056646257
58	0x3bd2b673	0.006430441
59	0x3be0818d	0.006851381
60	0x3b5b30d1	0.0033445845
61	0x3b7fe478	0.003904609
62	0x3b8d9373	0.004320556
63	0xbc202e56	-0.009776672
64	0xbc364af6	-0.0111262705
65	0xbc2b6e82	-0.010463359
66	0xbc0f9676	-0.0087639
67	0xbc2bfc6e	-0.010497196
68	0xbc26d886	-0.010183459
69	0xbbd4433c	-0.0064777415
70	0xbc078426	-0.008271253
71	0xbc06abf6	-0.00821971
72	0x3b56ac43	0.0032756485
73	0x3b3abb6d	0.0028493062
74	0x3b30c325	0.0026971784
75	0x3b62e4cc	0.0034621237
76	0x3b26cea1	0.002545275
77	0x3b0193ba	0.001977189
78	0x3b702551	0.0036643336
79	0x3b24df6b	0.0025157582
80	0x3ae9ef46	0.0017847798
81	0xbc5680ed	-0.013092262
82	0xbc379929	-0.01120595
83	0xbbc15cd9	-0.005900961
84	0xbc55664e	-0.01302488
85	0xbc361d48	-0.01111538
86	0xbbbd6149	-0.0057794196
87	0xbc1c8ea8	-0.009555496
88	0xbbf880b8	-0.007583704
89	0xbb303b05	-0.0026890647
90	0xb8ff41ad	-0.000121715806
91	0xbad91309	-0.0016561459
92	0xbaed58ae	-0.0018108094
93	0xb90cd888	-0.00013432105
94	0xbae5d346	-0.0017534278
95	0xbafc95d9	-0.0019270732
96	0x3a6d1313	0.0009043675
97	0xb9e86fcc	-0.00044333783
98	0xba03677d	-0.00050126744
99	0x3bb17f51	0.0054167886
100	0x3c02103d	0.007938442
101	0x3c1c7406	0.0095491465
102	0x3ad1ab14	0.001599642
103	0x3b929448	0.004473243
104	0x3be34363	0.0069355234
105	0xbafe9add	-0.0019424815
106	0x3a293da0	0.0006456021
107	0x3b647b08	0.0034863371
108	0xbba40a58	-0.005006116
109	0xbbbe3490	-0.005804606
110	0xbbde4d68	-0.00678413
111	0xbb54555a	-0.0032399506
112	0xbb85b878	-0.0040808283
113	0xbbaa8689	-0.005204026
114	0xbadff687	-0.0017087021
115	0xbb1da69c	-0.0024055606
116	0xbb5e43ca	-0.0033914917
117	0xbc109306	-0.008824116
118	0xbc0e9fc3	-0.008705082
119	0xbc0e27bd	-0.0086764665
120	0xbbdbb56a	-0.006704976
121	0xbbb34180	-0.0054704547
122	0xbb9eee1c	-0.004850162
123	0xbb8aad60	-0.0042320937
124	0xbb0be6c3	-0.0021347261
125	0xba8ea228	-0.0010882067
126	0xb8f93275	-0.000118826436
127	0x3743584d	1.1643465e-05
128	0xb83f739c	-4.564562e-05
129	0x399c36c2	0.00029795436
130	0x399cb912	0.00029892527
131	0x38aa723a	8.127508e-05
132	0x39978484	0.00028899696
133	0x399fad6f	0.0003045606
134	0x38f202c5	0.00011539975
135	0x3b919458	0.004442733
136	0x3b9b38e5	0.004737007
137	0x3b821bb9	0.00397059
138	0x3b82b561	0.003988907
139	0x3b933fe0	0.0044936985
140	0x3b85ca17	0.004082929
141	0x3b51e856	0.0032029352
142	0x3b83413b	0.004005579
143	0x3b852dae	0.0040642833

exp_avg_sq f4 [4, 4, 3, 3]
0	0x373b92c9	1.1180245e-05
1	0x372ca0dd	1.0289453e-05
2	0x36f23a58	7.218954e-06
3	0x37db6477	2.6153617e-05
4	0x37dd8339	2.6406358e-05
5	0x37acbb05	2.0591086e-05
6	0x38356c1b	4.3254444e-05
7	0x38408113	4.5896577e-05
8	0x381e644c	3.7763544e-05
9	0x378df1a7	1.6921038e-05
10	0x377cf6db	1.5077846e-05
11	0x373d99a5	1.1301051e-05
12	0x379a1cd1	1.837165e-05
13	0x379adfe5	1.846249e-05
14	0x37868df0	1.604014e-05
15	0x37905305	1.7204797e-05
16	0x37afb323	2.0945043e-05
17	0x37b9b5ab	2.2138314e-05
18	0x35898316	1.0245446e-06
19	0x35aadb52	1.2729818e-06
20	0x35c8fb14	1.4974235e-06
21	0x35a61522	1.2374114e-06
22	0x35f3accc	1.8155201e-06
23	0x36079dc0	2.020839e-06
24	0x3655dc22	3.1867608e-06
25	0x3691b271	4.34211e-06
26	0x3694bed6	4.43296e-06
27	0x36d250d1	6.267896e-06
28	0x36b83687	5.489975e-06
29	0x36b6436d	5.431872e-06
30	0x36a75ecb	4.988023e-06
31	0x36ad763c	5.169566e-06
32	0x36e34e33	6.7742308e-06
33	0x36bd2bcf	5.637739e-06
34	0x371804cf	9.061026e-06
35	0x375b1843	1.3059066e-05
36	0x370e7781	8.491684e-06
37	0x36c607aa	5.901752e-06
38	0x365a195e	3.2499297e-06
39	0x36e528db	6.829488e-06
40	0x368973db	4.0964055e-06
41	0x35fd598e	1.8876033e-06
42	0x36d3fa06	6.3173966e-06
43	0x36684b82	3.4614645e-06
44	0x35bdd7d8	1.4144416e-06
45	0x37164ab4	8.95809e-06
46	0x36f27f8e	7.2270113e-06
47	0x3656785c	3.1958543e-06
48	0x36c51e29	5.8745686e-06
49	0x369fb698	4.759826e-06
50	0x365632f3	3.1918141e-06
51	0x36664852	3.4314767e-06
52	0x3663ee34	3.3964288e-06
53	0x368ec4ef	4.254856e-06
54	0x377bbdc3	1.5004948e-05
55	0x37961d08	1.7894912e-05
56	0x3793fde7	1.7641998e-05
57	0x371558d9	8.9017785e-06
58	0x3732d8f1	1.0660137e-05
59	0x37328708	1.0641066e-05
60	0x3630f76f	2.637007e-06
61	0x36569671	3.1976053e-06
62	0x3659e647	3.2469559e-06
63	0x385ff38b	5.339416e-05
64	0x3897d675	7.240187e-05
65	0x38a324f3	7.779328e-05
66	0x3834e515	4.3128694e-05
67	0x38865254	6.404953e-05
68	0x389955a9	7.311564e-05
69	0x37ec7e36	2.8192164e-05
70	0x383f553b	4.5617326e-05
71	0x3866dd71	5.5042507e-05
72	0x3664fea8	3.4122877e-06
73	0x3616da0d	2.2478664e-06
74	0x35eb085e	1.75113e-06
75	0x36118a4d	2.1687185e-06
76	0x35a0c79a	1.1979021e-06
77	0x35a5536e	1.2317739e-06
78	0x360a1a1c	2.05788e-06
79	0x3632931f	2.6609703e-06
80	0x36827919	3.8883995e-06
81	0x391816b7	0.00014504312
82	0x38f66896	0.00011749675
83	0x386c94d5	5.6405395e-05
84	0x39179de7	0.00014459305
85	0x38f59d2d	0.00011711787
86	0x386e0536	5.6748475e-05
87	0x38cf2cc0	9.8788645e-05
88	0x38a009f9	7.631252e-05
89	0x380d0de8	3.362997e-05
90	0x37017d14	7.718121e-06
91	0x377d8971	1.5111976e-05
92	0x379b8110	1.853754e-05
93	0x372680ba	9.9243425e-06
94	0x379a9fbd	1.8432615e-05
95	0x37b8b231	2.2017486e-05
96	0x3716c39d	8.9862415e-06
97	0x3781551b	1.5417629e-05
98	0x3793c358	1.761473e-05
99	0x384b6af7	4.849859e-05
100	0x38a3229a	7.778891e-05
101	0x38c2ad16	9.282881e-05
102	0x3764888e	1.3621653e-05
103	0x380857ab	3.2506574e-05
104	0x38558a55	5.091199e-05
105	0x36078ff3	2.0200357e-06
106	0x36606e17	3.3442682e-06
107	0x37404c29	1.1461824e-05
108	0x37912439	1.7302214e-05
109	0x376d7cf7	1.41553965e-05
110	0x37462852	1.18111075e-05
111	0x37bcd3a7	2.2509905e-05
112	0x378d2d38	1.6829566e-05
113	0x373dea58	1.131984e-05
114	0x37cfba78	2.4763154e-05
115	0x37981f5c	1.8134415e-05
116	0x3736d35b	1.0897255e-05
117	0x37c6a6b4	2.3681067e-05
118	0x37c10492	2.3009521e-05
119	0x37bf121d	2.2777409e-05
120	0x37853ec0	1.5884056e-05
121	0x37732112	1.44916285e-05
122	0x377abcae	1.4945092e-05
123	0x374a227c	1.2048167e-05
124	0x37811ccb	1.5391406e-05
125	0x37a46196	1.9595765e-05
126	0x36013db4	1.9258414e-06
127	0x35fa31aa	1.8640906e-06
128	0x35e57e1e	1.7098534e-06
129	0x362bd70f	2.5606166e-06
130	0x360bfb2a	2.085881e-06
131	0x35d0d6fc	1.5559776e-06
132	0x363d144c	2.817501e-06
133	0x360d738f	2.1077901e-06
134	0x35bd4c0a	1.4103728e-06
135	0x380ab83d	3.307335e-05
136	0x37e9ebdc	2.7885595e-05
137	0x37912271	1.7301385e-05
138	0x37fb79a6	2.9978179e-05
139	0x37d488b5	2.5336029e-05
140	0x378a22dc	1.6467115e-05
141	0x37c82c83	2.3862585e-05
142	0x37ae9937	2.0813763e-05
143	0x377a1496	1.4905954e-05

exp_avg f4 [4]
0	0xbb9900ce	-0.0046692854
1	0x3ca2f32d	0.019891346
2	0x3cf934b2	0.030420635
3	0xbc0c4de3	-0.0085634915

exp_avg_sq f4 [4]
0	0x3934e176	0.00017250128
1	0x39267958	0.00015876198
2	0x39a1e397	0.0003087788
3	0x398498e0	0.00025290903
