ldm_checkpoints/ldm_epoch_80.pth (torch, 798986 bytes, 12 tensors)

model.0.weight f4 [512, 64]
0	0x3cff50c0	0.031166434
1	0x3bb47859	0.0055075106
2	0x3d400eec	0.04688923
3	0x3da3e1c8	0.08002049
4	0x3de4e1f3	0.11175909
5	0xbddea420	-0.10871148
6	0xbcdac36e	-0.026704516
7	0xbc028470	-0.007966146
8	0xbd94d912	-0.072679654
9	0x3cc6f7c7	0.024288071
10	0x3bdc7580	0.0067278743
11	0xbd7c9daf	-0.061673816
12	0x3dfb28df	0.12263655
13	0xbcc094c3	-0.023508435
14	0x3df4679e	0.11933826
15	0x3c6a3e0a	0.014297018
16	0x3c44839b	0.011994268
17	0xbda4376c	-0.080183834
18	0xbc8e6b43	-0.01738513
19	0xbdda4afd	-0.10658834
20	0xbd2f8f2b	-0.042861145
21	0xbdb519d1	-0.08842815
22	0xbd20129d	-0.03908025
23	0x3d3ebd7c	0.046567425
24	0xbdc4ae1d	-0.09603522
25	0x3d8a9bf7	0.06768029
26	0x3d9d8b8d	0.07692633
27	0x3de22bb3	0.11043491
28	0xbd9c4aa3	-0.07631423
29	0xbd74c41f	-0.05975735
30	0x3dd02e15	0.101650394
31	0xbc25b806	-0.010114675
32	0xbd5e3670	-0.054251134
33	0x3d897f25	0.06713704
34	0x3c803e50	0.015654713
35	0x3de187df	0.110122435
36	0x3db467bf	0.088088505
37	0x3c781bef	0.015143379
38	0x3d13ca60	0.03608167
39	0x3db0fb3a	0.08641668
40	0x3daae7ed	0.083450176
41	0xbdc370f0	-0.095430255
42	0x3cb54631	0.022128196
43	0xbe032cf1	-0.12810113
44	0xbdd2bb0d	-0.10289583
45	0x3d66b581	0.05632544
46	0xbdddce8e	-0.10830413
47	0x3d8f6aa5	0.07002763
48	0xbdcbbb7a	-0.09947868
49	0xbdb054ea	-0.08609946
50	0x3d5f8255	0.054567654
51	0xbd8776f5	-0.06614486
52	0x3e041247	0.12897597
53	0x3d5cbc13	0.0538903
54	0xbde9eb2b	-0.11421808
55	0xbc6a49bf	-0.014299809
56	0x3dd8c6cb	0.10584792
57	0x3b01cb5c	0.001980505
58	0x3cac8042	0.021057252
59	0x3c984341	0.018586757
60	0xbd559b36	-0.052149974
61	0xbdd9128a	-0.10599239
62	0xba68849c	-0.0008869858
63	0xbd9785a7	-0.07398539
64	0xbc7414f8	-0.014897577
65	0xbd81346d	-0.063088275
66	0xbd5431f7	-0.051805463
67	0x3dbb587c	0.091477364
68	0x3e0e610e	0.13904211
69	0xbd6ac194	-0.057313517
70	0x3da116da	0.07865687
71	0x3d79819a	0.060914613
72	0x3d644f8f	0.055739935
73	0x3d26b29a	0.04069767
74	0xbd5cc9dc	-0.053903446
75	0x3e05133f	0.12995623
76	0x3db06c7d	0.086144425
77	0x3c61d3db	0.01378342
78	0x3d8d7ac6	0.06908183
79	0xbd323e21	-0.043516282
80	0x3b6aa0f6	0.0035801507
81	0x3daeb766	0.08531074
82	0x3cfc17ab	0.030773005
83	0x3e257dbb	0.16161244
84	0x3d77be19	0.060484026
85	0x3d6f78d6	0.058464848
86	0x3e3016d6	0.17196211
87	0xbd9df760	-0.07713199
88	0x3e0ac163	0.13550334
89	0xbe13c866	-0.14431915
90	0x3cc8d219	0.024514245
91	0xbd703b3f	-0.05865025
92	0xbdbac316	-0.09119241
93	0x3dd9a6ef	0.10627543
94	0xbbcabb0f	-0.00618685
95	0x3d494986	0.049142383
96	0xbd9e89bf	-0.07741117
97	0x3df08fad	0.11746154
98	0xbde7c576	-0.113169596
99	0xbd3feada	-0.04685483
100	0xbd63a955	-0.05558141
101	0xbdb54512	-0.08851065
102	0x3d2befb3	0.041976642
103	0xbd3b5d8e	-0.045743518
104	0xbcdda184	-0.027054556
105	0x3c8128a2	0.015766446
106	0xbd12d797	-0.035850134
107	0xbcd4b6da	-0.025966097
108	0xbe2be75d	-0.16787477
109	0xbdf97c23	-0.1218188
110	0x3abcd57b	0.0014406884
111	0xbe249568	-0.16072619
112	0xbd853d70	-0.06505859
113	0xbd8199b0	-0.06328142
114	0x3d636096	0.055512033
115	0x3be6fa81	0.0070489054
116	0x3d58b58d	0.052907515
117	0xbcc2218c	-0.023697637
118	0xbd91c8cb	-0.07118376
119	0x3d3c9cb1	0.04604787
120	0x3e1a709a	0.15082017
121	0xbdb16575	-0.086619295
122	0x3d3100f1	0.04321379
123	0xbd8797ed	-0.066207744
124	0xbc517f69	-0.012786725
125	0x3c7a283f	0.0152683845
126	0x3d8f1b16	0.06987588
127	0x3ca46a01	0.020070078
128	0xbdc6480d	-0.09681711
129	0xbd6ac2c7	-0.05731466
130	0xbd49b8e9	-0.04924861
131	0xbe06a175	-0.13147528
132	0xbc0d1b24	-0.008612428
133	0xbdfd5237	-0.12369197
134	0xbd320d82	-0.043469913
135	0xbe22e0b9	-0.15906037
136	0x3d01b148	0.03166321
137	0x3d2fa7f7	0.042884793
138	0xbe16e049	-0.14733995
139	0x3e06b359	0.13154353
140	0x3de5536d	0.11197553
141	0x3bde5b0f	0.0067857574
142	0x3db800bb	0.08984514
143	0x3d4bbafc	0.04973887
144	0x3e0ec9ab	0.13944118
145	0x3ab0b197	0.001348066
146	0xbd90c7f6	-0.070693895
147	0x3d355b08	0.044276267
148	0xbdf767db	-0.12080356
149	0xbdecf98b	-0.11571034
150	0xbd4fe056	-0.050751053
151	0x3c62a921	0.013834269
152	0x3dc00797	0.09376448
153	0x3dfcd07e	0.12344454
154	0x3d2a5602	0.04158593
155	0x3cb7d801	0.022441866
156	0x3df1f652	0.1181456
157	0x3d1f96d4	0.0389622
158	0x3db30355	0.0874087
159	0xbbcc865c	-0.006241603
160	0xbd082185	-0.03323509
161	0x3ce37015	0.027763406
162	0x3d9a1575	0.07523624
163	0x3dac690f	0.08418476
164	0x3d8fd816	0.07023637
165	0x3cde5edd	0.027144844
166	0x3dcd496e	0.10023771
167	0xbcf308a8	-0.029667214
168	0x3ddc3ec1	0.10754157
169	0xbdcbaf1d	-0.099455096
170	0xbd8943da	-0.06702395
171	0xbc99bd5a	-0.018767048
172	0x3d4f4fde	0.050613277
173	0x3e08e718	0.13369405
174	0xbd0948e8	-0.033516794
175	0xbd420e77	-0.047377076
176	0x3d8c09c3	0.068377994
177	0xbd805a22	-0.062671915
178	0x3ce6bcfd	0.028166289
179	0xbc60bf20	-0.013717443
180	0xbd6652c0	-0.05623126
181	0xbdc9d8af	-0.09855782
182	0x3d92d900	0.07170296
183	0x3c80bc9b	0.015714934
184	0x3da5866e	0.08082281
185	0x3dfb0c33	0.12258186
186	0xbd750fec	-0.059829637
187	0x3e019ef3	0.1265829
188	0xbca69967	-0.02033682
189	0xbca256de	-0.019816812
190	0x3c0210c9	0.007938572
191	0xbca56522	-0.020189825
192	0x3c3baca9	0.01145474
193	0x3d913959	0.07091016
194	0xbdbe80d9	-0.093019195
195	0x3d4cdb11	0.050013606
196	0xbdc23672	-0.09483041
197	0xbd65b3d2	-0.056079693
198	0xbd25406e	-0.040344648
199	0xbdc44f49	-0.09585435
200	0xbd0c4ea0	-0.03425467
201	0xbe0810b7	-0.13287626
202	0x3d838291	0.06421388
203	0xbba8ce70	-0.0051515624
204	0x3d09f591	0.033681456
205	0xbdb67eb0	-0.089108825
206	0x3d4ad27a	0.049517132
207	0x3d04f45f	0.032459613
208	0x3cfb17b2	0.030650947
209	0xbde36a50	-0.11104262
210	0x3dbc2872	0.09187402
211	0xbe189257	-0.14899574
212	0xbda452e1	-0.080236204
213	0x3d5117de	0.051048152
214	0x3ddc7595	0.107646145
215	0xbd68190b	-0.056664508
216	0xbd3f26c1	-0.046667818
217	0xbda0bdf3	-0.0784873
218	0x3d360224	0.044435635
219	0x3ca80c86	0.020513784
220	0x3d4a3e36	0.049375735
221	0xbd91eea8	-0.07125598
222	0x3d078f1f	0.033095475
223	0xbd1a628d	-0.03769164
224	0x3dccfe42	0.10009433
225	0x3cb8f164	0.022576042
226	0x3e19c16e	0.15015194
227	0x3d5e8151	0.054322544
228	0x3dc67d12	0.09691824
229	0xbd944c85	-0.072411574
230	0xbddcb81e	-0.10777305
231	0xbcd8ac3a	-0.026449312
232	0x3d84714c	0.06466922
233	0xbd9bb2da	-0.076024726
234	0x3d91cf31	0.07119597
235	0xbc768b71	-0.015047894
236	0x3d3c340a	0.045948066
237	0xbdacba22	-0.084339395
238	0x3da317d5	0.0796353
239	0x3d8ce610	0.068798184
240	0x3d9d4822	0.07679774
241	0xbd310475	-0.04321714
242	0x3db213e1	0.08695198
243	0xbda0f28e	-0.07858764
244	0xbb84d7b5	-0.0040540346
245	0xbc0a6beb	-0.008448581
246	0x3d8fd891	0.07023729
247	0xbbf500e7	-0.007476914
248	0x3d99d4c9	0.07511289
249	0xbd15d7a3	-0.0365826
250	0xbde50344	-0.111822635
251	0x3d1743a8	0.036929756
252	0xbc7e2187	-0.015510923
253	0xbc744626	-0.014909303
254	0x3dbabe84	0.09118369
255	0xbd14c528	-0.036320835

model.0.bias f4 [512]
0	0xbe0c3345	-0.13691433
1	0x3d9f9fdb	0.07794162
2	0xbc021f62	-0.007942053
3	0x3c4a5bc0	0.0123509765
4	0xbe1e49c5	-0.15457828
5	0xbdec27d8	-0.11531037
6	0x3a96b6f6	0.0011498618
7	0xbd8ca8a4	-0.06868103
8	0xbe10a4fe	-0.1412544
9	0x3c780944	0.015138928
10	0x3c37ae03	0.011210921
11	0xbd68eb5a	-0.056865074
12	0x3ddb601f	0.10711693
13	0x3d98e42f	0.074653976
14	0xbd96af52	-0.073576584
15	0xbdcc2dd0	-0.099696755
16	0xbe313f78	-0.17309368
17	0xbdcedead	-0.10101066
18	0xbe1230f2	-0.14276484
19	0xbd1f6fa3	-0.038924824
20	0xbd9cfa09	-0.07664878
21	0x3d22c58c	0.039739177
22	0x3d8d5f21	0.0690291
23	0xbde323e6	-0.110908315
24	0xbe1d765b	-0.1537718
25	0x3c4d7cc8	0.012541957
26	0xbd99a785	-0.07502655
27	0xbd2de52a	-0.042454876
28	0xbe06f8d2	-0.13180855
29	0xbe03013a	-0.12793437
30	0xbd5cc87a	-0.053902127
31	0x3c8a7a95	0.016904155
32	0xbe3bfd00	-0.1835823
33	0xbde61e5a	-0.11236258
34	0xbd6353d3	-0.055499863
35	0x3d2d7f23	0.042357575
36	0xbd27e2cd	-0.04098778
37	0xbcab8426	-0.020937037
38	0xbcd832a1	-0.02639133
39	0xbe0f93f1	-0.14021279
40	0xbe22522b	-0.15851657
41	0xbc9f973f	-0.0194813
42	0x3d842c91	0.06453813
43	0xbd176128	-0.03695789
44	0x3c94c02a	0.018158037
45	0xbdb57adc	-0.08861324
46	0xbdd4f78a	-0.10398777
47	0xbc2275af	-0.009915753
48	0xbd4a9bd9	-0.049465034
49	0xbd21e4af	-0.03952473
50	0xbd473adf	-0.04864013
51	0xbd8c8b13	-0.06862464
52	0xbd34cc2c	-0.044140026
53	0xbe511a69	-0.20420231
54	0x3d7e0d7f	0.06202459
55	0xbcad8ddc	-0.021185808
56	0x3a964c3e	0.0011466814
57	0xbdeed2fb	-0.11661335
58	0xbd137c97	-0.03600749
59	0xbda45893	-0.08024707
60	0x3d4ac0ee	0.0495004
61	0xbe188eb8	-0.14898193
62	0x3c3883cf	0.011261894
63	0xbd19fdb5	-0.03759547
64	0x3d5de42c	0.05417268
65	0xbdd0db0a	-0.101980284
66	0xbdbf453c	-0.09339377
67	0xbd3c370f	-0.045950945
68	0x3d437986	0.047723316
69	0xbdae3207	-0.08505636
70	0xbd34921d	-0.044084657
71	0x3d5647be	0.052314512
72	0xbcb35bb6	-0.021894317
73	0x3d89f9d8	0.06737107
74	0xbddbddae	-0.107356414
75	0xbdef964f	-0.11698591
76	0x3cecb117	0.028893037
77	0xbdd91ead	-0.10601554
78	0xbe4212d8	-0.18952501
79	0xbe120702	-0.14260486
80	0xbe185a29	-0.14878143
81	0xbbf01e3b	-0.0073278225
82	0x3d0052ae	0.03132885
83	0xbdd18243	-0.102299236
84	0xbd20a1d5	-0.039216835
85	0xbdaed33c	-0.085363835
86	0x3c26caf8	0.010180227
87	0x3cacbc67	0.021085931
88	0xbc881295	-0.016610423
89	0xbd301101	-0.042984966
90	0xbdef7576	-0.11692326
91	0xbdbbf9f6	-0.09178536
92	0xbe15d345	-0.14631374
93	0xbe09e557	-0.13466392
94	0xbe0bd629	-0.13655914
95	0xbd92a287	-0.07159906
96	0xbdb6930c	-0.08914766
97	0xbda0ca9d	-0.078511454
98	0xbc8de596	-0.01732139
99	0xbb99c851	-0.004693069
100	0xbe1b5410	-0.15168786
101	0xbe024cd0	-0.12724614
102	0xbd14653f	-0.03622937
103	0xbd661dd1	-0.05618078
104	0xbd06fc56	-0.03295549
105	0xbd1680b5	-0.03674384
106	0xbd9089c8	-0.0705753
107	0x3d2a3f81	0.04156447
108	0xbd99d96b	-0.07512172
109	0x3bc6c17e	0.0060655465
110	0xbdaf1cad	-0.08550391
111	0x3b56eac4	0.003279374
112	0x3d3a084a	0.04541806
113	0xbdd472f5	-0.10373489
114	0xbdc17556	-0.09446208
115	0xbd5e0fdf	-0.054214355
116	0xbe350af3	-0.17679958
117	0xbddb60d1	-0.10711826
118	0xbdb9a1cd	-0.09064064
119	0xbde2f198	-0.110812366
120	0xbe3aec86	-0.18254289
121	0xbe012913	-0.12613325
122	0xbda077a5	-0.078353204
123	0x3d4e3d10	0.050351202
124	0xbc2ec51c	-0.010667112
125	0x3d9a1762	0.07523991
126	0xbc45770d	-0.01205231
127	0xbdf7635f	-0.120795004
128	0xbdc7c89d	-0.09755061
129	0x3d07df3d	0.03317188
130	0xbcd45dc6	-0.02592362
131	0xbdbad9df	-0.09123587
132	0xbd2bd64b	-0.041952413
133	0xbe26d98d	-0.16293927
134	0xbcdb3688	-0.026759401
135	0xbd1b6bcb	-0.037944596
136	0xbcc27f99	-0.023742484
137	0x3cbde3d4	0.023179926
138	0xbdaf3551	-0.08555091
139	0x3d03412a	0.032044567
140	0xbdae20ce	-0.08502351
141	0xbc8a589b	-0.016887954
142	0xbe0fae0b	-0.14031236
143	0xbdd32980	-0.1031065
144	0xbe08d185	-0.13361175
145	0xbbac2e3d	-0.0052545355
146	0xbe0cc0e3	-0.13745455
147	0x3bf43562	0.007452653
148	0x38717421	5.756703e-05
149	0xbdcfb559	-0.10142011
150	0x3d719b21	0.058985833
151	0xbe0d4093	-0.13794164
152	0x3ba9d243	0.005182536
153	0xbc85782d	-0.016292656
154	0xbda5571e	-0.08073257
155	0xbdc4b69b	-0.09605142
156	0xbe1ca5cb	-0.1529762
157	0xbd2b561b	-0.041830163
158	0xbcc6149b	-0.024179747
159	0xbe34ceaf	-0.17656969
160	0xbd78f94e	-0.06078463
161	0xbdeb9eb8	-0.115048826
162	0xbde9d678	-0.1141786
163	0xbe044b9c	-0.12919468
164	0x3d918535	0.07105485
165	0xbe2da629	-0.16957916
166	0xbd4f7a68	-0.050653845
167	0xbd2cf04e	-0.04222136
168	0xbca5896c	-0.02020713
169	0x3d02cca9	0.03193346
170	0xbe388ad5	-0.1802171
171	0x3c920fe1	0.017829837
172	0xbde2df6f	-0.11077773
173	0xbcbc51ae	-0.022988167
174	0xbd6da16d	-0.058015276
175	0xbe000c91	-0.12504794
176	0x3d384f69	0.044997606
177	0x3c2a46bb	0.01039284
178	0x3d4a28e3	0.0493554
179	0xbcf6de05	-0.030135164
180	0xbc6ac948	-0.014330216
181	0x3d93a0f0	0.07208431
182	0xbdb79901	-0.0896473
183	0xbdb2fdbc	-0.08739802
184	0xbdb0e0cd	-0.08636627
185	0xbbb811ca	-0.005617355
186	0xbcd9c80a	-0.026584644
187	0xbc64b0dd	-0.013958183
188	0xbdcd1fba	-0.10015817
189	0xbdd0fb80	-0.1020422
190	0x3d406428	0.046970516
191	0x3da1d932	0.07902755
192	0xbdf68f77	-0.120390825
193	0xbab3da05	-0.0013721591
194	0xbdc4211a	-0.09576626
195	0xbd9b4533	-0.07581558
196	0xbceec1b9	-0.029145109
197	0xbc21fc4d	-0.009886813
198	0x3c0957df	0.0083827665
199	0x3cf19005	0.02948762
200	0x3cfb1fc3	0.030654794
201	0x3dedea92	0.11617006
202	0xbd63aef9	-0.05558679
203	0xbd8cc6e7	-0.06873875
204	0xbe022797	-0.12710415
205	0x3cc737b7	0.02431856
206	0xbe2a1408	-0.16609204
207	0xbd33c469	-0.043888483
208	0xbe1bb4f0	-0.15205741
209	0xbd5a0673	-0.053228807
210	0xbd35f1ce	-0.044420056
211	0x3c3675bf	0.011136471
212	0xbd3a9519	-0.045552347
213	0x3ca47a9a	0.020077992
214	0xbc83705b	-0.016044786
215	0x3d29dd53	0.041470837
216	0x3cca0984	0.02466274
217	0xbcc1841b	-0.023622563
218	0xbd8d7b4c	-0.06908283
219	0xbdb5ff11	-0.08886541
220	0xbd6dace7	-0.05802622
221	0xbe31e838	-0.1737374
222	0xbdf4a071	-0.11944664
223	0x3d11520e	0.035478644
224	0xbe2978fe	-0.16550061
225	0xbdcd2603	-0.10017016
226	0xbcee5c40	-0.029096723
227	0xbe178aa6	-0.14798984
228	0xbd1d27ea	-0.038368143
229	0xbdc68fc8	-0.09695393
230	0xbdaf35f8	-0.085552156
231	0x3d973d0f	0.07384693
232	0xbe515c1c	-0.20445293
233	0xbe3f997c	-0.18710893
234	0xbd7efe1d	-0.06225406
235	0xbd0a4eca	-0.033766545
236	0xbe0ac3b6	-0.1355122
237	0xbdb3e872	-0.0878457
238	0xbd473d4d	-0.048642445
239	0xbdc2273e	-0.09480141
240	0xbc3bce9c	-0.011462834
241	0xbd7047dc	-0.05866228
242	0xbda0f188	-0.078585684
243	0x3af105ba	0.0018388547
244	0xbd7500cc	-0.059815213
245	0x3d85b3b7	0.065284185
246	0xbe236bbc	-0.15959066
247	0xbdeb603c	-0.114929646
248	0x3c2aa866	0.010416126
249	0xbe0ed2c4	-0.13947588
250	0x3d102311	0.035189692
251	0x3ccbd772	0.024883006
252	0xbdd706fd	-0.1049938
253	0xbd1aa245	-0.03775241
254	0x3ca14966	0.01968832
255	0x3d487c0b	0.04894642

model.2.weight f4 [64, 512]
0	0xbcfb493e	-0.030674573
1	0xbd031ffa	-0.032012917
2	0xbd063c74	-0.032772496
3	0x3b25c94d	0.0025296987
4	0x3d225915	0.039635736
5	0xbd7224e0	-0.059117198
6	0x3c40ae47	0.011760301
7	0xbccfedd4	-0.02538196
8	0x3d41d4f2	0.04732222
9	0xbda1d0eb	-0.07901176
10	0x3d321b66	0.04348316
11	0x3c6ba4eb	0.014382581
12	0xbd07ef8f	-0.033187445
13	0x3d0a8750	0.03382045
14	0xbc266b50	-0.010157421
15	0xbdcbfb8a	-0.09960087
16	0x3ba78072	0.0051117474
17	0xbb115a61	-0.0022179114
18	0xbca48b9f	-0.020086108
19	0xbd5bcc45	-0.053661603
20	0x3ba3588e	0.004984922
21	0xbd85cb7c	-0.06532952
22	0x3d4a7927	0.049431946
23	0x3cd630d9	0.02614634
24	0x3cde7254	0.027154125
25	0xbc37ba81	-0.0112139
26	0x3d0c5a49	0.03426579
27	0xbc80f49f	-0.015741644
28	0x3b97a5d3	0.004627922
29	0x3d352f61	0.044234637
30	0x3cf4f4db	0.029901912
31	0x3c4e5bdc	0.012595143
32	0xbd010fd0	-0.03150922
33	0x39dadd25	0.00041744966
34	0xbd99a2ea	-0.075017765
35	0x3bfa348c	0.0076356586
36	0x3bbe4cc9	0.0058074933
37	0x3d085fc4	0.033294454
38	0x3c362114	0.011116285
39	0xbd2b3813	-0.041801523
40	0x3cae06d4	0.02124349
41	0xbc0dffd4	-0.008666951
42	0x3d60a909	0.054848704
43	0x3d3062ff	0.04306316
44	0xbc1a97aa	-0.009435574
45	0xbcc0ecc4	-0.023550399
46	0xbdc09240	-0.09402895
47	0x3d91ca26	0.07118635
48	0xbba365e3	-0.004986511
49	0xbb190131	-0.0023346657
50	0xbc88c788	-0.016696706
51	0x3d84fbb3	0.0649332
52	0x3df91bbe	0.121634945
53	0x3c595702	0.013265373
54	0x3ca2fdb1	0.01989636
55	0x3d41de7d	0.047331322
56	0x3d4562bd	0.048189867
57	0x3ba015df	0.0048854197
58	0xbd107ae4	-0.035273448
59	0x3b772c23	0.0037715517
60	0xbdb05d76	-0.08611576
61	0x3dc3beaa	0.09557851
62	0xbcd128d5	-0.025532166
63	0x3d7e8960	0.06214273
64	0x3bb2b3c4	0.0054535586
65	0xbd981bba	-0.074271634
66	0xbc0de910	-0.008661523
67	0x3c484c63	0.012225243
68	0xbd22e6fe	-0.039771073
69	0x3d534dbe	0.051587813
70	0xbda43441	-0.08017779
71	0x3d39327d	0.045214165
72	0x3c2fa042	0.010719361
73	0xbd87b7db	-0.066268645
74	0xbd178198	-0.036988825
75	0xbd5374fd	-0.05162524
76	0x3d2c6a26	0.04209342
77	0x3d14f62e	0.036367588
78	0x3d5065c1	0.05087829
79	0xbc94ba9c	-0.018155389
80	0xbc8c8eae	-0.017157879
81	0xbb0fb6d5	-0.0021929045
82	0x3ca9542d	0.020670021
83	0x3d17a2be	0.037020437
84	0xbd7e5d52	-0.062100716
85	0x3cbc2aac	0.022969566
86	0x3c8758c4	0.016521819
87	0xbccfb7db	-0.025356224
88	0xbcd3c271	-0.025849553
89	0x3cd1c441	0.025606276
90	0x3cdbb185	0.026818046
91	0x3cbc8da9	0.023016768
92	0xbd66e0b8	-0.056366652
93	0xb98641de	-0.00025607547
94	0xbb987007	-0.0046520266
95	0x3ce5ed86	0.028067362
96	0x3c9935ed	0.018702472
97	0xbc931f84	-0.017959364
98	0xbd0e85c3	-0.034795534
99	0xbbdd00d9	-0.006744486
100	0xbd0665d2	-0.032811947
101	0xbccc7331	-0.024957271
102	0x3d10fb9d	0.035396207
103	0x3dae1a95	0.08501164
104	0x3b48412c	0.0030556424
105	0x3d55afa6	0.052169465
106	0xbca64d60	-0.020300567
107	0x3c55da7d	0.01305258
108	0x3cf390d2	0.029732142
109	0xbc064535	-0.008195211
110	0x3d62b76e	0.055350713
111	0xb9cdc19e	-0.00039244903
112	0xbd297a2d	-0.04137628
113	0xbc0aa153	-0.008461314
114	0x3d83340e	0.06406413
115	0x3d4fcf68	0.050734907
116	0x3cb54f59	0.022132562
117	0x3c87a63a	0.016558755
118	0x3c52fd43	0.012877765
119	0x3c08878c	0.008333098
120	0x3b83f981	0.004027546
121	0x3d2b02ba	0.041750647
122	0x3db8183d	0.08988998
123	0x3d5db3f9	0.054126713
124	0x3ce58c66	0.028021049
125	0x3da1a718	0.07893199
126	0x3d4d8370	0.050174177
127	0xbcdcfc2e	-0.026975717
128	0x3c2055aa	0.009786049
129	0x3bc8f55e	0.0061327657
130	0x3c3a7f93	0.011382955
131	0x3c3b307e	0.011425136
132	0xbd28a365	-0.04117145
133	0x3c82e44f	0.015978007
134	0x3c50cd91	0.012744323
135	0xbd4b2390	-0.049594462
136	0xbda758fc	-0.08171269
137	0xbb6b99e8	-0.003594989
138	0x3cc74e22	0.024329249
139	0x3d4b7c28	0.04967895
140	0xba4754d3	-0.00076038874
141	0xbd032c99	-0.032024954
142	0x3d02b361	0.03190935
143	0xbc92ed6e	-0.01793548
144	0xbd65514d	-0.055985738
145	0x3d90d0c5	0.0707107
146	0x3d14b5d1	0.036306206
147	0xbc149073	-0.0090676425
148	0x3d6b7a5b	0.057489734
149	0x3ccb3b56	0.024808567
150	0x3d690ccf	0.05689698
151	0x3c958c68	0.018255427
152	0xbd2cdef5	-0.042204816
153	0xbd0dfa50	-0.034662545
154	0xbda0ab72	-0.078452006
155	0x3d335bfd	0.0437889
156	0xbd4290d3	-0.047501396
157	0x3b7bf79e	0.0038447152
158	0xbc9ebce9	-0.019377189
159	0x3d7d2c5e	0.06180989
160	0xbcb1dd22	-0.02171189
161	0x3c955d20	0.018232882
162	0x3bc7e5a0	0.0061003715
163	0xba581796	-0.00082432607
164	0xbd066cc3	-0.032818567
165	0x3de68b30	0.11257017
166	0x3cb4fc19	0.022092866
167	0x3cd4c270	0.025971621
168	0xbd612e41	-0.05497575
169	0xbcddb43c	-0.027063482
170	0xbd19a86c	-0.037514135
171	0xbcadca29	-0.021214562
172	0xbc1fe661	-0.009759516
173	0xbd409906	-0.047020935
174	0xbd843ffc	-0.064575166
175	0x3da00d8a	0.07815082
176	0x3cf67dbc	0.030089252
177	0x3c9b4f8e	0.018958833
178	0x3d86e6ba	0.06586976
179	0xbcbb9849	-0.022899764
180	0xbd5e1a79	-0.054224465
181	0xbcfdecd2	-0.030996714
182	0xbcd1e04c	-0.025619648
183	0xbc9eb086	-0.019371282
184	0xbc08ac4b	-0.008341859
185	0xbd081ffd	-0.03323363
186	0xbc0c5343	-0.008564773
187	0x3ce6035b	0.028077772
188	0xbca63b9f	-0.020292101
189	0x3d8f5d94	0.070002705
190	0x3cfff619	0.031245278
191	0x3d0f298f	0.034951743
192	0xbd9e1da5	-0.07720498
193	0x3d0303c2	0.031986006
194	0xbcb2a561	-0.021807374
195	0xbd120231	-0.03564662
196	0xbd08fa54	-0.033441857
197	0x3d0b5114	0.03401287
198	0xbcae1fdf	-0.021255432
199	0x3ca333ef	0.019922225
200	0x3d534297	0.051577177
201	0x3cdd45e5	0.027010867
202	0x3c63cb12	0.013903396
203	0x3d07aa7a	0.033121563
204	0xbd084751	-0.033271138
205	0x3ba5098e	0.0050365394
206	0xbcf102ea	-0.029420335
207	0x3c9b0fdc	0.01892846
208	0xbc83a218	-0.016068503
209	0x3cdc8e22	0.026923243
210	0x3d2adfe0	0.04171741
211	0x3be3a160	0.0069467276
212	0xbccbf53f	-0.024897216
213	0x3d62151f	0.055195924
214	0x3d00c915	0.031441767
215	0x3ce0532c	0.02738341
216	0x3d377c2c	0.044796154
217	0xbd6b168b	-0.057394546
218	0xbd736bb8	-0.0594289
219	0xbd399dea	-0.045316614
220	0xbda7d6a3	-0.081952356
221	0xbce5278a	-0.027972955
222	0xbcc3a84f	-0.023883967
223	0xba90319d	-0.0011001114
224	0x3d74e148	0.059785157
225	0x3bffaccd	0.007802582
226	0x3d7d6e5c	0.061872825
227	0x3cb8dc14	0.022565879
228	0xbb47657e	-0.0030425484
229	0x3d5d997f	0.054101463
230	0xbd4f6abe	-0.050638907
231	0xbc4f4916	-0.012651702
232	0xbd190026	-0.037353657
233	0xbc5bce7e	-0.013415931
234	0x3da25abf	0.07927465
235	0xbd5825b2	-0.052770324
236	0x3d1ebbd3	0.038753342
237	0x3be9fb0f	0.007140524
238	0xbcca84b3	-0.024721479
239	0x3d3fbcd3	0.046810936
240	0x3c6a8467	0.014313794
241	0x3d0cca22	0.034372456
242	0xbc748051	-0.014923171
243	0x3d8fe521	0.07026125
244	0x3ce272ce	0.027642634
245	0xbcad20eb	-0.02113386
246	0xbd16a5ec	-0.03677933
247	0xbd4c5523	-0.04988588
248	0xbc6fe041	-0.014640869
249	0xbcbe259f	-0.023211299
250	0xbbc450ad	-0.0059910626
251	0xbc857940	-0.016293168
252	0x3bb41c9e	0.0054965755
253	0x3ce3d399	0.027810859
254	0x3cde04b7	0.027101858
255	0xbb1fdc1d	-0.0024392672

model.2.bias f4 [64]
0	0xbb03fa43	-0.0020138181
1	0x3d3521b1	0.044221584
2	0x3c0b3afa	0.008497948
3	0xbb868e37	-0.004106309
4	0xbc916b5f	-0.017751394
5	0x3c968458	0.018373653
6	0x3c24efb0	0.010066912
7	0xbbadfc1d	-0.0053095953
8	0xbcf488a3	-0.02985031
9	0x3c6d9fe9	0.014503458
10	0xbc8dbecc	-0.017302893
11	0xbca21c43	-0.019788867
12	0xbca2c5cd	-0.01986971
13	0x3cc1d451	0.02366081
14	0x3cba80a3	0.022766417
15	0x3cceff43	0.025268203
16	0xbd0fa521	-0.03506959
17	0xbcc0b874	-0.023525454
18	0x3b922103	0.0044595017
19	0x3ca1d5ac	0.019755207
20	0xbc9b52e1	-0.018960418
21	0x3bfd153b	0.007723478
22	0xbd146b77	-0.0362353
23	0xbd392f0e	-0.04521089
24	0x3cf3b3a2	0.029748742
25	0xbccf25ec	-0.025286637
26	0xbc2e6bdc	-0.010645833
27	0xbd3a01be	-0.045411818
28	0x3c7dad0a	0.01548315
29	0xbcc93126	-0.024559569
30	0xbd15657d	-0.03647374
31	0xbaaba082	-0.00130941
32	0x3c2dd9bd	0.010610995
33	0xbc7e0f33	-0.015506553
34	0x3bdd4d76	0.006753619
35	0xbccf1cfe	-0.02528238
36	0x3c887fc5	0.016662488
37	0xbd208135	-0.03918572
38	0x3cfb98c7	0.030712498
39	0xbcf784ef	-0.030214755
40	0xbc3897aa	-0.011266628
41	0x3c8dd92b	0.017315468
42	0xbcb97a49	-0.022641318
43	0x3c83d2aa	0.016091663
44	0x3d0264e8	0.031834513
45	0x3d131c48	0.035915643
46	0x3d38bcd7	0.045101967
47	0xbaef70cd	-0.001826787
48	0x3bac27bb	0.0052537597
49	0xbb6aa919	-0.0035806356
50	0x3cbb0da4	0.022833653
51	0x3cba15b7	0.022715433
52	0xbd13cfb9	-0.03608677
53	0xbc984082	-0.018585447
54	0xbd078bd1	-0.033092324
55	0x3d2804c4	0.04102017
56	0x3cee1d38	0.029066667
57	0x3ce02fdf	0.027366577
58	0x3cb38f00	0.021918774
59	0x3d13dd9d	0.03610002
60	0xbd1512e6	-0.036394976
61	0xbcc0c818	-0.023532912
62	0x3cc8d959	0.024517702
63	0x3cdf0ad0	0.027226835

exp_avg f4 [512, 64]
0	0x38296eaa	4.0395804e-05
1	0xb9a33052	-0.00031125784
2	0xb8ca42f4	-9.6445816e-05
3	0xb935bd94	-0.00017332128
4	0xb6c1490c	-5.760352e-06
5	0x3868f01a	5.5536722e-05
6	0xb9b1c3e7	-0.0003390603
7	0x398f10f6	0.00027287722
8	0xb9b647cf	-0.00034767247
9	0xb9ee59e9	-0.00045461886
10	0xb85d8842	-5.2817406e-05
11	0x391d75d0	0.00015016575
12	0xb960c865	-0.00021436957
13	0xb8d442d1	-0.00010121393
14	0xb993ccd2	-0.00028190628
15	0xb9c3f725	-0.00037377435
16	0xb9372f17	-0.00017469782
17	0x3924b62c	0.00015708123
18	0x394124c1	0.00018419606
19	0x399d645b	0.00030020144
20	0x39fcf5c7	0.00048248304
21	0x38caeafd	9.6758806e-05
22	0x3942075e	0.00018504026
23	0xb93aa935	-0.00017801377
24	0xb9512dbd	-0.00019948832
25	0xb999a8a0	-0.0002930807
26	0x39310b27	0.0001688419
27	0x3877ff1e	5.9126985e-05
28	0xba008172	-0.00049021014
29	0x391106fc	0.0001383088
30	0x393f87f0	0.0001826582
31	0xb9cb7191	-0.0003880379
32	0xb9501082	-0.00019842575
33	0x38f4eafa	0.000116785945
34	0xb871dcbd	-5.7664456e-05
35	0x38456760	4.7064736e-05
36	0xb70a9fee	-8.2626775e-06
37	0xb8c7c951	-9.5265576e-05
38	0xb96178d2	-0.00021502681
39	0xb90eb88f	-0.00013610929
40	0xb9b2fa23	-0.00034137172
41	0x39b36e61	0.0003422378
42	0x390af674	0.00013252517
43	0x39982bca	0.00029024325
44	0x39936589	0.00028113674
45	0xb6e51b02	-6.827876e-06
46	0xb91a5c0e	-0.00014720878
47	0xb9ee2efe	-0.0004542991
48	0xb9e990fa	-0.0004454924
49	0x384cbf57	4.881559e-05
50	0x38891ba7	6.53782e-05
51	0x392a5271	0.00016243175
52	0x398b3b61	0.00026556387
53	0xba1b4967	-0.00059237186
54	0xb9af1f9b	-0.0003340215
55	0x39634d82	0.00021677281
56	0xb7f8a386	-2.964005e-05
57	0x38b9bee7	8.857046e-05
58	0xb93fa17c	-0.00018275337
59	0xb9061997	-0.00012788769
60	0x392579f8	0.00015781063
61	0x38b9d157	8.86048e-05
62	0xb9bebdc6	-0.00036381016
63	0xb93a262b	-0.00017752561
64	0x3a10ebbb	0.00055282906
65	0xb894c4a7	-7.093819e-05
66	0x395662f9	0.000204455
67	0x39b10212	0.00033761613
68	0xb91d6c22	-0.0001501297
69	0xb9567ee5	-0.00020455902
70	0x38e16e17	0.00010749342
71	0xb5de4d4c	-1.6562785e-06
72	0x3834578d	4.2996882e-05
73	0x395f7a02	0.00021312389
74	0x395356c9	0.00020154858
75	0xb9c58b79	-0.00037678683
76	0xba021f81	-0.0004963801
77	0xba118544	-0.0005551169
78	0x398d5721	0.00026958532
79	0xb9dc6018	-0.00042033265
80	0xb962d6ee	-0.00021633107
81	0xb9c5c9d3	-0.0003772514
82	0xb957e50b	-0.00020589323
83	0xb8260e4e	-3.9590806e-05
84	0xb9d40002	-0.00040435797
85	0x390625fa	0.00012793383
86	0xb9397681	-0.00017687121
87	0xb93a4dba	-0.00017767298
88	0xb83ac051	-4.4524964e-05
89	0xb99f6fd8	-0.00030410173
90	0xb989e242	-0.00026299251
91	0x38df9aec	0.00010662325
92	0x3a0cd03f	0.0005371607
93	0xb9630445	-0.00021649998
94	0x399786b2	0.0002890132
95	0x3a21b1a3	0.00061681325
96	0xb992f738	-0.00028031482
97	0x3961fabc	0.00021551078
98	0x38db63d1	0.00010461326
99	0xba06c0b9	-0.0005140412
100	0xb98887b2	-0.00026041042
101	0x399a8a35	0.0002947614
102	0xb9b4d3e3	-0.00034490143
103	0xb839844d	-4.4230652e-05
104	0x3822de63	3.8830924e-05
105	0xb9a76141	-0.00031925182
106	0xb995a4c4	-0.00028542255
107	0xb6b8e233	-5.5099604e-06
108	0x38e70fac	0.000110178575
109	0x3994673f	0.00028305684
110	0x39473d24	0.00019000896
111	0x3a024770	0.00049697515
112	0xb8c74981	-9.5027506e-05
113	0x39eaba9a	0.00044770987
114	0x398b44ea	0.0002656349
115	0xb9c7e958	-0.00038130092
116	0x3827d401	4.0013347e-05
117	0x3787e2eb	1.6198921e-05
118	0xb87737f1	-5.894149e-05
119	0xb8fc0543	-0.000120172765
120	0x3943dfbc	0.00018679997
121	0x38e27ac8	0.000107993896
122	0x39fbf2e4	0.00048055418
123	0xb9fc5b6d	-0.00048133303
124	0x378bdf24	1.6674e-05
125	0xb9954c2b	-0.00028476244
126	0x382c7789	4.111932e-05
127	0x389cb836	7.4729716e-05
128	0xb849c6d9	-4.8107326e-05
129	0xb9434b5f	-0.00018624727
130	0x38aa2bf6	8.11442e-05
131	0xb968be8a	-0.00022196225
132	0xb90230e1	-0.00012415975
133	0x3901f924	0.00012395211
134	0x3828b776	4.0225183e-05
135	0xb891e6d4	-6.957134e-05
136	0x35739043	9.073448e-07
137	0xb97d4a42	-0.00024155623
138	0xb913944a	-0.00014074254
139	0x3816d529	3.5961308e-05
140	0xb968d272	-0.00022203641
141	0xb86d60da	-5.6595403e-05
142	0xb9a0338c	-0.00030555984
143	0x37ff79eb	3.0455141e-05
144	0xb94ee81f	-0.00019732163
145	0x38823bc4	6.210015e-05
146	0xb6f69481	-7.3486594e-06
147	0x398d6e45	0.00026975773
148	0xb886d22c	-6.4287655e-05
149	0xb8717f59	-5.757748e-05
150	0x38fe0330	0.000121122575
151	0xb88adb97	-6.6212546e-05
152	0xb88fc888	-6.856123e-05
153	0xb93744d0	-0.00017477875
154	0x38d96c60	0.00010367553
155	0x38fcc293	0.00012052539
156	0xb959a4db	-0.00020756146
157	0xb8b083c0	-8.416874e-05
158	0x3757b2eb	1.2856656e-05
159	0xb8bcfa3a	-9.011147e-05
160	0xb9ad0915	-0.00033003898
161	0x3930b293	0.00016851192
162	0x39271612	0.00015934583
163	0xb8336a14	-4.277572e-05
164	0xb8c6fd5d	-9.488568e-05
165	0x396545d2	0.00021865152
166	0x38aabaa4	8.140996e-05
167	0x3703d34b	7.857404e-06
168	0xb96edbc9	-0.00022779325
169	0x3931e75b	0.00016966222
170	0xb8728c93	-5.7828216e-05
171	0x397581ae	0.0002341333
172	0x38a3bbb0	7.807405e-05
173	0xb965fc6f	-0.0002193318
174	0x37e082ee	2.676385e-05
175	0xb9aaa7ab	-0.0003254985
176	0xb7c63f52	-2.3632925e-05
177	0x391572a7	0.00014252459
178	0x3981be3b	0.0002474653
179	0xb7f26cea	-2.8899365e-05
180	0xb7a258c6	-1.9353243e-05
181	0xb93dce03	-0.0001810119
182	0xb81e9a6e	-3.781396e-05
183	0xb81970cb	-3.658309e-05
184	0xb88ee597	-6.813852e-05
185	0x37e8fcb2	2.7774226e-05
186	0xb8b0d55f	-8.4320774e-05
187	0x38ee9150	0.00011375791
188	0x39317b5b	0.00016925989
189	0x388af15e	6.625311e-05
190	0xb9b44e9f	-0.00034390853
191	0x38e4eb96	0.000109157685
192	0xb867112f	-5.5090695e-05
193	0xb9015c7b	-0.0001233685
194	0xb83751d0	-4.3706794e-05
195	0xb8f6822a	-0.00011754439
196	0x381a049a	3.6720747e-05
197	0xb8b3ffb4	-8.5830136e-05
198	0xb8a1ae62	-7.7095596e-05
199	0x39306a32	0.00016824229
200	0xb881d443	-6.190736e-05
201	0xb85e6a27	-5.3027787e-05
202	0xb70861dd	-8.129017e-06
203	0xb7a4d071	-1.9647387e-05
204	0xb88f3ba9	-6.829884e-05
205	0x384a0e20	4.8173708e-05
206	0xb9049b61	-0.00012646384
207	0xb8daf1b9	-0.000104400744
208	0xb85eab4b	-5.3088454e-05
209	0x38f4f8d3	0.00011681174
210	0x370276f9	7.776304e-06
211	0x3939baf0	0.00017712614
212	0x37b8ff3b	2.205336e-05
213	0xb88d4a8a	-6.737288e-05
214	0x391ac0ad	0.00014758362
215	0xb86bcd27	-5.621943e-05
216	0x38c79b58	9.5179945e-05
217	0xb91557b4	-0.0001424242
218	0x38aaa5ca	8.137112e-05
219	0x390eac3f	0.00013606342
220	0xb98053af	-0.00024476412
221	0x3914919a	0.0001416862
222	0x357c158d	9.3908676e-07
223	0xb8c4e6d3	-9.389003e-05
224	0xb94fc6da	-0.00019815136
225	0xb78d2e9c	-1.6830214e-05
226	0x3713cc91	8.809512e-06
227	0x38cef05e	9.867617e-05
228	0x371baaff	9.278533e-06
229	0xb8194c88	-3.6549318e-05
230	0x38404f67	4.5850316e-05
231	0x384a2edf	4.8204205e-05
232	0xb53dbb9e	-7.0681006e-07
233	0xb8517773	-4.994073e-05
234	0xb821d8b7	-3.8587223e-05
235	0x38bae6fd	8.912196e-05
236	0x37ed7476	2.8306833e-05
237	0x372609b4	9.89663e-06
238	0xb7bcbd61	-2.2499533e-05
239	0xb949c770	-0.0001924315
240	0x38904ffc	6.881353e-05
241	0x38492632	4.7957707e-05
242	0xb859837d	-5.185929e-05
243	0x38c50005	9.393696e-05
244	0x38083b2e	3.2480042e-05
245	0xb849f402	-4.8149384e-05
246	0x3804a515	3.1624997e-05
247	0xb74ac57c	-1.2086119e-05
248	0x37161cd7	8.9474115e-06
249	0xb862f195	-5.410759e-05
250	0xb9032cd8	-0.00012509839
251	0x388cdfd1	6.717409e-05
252	0xb2356a06	-1.0559694e-08
253	0x386631cf	5.488266e-05
254	0xb887ce22	-6.475697e-05
255	0xb8a4c7ef	-7.85737e-05

exp_avg_sq f4 [512, 64]
0	0x34ff22ca	4.7522764e-07
1	0x35ba00c2	1.38583e-06
2	0x354ece84	7.70415e-07
3	0x35bb4a7e	1.3954266e-06
4	0x349ac220	2.882598e-07
5	0x3551ea8e	7.819989e-07
6	0x3522ca21	6.064384e-07
7	0x351d1749	5.852094e-07
8	0x354ab10d	7.5508507e-07
9	0x3569217b	8.6847984e-07
10	0x351647ef	5.598403e-07
11	0x3593400f	1.0970997e-06
12	0x35469809	7.398199e-07
13	0x35377fc4	6.8358736e-07
14	0x35372d20	6.823848e-07
15	0x3565c236	8.559176e-07
16	0x352f4533	6.529328e-07
17	0x3586ea96	1.0052051e-06
18	0x3557e4be	8.0426605e-07
19	0x350180cb	4.8243663e-07
20	0x35793284	9.283324e-07
21	0x35942402	1.1037339e-06
22	0x355dd6f4	8.2641714e-07
23	0x3516cf72	5.6181227e-07
24	0x358fac63	1.0704501e-06
25	0x3622e280	2.4271721e-06
26	0x357bc48c	9.37908e-07
27	0x357db50d	9.451331e-07
28	0x35f273b4	1.8064079e-06
29	0x35a17900	1.203065e-06
30	0x35666e2c	8.5842e-07
31	0x35527d63	7.841356e-07
32	0x35de3a72	1.6557299e-06
33	0x3558c22b	8.074882e-07
34	0x352abb85	6.360281e-07
35	0x34aeea92	3.2580698e-07
36	0x352b13d5	6.3731324e-07
37	0x35269913	6.206257e-07
38	0x3567881e	8.625228e-07
39	0x34893324	2.5555448e-07
40	0x350631ba	4.999125e-07
41	0x3544eea4	7.336296e-07
42	0x34fc884c	4.7037827e-07
43	0x35374e5c	6.828684e-07
44	0x352ff158	6.554378e-07
45	0x35359129	6.763899e-07
46	0x352be415	6.4034367e-07
47	0x35a89fe7	1.2563513e-06
48	0x3592eedd	1.0947366e-06
49	0x35a5ac35	1.2343577e-06
50	0x35a0ee87	1.199035e-06
51	0x350ef972	5.3262113e-07
52	0x35baef12	1.3927659e-06
53	0x355cd7f6	8.227065e-07
54	0x35188923	5.682397e-07
55	0x35640cb2	8.4955093e-07
56	0x34cba217	3.7929632e-07
57	0x356cff6f	8.8288556e-07
58	0x358fb4ff	1.0707007e-06
59	0x35a39cf3	1.2190125e-06
60	0x35c3d253	1.4589845e-06
61	0x34cdb596	3.8316347e-07
62	0x3570a8a1	8.9652355e-07
63	0x34f11c4b	4.4910334e-07
64	0x35f3f430	1.8175979e-06
65	0x362d2d82	2.5805498e-06
66	0x35dbe39d	1.6383016e-06
67	0x367f4db6	3.8043195e-06
68	0x35f65c9f	1.8355385e-06
69	0x35edd283	1.7719143e-06
70	0x3649ec47	3.0088866e-06
71	0x36439bb7	2.9147902e-06
72	0x3643bbbc	2.916654e-06
73	0x35e4188a	1.6994466e-06
74	0x367a7dce	3.732613e-06
75	0x365d5082	3.2978428e-06
76	0x36533136	3.1470095e-06
77	0x3639c995	2.7684484e-06
78	0x35eb32be	1.7523632e-06
79	0x367a970c	3.7340824e-06
80	0x360ab549	2.0669124e-06
81	0x36478cd0	2.9735274e-06
82	0x362f4661	2.6117998e-06
83	0x35cf16af	1.5429304e-06
84	0x364eca3a	3.0814103e-06
85	0x3638c9f5	2.753569e-06
86	0x360edac3	2.1286985e-06
87	0x3602aca9	1.947201e-06
88	0x366da965	3.5414353e-06
89	0x3611a585	2.1703029e-06
90	0x36403417	2.864055e-06
91	0x3655b5e8	3.1845357e-06
92	0x360d41c1	2.104891e-06
93	0x3646faad	2.9650212e-06
94	0x35f0d148	1.7942302e-06
95	0x3683a40c	3.923202e-06
96	0x362b0e4f	2.5489314e-06
97	0x360fa19c	2.140273e-06
98	0x362275a1	2.420835e-06
99	0x36390233	2.7568428e-06
100	0x35aa027b	1.2666709e-06
101	0x3608befd	2.037675e-06
102	0x36108dfc	2.1540318e-06
103	0x35ca97dc	1.509437e-06
104	0x36108a8a	2.1538312e-06
105	0x35c3a6e2	1.4577201e-06
106	0x3610a0af	2.1551202e-06
107	0x35c4e8a0	1.4670841e-06
108	0x35c049cc	1.4326592e-06
109	0x3616e08b	2.2482443e-06
110	0x35a415fa	1.2225348e-06
111	0x3614e161	2.2184906e-06
112	0x360f621a	2.1365763e-06
113	0x366a471c	3.4910108e-06
114	0x3661a795	3.3625158e-06
115	0x363a9b8b	2.7806698e-06
116	0x361033f8	2.1487922e-06
117	0x3650a0cf	3.1088018e-06
118	0x36277856	2.4954984e-06
119	0x35b929fa	1.3795791e-06
120	0x35e8e708	1.7352586e-06
121	0x3641e9de	2.889537e-06
122	0x35ba2429	1.3868604e-06
123	0x3628b3e0	2.5138652e-06
124	0x35fd7c5b	1.8886161e-06
125	0x3611e559	2.1740182e-06
126	0x35d7f125	1.6088931e-06
127	0x3600eba6	1.9210652e-06
128	0x359297a4	1.0921981e-06
129	0x36085912	2.0317425e-06
130	0x35c6e373	1.4818346e-06
131	0x3627bc1e	2.4994438e-06
132	0x358db072	1.0556671e-06
133	0x35af625c	1.3067142e-06
134	0x35d0d339	1.5558682e-06
135	0x36474026	2.969065e-06
136	0x360b4f2f	2.0758705e-06
137	0x363b3c59	2.7900298e-06
138	0x35f94d90	1.8574519e-06
139	0x361088b2	2.153724e-06
140	0x36243f02	2.447458e-06
141	0x36522829	3.1315815e-06
142	0x35aa89f0	1.2706132e-06
143	0x35fbb0d8	1.8752426e-06
144	0x35adb499	1.2942065e-06
145	0x364cb55e	3.0503938e-06
146	0x3623cb12	2.4407095e-06
147	0x35c320da	1.4538193e-06
148	0x3639d847	2.7693038e-06
149	0x35b354d2	1.3361225e-06
150	0x364d5543	3.059701e-06
151	0x361013a5	2.1469107e-06
152	0x3600bb15	1.9182382e-06
153	0x367db8a0	3.7807404e-06
154	0x3636a563	2.721638e-06
155	0x3623cd76	2.4408487e-06
156	0x36061499	1.9979545e-06
157	0x35fff3db	1.9069952e-06
158	0x36029291	1.9456822e-06
159	0x3628bf8f	2.5145453e-06
160	0x3665f2c7	3.4264974e-06
161	0x35d2ebfd	1.5714901e-06
162	0x36282005	2.5052589e-06
163	0x35cdb2fb	1.532578e-06
164	0x35a45ad5	1.2245388e-06
165	0x35fe8749	1.8963848e-06
166	0x361c8d91	2.3328214e-06
167	0x359ba53d	1.1596491e-06
168	0x36180b9a	2.2656518e-06
169	0x35d67635	1.5978645e-06
170	0x35ddf5ba	1.6537299e-06
171	0x3620fcad	2.3988935e-06
172	0x35ed01bc	1.7658381e-06
173	0x358f1e4f	1.0663151e-06
174	0x35bfc9cb	1.4289338e-06
175	0x36071e87	2.0134337e-06
176	0x35ba1a55	1.3865744e-06
177	0x361ad274	2.3070288e-06
178	0x361d2cdb	2.3420932e-06
179	0x3627f276	2.502607e-06
180	0x362fefa7	2.6216528e-06
181	0x3600c9bf	1.9190918e-06
182	0x3603af64	1.9622612e-06
183	0x3632ff1a	2.6672556e-06
184	0x35feafef	1.8975678e-06
185	0x35f86083	1.8505528e-06
186	0x35970020	1.1250413e-06
187	0x3615b182	2.2306053e-06
188	0x3611fdb8	2.1754367e-06
189	0x35b2b517	1.3314738e-06
190	0x3619c068	2.2910772e-06
191	0x35e727bf	1.7222409e-06
192	0x35801f72	9.545895e-07
193	0x35fa469c	1.8647002e-06
194	0x35c963ec	1.5004748e-06
195	0x36320c97	2.6531395e-06
196	0x355e7788	8.2875385e-07
197	0x35be2b0f	1.4168635e-06
198	0x35a22ee2	1.2083585e-06
199	0x360345a6	1.9561062e-06
200	0x359af6b9	1.15457e-06
201	0x35dcc010	1.6447175e-06
202	0x35c71b7e	1.4834657e-06
203	0x35df7390	1.6648428e-06
204	0x355aaaaa	8.145968e-07
205	0x359ba2ae	1.1595746e-06
206	0x35d9cb7a	1.6226979e-06
207	0x353be921	7.0002176e-07
208	0x355f50d7	8.319161e-07
209	0x35b014ae	1.311904e-06
210	0x35943252	1.1041504e-06
211	0x35a23557	1.2085465e-06
212	0x3556ffcc	8.0093446e-07
213	0x35c7535d	1.4850917e-06
214	0x3611b42d	2.171156e-06
215	0x356ff284	8.9387345e-07
216	0x35b16eac	1.3219737e-06
217	0x35e3c286	1.6969432e-06
218	0x358fc8fc	1.0712824e-06
219	0x35e3aaff	1.6962584e-06
220	0x35f8c391	1.8534357e-06
221	0x35d09041	1.5539191e-06
222	0x35674fcf	8.617034e-07
223	0x356b892e	8.7743945e-07
224	0x36289424	2.512018e-06
225	0x35cf075e	1.5424846e-06
226	0x358482b5	9.872807e-07
227	0x352c53ad	6.419676e-07
228	0x358fc3f0	1.0711356e-06
229	0x35844fda	9.858006e-07
230	0x3589d0bb	1.0268044e-06
231	0x3574f6af	9.1256055e-07
232	0x3590411b	1.0747784e-06
233	0x36071b92	2.0132616e-06
234	0x3568efd0	8.677571e-07
235	0x359c21ed	1.163278e-06
236	0x35df230b	1.6624994e-06
237	0x356117ab	8.3853473e-07
238	0x3592db8a	1.0941742e-06
239	0x35c55c62	1.4704531e-06
240	0x35a74ac7	1.2464233e-06
241	0x35b9860b	1.3822586e-06
242	0x35e28c3e	1.6879128e-06
243	0x359c854d	1.1661701e-06
244	0x36034d9e	1.95657e-06
245	0x35affb51	1.3111659e-06
246	0x35c02896	1.4316927e-06
247	0x35a03802	1.1937229e-06
248	0x354c2e6a	7.6063463e-07
249	0x3573c8c4	9.0816707e-07
250	0x35a9c09f	1.2647541e-06
251	0x35ae2170	1.2973742e-06
252	0x35f4772c	1.82141e-06
253	0x35818df5	9.652564e-07
254	0x35a99d02	1.2637176e-06
255	0x357029e1	8.946791e-07

exp_avg f4 [512]
0	0xb9853a1c	-0.00025411032
1	0xb83a909f	-4.4480545e-05
2	0xb6915f99	-4.332466e-06
3	0xb8d66b70	-0.00010224327
4	0x39519295	0.000199864
5	0xb8b2acf3	-8.519916e-05
6	0xba299671	-0.0006469256
7	0x38b0a261	8.4225794e-05
8	0xb8ed03d4	-0.00011301754
9	0x3810b715	3.4502784e-05
10	0x37c69c58	2.3676243e-05
11	0x399855b3	0.0002905555
12	0xb9d661fa	-0.0004089026
13	0xb8dd7fab	-0.00010561881
14	0xb9897056	-0.00026214373
15	0x385bdeef	5.2421292e-05
16	0x37f2e898	2.8956958e-05
17	0xb9827d24	-0.0002488877
18	0x39055442	0.00012715257
19	0x398109fd	0.0002461224
20	0x3712badb	8.745784e-06
21	0x3979f155	0.00023836394
22	0x39635e14	0.00021683454
23	0x3a02f331	0.0004995345
24	0x390a161f	0.00013168946
25	0x38e14b1a	0.00010742825
26	0xb9a27f65	-0.00030993964
27	0x3871fb5c	5.7692974e-05
28	0x38dcfdc8	0.00010537688
29	0xb7c96f6a	-2.4012948e-05
30	0xb9007475	-0.00012250415
31	0xb910df69	-0.00013816137
32	0xb9969a03	-0.00028724977
33	0xb7882099	-1.6227643e-05
34	0xb8574bb5	-5.1330502e-05
35	0xba1b4cbc	-0.0005924215
36	0x394630fe	0.00018901002
37	0x392b4d89	0.00016336715
38	0x399045a4	0.00027517707
39	0x393f377a	0.00018235846
40	0x38ffb70e	0.00012193444
41	0x3886062a	6.390766e-05
42	0xb85c5cd1	-5.253853e-05
43	0x38d447a3	0.00010122291
44	0x38e5c514	0.000109562796
45	0x386f1eb9	5.7010653e-05
46	0xb956603d	-0.00020444482
47	0xba19a2e2	-0.0005860758
48	0xb7d6fbf7	-2.5628118e-05
49	0xb981c8d1	-0.00024754417
50	0x391c2dd8	0.00014894397
51	0x39b69b45	0.0003482943
52	0x390c4359	0.0001337653
53	0xb93ae481	-0.00017823467
54	0x37cc5fa6	2.4363235e-05
55	0x39a27713	0.00030987765
56	0xb928fe47	-0.00016116454
57	0x38ecf443	0.00011298854
58	0xb8b4e981	-8.626562e-05
59	0x384d0a71	4.8885533e-05
60	0xb7080421	-8.107193e-06
61	0x3812e5e1	3.5023204e-05
62	0x388b8252	6.6523105e-05
63	0xb7ef999e	-2.8562554e-05
64	0xb8b1cd18	-8.4782194e-05
65	0x39500e1a	0.00019841679
66	0xb8324065	-4.249848e-05
67	0xb9fb6be9	-0.0004795485
68	0xb9972df2	-0.00028835196
69	0x39633032	0.00021666361
70	0x39d4750c	0.00040522998
71	0xb9799307	-0.00023801262
72	0x395815fd	0.00020607557
73	0x39ba6207	0.0003554972
74	0x39d221b2	0.00040079426
75	0x396e8e44	0.00022750447
76	0x395865df	0.00020637315
77	0x39d6ace7	0.00040946083
78	0xb98bde0a	-0.00026677578
79	0x37647856	1.3617877e-05
80	0x390dd9e4	0.00013527978
81	0xb8cf500c	-9.885439e-05
82	0x391b522c	0.00014812563
83	0xb8992c6b	-7.303882e-05
84	0xb9952eba	-0.0002845431
85	0xb84e88a8	-4.92415e-05
86	0xb998ce1c	-0.00029145263
87	0xb9c3f90c	-0.00037378853
88	0xb9e4e76c	-0.00043659972
89	0xb9879381	-0.00025859106
90	0x38e2c8c0	0.000108139124
91	0x39077072	0.00012916492
92	0xb87ea130	-6.0708437e-05
93	0xb9bae380	-0.00035646185
94	0x3904d5c4	0.00012668135
95	0x391e99ca	0.00015125345
96	0xba4e0fa6	-0.0007860608
97	0x383945ea	4.417255e-05
98	0xb8b04204	-8.40463e-05
99	0xb91d982a	-0.00015029372
100	0xb81e0c66	-3.7681682e-05
101	0x38a33980	7.783156e-05
102	0xb8332180	-4.2708125e-05
103	0xb960577d	-0.00021394897
104	0x38eb94b0	0.000112333684
105	0x39122aad	0.00013939543
106	0x396bf6cc	0.00022503285
107	0xb8fc633f	-0.000120347824
108	0xb95d3386	-0.00021095396
109	0x393e45d2	0.00018145822
110	0x387bcb5f	6.0032467e-05
111	0xb910efee	-0.00013822291
112	0x38834734	6.2598294e-05
113	0x393651ab	0.00017387296
114	0xb9c97fa5	-0.0003843281
115	0x394bbe22	0.00019430419
116	0xb9067842	-0.00012824035
117	0xb7e190ed	-2.6889576e-05
118	0xba2149bf	-0.00061526516
119	0x399909ff	0.00029189882
120	0x391da3f4	0.00015033764
121	0x38e20324	0.00010777105
122	0xb8d000e0	-9.918376e-05
123	0x38972536	7.207172e-05
124	0x38b3a629	8.566335e-05
125	0xb88f1c49	-6.82404e-05
126	0x39230905	0.00015548251
127	0xb7779817	-1.4757758e-05
128	0x39e1dde4	0.00043080666
129	0xb8c02da3	-9.163774e-05
130	0x3937177e	0.00017460992
131	0xb7ab9b1b	-2.0457015e-05
132	0xb932cc11	-0.00017051423
133	0x38f7f67e	0.000118237906
134	0x393008ac	0.00016787898
135	0xb97d845b	-0.00024177266
136	0xb8b163cc	-8.458606e-05
137	0x38c81254	9.540157e-05
138	0x394ad80e	0.00019344708
139	0x384d9fd6	4.9024668e-05
140	0x39550132	0.00020313708
141	0xb8d91272	-0.00010350802
142	0x3924c71c	0.00015714433
143	0x391eff82	0.00015163238
144	0x38e001d3	0.00010681492
145	0xb898f1be	-7.292953e-05
146	0x397f5b38	0.00024352677
147	0xb90b2a8a	-0.0001327192
148	0xb821b4a9	-3.8553644e-05
149	0x39b6272e	0.00034742936
150	0x391ceca6	0.00014965478
151	0xb8d3aae0	-0.00010093092
152	0xb94a94be	-0.00019319632
153	0x37bcf02d	2.2523187e-05
154	0x37fe7d1a	3.0337415e-05
155	0x393ca24a	0.00017989535
156	0xb8ba0358	-8.869794e-05
157	0x3995839b	0.00028517548
158	0xb79a2377	-1.8374745e-05
159	0x39194816	0.00014618071
160	0xb903c6de	-0.00012567217
161	0xb7e4e908	-2.7288232e-05
162	0xb999589c	-0.00029248453
163	0xb9b3f29b	-0.00034322296
164	0x39804a7d	0.0002446956
165	0xb980213f	-0.00024438833
166	0x383b4bd3	4.465489e-05
167	0x39c01ed8	0.00036644074
168	0xb8e05dd8	-0.00010698632
169	0xb92f709f	-0.00016731255
170	0xb98a27a6	-0.00026350952
171	0xb7f4493c	-2.9121169e-05
172	0x392bb6b7	0.00016375897
173	0xb5aa6cfa	-1.2697703e-06
174	0xb9e69606	-0.00043980795
175	0xb977246b	-0.00023569322
176	0x38efe17d	0.000114384085
177	0xb89f6487	-7.6004355e-05
178	0x3835a985	4.331164e-05
179	0x39616af8	0.00021497521
180	0x39b556ac	0.00034587586
181	0xb788b471	-1.6296488e-05
182	0x3944b935	0.00018761012
183	0x396105cf	0.00021459836
184	0x39bc02b8	0.0003586018
185	0x38b27153	8.50881e-05
186	0x385eb319	5.3095722e-05
187	0xb8c1903c	-9.229823e-05
188	0x3955e206	0.00020397463
189	0x392310d9	0.00015551168
190	0x383a00f5	4.4346747e-05
191	0xb9e00c50	-0.00042733783
192	0x399f7fbf	0.00030422022
193	0x396f35f4	0.00022812915
194	0x388fdabb	6.859513e-05
195	0xb9751535	-0.00023372921
196	0xb7c1a407	-2.3083774e-05
197	0xb8d72ff6	-0.00010260932
198	0x3968fb5e	0.00022218886
199	0xb735e6da	-1.084219e-05
200	0x39e0173d	0.00042741923
201	0xb88904d0	-6.5335655e-05
202	0xb6a075b6	-4.782075e-06
203	0xb97d2034	-0.00024139957
204	0x3862c579	5.406651e-05
205	0xb9b778d5	-0.00034994507
206	0xb72c46a0	-1.0268443e-05
207	0xb9d40f77	-0.00040447313
208	0x38380f28	4.3883134e-05
209	0x38f2b201	0.00011572615
210	0xb8e2b5f8	-0.00010810414
211	0x378c1cfa	1.6702794e-05
212	0x397a2456	0.00023855394
213	0x393082ef	0.00016833445
214	0x3834da92	4.3118904e-05
215	0xb9569554	-0.0002046426
216	0xba04f6ff	-0.00050722057
217	0x39a0a691	0.0003064168
218	0xb80f8a15	-3.4222456e-05
219	0xb90dec25	-0.00013534779
220	0x39061002	0.00012785199
221	0x390d6abb	0.00013486568
222	0xb90338d2	-0.00012514301
223	0x390505a0	0.00012685964
224	0x38bb5cc5	8.9341345e-05
225	0x38d44736	0.00010122212
226	0xb7278767	-9.9855015e-06
227	0x38c0860d	9.180242e-05
228	0xb983f7d3	-0.0002517091
229	0x394b07b1	0.00019362454
230	0x3a2a1d6e	0.0006489371
231	0x392fac04	0.00016753381
232	0xb8bac622	-8.906076e-05
233	0x394a7368	0.00019307213
234	0xb7e4190f	-2.7191387e-05
235	0x39a0bb85	0.0003065729
236	0xb852adbe	-5.022971e-05
237	0x39aec27e	0.00033332774
238	0xb8a37ddc	-7.795889e-05
239	0xb827c2f6	-3.9997474e-05
240	0x392b1216	0.00016314568
241	0x38dffca8	0.000106805295
242	0x3920df98	0.00015342084
243	0xb919e3d2	-0.00014676087
244	0x39958bba	0.000285236
245	0xb90e1b44	-0.00013552333
246	0x388a3c13	6.5915425e-05
247	0xb9970104	-0.0002880172
248	0x38ab4c9f	8.168187e-05
249	0xb97afd1c	-0.00023936149
250	0x396d8640	0.00022652093
251	0xb9381581	-0.00017555618
252	0x3954b147	0.00020283936
253	0x398c801f	0.00026798339
254	0xb824f327	-3.93271e-05
255	0x398a38f3	0.00026363842
