ldm_checkpoints/ldm_epoch_60.pth (torch, 798986 bytes, 12 tensors)

model.0.weight f4 [512, 64]
000000 b5 24 06 be 35 ff a6 3d 41 4e f5 bc dc a3 bc 3c
       -0.1309994 0.08154146 -0.029944541 0.023027353
000010 45 2a 9a 3d 92 63 d6 bc 8a d9 85 bd 0e c5 9a 3d
       0.075275935 -0.026170526 -0.06535633 0.075571164
000020 16 83 fd 3c c2 47 a6 bb 54 2c c9 3d 7d 65 f3 3d
       0.030946296 -0.005074472 0.09822908 0.11884592
000030 2f de 01 be db b8 54 bc 26 28 99 bc f6 cb 10 3e
       -0.12682413 -0.012983526 -0.018695902 0.14140305
000040 ec e5 57 3b 84 8f 31 bd 8e 85 99 3a 4a d8 be 3c
       0.003294344 -0.043349758 0.0011712776 0.023296494
000050 cd 2d 91 3d 99 79 f2 3d 37 cb bd ba e4 51 e2 3d
       0.07088814 0.11839599 -0.0014480118 0.11050776
000060 a4 ae c2 bd bd ae 06 3e af 6e 87 bd 03 56 23 be
       -0.09505966 0.13152595 -0.06612908 -0.1595078
000070 f0 ca 04 bd 55 f4 b0 bd fd a0 d0 3d 2e 81 90 3d
       -0.0324201 -0.08640353 0.10186956 0.07055889
000080 7e 77 b1 3c f4 76 e9 bd 8e 4e e9 3c d2 14 85 bd
       0.021663424 -0.11399642 0.02847984 -0.06498112
000090 55 57 17 3e 71 02 32 bd 98 42 af bc 79 58 f3 3d
       0.14779408 -0.04345936 -0.021394059 0.11882109
0000a0 26 ce 92 3d e3 99 c2 3d d9 7b 13 be 40 3f c8 bd
       0.07168226 0.09502008 -0.14402713 -0.09777689
0000b0 56 5f f8 3d 73 92 62 3d 0c a2 00 ba 86 2b 86 3d
       0.12127559 0.055315446 -0.00049069594 0.0655127
0000c0 e9 2b 31 3d e9 56 87 bd 44 6a c9 3d f0 f0 3d bd
       0.043254767 -0.06608374 0.09834722 -0.046372354
0000d0 43 c0 78 bd ff 01 22 3d 78 43 e0 bd 3c 63 6a 3d
       -0.06073023 0.039552685 -0.10950369 0.057223544
0000e0 ac 7b a8 3d 79 42 a1 3d 9c 3b b6 bd 30 e6 03 3e
       0.082267135 0.07874007 -0.08898088 0.12880778
0000f0 71 de dc 3d ae 74 0d 3e 34 cc 3f 3d 6a 4b 95 3d
       0.10784615 0.13814041 0.046825603 0.07289775
000100 f1 ea 94 3d 5b 9a 74 3d 75 08 c4 3d 34 dd c5 3c
       0.07271374 0.059717517 0.095719256 0.02415333
000110 d8 1c 8d bd 23 5e cd 3d 11 19 06 3e 7c f6 29 3e
       -0.06890267 0.10027721 0.130955 0.16597933
000120 03 e7 0b be 73 0d 9e bd 1f d4 bc 3d 68 d9 ab 3d
       -0.13662343 -0.07717409 0.092201464 0.08391076
000130 ca 46 21 be 9b 9b ed bd de 77 42 bd d1 41 f5 3d
       -0.1574966 -0.11601945 -0.047477596 0.11975444
000140 50 9e a5 bd c1 51 c7 bd 91 9a ce bc 71 68 62 bd
       -0.08086836 -0.0973239 -0.025220187 -0.055275384
000150 13 d6 14 3e 2a e5 31 3d 71 22 82 bd 88 c7 bf bd
       0.14534788 0.04343144 -0.063542254 -0.093642294
000160 cb e3 33 bd 40 86 e7 bd 51 65 d9 bd 37 fa 3c 3c
       -0.043918412 -0.11304903 -0.10615028 0.011534265
000170 71 37 cf 3d f3 07 f6 bd 30 62 c8 3d 80 dc 1f be
       0.101179965 -0.12013235 0.09784353 -0.15611458
000180 a5 aa 8e 3c d1 03 18 3e ed 7a 0d be c1 93 18 3d
       0.017415354 0.14845206 -0.13816424 0.037250284
000190 28 b8 ca bd e8 2f 23 3d 65 80 92 bd 8b f1 86 3d
       -0.09898406 0.03984061 -0.071533956 0.065890394
0001a0 5b 27 1f 3d c6 d2 b2 bd e9 6a 0b 3c ac ea 15 be
       0.03885589 -0.08731608 0.008509376 -0.14640301
0001b0 cb c4 85 3d 52 89 3d be fa 57 11 bd c1 58 82 bc
       0.06531676 -0.18509415 -0.03548429 -0.015911462
0001c0 e1 0f eb 3d 2f f9 ba 3c af c5 4c 3c 14 66 88 bc
       0.11477638 0.022823898 0.012498303 -0.016650237
0001d0 c5 4b a7 bd 3a 08 ad 3c 94 c5 29 bd f5 77 9e bd
       -0.08168749 0.021122087 -0.04144819 -0.07737724
0001e0 55 2e 97 3d 5a 2b 5c bd 3f 50 22 3e 9f c0 3c 3d
       0.07381884 -0.05375228 0.15850924 0.046082135
0001f0 d1 39 68 3d d8 d1 10 3d 47 d8 d9 bd 0e 43 f8 3d
       0.056695763 0.035356373 -0.10636955 0.12122165
000200 03 69 d8 bd 9f 67 f2 bd d4 17 ba bc 56 61 cc 3d
       -0.105669044 -0.118361704 -0.02271644 0.09979503
000210 fa 0e a8 3c 7f 41 18 3d 8e 43 0e 3e 29 3e c5 ba
       0.020514954 0.037171837 0.13892958 -0.0015048432
000220 66 c1 2f 3c 75 5c 42 3d fd d7 80 3d 1d e7 11 bd
       0.010727262 0.047451455 0.062911965 -0.035620797
000230 13 6b 6e bd 11 6b 1a 3e 7c 30 30 3d 82 a3 68 3d
       -0.058207583 0.15079905 0.04301499 0.05679656
000240 30 23 f6 bd bd f5 b9 bd d8 56 bd 3d 71 fb 15 be
       -0.1201843 -0.09080074 0.0924508 -0.14646699
000250 5a 06 df bd 74 69 44 3c 80 64 86 bd 89 b9 07 be
       -0.10889883 0.011988033 -0.065621376 -0.1325437
000260 a7 ba b0 bc 6c 83 8f bd a4 28 c7 3d ae 69 b1 3d
       -0.021573378 -0.070074886 0.097245485 0.08662735
000270 6e f6 ba bd 65 a6 05 3d 24 3c 6d bb 26 48 8b 3d
       -0.09129034 0.03262939 -0.0036199177 0.068008706
000280 28 d0 97 bd e6 ca d6 bd 82 86 26 3c 21 9a b8 bb
       -0.074127495 -0.104879186 0.010163905 -0.005633608
000290 8a d7 d3 bd de 13 c3 3d f1 9e da 3c 21 fd b2 bd
       -0.10343845 0.09525274 0.026687117 -0.08739687
0002a0 99 86 ef bd 8b 88 1c 3d 65 57 07 3e ae 3a 44 bd
       -0.11695594 0.038216155 0.13216932 -0.047907524
0002b0 ea 3c 41 3d 57 7c 61 bd 79 3f 8f 3d 89 31 95 bc
       0.047177233 -0.05505022 0.06994528 -0.018212097
0002c0 aa 19 84 3d 50 64 23 bd 06 33 02 3e fd b1 5c 3b
       0.064502075 -0.039890587 0.12714776 0.0033675425
0002d0 f7 ef fe bc 1d 0e 2a bc 62 fb 3e 3d d6 c9 47 3c
       -0.031120284 -0.010379341 0.046626456 0.0121941175
0002e0 49 5c 84 bb 60 ec 6d 3d a1 74 c5 bd 29 0e cc bb
       -0.0040393216 0.058086753 -0.09641386 -0.006227274
0002f0 76 01 96 3d 27 54 8f 3b af 0a ad bd ac 93 43 bb
       0.073244974 0.0043740454 -0.08449303 -0.0029842658
000300 78 ec a8 bd 37 67 8c bd 0d f9 7f bd e1 e1 b0 bb
       -0.08248228 -0.06855624 -0.062493373 -0.0053980206
000310 45 52 79 bd 0b 77 d0 3b 95 13 af 3d 0d 48 e6 3d
       -0.060869474 0.0063618473 0.08548657 0.11244211
000320 cd 1c 28 3d 90 e2 12 be 6c 47 db 3c dc bf 14 3e
       0.04104309 -0.14344239 0.026767455 0.14526314
000330 60 df 09 3e c0 ce bb bd a3 cc 71 3d 31 b6 8f bd
       0.13464117 -0.09170294 0.059033047 -0.07017172
000340 8a f8 80 bd 60 9f f3 3d 7b 41 c2 bd 72 dd e9 bd
       -0.06297405 0.11895633 -0.09485146 -0.114191905
000350 8e 16 0c 3e 0d 39 48 3d 0e 5b ec bc 8a 1e 8f 3d
       0.13680479 0.048882533 -0.028852012 0.06988247
000360 62 35 cd bd ee 88 8f 3d 02 4d a3 3a 42 6d ee 3d
       -0.100199476 0.07008539 0.0012458863 0.11641933
000370 7b 45 08 3d 2b da ec bd d9 1e da 3c 35 23 36 3c
       0.033269387 -0.1156505 0.026626037 0.011116792
000380 d5 32 9b 3d 44 c6 c5 bd ad 08 f0 3c 18 f3 07 3c
       0.07578055 -0.09656957 0.029301012 0.008297704
000390 49 a5 f8 bd dd 69 16 3c 73 16 c4 3d 95 79 b7 bd
       -0.12140901 0.009180513 0.09574594 -0.08958737
0003a0 2c 03 5f bd 8f eb 04 3e 80 90 fd 3d e1 2f ec bc
       -0.054446384 0.12980483 0.12381077 -0.028831424
0003b0 59 0d 27 3b 1a b7 98 bc d7 1b e6 3d 0b 6e 27 be
       0.0025490134 -0.018641997 0.11235779 -0.16350572
0003c0 3c 32 09 be 8c ad 87 bd ca 24 13 bb ea c3 84 3d
       -0.13398069 -0.06624898 -0.0022452348 0.0648268
0003d0 9e 05 17 bd 52 ab fd bd 44 37 b5 bd 24 2c 80 3c
       -0.03687059 -0.123861924 -0.08848432 0.015646048
0003e0 92 cd a4 bd a2 a5 f8 bd a2 6d 19 3d e1 72 13 3d
       -0.08047022 -0.12140967 0.03745807 0.03599823
0003f0 e2 57 54 bd e4 d3 f9 bb 56 0b 11 be 9b 4f 6a bc
       -0.051841624 -0.0076241363 -0.1416448 -0.014301206

model.0.bias f4 [512]
000000 17 52 04 3e af 7f 53 bd 0d 67 df 3d 4c 03 6b bd
       0.1292194 -0.05163544 0.10908327 -0.05737619
000010 08 50 8e 3c a6 a7 52 3d 14 91 9c bd 85 13 a6 3d
       0.017372146 0.051429413 -0.07644859 0.08109192
000020 9f f9 f2 3d bc 42 c5 3c 3c 4a 25 3d f0 6b 4c 3c
       0.11864018 0.024079673 0.040354 0.012476906
000030 50 63 ab bd 3e 05 4d bb b2 c0 83 3d a6 8f 87 bd
       -0.08368552 -0.0031283642 0.06433238 -0.06619196
000040 8f 05 49 3d a8 31 dc bc 2a 6e 84 3d 16 ed 97 bd
       0.049077567 -0.026879147 0.064663246 -0.074182674
000050 ea 99 48 bb 41 c2 23 3e 12 df 9f bd bd f5 dd bb
       -0.0030609318 0.1599207 -0.07806219 -0.006773679
000060 fd 30 aa bd 4b 67 5c 3d 41 9e f7 3d e4 58 a2 3d
       -0.08310125 0.053809445 0.120907314 0.07927111
000070 bb 29 da 3c b9 a5 04 bd 99 85 ba bd c3 dc d3 38
       0.026631227 -0.032384608 -0.09107513 0.00010102384
000080 a0 51 36 3e 33 1b cd bc bf 8f 9a bc 13 ed 39 3d
       0.17804575 -0.025037384 -0.018867372 0.045392107
000090 6d 38 9b bd 95 c4 28 bd 60 c4 6f 3d f2 e8 03 39
       -0.07579122 -0.0412031 0.058536887 0.00012579912
0000a0 ee c6 8e bc 85 0e bc bd 57 e8 c0 3d ab e2 c0 3d
       -0.017428841 -0.09182457 0.09419315 0.094182335
0000b0 76 53 cd 3d 37 f9 fe bc ca 19 fe 3d fa 65 3d bd
       0.100256845 -0.031124694 0.124072626 -0.04623983
0000c0 50 00 6b 3d 9d 5a db 3d 53 eb a9 3d 8b c9 ce 3d
       0.057373345 0.107106425 0.08296838 0.10097035
0000d0 6f 60 01 3e e2 60 be 3d 19 de 7c 3d 9e e5 0e 3d
       0.12634443 0.09295823 0.061735246 0.03488695
0000e0 54 15 b2 3a 51 32 be bd 95 e7 60 3d 86 c9 14 3e
       0.0013586679 -0.09286941 0.054908354 0.1453
0000f0 8b e3 2c 3d 08 f1 55 3d 83 06 a3 3c d3 08 7a bb
       0.04220919 0.05223182 0.019900566 -0.0038152232
000100 46 b2 8e bd bf 56 1c 3e 0a 1c 42 3d d3 1f 76 3d
       -0.06967597 0.15267466 0.04739002 0.060088944
000110 c7 bc 74 3d 42 fc 7d 3d bb c7 5c bd 60 00 4a bd
       0.059750345 0.06200815 -0.053901415 -0.049316764
000120 39 4b 14 3e 9d e2 57 3c be db f8 3c 1e 24 86 bc
       0.1448182 0.013176587 0.030378219 -0.016374644
000130 c1 d9 4d 3b 0f ea f7 bc 18 f6 f9 3d 34 49 6a bc
       0.003141031 -0.030262975 0.12205142 -0.01429968
000140 e8 2f a0 3d 0c 05 19 3e 01 da 03 3e 9d 2d 28 3e
       0.078216374 0.14943331 0.1287613 0.1642365
000150 d9 d0 9a 3d 5a 4c 1c 3e f0 05 d0 bc 9f 06 bf 3d
       0.07559366 0.15263501 -0.025393456 0.09327435
000160 82 a5 99 bc e1 25 e3 bb a3 39 03 3e 54 5b 04 3e
       -0.018755678 -0.0069320058 0.12814955 0.12925464
000170 68 ff a8 3d 5c 18 25 bd 03 51 d0 3d f5 e4 03 bd
       0.0825184 -0.040306434 0.10171702 -0.032200772
000180 0f 7a b3 bc ac ca 1a 3d 90 36 81 3d 76 e8 21 3e
       -0.021908788 0.03779094 0.06309235 0.15811333
000190 ac 70 81 bd 83 b7 54 3d 13 3b e9 3d 69 9b 01 3d
       -0.063203186 0.051932823 0.11388221 0.03164235
0001a0 4d aa 81 bd 14 06 21 bd e6 da 58 bd 33 6d ea 3d
       -0.063313104 -0.039312437 -0.052943133 0.11446609
0001b0 04 4a 88 3d 82 b0 14 3d 29 b9 91 3d 1f 52 08 3e
       0.06654742 0.036301143 0.071153946 0.13312577
0001c0 12 d2 7a bd 43 25 2a bd 57 bb 23 3d 12 f6 a8 3d
       -0.061235495 -0.04153944 0.039973583 0.08250059
0001d0 07 b1 26 bd bf 8e f1 3d 80 c2 6a 3d 9e f1 de 3d
       -0.04069617 0.11794805 0.057314396 0.108859286
0001e0 04 d2 7e bd 42 72 01 3e 0c f0 52 bc 74 20 6f 3d
       -0.062212005 0.12641242 -0.012874614 0.05838056
0001f0 1d 16 30 3e 89 6e 98 3b 9e 5f ee 3c 63 4b b9 3d
       0.17195936 0.0046518487 0.029098328 0.09047582
000200 1c 97 e1 39 36 ef 78 3d ba 55 ce 3b 12 73 a1 3d
       0.0004302793 0.060775004 0.0062968405 0.07883276
000210 7b c7 61 3d 90 d3 b0 bb b3 2f 99 3d ed 41 ed 3d
       0.05512188 -0.005396314 0.07479801 0.1158484
000220 54 c4 5f 3d 17 7c bc 3d 47 64 26 3e ca 68 65 3d
       0.054630592 0.09203356 0.1624919 0.056008138
000230 3c 6c de 3d 1c d6 b8 3d 92 f5 f6 3d 2b d6 f4 3c
       0.10860488 0.09025213 0.120585576 0.02988728
000240 a7 d3 37 3d cf 67 93 bd 04 c6 88 3d b3 61 0d 3e
       0.04487958 -0.07197534 0.066783935 0.138068
000250 4b 14 b3 bd 38 5b 0e 3e 48 84 3a bd c0 87 a6 bd
       -0.08744105 0.13901985 -0.04553631 -0.08131361
000260 9c 22 cc bc 6a 28 df bc ec 4f 03 3e 48 22 8d bd
       -0.024918847 -0.02724095 0.12823457 -0.06891304
000270 2b 60 a4 bc 4a 9e e4 3d 72 80 24 bb 2b 96 ba 3d
       -0.020065388 0.11163004 -0.0025100973 0.091106735
000280 37 c5 1f bd 73 80 b6 bc 1a d4 3e 3c 91 7f 2a bd
       -0.039006438 -0.022278046 0.011647249 -0.041625563
000290 c7 ea 8c 3d 8b 85 3e 3d 5e 4f ce 3d 94 e8 52 3d
       0.06880718 0.046514075 0.10073732 0.051491335
0002a0 8b 60 c6 3d 31 89 32 3e a0 0d a2 3d 1b b3 a5 3c
       0.09686383 0.17435147 0.07912755 0.020227006
0002b0 a0 b0 6d 3d 8b 70 3e 3e 28 51 eb 3c 90 c5 fd 3c
       0.05802977 0.18597619 0.028725222 0.030977994
0002c0 71 ef 59 bb 77 dd 8e 3d 40 69 1a 3e 1c 16 04 3e
       -0.003325429 0.06975835 0.15079212 0.12899059
0002d0 c5 e6 6d 3d 72 61 02 3e d8 07 81 3d 7b f5 b1 bc
       0.058081407 0.12732485 0.06300324 -0.0217235
0002e0 e7 1d 56 3d f9 45 d5 3d 18 65 37 bd 77 4c e6 3d
       0.05227461 0.10413737 -0.044774145 0.11245053
0002f0 2d db b9 3d e2 91 14 bd 1b 40 da 3d f9 86 e9 3d
       0.090750076 -0.036271937 0.106567584 0.11402697
000300 4d f5 2d 3d 9f 2f e7 3d 27 d8 c7 3c 3a 11 9a 3d
       0.042470265 0.1128838 0.024395062 0.07522817
000310 6e 64 17 bd a1 25 c0 3d 1c 9d 30 3d 6c ba e4 bc
       -0.03696101 0.09382177 0.04311858 -0.027920924
000320 ce 45 e2 bb dd e1 ae 3d 00 1f cb 3c a7 06 9c 3d
       -0.006905294 0.08539174 0.024795055 0.07618456
000330 75 89 b8 3d b4 55 11 3e 51 20 c9 3d dd 1f e3 3d
       0.09010593 0.1419285 0.09820617 0.11090062
000340 3c dc 80 3d c3 48 13 3e f4 df bd 3d d2 ec 06 3e
       0.062920064 0.14383225 0.09271231 0.13176277
000350 ea 2e 23 3b a7 97 fe 3d aa ca c1 bd f2 16 e7 3d
       0.002489979 0.12431269 -0.09462483 0.11283673
000360 d9 31 c4 3d e7 98 ab 3c 92 f3 06 3e e3 34 12 3c
       0.0957982 0.020946933 0.13178852 0.008923742
000370 b7 e5 cf 3c 29 d9 8c 3d d6 85 5e 3c 18 27 92 3b
       0.025378091 0.068773575 0.013581714 0.0044602267
000380 df c0 85 3d 11 03 f1 3d b8 f5 1c 3c 93 04 a1 3b
       0.06530928 0.11768163 0.009580068 0.0049138754
000390 f1 90 69 3c 0e 98 6c 3d 74 98 22 3e 9b 82 24 3e
       0.014255748 0.0577622 0.15878469 0.16065447
0003a0 a6 36 42 3b 73 37 6c 3d 36 fa 86 3b cf 8d 85 bd
       0.0029634624 0.057670068 0.004119183 -0.065211885
0003b0 8c 73 56 bd b5 8c a1 3c 8e 4e 37 bd 8e ee c7 3c
       -0.052356288 0.019720415 -0.04475265 0.024405744
0003c0 72 c1 ab 3d 85 f0 79 bd 75 a3 be 3d 87 3a 2b 3d
       0.08386506 -0.061020393 0.09308521 0.041803863
0003d0 b4 cf 40 3d d9 19 ba 3c 04 50 d7 bc 61 b8 2a bd
       0.04707308 0.022717403 -0.026283272 -0.041679744
0003e0 ca 62 8f 3d 2a df af 3d ba ea c9 bd da 73 85 bd
       0.070012644 0.08587487 -0.09859224 -0.065162376
0003f0 1b d0 27 3e a6 ff 74 3d 73 0a 7d 3d e3 4b e3 3d
       0.1638798 0.059814118 0.061777543 0.110984586

model.2.weight f4 [64, 512]
000000 b0 a1 22 bd 78 23 89 3c 9a 5d 2d 3b 06 ae 93 3b
       -0.03970498 0.016740546 0.0026453496 0.004506829
000010 64 1c 23 ba 5f e6 5c 3d 31 aa a5 3c da 16 fc bb
       -0.0006222187 0.053930636 0.020222755 -0.007693154
000020 f8 cc 37 3d 83 ac 38 3d 91 3d 94 bc f3 5b 42 bc
       0.044873208 0.045086395 -0.018095763 -0.011862743
000030 3e 68 3c bc d7 54 d7 3c 57 6b e7 37 30 12 82 3c
       -0.011499463 0.026285572 2.758733e-05 0.015877813
000040 0f d5 6c bd 84 65 b5 3a 47 5b 5f 3d 76 92 13 bd
       -0.057820376 0.0013839458 0.05453041 -0.036028348
000050 84 86 8c bb b7 b7 bd bc 2b 5a 9b bd 92 46 ce 3c
       -0.0042884964 -0.023158891 -0.075855576 0.025180135
000060 88 bb f3 3c 81 ef 3f bd 6f 1a 03 3c c8 78 4a bc
       0.029752508 -0.046859268 0.008001908 -0.012357898
000070 b5 a7 ef 3b 44 d4 8d 3c ad 23 9d bc d1 74 1d 3d
       0.0073136934 0.01731313 -0.01918205 0.038441483
000080 c0 88 84 3d ef cf 93 3c 59 73 4a 3b 3b b1 fd bc
       0.064713955 0.018043486 0.0030891506 -0.0309683
000090 b9 32 76 3c 8c 12 f9 bc b7 e4 ef bc ea 8a 36 3b
       0.015026742 -0.030404352 -0.029283864 0.0027853795
0000a0 16 f8 ef 3c e9 81 11 3d f3 db b5 3a 9c bb 4c 3d
       0.029293101 0.035524283 0.0013874754 0.049983606
0000b0 59 48 a4 3d 8d 32 39 3d e6 fb a0 bc c0 a2 bd bc
       0.08021612 0.045214225 -0.019651365 -0.023148894
0000c0 d1 47 46 3c 4e 48 97 bd e6 19 b2 3b df 69 cb bc
       0.012102083 -0.07386838 0.0054352162 -0.024830757
0000d0 40 53 c2 bc 3f b7 41 bc d5 d8 06 bb e4 c2 46 bd
       -0.023721337 -0.011823474 -0.002057602 -0.048525706
0000e0 37 f8 ba 3b 5c 0e cd bc 2a 36 bf 3c a1 9e 79 3d
       0.005705859 -0.025031261 0.023341257 0.060942296
0000f0 2e fe 8e 3d bd 6b 7c 3d 12 16 99 bc aa cd a5 3c
       0.06982075 0.061626185 -0.018687282 0.02023967
000100 ec 94 e8 bc 05 36 30 3c f0 f6 ec bc d4 84 ab 3c
       -0.028391324 0.010755067 -0.028926343 0.02093736
000110 ee 3c 0c 3d 22 64 1c bd 71 b3 82 3c c4 71 51 3c
       0.034237795 -0.03818143 0.015954705 0.0127834715
000120 70 57 d3 ba be c8 b4 bd bb 75 0c 3d 01 06 49 bc
       -0.0016124081 -0.08827351 0.034291964 -0.012269498
000130 b7 d2 03 bd 15 f7 e4 39 71 73 8e 3b b1 ab d4 bc
       -0.032183375 0.0004367164 0.004347258 -0.025960775
000140 f2 e5 bf 3a 62 72 08 3c 74 79 b8 bb 71 7d 56 bd
       0.0014640673 0.008328052 -0.0056297127 -0.052365724
000150 ff 14 f2 ba 86 a3 6c 3d eb de 2c 3c 9b 8a e7 3c
       -0.0018469392 0.057773136 0.010551195 0.028264334
000160 e1 f4 16 bd 25 ac 15 bc 67 69 62 3d 39 53 04 3c
       -0.03685463 -0.009135281 0.0552763 0.008076482
000170 27 1b 12 bc 9b ef 80 3d 47 e4 86 3c 87 3a 36 bd
       -0.008917606 0.06295701 0.016466273 -0.04448941
000180 cc 17 fd bc fd 6d 64 bc cd 89 55 3a 04 86 56 3d
       -0.030895136 -0.013942239 0.0008145839 0.0523739
000190 9e 2b 25 bd bf fe 7f 3c 41 cd 45 bd 6d 69 43 3d
       -0.0403248 0.015624701 -0.04829145 0.047707964
0001a0 af 5a 0b bd f7 45 5b 3c 2d c7 00 bd a6 0d 05 bd
       -0.03402203 0.01338338 -0.03143995 -0.03248372
0001b0 52 cf b3 3c 96 d9 0f bb 66 89 81 bc 90 37 03 3d
       0.021949444 -0.002194976 -0.015812587 0.03203541
0001c0 b2 1d 61 3b 06 c3 3d 3d 1b 31 cd bc f9 31 57 3d
       0.0034349975 0.046328567 -0.02504783 0.052537892
0001d0 43 23 f3 3b ea e9 ca bc de 1f 71 3c 8d bd 42 3c
       0.007419975 -0.024769742 0.01471707 0.011886013
0001e0 83 75 02 bc 86 f7 03 bd 1b ee b5 3c a9 f3 23 3d
       -0.007962587 -0.03221848 0.022208264 0.040027294
0001f0 9e ea 60 bd 9e 52 fd 3c bb 85 a1 3c 68 b5 04 bc
       -0.05491125 0.030923184 0.019717088 -0.008099891
000200 ea 82 95 3c f3 82 89 b9 2d dd 8c 3c c7 a8 81 bd
       0.018250901 -0.0002622824 0.017195309 -0.0633102
000210 c9 91 4b 3b f0 34 ea bc d6 8a 6e 3d 7f 69 c8 3c
       0.0031062237 -0.028589696 0.058237873 0.024464367
000220 d6 3c 07 3d 49 fe b3 3c c5 99 c4 3c d7 3f 7b 3c
       0.033017002 0.021971839 0.023999104 0.015335045
000230 49 5c fb bb fa e3 7c 3d 67 60 d8 bc 1c 42 9e bb
       -0.0076709134 0.061740853 -0.026413156 -0.004829658
000240 b4 2f 54 3a 35 2f 2d 3c a0 37 06 3d fb c8 ab 3c
       0.00080942665 0.010570337 0.032767892 0.020969858
000250 bb b3 dc bc 98 14 eb bc a4 ca 3e bb bd 81 67 bc
       -0.02694117 -0.028696343 -0.0029112482 -0.014130053
000260 cf 2a b0 bb 18 52 30 3c e5 61 a5 3c 6f 3a 3c bd
       -0.005376197 0.01076176 0.020188281 -0.045954164
000270 1e 32 0a bb 58 11 f8 bc ea 8c 74 bc a0 b8 4d 3a
       -0.0021087 -0.030281708 -0.014926175 0.00078476407
000280 be 5a 4b bb d8 ab 3e 3d 51 44 3e 3c 60 07 cc bc
       -0.0031029428 0.0465506 0.011612968 -0.02490586
000290 9b e9 ea 3b 30 7a 11 bc 8a 4f 2c bb be f1 e9 3c
       0.007168961 -0.008879229 -0.0026292526 0.028557654
0002a0 21 9f 49 3d aa 54 ad 3b b3 f2 f4 3b 27 a0 0a bd
       0.049224023 0.0052896338 0.007475221 -0.03384414
0002b0 37 f3 86 3c 06 08 08 3d b6 ab e4 bc ae 76 d7 bc
       0.016473396 0.033210777 -0.02791391 -0.026301708
0002c0 37 42 bd 39 73 fb 07 3c 39 40 6d 3d 64 73 40 bc
       0.00036098223 0.008299696 0.057922576 -0.011746261
0002d0 69 b0 59 bd 85 70 9d bb b6 03 c7 bc 06 ed 1b 3d
       -0.053146753 -0.004804673 -0.024293762 0.03806784
0002e0 ac f5 c9 3c eb 97 f3 bb 70 b9 17 bd 9f f3 e5 3a
       0.024653278 -0.0074338815 -0.03704208 0.0017543918
0002f0 03 98 30 3d 7f 16 62 3c 13 45 56 bd 59 8c b5 bc
       0.04311372 0.013799309 -0.052311968 -0.02216165
000300 cf 77 e1 bc e5 cb ab bc 59 98 0a bd ea 14 08 bd
       -0.02752295 -0.020971248 -0.033836696 -0.03322307
000310 35 14 b3 3c 06 fb f9 3c 8f be 2c bc 74 df 4d 3d
       0.021860221 0.030515205 -0.01054348 0.05026193
000320 6f f2 d3 3c c4 6d 84 bc 57 a0 67 3d f2 2f 67 3c
       0.025872437 -0.016165622 0.056549396 0.014110552
000330 d0 85 d0 3b e8 61 8a 3c 98 c7 b1 bc 00 ae 84 bd
       0.006363608 0.016892388 -0.021701619 -0.064785
000340 26 75 ee bb 44 bf f5 3c 19 0a d3 bc cf d5 15 3d
       -0.007277149 0.02999843 -0.02576165 0.036580857
000350 cc 8f f3 bb 05 fb 95 3c f9 67 5e bd 4a 94 a2 bd
       -0.0074329134 0.018308172 -0.054298375 -0.0793844
000360 bb e2 81 bd e3 ca bc bc 16 b5 a1 3c 95 24 da bc
       -0.063420735 -0.023045963 0.019739669 -0.026628772
000370 24 7e 02 bb e1 32 11 3d 1a eb 2a 3d 55 36 ae 3c
       -0.0019911611 0.035448913 0.041728117 0.021266142
000380 88 c6 b1 3c 46 31 38 3c fa 9b 78 bc fe 91 3e bb
       0.021701112 0.011242216 -0.015173906 -0.0029078717
000390 0b a1 58 bb cb 88 55 bc af 8c dc 3c bf 91 93 bb
       -0.0033054973 -0.013033102 0.026922552 -0.0045034583
0003a0 e5 96 59 bd e5 23 3f bd e9 27 fd bc 0b 4c bd 3c
       -0.05312242 -0.04666509 -0.03090282 0.02310755
0003b0 37 cb 8f 3c 65 54 23 3d 8b ad 2f bd 67 93 16 bd
       0.017552955 0.039875407 -0.042890113 -0.036761668
0003c0 f1 20 48 bd 91 65 0d 3d a3 af 9d bc 4b 1e d4 3c
       -0.04885954 0.03452069 -0.01924879 0.025893351
0003d0 2f 12 ee 3b bf 93 66 3d 3f 7c fe bb 14 8a 6f bc
       0.0072653512 0.056293245 -0.007766276 -0.014620323
0003e0 5e 3c 23 bd c6 46 02 3d 92 32 52 3d 4c d5 44 bb
       -0.039852493 0.031805776 0.05131776 -0.0030034361
0003f0 18 70 61 bd fe fb 91 bd 3a 31 88 bc ef a2 f4 bc
       -0.05503854 -0.07128142 -0.016625036 -0.029862849

model.2.bias f4 [64]
000000 bd f6 e5 3b 84 88 de 3c ce 9d 49 3c 15 40 b0 bc
       0.007017939 0.027164705 0.01230569 -0.021514932
000010 d8 54 39 3c a3 d1 4b bc c7 3a 09 3c e3 49 c6 bb
       0.011311732 -0.012440118 0.00837583 -0.0060512885
000020 fb 47 dc 3c 1c d2 21 3d 75 db 24 bd 22 10 9c b9
       0.026889792 0.039507017 -0.040248353 -0.0002976666
000030 c7 99 1a 3d c4 9b 83 3c 67 fe 9e 3b fd 12 0d 3d
       0.03774431 0.016065486 0.0048521045 0.034441937
000040 85 f8 8f 3b f8 80 b7 3c 06 46 d8 3c 7d 15 af 3c
       0.0043936395 0.022400364 0.026400577 0.021372551
000050 85 7b bd 36 61 df ec bc 42 f2 81 3c 0b 3d c9 bc
       5.6470185e-06 -0.02891511 0.015862588 -0.02456524
000060 ea d7 d0 3b d5 7f a7 3c ac 15 13 bd b2 c9 0d 3a
       0.006373395 0.020446697 -0.03590934 0.0005408778
000070 d8 76 35 bc b0 13 20 3d 9b 7d 03 bd f1 7b 37 3c
       -0.011075698 0.039081275 -0.03210221 0.0111989835
000080 9d 1a c4 3c a0 f3 c4 3c fe bd 3c 3c a5 54 14 bc
       0.023938471 0.02404195 0.011519907 -0.009053384
000090 e3 07 c6 3c a1 e2 1d bd 14 51 3f 3b 39 20 02 3d
       0.024173683 -0.03854621 0.0029192613 0.03176901
0000a0 4b 08 f5 bc 26 0a ac 3a 8d 8c 09 bd 4a 5f c6 bc
       -0.029911181 0.0013125583 -0.033581305 -0.02421536
0000b0 29 c1 84 ba f5 e5 ea bc 0f a7 15 3c 03 8c 00 3d
       -0.0010128367 -0.028674105 0.009134068 0.031383526
0000c0 79 73 f5 3c f7 63 a3 bc a5 32 09 3d 0b 90 6b 3a
       0.029962288 -0.019945128 0.033495564 0.00089860026
0000d0 a7 0f 48 3d 2c d3 60 bc 19 02 4b 3c 4e 92 7b bb
       0.048843052 -0.013722222 0.012390637 -0.0038386765
0000e0 b1 be 64 3c 14 65 f9 3b b1 8d a7 bc e3 7a ef bc
       0.01396148 0.0076109264 -0.020453306 -0.029233402
0000f0 88 f8 6b bc 5a 99 fb bc 9c 6a fc bc 2c 43 c3 3c
       -0.014402516 -0.030712772 -0.030812554 0.023835741

exp_avg f4 [512, 64]
000000 96 36 cc 38 9a 91 42 b8 ce 2e d0 b7 19 c6 1f b7
       9.7376455e-05 -4.6388806e-05 -2.4817327e-05 -9.523262e-06
000010 62 4c cc 38 8f b1 07 b8 31 12 5b b7 99 dd 21 38
       9.7417054e-05 -3.2351873e-05 -1.3057653e-05 3.859177e-05
000020 51 6f 47 b7 70 3c 22 36 08 c5 5a b8 93 95 44 b8
       -1.1887242e-05 2.417506e-06 -5.215875e-05 -4.6869343e-05
000030 cc 27 f2 38 e5 55 35 37 fb ed 8a b8 d0 f0 8d b7
       0.00011546872 1.080844e-05 -6.62468e-05 -1.6920647e-05
000040 c6 62 9c b7 98 19 bb b8 ba ec 99 38 c7 3a a5 b7
       -1.8642644e-05 -8.921622e-05 7.339702e-05 -1.9696903e-05
000050 ee 77 22 b8 7e 01 99 38 6a 21 22 b8 b1 83 4d b9
       -3.8735503e-05 7.2958865e-05 -3.865493e-05 -0.00019599382
000060 bc e1 9f 38 94 a7 09 b7 86 6d 04 b8 f6 ce 81 38
       7.623757e-05 -8.204854e-06 -3.1573254e-05 6.189749e-05
000070 d1 c8 83 38 51 fb 9e 38 58 be 98 b8 b2 05 fb 36
       6.283972e-05 7.5808384e-05 -7.283379e-05 7.481046e-06
000080 c9 1b c6 b7 42 dc 12 38 d5 64 7a 37 5b 95 70 37
       -2.3616378e-05 3.5014244e-05 1.4924638e-05 1.4339889e-05
000090 03 f6 e6 37 bf a3 51 38 a9 57 ee 38 da 28 a8 37
       2.7532695e-05 4.9981983e-05 0.00011365052 2.0046184e-05
0000a0 83 f7 90 b8 bc ef 2e b7 56 04 54 38 32 f5 de b7
       -6.912558e-05 -1.0427026e-05 5.0548777e-05 -2.657864e-05
0000b0 95 64 9e b7 de a6 07 36 89 ec 21 38 b6 b5 b5 38
       -1.8881905e-05 2.0213697e-06 3.860568e-05 8.664599e-05
0000c0 26 06 36 b8 88 43 63 38 4c f7 45 b8 32 0b a2 b7
       -4.3397908e-05 5.418391e-05 -4.7198773e-05 -1.9317118e-05
0000d0 dd 29 c9 b6 94 2d df 38 21 a3 15 37 de 83 95 38
       -5.9951403e-06 0.00010641958 8.9190735e-06 7.129436e-05
0000e0 dc 4a 9a 36 96 eb 03 b8 c3 76 a1 38 2c 04 f7 b7
       4.5982724e-06 -3.145224e-05 7.699199e-05 -2.9446637e-05
0000f0 dd d1 b0 37 4a 8b d9 37 21 64 f8 b6 90 67 0d 39
       2.107856e-05 2.5933277e-05 -7.4026325e-06 0.00013485388
000100 50 47 0d 39 6b 61 97 37 6a e4 95 b8 f5 22 78 b8
       0.00013473374 1.8045966e-05 -7.147419e-05 -5.9160364e-05
000110 9a b0 cb 38 d7 a7 ff b7 9a 50 ab 38 ed 2b ed b6
       9.712689e-05 -3.0476525e-05 8.1689286e-05 -7.068264e-06
000120 ff 27 1a 38 f3 ca 3a b8 ff 21 03 b8 60 ea be b7
       3.675371e-05 -4.4534867e-05 -3.1264495e-05 -2.2758904e-05
000130 80 fd 0c b8 01 88 bf b8 f5 4e 85 38 89 5d 83 37
       -3.361469e-05 -9.1329224e-05 6.356641e-05 1.5659973e-05
000140 04 82 75 b8 e8 72 4f 38 c0 ab 53 b8 25 1f ad b8
       -5.853364e-05 4.945966e-05 -5.0466275e-05 -8.255084e-05
000150 95 c1 05 39 27 f0 1b b9 c3 4c 8c 38 51 d8 6c b8
       0.00012755983 -0.00014871416 6.690018e-05 -5.6468245e-05
000160 4e 2e 8c b8 5d e0 25 b8 9a 70 49 b8 d1 8a a1 37
       -6.684345e-05 -3.954802e-05 -4.8027003e-05 1.9257337e-05
000170 08 28 74 b7 99 ce e1 36 cc b3 a8 b8 9b 9f db 38
       -1.4552854e-05 6.7295737e-06 -8.044354e-05 0.000104724626
000180 ea f6 3a 39 44 8f 29 37 fc 45 ab 37 bb f6 32 b9
       0.00017830325 1.0106542e-05 2.0417378e-05 -0.00017067317
000190 f1 70 4a 37 3c d3 b8 b8 82 0b cc b7 c2 f8 ea b5
       1.20664345e-05 -8.813149e-05 -2.4324054e-05 -1.7506757e-06
0001a0 50 29 06 b9 c6 c9 69 b8 ff a3 ba b7 2a d8 37 37
       -0.00012794626 -5.5739445e-05 -2.2249294e-05 1.095798e-05
0001b0 80 9b fa 38 b4 39 14 38 1c 7c c5 b8 91 d7 aa b8
       0.00011949893 3.533969e-05 -9.416809e-05 -8.146384e-05
0001c0 74 a9 ba 38 e0 8b 7d 38 ed 15 61 b7 23 d7 15 38
       8.900734e-05 6.045017e-05 -1.341615e-05 3.572473e-05
0001d0 96 9f 17 38 24 0c 5b 36 c3 58 a5 38 0b ea 0f b8
       3.614983e-05 3.264061e-06 7.884346e-05 -3.4311826e-05
0001e0 f0 33 05 38 63 05 ae b8 be 1a 2d 38 e3 60 2e 37
       3.175804e-05 -8.29797e-05 4.127132e-05 1.0393766e-05
0001f0 2a a1 47 b8 56 4c b9 b8 97 17 15 b8 fa da d0 b7
       -4.7595393e-05 -8.835706e-05 -3.5546338e-05 -2.4897501e-05
000200 b9 b9 e6 b8 ea 30 c2 37 85 24 db 38 cc 80 d3 b5
       -0.00011001848 2.314938e-05 0.00010449536 -1.575821e-06
000210 57 c6 ee b8 b4 6c 09 b8 46 7d 17 39 7c 1c 77 38
       -0.00011385668 -3.2764583e-05 0.0001444715 5.8915917e-05
000220 52 71 69 38 b1 18 ba b9 42 44 05 38 71 90 95 38
       5.5657067e-05 -0.0003549508 3.177324e-05 7.131778e-05
000230 d9 cb 20 38 cc 57 f4 b8 b6 e1 9d b8 24 9f 23 b8
       3.833682e-05 -0.0001165118 -7.528385e-05 -3.901044e-05
000240 f5 3c 46 39 67 9c 26 b8 7f e1 63 b9 12 d3 ad 38
       0.0001890546 -3.9723145e-05 -0.00021732411 8.288598e-05
000250 4f 84 b0 37 54 b4 a3 b8 f8 ff 4d 38 3e dc 32 37
       2.1042446e-05 -7.8060344e-05 4.91142e-05 1.0660906e-05
000260 31 11 bc 37 0a 6a 8d b8 6e 2b 8c b8 ff 33 de 37
       2.2419352e-05 -6.743155e-05 -6.6838096e-05 2.6488675e-05
000270 b4 42 25 38 55 a3 ed 38 74 4c bb b8 8b a7 e5 38
       3.9401188e-05 0.000113314636 -8.931095e-05 0.00010950778
000280 69 0d ff 37 01 5e 26 38 88 56 b6 38 10 fc d2 b8
       3.0404613e-05 3.9665032e-05 8.694554e-05 -0.000100605306
000290 94 6b 4d b9 f9 51 8c 38 85 c5 57 b9 6b c7 e3 38
       -0.000195904 6.690989e-05 -0.0002057758 0.00010861348
0002a0 39 92 a5 38 c7 6c be 37 12 8c 38 b9 48 a8 17 b7
       7.895049e-05 2.2700418e-05 -0.00017599788 -9.039482e-06
0002b0 2b a8 f6 38 a1 60 fe 38 10 a7 a5 38 59 c2 34 b7
       0.00011761518 0.00012129662 7.898931e-05 -1.0774086e-05
0002c0 71 73 0f b9 2d 27 82 b8 0f 93 17 b8 08 5e fe 37
       -0.00013680548 -6.20618e-05 -3.6138164e-05 3.0322946e-05
0002d0 f8 b3 81 b8 41 50 a6 38 1e 0b 22 39 0a bb 12 39
       -6.184721e-05 7.930445e-05 0.00015453665 0.00013993323
0002e0 00 c7 0e 39 ab 34 05 38 a0 e7 30 39 83 cd e0 b8
       0.00013616309 3.1758722e-05 0.00016870955 -0.00010719432
0002f0 9e a3 3e 39 9b 04 2d 37 73 5b b6 b8 c7 45 8c b7
       0.00018180764 1.0312676e-05 -8.69547e-05 -1.6721793e-05
000300 7a 92 e0 b8 48 f7 5b b8 6a a0 3c 39 f4 1d 41 39
       -0.00010708436 -5.2443967e-05 0.00017988836 0.00018417073
000310 57 11 e1 b8 3f 81 d1 36 f2 f1 71 b8 70 d0 c8 38
       -0.00010732066 6.2437316e-06 -5.7684207e-05 9.575568e-05
000320 40 42 60 b8 cb dc 94 b8 a1 73 93 b8 c0 1a 33 38
       -5.3467462e-05 -7.098316e-05 -7.031044e-05 4.270184e-05
000330 ef b9 9f b7 14 4d 2b 39 e5 dc 09 38 1d 76 97 b8
       -1.904086e-05 0.00016336545 3.286907e-05 -7.2222414e-05
000340 ac c7 f8 37 3e 0f a1 b8 0e 0f 93 35 97 23 60 38
       2.9656883e-05 -7.679917e-05 1.0956735e-06 5.3438907e-05
000350 75 d5 d8 38 4d b5 09 39 30 c2 dc b8 46 bd 24 39
       0.00010339442 0.00013132878 -0.00010526588 0.00015710769
000360 09 91 2f b8 17 83 fa b6 50 70 32 b8 3d ea 31 b7
       -4.1858326e-05 -7.4658415e-06 -4.2543106e-05 -1.060456e-05
000370 25 1d c3 38 27 04 22 37 73 f5 da 38 22 c6 ad b8
       9.303753e-05 9.656919e-06 0.000104407685 -8.286188e-05
000380 da a6 7b 38 4e 26 90 38 d5 a8 9d b8 ba 4f 72 38
       5.9998456e-05 6.87359e-05 -7.517791e-05 5.7771547e-05
000390 e0 a0 97 38 5e 07 60 39 2e 3b cb b7 69 b3 d6 b8
       7.2302064e-05 0.00021365049 -2.4227043e-05 -0.00010237733
0003a0 ea 0f 9c 38 e5 98 00 b8 47 0e c7 b6 0b 01 7f 38
       7.441624e-05 -3.0659972e-05 -5.9323243e-06 6.079771e-05
0003b0 96 3b a3 b8 d4 62 b9 b8 d3 57 6e b8 d4 b7 80 38
       -7.7835444e-05 -8.8398956e-05 -5.6825415e-05 6.137756e-05
0003c0 dc 05 cc 37 ab b5 5a b5 87 25 b5 37 52 95 99 b8
       2.4321424e-05 -8.147569e-07 2.1594356e-05 -7.3234216e-05
0003d0 e8 03 c6 b8 e9 f6 f6 b7 81 50 bd b8 a5 eb 2c b8
       -9.442103e-05 -2.9440462e-05 -9.027217e-05 -4.1227457e-05
0003e0 99 ba bf b8 61 4c 15 39 eb 5c 01 b7 82 45 3b b8
       -9.142346e-05 0.000142382 -7.710633e-06 -4.464901e-05
0003f0 1c dc 24 38 28 d4 ff 38 d5 23 aa b7 b8 7a 3e b8
       3.930564e-05 0.00012198865 -2.0282265e-05 -4.541382e-05

exp_avg_sq f4 [512, 64]
000000 0c 0e cc 35 93 38 8c 35 e9 db 20 36 bf a1 bb 35
       1.5203273e-06 1.0447278e-06 2.3969862e-06 1.397966e-06
000010 8f 17 1e 36 07 52 1f 36 da 41 df 35 a5 d1 d7 35
       2.3557548e-06 2.3740592e-06 1.663396e-06 1.6079763e-06
000020 99 07 85 35 b4 c1 40 36 7d b1 19 36 e7 22 3c 36
       9.911483e-07 2.872298e-06 2.2902088e-06 2.80345e-06
000030 a8 f4 84 36 35 56 bd 35 84 49 6e 36 b6 9e 05 36
       3.9623883e-06 1.4106687e-06 3.5507555e-06 1.9910926e-06
000040 96 76 dd 35 dc eb 35 36 02 16 8c 36 3f 38 7f 36
       1.6500296e-06 2.710839e-06 4.174887e-06 3.80307e-06
000050 b3 f0 41 36 3c 06 ce 35 b5 d6 9e 35 4e d4 8a 36
       2.8899346e-06 1.535001e-06 1.1834405e-06 4.137436e-06
000060 12 90 47 35 5a 49 cf 35 de 73 a2 35 69 8b e9 35
       7.4342927e-07 1.544405e-06 1.2103662e-06 1.7400426e-06
000070 ee 2f 07 36 c3 85 e6 35 27 1b 13 36 05 81 8a 35
       2.0144466e-06 1.7175265e-06 2.1920512e-06 1.0319351e-06
000080 b0 52 3f 36 58 02 81 35 0e 71 1a 36 48 01 3a 36
       2.8509348e-06 9.611931e-07 2.3013595e-06 2.7716906e-06
000090 ef 46 9e 35 77 96 ee 35 d7 be d5 35 09 7c 1f 36
       1.1792562e-06 1.7776173e-06 1.5925278e-06 2.3765044e-06
0000a0 a8 92 d8 35 05 e3 9d 35 a9 19 05 36 fe 48 af 35
       1.6135937e-06 1.1763483e-06 1.983348e-06 1.305976e-06
0000b0 f6 62 c2 35 5a 45 d9 35 6b db 13 36 ef 85 1e 36
       1.4482928e-06 1.6187944e-06 2.2032425e-06 2.3621794e-06
0000c0 e6 42 22 36 a3 cf fa 35 b9 05 85 35 55 db ef 35
       2.4178821e-06 1.8686882e-06 9.910938e-07 1.7870722e-06
0000d0 3c 1b 04 36 22 33 01 36 5f ea ce 35 24 f6 08 36
       1.9685385e-06 1.9252261e-06 1.5416407e-06 2.0408852e-06
0000e0 7e 8f 0e 36 d0 2b f4 35 94 7f fa 35 db 62 e9 35
       2.1243172e-06 1.8192168e-06 1.8663582e-06 1.7388624e-06
0000f0 d7 c4 3a 36 f3 6b 69 35 4a 70 e5 35 37 07 00 36
       2.7830736e-06 8.695635e-07 1.709451e-06 1.9077686e-06
000100 30 0b d9 35 fb 8d 87 35 b9 33 33 36 dd 92 98 35
       1.6171016e-06 1.0099606e-06 2.6703185e-06 1.1367625e-06
000110 c8 3a 29 36 19 2a 86 35 22 58 c7 35 cd ea ed 35
       2.5217178e-06 9.99603e-07 1.4852305e-06 1.7726212e-06
000120 f8 60 e4 35 fa 63 18 36 5e e0 96 35 82 2b 2d 36
       1.7015545e-06 2.270796e-06 1.124117e-06 2.5804334e-06
000130 ca 10 a2 36 1a 8f 92 35 e8 e1 bb 35 7e 71 e6 35
       4.8299307e-06 1.0919496e-06 1.3998333e-06 1.7169366e-06
000140 a3 72 e8 35 55 5f 78 36 9e 2e bb 35 b6 ab 76 36
       1.7318711e-06 3.701037e-06 1.3946153e-06 3.6756805e-06
000150 06 a2 2a 36 07 f7 52 36 2e 39 64 36 80 74 ce 35
       2.5426284e-06 3.1436227e-06 3.400793e-06 1.5382102e-06
000160 52 80 83 35 62 5c 9f 35 b1 b0 c1 35 05 bc db 35
       9.797607e-07 1.187331e-06 1.4431045e-06 1.6371492e-06
000170 0d b5 8c 35 a4 37 ef 35 79 2d ee 35 f3 11 68 35
       1.0483506e-06 1.7823081e-06 1.7745616e-06 8.6452854e-07
000180 05 e7 25 36 9b aa bc 35 dc 08 e9 35 55 c0 1d 36
       2.4721387e-06 1.4056744e-06 1.7362431e-06 2.3506775e-06
000190 64 21 9a 35 30 45 b8 35 ec b0 2e 36 df 46 53 35
       1.1483612e-06 1.3729205e-06 2.6031003e-06 7.8706756e-07
0001a0 dd 7d ee 35 e7 db c0 35 dd 79 56 36 5a 5f cd 35
       1.7769013e-06 1.4369115e-06 3.1959419e-06 1.5301441e-06
0001b0 07 4e d9 35 6c 5a b6 35 2c 73 fa 35 08 27 a3 35
       1.6190469e-06 1.3586373e-06 1.8659971e-06 1.2155806e-06
0001c0 00 33 74 36 f3 46 9c 35 96 bf a1 35 19 1e d3 35
       3.638852e-06 1.1643555e-06 1.2051194e-06 1.5729485e-06
0001d0 9a 6e 18 36 4d 44 19 36 6f 2a 37 35 d7 c0 bd 35
       2.2714144e-06 2.2838533e-06 6.823456e-07 1.4137721e-06
0001e0 0a 4f a2 35 bf 8c 61 35 cc 11 37 36 3c 92 28 36
       1.2092944e-06 8.4023844e-07 2.7279484e-06 2.511907e-06
0001f0 29 52 c5 35 45 79 03 36 36 93 d7 35 86 4c 85 35
       1.4701556e-06 1.959111e-06 1.6061592e-06 9.931543e-07
000200 55 a7 65 35 1f 4a ab 35 6d 9f 85 35 ec fb 8e 35
       8.555265e-07 1.2762065e-06 9.955671e-07 1.0653143e-06
000210 97 e5 15 36 ca 5a b4 35 c8 7d a4 35 02 66 46 35
       2.233637e-06 1.3437468e-06 1.2255559e-06 7.390919e-07
000220 b6 b1 84 35 18 c0 f4 35 8a c7 a8 35 74 ba 91 35
       9.886487e-07 1.8235323e-06 1.2575049e-06 1.0857607e-06
000230 77 1d d9 35 1b 3a c7 35 a6 00 64 35 27 cd 71 35
       1.6176335e-06 1.4843566e-06 8.493756e-07 9.007803e-07
000240 9d 28 90 35 a1 b6 cc 35 33 25 fa 35 0e b9 bb 35
       1.0740656e-06 1.5252336e-06 1.8637278e-06 1.3986444e-06
000250 36 99 4f 35 40 1b 6f 35 54 88 a0 35 46 b0 54 35
       7.733646e-07 8.907409e-07 1.1960606e-06 7.9232666e-07
000260 97 9f 38 35 ea 19 5c 35 6b 14 95 35 1c 4d 3d 35
       6.8777575e-07 8.1994096e-07 1.1107308e-06 7.0520196e-07
000270 04 c9 81 35 94 97 9e 35 be c9 37 35 9d 65 8f 35
       9.669752e-07 1.1816032e-06 6.8466386e-07 1.0683904e-06
000280 bb 77 e9 35 7a ac 95 35 2a f9 9a 35 52 34 f9 35
       1.7394699e-06 1.1151562e-06 1.154641e-06 1.8567173e-06
000290 f2 fd 81 35 cb d4 94 35 4e 2e 90 35 0f 91 33 35
       9.685157e-07 1.108879e-06 1.0742312e-06 6.6893784e-07
0002a0 20 36 94 35 ab 0d 2d 35 6d 25 bc 35 9d bf ed 35
       1.1042612e-06 6.446741e-07 1.4017984e-06 1.7713643e-06
0002b0 ce fc a9 35 d3 85 9c 35 a7 d9 9c 35 cb 86 86 35
       1.2665057e-06 1.1661854e-06 1.1686251e-06 1.0023008e-06
0002c0 ec ce 8f 35 dd 66 8d 35 fb c8 3f 35 2d bb 92 35
       1.0714552e-06 1.0535256e-06 7.144551e-07 1.0932323e-06
0002d0 e8 24 af 35 a5 da 8e 35 32 89 9e 35 ac 9f dc 35
       1.3049257e-06 1.0643458e-06 1.1811846e-06 1.6437748e-06
0002e0 5c ec df 35 09 fa 9f 35 c9 7c 95 35 1e 11 a5 35
       1.6683584e-06 1.1919193e-06 1.1137682e-06 1.229844e-06
0002f0 60 08 c0 35 eb 2d a2 35 f8 6e ce 35 12 cc c6 35
       1.4307552e-06 1.2083304e-06 1.5380492e-06 1.4811542e-06
000300 0e 1e 6e 35 95 0d b8 35 a4 a4 8a 35 d9 2b 84 35
       8.8705644e-07 1.3713021e-06 1.0329718e-06 9.847528e-07
000310 2c 04 ad 35 2c 6f 91 35 67 0e 4f 35 d5 58 7e 35
       1.2890719e-06 1.0835697e-06 7.713447e-07 9.475164e-07
000320 de 7b 9d 35 c6 60 01 36 52 93 0b 36 ff ff b5 35
       1.1733462e-06 1.9278827e-06 2.0798366e-06 1.3560056e-06
000330 e6 e3 e1 35 9c d6 11 36 69 01 63 35 78 e1 81 35
       1.6830134e-06 2.1731603e-06 8.456614e-07 9.676869e-07
000340 02 ee 38 36 ed 3d e3 35 a3 cb 58 36 24 d0 aa 35
       2.7556675e-06 1.6930841e-06 3.230504e-06 1.2726564e-06
000350 86 a4 ad 35 6c ef 85 35 11 57 01 35 7e 2c 5b 36
       1.2937387e-06 9.978953e-07 4.8182943e-07 3.265944e-06
000360 c8 cc 1d 35 fe d9 e9 34 ac bf b0 35 8e 58 25 36
       5.8785054e-07 4.3558242e-07 1.3168806e-06 2.4638462e-06
000370 8a e6 09 36 66 66 41 35 0e 30 17 36 ab 03 d9 35
       2.0548782e-06 7.204711e-07 2.2528725e-06 1.6168827e-06
000380 13 04 8d 35 63 95 24 35 04 68 0b 35 2a a3 95 35
       1.0506504e-06 6.131215e-07 5.19329e-07 1.1148852e-06
000390 b4 ba 7b 35 28 a5 d2 35 35 16 d5 35 1f 08 1a 36
       9.3776475e-07 1.5694286e-06 1.58762e-06 2.2952515e-06
0003a0 d4 16 93 35 3e 84 e0 34 10 05 b3 35 e3 fc 8a 35
       1.0958997e-06 4.181947e-07 1.3338013e-06 1.0355401e-06
0003b0 7c 89 33 35 11 79 0f 35 3c 76 7d 35 87 28 34 36
       6.688276e-07 5.3447826e-07 9.44219e-07 2.684568e-06
0003c0 9d 55 bb 35 8a 4c a3 35 09 7f ae 35 32 a5 a5 35
       1.3957502e-06 1.2166722e-06 1.3000982e-06 1.2341536e-06
0003d0 9b 71 8f 35 32 25 96 35 ab f0 6b 35 78 b7 8e 35
       1.0687394e-06 1.1186696e-06 8.789454e-07 1.0633221e-06
0003e0 76 01 d8 35 96 ba 24 35 dc 08 d0 35 84 30 86 35
       1.6093679e-06 6.136628e-07 1.5499786e-06 9.997898e-07
0003f0 ec 09 96 35 92 73 0c 35 84 31 0c 36 10 fc aa 35
       1.1178759e-06 5.232224e-07 2.0890448e-06 1.2739347e-06

exp_avg f4 [512]
000000 c0 54 59 b8 44 ef b7 38 9a f3 31 b8 8d f1 7c 38
       -5.181576e-05 8.770687e-05 -4.242696e-05 6.0306444e-05
000010 b4 e9 f7 b8 ba 70 89 b9 02 0d de b7 09 1d 25 b9
       -0.000118214084 -0.00026214664 -2.647052e-05 -0.00015746443
000020 b9 79 aa b8 af f6 5f 37 89 7d 74 b9 60 70 99 37
       -8.128904e-05 1.3349271e-05 -0.00023316419 1.829135e-05
000030 ff 76 05 ba 41 0f ea b8 d4 2f 19 39 3b 5a d4 b6
       -0.0005091279 -0.00011160831 0.00014609034 -6.3285966e-06
000040 10 be 8c 38 ac 4c 23 39 f6 73 f6 b7 9b 08 94 b8
       6.711122e-05 0.00015573454 -2.9379484e-05 -7.058793e-05
000050 51 e2 81 b7 5f 4c 3a b8 a0 46 d9 37 04 58 26 39
       -1.5483385e-05 -4.4416982e-05 2.5901303e-05 0.00015863782
000060 58 0e ca b7 94 51 58 b9 b6 ee fd b8 89 65 2e 38
       -2.4086956e-05 -0.00020629755 -0.000121084435 4.1579395e-05
000070 a4 63 66 b8 48 42 1f 38 ba 9e 18 b5 ca 84 a5 38
       -5.492907e-05 3.7970283e-05 -5.685539e-07 7.892547e-05
000080 01 82 15 b9 c9 9b 52 b6 11 47 54 b8 c4 d5 94 b7
       -0.00014258178 -3.1383117e-06 -5.0610925e-05 -1.7742517e-05
000090 e0 3f 81 b9 38 d4 4f b9 05 49 7b b8 29 d0 1e b8
       -0.00024652388 -0.00019820116 -5.9911068e-05 -3.7864e-05
0000a0 81 4b fc 38 d8 cf 66 38 06 9f 3e b9 09 f8 c0 36
       0.0001203036 5.5029843e-05 -0.00018179053 5.750921e-06
0000b0 99 f4 4b b9 9f af b0 38 b9 76 02 b9 00 2c 8b b8
       -0.00019450708 8.425046e-05 -0.00012441994 -6.636232e-05
0000c0 fa 8d 2a 39 0b 12 6c b9 0e 29 2e b8 b0 36 0c b8
       0.00016265354 -0.00022513435 -4.1523068e-05 -3.3429533e-05
0000d0 fd e4 00 38 2c 92 ee b8 c1 9a 05 b9 3d 8c 35 b9
       3.073084e-05 -0.00011375951 -0.00012741519 -0.00017313748
0000e0 9d 6f 23 39 d0 08 54 38 1c 43 8e b9 e7 5c 0d b9
       0.0001558647 5.0552946e-05 -0.0002713435 -0.00013481417
0000f0 af 63 32 b8 1f 40 f8 36 2f c2 a5 b8 d5 ce 47 b9
       -4.2531345e-05 7.3984406e-06 -7.9039826e-05 -0.0001905517
000100 c9 e5 f7 b8 eb 28 64 39 2b 03 0d 39 37 21 46 39
       -0.000118206786 0.00021759018 0.00013447988 0.00018895125
000110 bb 0c 37 37 fc 99 28 b8 47 75 03 37 21 12 8c b9
       1.0910614e-05 -4.019773e-05 7.835514e-06 -0.00026716388
000120 ff 5c cf 36 6e de 9f 37 b5 bd 38 b9 a5 58 30 b8
       6.179907e-06 1.9057854e-05 -0.00017618279 -4.2044227e-05
000130 f7 e8 29 b9 b4 77 2e b9 67 ab 90 b8 1f 0d 83 b8
       -0.00016203882 -0.00016638526 -6.898381e-05 -6.249011e-05
000140 c6 1f 67 b7 77 a0 82 b9 88 bf 93 38 85 0b bf 37
       -1.3776071e-05 -0.00024915088 7.045182e-05 2.2774339e-05
000150 86 40 51 b8 c5 5b d9 b7 5a 87 87 b8 2e fc 4c 38
       -4.9889575e-05 -2.591115e-05 -6.462513e-05 4.887225e-05
000160 1e a7 c0 b8 60 46 59 b8 bc a5 a7 b7 4e 26 63 37
       -9.1864014e-05 -5.1802373e-05 -1.9985127e-05 1.3539173e-05
000170 c4 95 40 b9 3f 3f 9d b8 9c 38 91 b8 8b a3 80 b8
       -0.00018366339 -7.498124e-05 -6.924683e-05 -6.133978e-05
000180 0e 6c a0 38 67 44 af 38 c0 2a 53 b9 e5 e4 33 39
       7.649521e-05 8.357391e-05 -0.00020138454 0.0001715604
000190 8d ff 56 b8 dd 3d 56 b9 b7 8e 49 38 63 2a 65 b7
       -5.1259576e-05 -0.00020431676 4.8055048e-05 -1.3659333e-05
0001a0 81 88 89 b8 4b 92 86 b8 4e 69 1d 38 5e e3 e9 b8
       -6.558095e-05 -6.416867e-05 3.752979e-05 -0.00011152656
0001b0 c5 15 25 b9 bb 64 3d b9 06 d7 04 33 4a cf e0 b8
       -0.00015743736 -0.0001806197 3.0929208e-08 -0.00010719763
0001c0 33 d5 42 b7 97 9b ab 38 82 02 66 b9 f7 ce 20 39
       -1.161294e-05 8.182896e-05 -0.00021935444 0.0001533589
0001d0 67 d0 ec 36 fd 9b 19 39 10 48 78 38 ac 6d 9a 37
       7.0576093e-06 0.00014649327 5.919492e-05 1.84093e-05
0001e0 d2 e8 cd 37 e1 86 fb b8 92 ba 0d b9 5b 29 6e b8
       2.454632e-05 -0.00011993736 -0.0001351631 -5.6782137e-05
0001f0 11 7f 69 b8 25 dc 00 39 11 aa 55 b9 a0 2a 2c b8
       -5.566987e-05 0.00012289041 -0.00020376618 -4.1047693e-05
000200 15 4b 82 37 d7 8e 3b b9 16 86 af b7 d1 93 fd 38
       1.553217e-05 -0.00017886922 -2.0924064e-05 0.00012091513
000210 cb 4a 9a b7 b5 3e 56 b6 89 de 11 36 b1 a1 d1 b8
       -1.8393059e-05 -3.1924985e-06 2.1736216e-06 -9.996014e-05
000220 07 29 f1 b6 21 68 10 39 0f 8b 0d b9 f8 4d 9d b8
       -7.187136e-06 0.00013771701 -0.00013498611 -7.500866e-05
000230 72 8d ae 38 8d 99 2f b6 95 05 4d 38 ea 91 46 b9
       8.323313e-05 -2.616641e-06 4.8881007e-05 -0.00018937109
000240 5d 12 c9 34 74 19 29 39 e5 8b 64 38 24 68 4e b7
       3.7452529e-07 0.00016126578 5.4489723e-05 -1.2302804e-05
000250 c9 5d 28 39 5a 94 bd 38 70 43 78 b9 0e 48 06 38
       0.00016056666 9.039855e-05 -0.00023676245 3.2015196e-05
000260 90 6c d3 b8 fe 3d 3d 39 c1 c2 9b b8 75 ee b7 b7
       -0.000100814854 0.00018047538 -7.427252e-05 -2.192634e-05
000270 86 4e a6 b5 88 b2 65 b9 e2 69 97 b6 92 ab a1 b8
       -1.2390817e-06 -0.0002190565 -4.512477e-06 -7.709036e-05
000280 6c 96 ad 38 41 3e f2 b8 5e db 17 b9 98 a1 57 39
       8.277301e-05 -0.00011551055 -0.00014482203 0.00020564196
000290 f4 29 1b 39 1d 4d a8 b8 8e e1 1f 37 fe 2d e9 b7
       0.0001479758 -8.025228e-05 9.529655e-06 -2.7797181e-05
0002a0 56 55 bf 36 5f 16 b4 b8 1c 22 20 b9 56 01 00 b7
       5.702178e-06 -8.587236e-05 -0.00015271496 -7.629706e-06
0002b0 75 6e 6c b8 c0 3d c8 38 c4 8b 8b b6 a7 76 f3 34
       -5.6369656e-05 9.548245e-05 -4.1587937e-06 4.5348608e-07
0002c0 1e 41 44 b6 2b 96 36 b8 81 2c 7d b9 0c b5 b3 b8
       -2.924418e-06 -4.3532036e-05 -0.00024144539 -8.569108e-05
0002d0 2e e9 b3 b8 86 8e 06 b9 15 54 42 b9 81 b3 e1 37
       -8.578818e-05 -0.0001283233 -0.00018532605 2.6905678e-05
0002e0 2c ce f5 38 4e f8 64 37 c6 ce 4c b8 85 66 53 b9
       0.00011720913 1.3647672e-05 -4.8829963e-05 -0.0002016072
0002f0 5d 5e 49 b9 61 01 d1 b8 5f e7 3a b8 c0 cc 39 b8
       -0.00019204007 -9.9661534e-05 -4.4561337e-05 -4.4298125e-05
000300 47 8d 91 b9 8a 1d 94 b8 70 86 88 b7 ce 07 e1 b6
       -0.00027761815 -7.062692e-05 -1.6275066e-05 -6.706431e-06
000310 79 84 35 b9 d3 60 d6 37 f7 96 1d b7 75 91 93 b8
       -0.00017310855 2.5555875e-05 -9.3930785e-06 -7.0366e-05
000320 e9 48 ee b7 36 9b 14 b9 a4 f3 98 37 73 58 14 38
       -2.8405762e-05 -0.000141722 1.8233266e-05 3.5368324e-05
000330 15 be 2d 39 2a 79 15 b9 8a b6 2d b8 37 01 b2 38
       0.00016569377 -0.00014254884 -4.1416417e-05 8.487928e-05
000340 53 c2 1c 36 dd 47 5c b9 70 b4 0e 39 4f 13 d4 b7
       2.3358923e-06 -0.00021007606 0.00013609393 -2.528136e-05
000350 d6 12 9a b7 90 58 19 b9 23 01 70 b8 1d 0a bf b9
       -1.8367002e-05 -0.00014624209 -5.7221518e-05 -0.00036437894
000360 95 77 a9 b8 7f 99 34 b4 3e 57 03 b8 72 4c 09 b8
       -8.080822e-05 -1.6819648e-07 -3.1314084e-05 -3.273454e-05
000370 33 8c 4d b9 a1 af 81 b8 72 c0 42 b8 48 1a 87 b9
       -0.00019602552 -6.183913e-05 -4.6432433e-05 -0.00025768788
000380 a3 5e 24 39 a9 5c 0a 37 ce 9b df b8 c5 a7 cf b8
       0.00015675514 8.247015e-06 -0.000106624895 -9.901779e-05
000390 20 8c dd b8 0b 1f cc 38 45 74 11 b8 d8 22 12 b8
       -0.000105642015 9.73326e-05 -3.467898e-05 -3.4841563e-05
0003a0 bf a7 b2 b8 b5 70 58 b8 94 ee 35 b8 3e fa d5 b8
       -8.5189466e-05 -5.160338e-05 -4.3375956e-05 -0.00010203243
0003b0 27 18 d7 b8 a1 d4 5e b8 61 f5 0e b8 09 a6 bf b5
       -0.000102564976 -5.312695e-05 -3.4083965e-05 -1.4278932e-06
0003c0 38 e4 2d b9 e5 2e 08 38 2f 84 77 37 20 a7 18 b8
       -0.00016583584 3.24686e-05 1.4753124e-05 -3.639527e-05
0003d0 ca 66 a8 b7 39 d1 5d 39 ef 56 33 b8 82 93 84 38
       -2.0075026e-05 0.00021154144 -4.275789e-05 6.321726e-05
0003e0 65 f9 1d 39 5d c8 4e b9 3a 97 7c 38 26 d8 73 b8
       0.00015065593 -0.00019720332 6.0222323e-05 -5.813702e-05
0003f0 d1 4f 19 b8 57 18 ca b7 4a 00 b9 b8 a5 f2 56 38
       -3.6552377e-05 -2.409161e-05 -8.821541e-05 5.1247556e-05
