ldm_checkpoints/ldm_epoch_30.pth (torch, 798986 bytes, 12 tensors)

model.0.weight f4 [512, 64]
00000000: 1548 d03d ffc6 413d b70c b6bd f8ae a5bd
00000010: b585 f13d abb7 e93d 3f3b 823d 394b b43d
00000020: f4ea 06be b675 1f3d 5263 8a3d 7c2c fd3d
00000030: 1d0c 3fbd 78f9 833d 014f 473d 11db c13c
00000040: 1381 dfbc 0f76 e2bd 0e9e e2bd 3437 d5bd
00000050: 412b 973b 3acb bb3c 0610 06bc ee33 88bd
00000060: 8798 533d ef2e b5bc f241 3a3d 6709 aabd
00000070: ba13 ccb9 8e96 04bd 5d8d 0c3e 86c3 e73b
00000080: f6ef efbc 593a a93d 0bf5 7dbd 7430 dabd
00000090: 4288 323d 8837 633d 04b5 0d3e 2d08 7c3d
000000a0: 87ea 70bc c2fd 043e 137d fe3c 4d5e a03d
000000b0: d4a6 77bc 95d1 783d cbfc 783d b12b 8a3d
000000c0: 17db 953c 2c3e c1bc fb8d c73d deb3 efbc
000000d0: c10d fdbd 26a4 8e3d 707b c3bd 7d25 e9bb
000000e0: 6ec7 883d d281 92bd c955 063d 42e1 82bd
000000f0: 45a9 a83d b1fd c83d c5cd 4cbd c862 973d
00000100: d5f3 61bd 9a40 17bd 83b9 1c3c 6880 cbbd
00000110: c6ca 02bd 70c5 c73d 836d e7bd 3693 a43c
00000120: 4895 40bd a361 533d 69af a5bd 3a3d ab3b
00000130: 3762 533d 1ab4 9d3d 2895 b9bb 623d 6dbd
00000140: c9b4 e8bd 389d 69bd 53fc b4bd bc72 9a3d
00000150: 284b 823c 2e12 923d 5c2c 643c 8b87 e5bd
00000160: ab23 c1bd ad03 063e 23a7 8ebd 7ba0 59bd
00000170: c380 823d 63da 543d f0b4 903d acc8 d0bc
00000180: 412a b8bd 557a 9a3d 33b5 78bd d48a 9fbd
00000190: a509 9d3d 3788 dabd 6c1a c83c 0eb8 16bd
000001a0: b4ac 8f3d 3590 193c d68b cebd 821e 8fbd
000001b0: 2673 75bd 1c4c dabd 2c5f ac3b 2d11 533d
000001c0: 43a6 d43c 8d27 9e3d 8d25 9cbd f416 20bd
000001d0: 4d10 d23d 6d7a a93d 8423 bebd ba01 a23d
000001e0: e25b 133a 4e8e d13d 78e0 26bd a81f cb3d
000001f0: 6da5 9b3d 291f f33d 6dd7 c2bd 653a 83bd
00000200: aa84 5fbd 093d d13d 71f7 353c 5f8e b23d
00000210: f2a3 d23d 6d44 06be 2b60 c5bc 5194 abbc
00000220: 7428 c13c 5a87 cfbc a35b b3bd 4a65 dc3d
00000230: 5d90 f6bd 6209 cc3d 210b da3d bd21 89bd
00000240: 67f6 b2bc cf7d 93bd 5afe ac3d 9533 0e3d
00000250: b317 f0bd d252 ad3d 0ca2 1e3e 4274 d0bd
00000260: 93ac 3bbd e932 ee3c 32d8 cc3c a454 a63d
00000270: 8ae1 f9bc fb14 a1bc bbc7 dabd 4a09 323e
00000280: cf75 ee3d f860 063c 8747 1cbd a039 ad3c
00000290: f9dc 43bc 426c 4fbd d83c 413c 2b4b d53c
000002a0: 535c f1bd e467 c8bd d72b ad3d 3ad7 c0bd
000002b0: b491 e3bd e7a8 103e 86f3 a4bd 37fa 0f3d
000002c0: b46a 363d d0cd 39bd 6574 633c ab78 b5bd
000002d0: 718a 0ebe d06c 72bd 4859 02be 9c21 973d
000002e0: 805f 9ebd 6d52 8d3d e76d 243e 0d0f 423d
000002f0: 7f21 09be 2833 c8bd de73 a63d 0a44 cabc
00000300: c12d 813d ac0f 0ebe d9f9 523d 8af8 f4bd
00000310: 09a8 c6bc 187e ef3c 711e 85bd aada 20bd
00000320: 1e9a 3dbd 5c3d 18be bf5d 30bc b11c adbd
00000330: 864f 2fbd 29b0 cd3b 8f60 edbc 82a5 6e3d
00000340: ee0d 90bd 5872 703d 57f7 6bbd 5bba 54bd
00000350: bd60 19be db83 cbbd c92b ce3d f5a1 fc3d
00000360: 2d61 2e3c 1992 d3bd 47f0 a9bd 4577 07bd
00000370: 5a2c 153d 4291 253c 641a 6c3d ecbf adbd
00000380: f41d e8bc 99d5 b5bd 9680 0c3e 827b 6abd
00000390: 1ccb 3e3d 4a91 113e a741 e4bd 068b 6bbd
000003a0: 37ff aa3d 6d44 5f3c c524 92bd 6946 c03d
000003b0: 42cc 3d3c 006f a63d 63a1 32bd e948 0abe
000003c0: d398 f93c 0494 983d 112a ca3c 294f bdbd
000003d0: e7e7 e8bc eaa8 d3bd 0312 c83b 6c29 e4bc
000003e0: 45db a8bd dbd7 c43d d614 213d 81ca 113e
000003f0: 531a 6fbd 9bc7 ef3c 43eb 48ba f881 93bd
0.101699986 0.047308918 -0.08889144 -0.08090013 0.11793081 0.11411985 0.063589565 0.0880341
-0.13175565 0.038930617 0.06757225 0.12362 -0.04664241 0.06444067 0.04865933 0.02366403
-0.027283227 -0.11057674 -0.11065303 -0.1041092 0.0046133106 0.022924054 -0.008182531 -0.0665053
0.051659133 -0.022117106 0.045473047 -0.083025746 -0.0003892461 -0.032370143 0.13725801 0.0070728688
-0.029289227 0.08263082 -0.06200127 -0.10653773 0.043586977 0.05547288 0.13838583 0.061531235
-0.014704353 0.12987426 0.0310655 0.078304864 -0.0151154585 0.060746748 0.060787957 0.06746615
0.018292947 -0.023589216 0.097438775 -0.029260572 -0.12356139 0.069649026 -0.09545028 -0.0071150647
0.06678663 -0.071536675 0.032796655 -0.06390621 0.082354106 0.09814013 -0.050000925 0.07391888
-0.055164177 -0.036926843 0.009565714 -0.09936601 -0.03193166 0.09754455 -0.113001846 0.020089727
-0.047017366 0.051606786 -0.080900975 0.0052258046 0.051607337 0.07700367 -0.0056635328 -0.057919867
-0.11362607 -0.0570347 -0.088371895 0.07541415 0.015904978 0.07132374 0.013926592 -0.112074934
-0.09430631 0.1308734 -0.069654725 -0.05313156 0.063722156 0.051966082 0.07065761 -0.025486313
-0.08992434 0.07542864 -0.06071968 -0.07790151 0.07667855 -0.10670512 0.024426661 -0.036796622
0.070153624 0.009372761 -0.10085265 -0.06988241 -0.059924267 -0.10659048 0.005260369 0.051530052
0.025958186 0.077223875 -0.0762435 -0.03908439 0.102570154 0.08275304 -0.09284118 0.079104856
0.00056212966 0.102322206 -0.040741414 0.09918147 0.07599912 0.11871178 -0.095137455 -0.06407622
-0.054569878 0.1021672 0.011106358 0.087185614 0.10285176 -0.1311204 -0.024093708 -0.020944746
0.02357886 -0.025333095 -0.08757713 0.10761507 -0.12039254 0.09962727 0.10646654 -0.06695888
-0.02184601 -0.072017305 0.08446951 0.03471716 -0.1172327 0.08463062 0.15491503 -0.101784244
-0.045818876 0.02907701 0.025005434 0.08121613 -0.030503053 -0.019663325 -0.10682627 0.17386356
0.11643564 0.00820183 -0.03815415 0.021145642 -0.011954539 -0.050640352 0.011794291 0.02603682
-0.117851876 -0.097854406 0.084556274 -0.09416051 -0.11111775 0.14126931 -0.08054261 0.035150733
0.044535354 -0.045362294 0.013882731 -0.08860906 -0.13919999 -0.059185803 -0.1272937 0.07379457
-0.07733059 0.06900487 0.1605755 0.047377635 -0.13391684 -0.09775382 0.08127569 -0.024690647
0.06307555 -0.13873166 0.051507805 -0.119614676 -0.024250047 0.02923493 -0.06499947 -0.039271034
-0.046289556 -0.14867157 -0.010764538 -0.08452738 -0.04280045 0.0062771034 -0.028976707 0.05826331
-0.07033907 0.058702797 -0.05760893 -0.051935535 -0.14978309 -0.09937259 0.10066945 0.12335578
0.010643286 -0.103306 -0.082977824 -0.03307273 0.03641925 0.010105433 0.057642356 -0.08483872
-0.028334595 -0.08878631 0.13720927 -0.057246692 0.04658042 0.1421558 -0.11145335 -0.05750563
0.083494596 0.013627154 -0.071359195 0.0938843 0.011584343 0.0812664 -0.04361094 -0.13504376
0.03046838 0.07450107 0.024678262 -0.09243614 -0.028430892 -0.10334952 0.006105663 -0.027851783
-0.08244947 0.09611484 0.03932651 0.14237405 -0.058374714 0.029269984 -0.0007664451 -0.07202524

model.0.bias f4 [512]
00000000: c5e5 fc3c 0318 953d 004d 413d 4f12 b2bd
00000010: e2e6 88bd e393 9cbb fc99 1dbd f2c2 a9bd
00000020: 4bc2 c73c 1d51 5abd 946c 333d ce05 03bc
00000030: 4229 943d 27d5 68bd 114d de3d 68f5 53bc
00000040: 1b0a f2bd c608 0c3d 3e6e bbbd 0e17 aa3d
00000050: c7a5 b4bd 0baf b7bd d93e 50bd 7a19 a93a
00000060: aedd 323d 6d98 ccb7 2ca3 8d3d eaab 1c3d
00000070: 66b6 83bd fd00 803d 2512 c7bd 3cb2 463c
00000080: 2409 8dbc 645b d23d 5ac0 833c fe74 94bd
00000090: 3fd8 a93d 9bd0 333c c4ec 6d3d c386 103e
000000a0: fc85 f83d 608e 623d cb86 b23d 5642 803d
000000b0: 66ff a23d 6bf0 29bd 303d 24bd 3f88 393c
000000c0: 1028 b13c 0524 a73d 0990 333b 5150 10bd
000000d0: 32c6 d23d 2113 913d 3953 08be 1df7 d43c
000000e0: 3a12 253d f35e 00bd 20d7 3d3d 4ba1 0c3e
000000f0: 1b48 03be 519f a2bd 2c61 10bd 5959 f33d
00000100: 5e9f e83c 2926 82bd 4f45 f7bc 7be0 843a
00000110: 4852 903d 9b0b 8b3d b8a5 863d b2be 553d
00000120: 7920 103c c295 63bb d8f3 963c e7c7 5e3d
00000130: 843c 95bd b7be 843d a71e 31bc 94af aebc
00000140: a9e9 19bd b3dd 73bc 6776 863c 298d eb3c
00000150: e0ca 313d 2ea3 05be 1e1a d5bd 6aea a43d
00000160: 8e73 b33d a712 e2bc ea24 813d c6bc a13c
00000170: ada8 903d b14f 023c 0a2f e93d c985 4d3d
00000180: f987 db3b 4ac2 86bd 7a9e 303d bc05 f6bc
00000190: 3c46 f6ba 932c 963c 4987 d03d 9f79 b0bd
000001a0: 7229 ef3c 0e6b 853c eb84 063e d447 843d
000001b0: 16ce 77bd 16c5 d6bc 4f0d 503d 57cd d0bc
000001c0: f950 fabc e397 293b 12b7 37be aa9c b9bd
000001d0: b360 cfbd 726e b6bd 4613 3dbd 44f9 64bd
000001e0: 5145 6bbd 2368 503d e9dd 873c 6fad b6bd
000001f0: 9284 ab3c c752 763d 4f75 153d 1455 c83c
00000200: fe6e 35bc 6f22 4b3d 04c6 e83d 7b50 4a3c
00000210: 5ec2 a93d 0e5d 973d dabe f53d 31a6 233c
00000220: 17d6 223c 61a4 8abd 44d6 7f3d 86cb 8839
00000230: 0f27 c03d fc9d a6bd 85ab 1fbd cc53 c5bc
00000240: 05bc 3bbd 7156 febd cda3 a1bd 7275 0f3d
00000250: d95a e0bd 5a86 6a3c 2b99 76bd 1c83 adbd
00000260: 8ac0 03be b187 89bd 0b40 d13d 4e30 4bbd
00000270: 4f1c 64bc 4d2d d63d cbf6 bb3d 7c26 c03d
00000280: 543c 903d 5e61 e2bd 4a87 d13d e1fc c33d
00000290: 5f6f ca3d 8cf4 523d f62c 0ebe a679 223d
000002a0: 1ff8 353d 418e 00bd 04fe 56bd 744a acbd
000002b0: a0e5 18bd 2c26 033d d0f1 fc3c 2d77 10bd
000002c0: 9fb1 9abd 36e3 75bc 2ed4 b1bc 6fdf 5d3b
000002d0: 830b f0bd cd82 73bd 4933 c6bd 01aa bd3c
000002e0: ac0c bb3d 5b02 8fbd f865 62bd 6108 0f3e
000002f0: 5fc0 e7bd 43f1 4c3d 6d44 053b 202f d1bd
00000300: 1ac9 38bd 1783 c03d da85 bf3d 68af 0dbd
00000310: ca39 7abd e92d 873a 9bd5 b4bc 281b a43c
00000320: 7cd8 713d 9c66 2c3d 9ea6 cdbd f9a1 f7bd
00000330: 770e 513d 9120 53ba 67b2 be3d 47a8 0b3d
00000340: 2d15 05be 308b c8bc 01fe e1bc 5bb2 13bd
00000350: 5645 143d 4761 e13d b829 9e3d 7e35 51bc
00000360: 6453 693d 9f31 c63c f8db 933d ce61 fdba
00000370: 6b91 4fbd 13fe 073e 3574 1cbc 00dc 17bd
00000380: b461 9fbc c8e4 9b3d ff5d 00be 3620 febd
00000390: 9201 8c3c 9c9d cfbd c79d 31bd 0847 113c
000003a0: 7d82 463d 7911 9a3d 1e9e c7bd fe79 cebd
000003b0: 41c4 72bd f99e c6bd 1363 9f3d b553 c93d
000003c0: 4e0d b03d 19a5 cc3b d9fb c5bd d293 f43c
000003d0: a961 c1bd 8ed3 8f3d 404c 8ebd 834a 1ebb
000003e0: e009 b43d 0481 61bb eb4b 293c ee58 c9bd
000003f0: 8f6d 8b3d cc54 62bc 76fc 4cbc 6285 ef3d
0.030871281 0.072799705 0.047192574 -0.08694898 -0.066846624 -0.0047783717 -0.03847693 -0.08289136
0.024384638 -0.053300012 0.04380472 -0.007996989 0.07234432 -0.056843903 0.10854543 -0.012936927
-0.11818334 0.034188055 -0.091518864 0.083051786 -0.08820682 -0.08968934 -0.050841186 0.0012901269
0.04366844 -2.4389674e-05 0.06915888 0.038249888 -0.06431274 0.062501885 -0.09720258 0.012127455
-0.017216273 0.10271338 0.016082931 -0.07248877 0.08293199 0.010975028 0.058087125 0.14113908
0.121349305 0.05531156 0.08717116 0.062626526 0.0795887 -0.041489046 -0.040097415 0.0113239875
0.021625549 0.08161167 0.0027399084 -0.035232846 0.10291709 0.07083727 -0.13312997 0.025996739
0.040300585 -0.03134055 0.046347737 0.13733403 -0.12820475 -0.079405434 -0.03524892 0.11882276
0.028396305 -0.06354935 -0.030184416 0.0010137701 0.07046944 0.06789323 0.06574577 0.052183814
0.008796805 -0.0034726714 0.01842682 0.05438986 -0.07286933 0.064816885 -0.010810531 -0.021323957
-0.03757635 -0.0148844 0.01641388 0.028753834 0.043406367 -0.1305053 -0.10405372 0.080525234
0.08762275 -0.027596785 0.06305869 0.019743335 0.07063422 0.00795357 0.11385925 0.050176416
0.006699559 -0.065800264 0.043119885 -0.030032031 -0.0018789242 0.018331802 0.101820536 -0.086169474
0.029194567 0.0162864 0.13136642 0.06459013 -0.060499273 -0.026217025 0.050793942 -0.025488539
-0.030556189 0.0025877885 -0.1794093 -0.090630844 -0.10125866 -0.089077845 -0.04616096 -0.05590178
-0.057439152 0.050880563 0.016585307 -0.089197986 0.020937238 0.060137536 0.036488827 0.02445463
-0.011073826 0.049593385 0.113658935 0.01234829 0.08289026 0.07390796 0.11999293 0.009988354
0.009938738 -0.06769634 0.0624602 0.00026091578 0.0938245 -0.08135602 -0.038981933 -0.024087809
-0.045833606 -0.12418831 -0.07892571 0.035024114 -0.10954828 0.0143142585 -0.060204666 -0.08472273
-0.12866417 -0.06715334 0.10217293 -0.049606614 -0.013922765 0.10457859 0.091779314 0.0938234
0.07042757 -0.110537276 0.102308825 0.09569717 0.098845236 0.05150275 -0.13884339 0.039666794
0.04442608 -0.031385664 -0.052488342 -0.08412638 -0.037328362 0.032018825 0.030877024 -0.035269905
-0.0755341 -0.015007785 -0.02170762 0.00338551 -0.11720946 -0.059450913 -0.096777506 0.023152353
0.09133276 -0.06982871 -0.055273026 0.1396804 -0.11315989 0.050034773 0.0020334974 -0.102140665
-0.04511366 0.094000034 0.09351702 -0.03459111 -0.06109027 0.0010313365 -0.022074511 0.02003248
0.059044346 0.042090043 -0.10041545 -0.12091441 0.051039185 -0.0008053864 0.09311371 0.03409603
-0.12996359 -0.024480432 -0.027586939 -0.036058765 0.036198936 0.11004882 0.07722801 -0.012769101
0.056964293 0.024193583 0.0721969 -0.0019331516 -0.05067579 0.13280515 -0.00954919 -0.037075043
-0.019455768 0.07611996 -0.12535857 -0.124084875 0.017090593 -0.101374835 -0.04336336 0.008867033
0.048464287 0.07522864 -0.09746955 -0.10081862 -0.059269194 -0.096982904 0.07782569 0.09830419
0.08596288 0.006245267 -0.09667177 0.029855642 -0.09442455 0.07022773 -0.06948137 -0.00241533
0.08790946 -0.0034409175 0.010333042 -0.09831415 0.06808006 -0.013814162 -0.012511363 0.11695363

model.2.weight f4 [64, 512]
00000000: 2958 493c 0ee6 1b3d 3ab6 19bc 8f38 8eb9
00000010: e067 e1bc e0b5 6dbd 7281 b33c 205b a03d
00000020: a5ca 71bd 1611 af3c 2aaa 1abd 14df 04bd
00000030: a78a 09bd eb6a 073d 630c 2bbc 13fe 61ba
00000040: 185a 223b 03e1 dbbb 0875 423d baf1 19bd
00000050: 5664 303d ff22 80bc 3556 55bd ae51 9f3c
00000060: 4f60 373d 160b 0b3d 72c4 3abd be27 b23d
00000070: 8058 d23c 36bf 273d dd84 afbd d117 24bd
00000080: 2ff7 a23a d020 803d 8b84 92bc 95d0 0a3d
00000090: d08b 42bc 24ed 0e3d 47e9 c63c c5fd 3fbd
000000a0: df68 0a3d 75dc 71bd ff97 513d 0318 e53c
000000b0: 2f3e c23c abb4 113d 5f62 b9bc 3fd7 9c3b
000000c0: 0d18 1d3c dd24 913d 1aed 7b3a 2bb0 41bd
000000d0: bd42 e73b 485e 533c b26c 993b 8456 203a
000000e0: 97b3 ebbc ed93 9dbd 8230 0dbc 0c5b 183c
000000f0: 3624 5cbd 392c 63bd 0a4f 3cbd b1aa 75bc
00000100: 33f5 9bbc 055b 323d 2cf5 283d 10f5 98bd
00000110: 4660 4b3d 8f08 f13c 0350 22bd 8175 eabc
00000120: 2ffb 483d 99ed 2dbc d467 01bd a8bc 6cbd
00000130: 6446 283d 53aa 3a3d f938 823d a06a 593b
00000140: eafc a33b f2c1 273d 4f2a 14bb ac71 93bd
00000150: 9ce8 0e3d f573 61bb 161f 623d 78d8 7e3b
00000160: afc4 dcbc 8795 4fbd 5462 543d ed19 a53c
00000170: 4747 26bc 7417 563b 47ed 4d3d df13 a43c
00000180: 11fc 0dbc 442a bfbc ad4d f3bc 0396 3ebd
00000190: eef6 4f3c cea7 00bd a7e7 eabc 6e29 213c
000001a0: 999a a3bd 8478 75bc 9018 80bd 38a2 573d
000001b0: 091c 613d fa9b 213c 27da 493a 7999 24bc
000001c0: fde5 2e3d 3111 42bc eb91 2cbc 478f f23c
000001d0: bd41 ccbb 1532 14bc 6020 523d 4165 31bd
000001e0: 5ebc 013c f2f2 263d 398f b13d a71b c8bb
000001f0: 2a52 e03c 96ad 3e3a 658e 07bd b067 36bd
00000200: b54d 2e3c a348 0a3b 9cee c63c 298d a2bd
00000210: ab66 9fbc eb2f a9bc 2a0d 913c 40b8 573c
00000220: 10ee 863c 9a9f 103d ce42 47bc f60e 24bd
00000230: 0ba7 0dbc 3574 fb3c 383a e83c 8d01 5ebc
00000240: 4f76 523c b66e 86bd 63c4 cb3c 9cbd d8bb
00000250: cbc9 db3c dbb0 49bd 40d4 d13c 69cc 493d
00000260: cf32 d83c 63b7 f03b 3a23 da3b 3d51 873d
00000270: 068e 50bd b07a 793d e21c d2bc db7f 3a3d
00000280: 086e 39bd 0aec c03c 4336 82bc e429 bb3c
00000290: c29a 10bd 5533 e9ba d258 b33d ff6b 86bc
000002a0: cd04 fabb 04c8 183c 199a adbd f3c1 1dbd
000002b0: f13c 8b3c bc38 c1bc 83d9 af3d 13e7 abbb
000002c0: 9381 e5bc 1e29 6f3d 991d 84bc 6d21 843c
000002d0: 138f 8bbc c7f8 9a3c 5f30 75bb 3e27 cc3a
000002e0: 348b be3c 5cb0 d3bc bd72 63bd c6bf 733d
000002f0: 89be 353c 6762 3b3d f12d d8bc 75d2 0e3d
00000300: 6bb2 a3bc 103a 89bb 75bc 243d 5dc7 58bc
00000310: ac25 583c 4da6 89bd 1c16 1e3d 6a23 1dbd
00000320: 7f1b 50bc 3bcf 57bd 35b2 d7bc 01f2 583c
00000330: e236 89bc 8b02 d3bc ffd8 4dbd 3736 7b3d
00000340: 17af c53c b020 c73c 23fa ba3b b72f 513c
00000350: 6e88 123d 35b3 7d3d 96b5 97bd 5d02 1cbd
00000360: def2 ce39 c776 bd3c 6740 e93a d237 2f3b
00000370: 0089 6e3d b074 b03c 6bdd 38bd af7a 1d3d
00000380: 3598 f13c 120d b4bd 6172 d53c fe91 09bb
00000390: aff5 30bc 0366 e6ba b315 513d 0977 59bc
000003a0: c9d1 4ebb 2081 5f3d a082 c13c 9ba6 29bb
000003b0: e1ea af3c 5692 113d 818f 893c d3ee 343d
000003c0: 0ce4 92ba a335 9f3c fdeb aabc c1eb e03b
000003d0: d30f 8a3c 15f4 89bd e106 0cbd 84d0 8bbc
000003e0: d6ea 903d 00cd 853d ec20 ed3c 6051 64bc
000003f0: 22a0 a1bd 734f ccbc 9f7c 52bb 75bd 2c3d
0.012289085 0.038061194 -0.009381825 -0.0002712649 -0.027515352 -0.058034778 0.02191231 0.07829881
-0.059031148 0.021370452 -0.037759937 -0.032439306 -0.033579495 0.03306095 -0.010439965 -0.0008620929
0.0024772938 -0.006710173 0.04747489 -0.037584044 0.043064438 -0.015641687 -0.052084167 0.019448128
0.04476958 0.03394612 -0.0455975 0.086989865 0.025676966 0.040953837 -0.085702635 -0.040061776
0.0012433286 0.062562585 -0.017885467 0.033890326 -0.011874154 0.034894124 0.024281157 -0.046872873
0.03379142 -0.059048135 0.051170345 0.027965551 0.023711292 0.03557269 -0.022629915 0.0047864015
0.009588254 0.07087109 0.0009610221 -0.047287147 0.0070575164 0.012900896 0.004682147 0.00061164075
-0.028772159 -0.0769423 -0.008617522 0.009299051 -0.05374547 -0.055462096 -0.045973815 -0.014994309
-0.019037819 0.043543834 0.04124944 -0.07468617 0.04965236 0.029423026 -0.039627086 -0.028620483
0.049067672 -0.01061573 -0.03159316 -0.057797104 0.041082755 0.04557259 0.06358523 0.0033175126
0.005004515 0.040956445 -0.0022608226 -0.071994156 0.034889802 -0.0034401391 0.055205427 0.003888635
-0.026949255 -0.05067971 0.051851586 0.020153964 -0.01014883 0.0032667788 0.050275113 0.020029007
-0.008666054 -0.023335584 -0.029700125 -0.04652978 0.01269315 -0.03141003 -0.028674914 0.009836538
-0.079884715 -0.014982346 -0.06254685 0.05264494 0.054958377 0.009863848 0.0007700049 -0.010046356
0.042699803 -0.011844919 -0.010532836 0.029609336 -0.0062334226 -0.009045144 0.051300406 -0.043309454
0.007918445 0.040759034 0.08669896 -0.006106812 0.027382929 0.0007273791 -0.033094782 -0.044532478
0.010638644 0.0021100424 0.0242837 -0.079370804 -0.019458136 -0.020652732 0.017706472 0.013166487
0.016470939 0.035308458 -0.012161924 -0.04005333 -0.008645783 0.03069506 0.028348073 -0.013550174
0.01284559 -0.06564085 0.024873918 -0.0066144 0.02682962 -0.04924093 0.025613904 0.049267206
0.026391415 0.00734608 0.0066570314 0.06607292 -0.050916694 0.06090802 -0.025648538 0.04553209
-0.04527095 0.023550052 -0.015895015 0.022847123 -0.03530384 -0.0017791787 0.087571755 -0.016408918
-0.007629967 0.009325031 -0.084766574 -0.038515043 0.016996833 -0.023586623 0.08586409 -0.005246052
-0.028015887 0.05838882 -0.016127395 0.01612922 -0.017035997 0.018917454 -0.0037412865 0.001557566
0.023259737 -0.02584093 -0.055529345 0.05950906 0.01109279 0.04574814 -0.026389094 0.034868676
-0.019982537 -0.00418783 0.04021879 -0.013231126 0.013192575 -0.067211725 0.038595304 -0.03836385
-0.012701868 -0.052687865 -0.026330093 0.013241292 -0.016749803 -0.025758049 -0.05025577 0.061331
0.02413134 0.024307579 0.005706088 0.012767724 0.03577464 0.061938483 -0.07407682 -0.03808819
0.00039472332 0.023127927 0.0017795683 0.0026736152 0.058236122 0.021540016 -0.045133036 0.03844708
0.029491523 -0.087915555 0.026055517 -0.002099156 -0.010800763 -0.0017578009 0.051046085 -0.013273009
-0.0031558147 0.054566503 0.023621857 -0.0025886658 0.021474304 0.035539947 0.01679206 0.044173073
-0.0011206879 0.019434756 -0.020864481 0.0068640416 0.016853249 -0.06736008 -0.034186248 -0.017067201
0.070760414 0.06533241 0.028946362 -0.013935417 -0.07891871 -0.024940228 -0.0032117737 0.042172868

model.2.bias f4 [64]
00000000: aa70 f73c 8de3 05bb 177c d63c 2a3c 003d
00000010: 5e66 fc3c 640d 083d 4e17 cebc be24 ff3c
00000020: 9de4 4f3c 7b42 9b3c 5ee9 fabc dfe1 82bc
00000030: 7530 07bd e1e7 143b 6cc9 c4bc 0eb8 4c3b
00000040: eba8 cebc e755 3e3d 34fb 6a3c 299d 13bd
00000050: 5b5b 89bc 6251 bfba 8fa9 943c e8dc 053b
00000060: a7cb a2bc a947 823c 212e da3c f137 553b
00000070: 380d f2bc 04e6 1d3d 21ab c5bc f05a 04bc
00000080: 6d55 30bb b402 333d 2124 87bc 1c0c 97bc
00000090: 6f8a 723b 99f4 21bd 4244 8dbc 5db0 253d
000000a0: 8c75 ccbc 4e4c 203c 453a d43c d3b2 123b
000000b0: f809 953c 8ffd 853c f322 a8bc 8b7d 85bc
000000c0: 2807 183d 1428 19bd 9f95 373d f2ab 0e3d
000000d0: 4d6b 09bd 2815 4a3d 504f b7bc 0af3 08ba
000000e0: 6aeb d4bc 36e6 223c 611b 813c 1250 803b
000000f0: af31 f6bc 2dfe 4b3c b00d 29bd 6ac0 c33c
0.03020509 -0.002042982 0.026182218 0.031307377 0.030810531 0.033215895 -0.025157597 0.03114545
0.012688783 0.018952599 -0.030628856 -0.015976844 -0.033005197 0.0022721218 -0.024021827 0.0031237635
-0.02522703 0.04646864 0.014342118 -0.03603855 -0.016767194 -0.0014596398 0.018147258 0.002042586
-0.0198725 0.01590331 0.026633324 0.0032534564 -0.029547319 0.038549438 -0.024129452 -0.008078322
-0.0026906386 0.04370375 -0.01649672 -0.018438391 0.0037008782 -0.039539907 -0.017244462 0.040451396
-0.024958394 0.009783817 0.025906691 0.002238442 0.01819323 0.016356258 -0.020524478 -0.016295215
0.0371162 -0.037391737 0.044820424 0.03483195 -0.033549596 0.049336582 -0.022376686 -0.0005224204
-0.02599116 0.009942582 0.015760126 0.003915795 -0.030052988 0.012450737 -0.04127282 0.023895461

exp_avg f4 [512, 64]
00000000: e6a8 1fb8 4277 d739 0176 86b9 ed98 9539
00000010: 7a28 83b6 92a1 5f39 c764 70b8 f290 8436
00000020: f9ee 6aba f3e2 0bba 3bfa 81ba 8f88 1e3a
00000030: 8436 a139 bfd6 253a c609 4439 af6d 6437
00000040: 1ac6 5f39 bc5b 1439 2804 c939 a82e aeb9
00000050: d4f4 8d3a 1b48 8cb9 a9bc e3b9 d772 6137
00000060: f814 8c39 8d47 9839 417b 9937 2bd3 a439
00000070: b2e9 0d39 d846 05ba d14f 7838 a9e8 9c39
00000080: cb43 b3b8 c920 a737 28ef 2bba 00ff 9eb8
00000090: d663 47b8 aa6e 4aba 42b3 80b9 22f2 21b9
000000a0: 13a6 9bb9 4836 2839 9ff4 88b7 c58a f339
000000b0: f4fb 1838 ee16 b9b6 3065 3839 3147 0a38
000000c0: 1b78 7b39 4af1 46ba 9c70 e439 0afe 9d39
000000d0: 56ca e739 d561 dc39 45f9 97b9 e7f6 27b7
000000e0: ad85 82b7 48df 52b9 4e05 2bba 3d8d 87b9
000000f0: 4540 4939 92e4 54b9 447d 0939 ed0d 443a
00000100: ad14 113a 0a1c 4039 9e81 3239 a348 09ba
00000110: 37be 91b9 878a b838 0885 9039 ed8a 4cba
00000120: f266 9b39 fd3f ef38 7fc2 92b8 684d 2cba
00000130: ee5e 98b9 7ea8 48ba b238 efb8 f71c bfb9
00000140: a133 93b9 e3d6 663a 3b65 99b9 27e4 b1b9
00000150: 35e1 34ba d593 383a 7357 8d3a 1f38 ab39
00000160: 0cf7 d4b9 9403 9fb9 9364 dd39 a474 d6b9
00000170: 3ac8 f739 82ec a2b9 10de 0e39 9f9e 0eba
00000180: 7211 fb38 28ac 5ab9 2fc6 0638 5e13 c9b8
00000190: c795 b8b9 33ac af39 f6ef f039 4b9e 6739
000001a0: 5b7b 7a39 5026 a5b9 f6b0 bdb9 31ff d8b9
000001b0: 7401 6939 b73b 3e39 be6d ddb7 df43 af39
000001c0: 100a 18ba 2f3a fa39 aff1 16ba ac77 8cb8
000001d0: f702 fb38 c3ae 5f38 5b08 23b7 39b2 5439
000001e0: 2434 77b9 2040 fab9 4480 10b8 092d b0b9
000001f0: 0ba6 3dba f54f 3ab9 85cf c6b9 67c0 e8b9
00000200: 7393 7eba 0ec6 643a 0153 41b9 24eb 9039
00000210: ec57 123a c46d 543a f169 053a 5372 14ba
00000220: 377a 4e3a 03e5 a8b9 5873 23b9 52bb 0fb8
00000230: e2c7 70b7 57d5 bab9 2e6e 03ba ddab 7fb8
00000240: 55d4 54b9 3eec 383a 897f 223a fce0 fb39
00000250: 5220 9939 206b d339 f842 763a 3296 9139
00000260: efbe aa3a 41fa 51b9 fa9a 77b9 2479 8b39
00000270: b2d2 1bb8 39b2 28ba dcde 79ba df4c c539
00000280: 1aa6 a639 cf38 cb39 758d 2cba c835 603a
00000290: 599f 04ba 8469 da38 33c9 ba39 3a0d e338
000002a0: de1f 97ba 007a f439 15c4 19ba 9889 8937
000002b0: 10d1 dd39 b950 8dba 23f0 003a ac06 07ba
000002c0: 129a b9b8 d5d9 3b3a ffda 4fb9 6304 fc39
000002d0: 51e5 0639 eb14 4538 b8d5 2cba e415 68b9
000002e0: 7b0c 4d3a ab40 bdb9 225a 283a aaf7 9cb9
000002f0: 496c c038 b2ba 9b39 1678 42b8 82cd 03ba
00000300: 60a3 2b3a d164 f8b9 e242 9b39 9ba3 173a
00000310: 86dc a639 182f ccb8 338f ab39 4e1c 1d39
00000320: e76c c3b8 eddb 77b8 3cf0 c339 b99c efb9
00000330: ca87 9b39 fd60 f0b9 38cc 9238 52be 4d3a
00000340: bc4f 7338 d61a 5c39 8bca 11b9 f6ee 01ba
00000350: a189 a939 a3c1 82b8 7b37 14b9 ecde 5239
00000360: 480c dab9 5c3b 24b8 5007 fcb8 09c5 31b9
00000370: 9c4a 29b8 1d1f e839 113c b538 6568 1f3a
00000380: 64b4 8338 f9b4 d0b8 239d 21ba c4e3 11ba
00000390: 5ea4 d2b8 70b1 8d39 a42f 3039 c33d afb9
000003a0: 8607 4039 ac40 f0b9 31a2 56b7 36d1 f6b8
000003b0: dad7 d339 cdb1 d1b8 8854 ce38 31e0 f439
000003c0: 2348 4539 937f 88b9 32ea 4a39 e195 043a
000003d0: e669 6038 02ee fbb9 9c19 b2b8 e039 ab39
000003e0: 6e9d a039 6a54 4b39 19f5 9138 8337 4f39
000003f0: 31d1 f9b9 4d67 9eb7 dd56 2a3a 7512 85b9
-3.8065853e-05 0.0004109685 -0.0002564639 0.00028533433 -3.9088163e-06 0.00021327127 -5.7314315e-05 3.9507804e-06
-0.00089620013 -0.0005336247 -0.0009916493 0.00060475705 0.0003074893 0.000632625 0.00018695657 1.3615397e-05
0.00021340736 0.00014148554 0.00038340804 -0.00033222628 0.0010830411 -0.00026756604 -0.00043437377 1.3437783e-05
0.00026718504 0.0002904501 1.8296416e-05 0.0003143785 0.00013533866 -0.0005084104 5.9202142e-05 0.00029927984
-8.5480126e-05 1.9923218e-05 -0.00065587694 -7.5815246e-05 -4.7538277e-05 -0.00077221787 -0.0002454762 -0.00015444358
-0.0002968764 0.0001604195 -1.6326374e-05 0.00046451963 3.6474274e-05 -5.516099e-06 0.00017585303 3.2968066e-05
0.00023981968 -0.00075890555 0.0004357145 0.00030134647 0.00044210505 0.0004203456 -0.00028986685 -1.0011462e-05
-1.5559455e-05 -0.0002011034 -0.0006523923 -0.00025854437 0.00019192796 -0.00020303045 0.00013112003 0.0007478882
0.0005534392 0.00018320992 0.00017023689 -0.0005236959 -0.00027798276 8.7996064e-05 0.00027564936 -0.0007802684
0.00029640604 0.00011408327 -6.99805e-05 -0.0006572814 -0.00029062427 -0.0007654502 -0.000114069684 -0.0003645194
-0.0002807649 0.00088058243 -0.00029257857 -0.00033930058 -0.00069000135 0.00070410717 0.0010783508 0.00032657475
-0.00040619855 -0.0003032951 0.00042227338 -0.00040904165 0.00047260692 -0.0003107526 0.000136249 -0.00054405065
0.00011971862 -0.00020854233 3.2132662e-05 -9.588034e-05 -0.00035206808 0.000335069 0.00045955152 0.00022088845
0.00023887811 -0.00031499797 -0.00036180735 -0.00041388863 0.00022221153 0.00018142058 -2.6396356e-05 0.0003342917
-0.0005799839 0.00047727066 -0.00057580596 -6.698011e-05 0.00011969165 5.3330103e-05 -9.7175025e-06 0.00020284289
-0.0002357518 -0.00047731493 -3.4451732e-05 -0.0003360289 -0.000723452 -0.00017768129 -0.00037920117 -0.0004439384
-0.00097113027 0.0008727022 -0.00018436836 0.00027641014 0.00055825594 0.00081035146 0.0005089334 -0.00056627876
0.0007876488 -0.00032214084 -0.0001558786 -3.4268312e-05 -1.4351654e-05 -0.00035635635 -0.00050136715 -6.0956798e-05
-0.00020296995 0.0007054246 0.0006198814 0.00048042077 0.00029206515 0.0004032487 0.00093941344 0.0002776846
0.0013026873 -0.0002002502 -0.00023613489 0.00026602403 -3.7151105e-05 -0.00064352487 -0.0009531805 0.00037632041
0.00031785743 0.00038761503 -0.0006582358 0.0008552936 -0.0005059145 0.00010414704 0.0003562659 0.00010826667
-0.0011529883 0.00046630204 -0.00058657053 1.6395745e-05 0.00042308168 -0.0010781504 0.00049185957 -0.00051508355
-8.850185e-05 0.00071659434 -0.00019822641 0.00048068454 0.00012864663 4.698794e-05 -0.0006593126 -0.00022133399
0.0007821989 -0.0003609707 0.0006422122 -0.00029939163 9.175443e-05 0.00029703003 -4.6365043e-05 -0.00050278765
0.0006547477 -0.0004737736 0.00029613735 0.0005784572 0.0003182629 -9.73625e-05 0.00032722353 0.00014983231
-9.318609e-05 -5.909421e-05 0.00037372287 -0.000457024 0.00029665075 -0.0004584863 6.999861e-05 0.00078484893
5.8009973e-05 0.00020990832 -0.0001390373 -0.00049565674 0.00032336733 -6.234951e-05 -0.00014135048 0.00020110206
-0.0004158935 -3.915593e-05 -0.000120176584 -0.00016953437 -4.0362225e-05 0.0004427367 8.641941e-05 0.00060809246
6.280167e-05 -9.951922e-05 -0.0006165078 -0.0005565251 -0.00010044196 0.00027025817 0.00016802415 -0.00033424617
0.0001831335 -0.00045824551 -1.2793157e-05 -0.00011769163 0.00040405878 -9.9990146e-05 9.8385906e-05 0.00046706342
0.00018814257 -0.00026034992 0.00019351466 0.0005057734 5.3504387e-05 -0.0004805178 -8.4924715e-05 0.00032658782
0.00030634872 0.00019391035 6.959792e-05 0.00019761738 -0.0004764884 -1.8883171e-05 0.0006497929 -0.00025381488

exp_avg_sq f4 [512, 64]
00000000: 6146 c735 6252 1836 3dcf 1f36 a2fc 3736
00000010: 712c 3f35 4374 bb35 89f2 d735 2be5 df35
00000020: 1d8a 1c36 4931 ef35 a9d9 2536 f948 9a36
00000030: b544 c435 3ddc 6d36 01e7 a135 7305 fc35
00000040: e47b b135 c771 ac35 d133 a935 b9aa b535
00000050: 49bc 0336 e203 db35 b6be b135 eaf1 b735
00000060: f391 b235 5082 d635 625f f835 c5bd da35
00000070: c737 e835 5291 5b36 8623 9635 0709 0536
00000080: 2fe5 f535 68b2 1536 1f51 0a36 280f 3e36
00000090: 336e 9635 9ef4 0136 ed74 e935 e5ca 0136
000000a0: daf7 9b35 5bd6 5c35 bd7a 8d35 7de9 9235
000000b0: 79af ab35 d320 7735 1d81 7735 a556 be35
000000c0: 8b7f fe35 aeaa f535 8c10 2036 3c20 0b36
000000d0: 5bcc 0136 eae1 e635 dbdd 0436 64d0 6735
000000e0: b216 cb35 b832 cd35 c6ee eb35 47b3 a135
000000f0: 3ce3 0236 63ce b235 114c f035 d06e ca35
00000100: 50db 3e36 53d1 a536 219d 9436 466c c136
00000110: c699 ab35 f070 2836 3f21 2e36 8534 7636
00000120: 7041 2336 888e 6136 e9c7 4936 69d6 8e36
00000130: 16fc 0e36 fc68 1a36 2dad 3e36 b9e1 9336
00000140: ef76 ca35 e558 5e36 6a87 1936 ca13 1b36
00000150: a57a 2636 6af4 4236 6257 1c36 ff35 ce35
00000160: d8ef 3c36 0089 4236 514a 4e36 c9fe 2036
00000170: c9a6 1536 33c8 2136 dde3 8935 f170 a936
00000180: 5ccb 5a36 6a3a 8936 1a85 7036 91e7 9636
00000190: d694 fc35 dedf 0436 bbd6 3636 bcf9 5936
000001a0: d73f 1836 e208 8236 39bd eb35 2926 cd35
000001b0: 3b13 3436 4097 dd35 e94c d335 5918 2936
000001c0: 0797 2736 4262 4d36 36bb 2136 a335 a936
000001d0: 1be4 7c36 2665 5036 6d7e 7936 81bb de35
000001e0: f17e 3836 f6fd f535 62d6 0236 f3d2 1236
000001f0: a664 4536 e87a 1e36 34e2 ff35 f6f2 0336
00000200: b1c8 d835 e5cc 3c36 072e df35 028a 2736
00000210: 194e 5435 6c21 9f35 53ea b335 6c58 ae35
00000220: 6836 b335 94e1 ec35 1898 9e35 ba57 7b35
00000230: b29f 8835 dd60 c335 f93d f535 aec1 1236
00000240: 4093 2e35 9e08 c135 64ee 9735 96be 9d35
00000250: 65c5 a035 f636 8f35 2a48 5035 cb6e 7835
00000260: a41e f335 d734 0b36 35da 6535 10c1 b835
00000270: 6eff 0436 428c e835 6346 5435 81d5 1f36
00000280: 135a f435 ec76 2c36 d375 f635 97eb e635
00000290: a7b7 a235 ea11 c835 3d42 9e35 077a c535
000002a0: ca02 bc35 2572 0436 bbcb b335 7a7c 9135
000002b0: e6c7 bb35 e597 8e35 5c15 ed35 594a ce35
000002c0: 4687 9e35 1bdd cd35 5e04 be35 9e78 0f36
000002d0: c0fe 0536 785b 7935 9ba8 0e36 292f 3535
000002e0: 49f5 6635 6bdb 8635 e4dc b535 9ef0 0336
000002f0: c03b 9b35 46ea 9635 ad57 9535 eb84 8635
00000300: 45c5 4835 271d 8435 470d 8b35 a314 d835
00000310: 0516 be34 9b19 0635 67f7 4935 3978 8d35
00000320: b45f 2035 1b48 4535 e3ba 7c35 a828 6b35
00000330: 3db1 6235 25a2 8735 b865 5135 17fd 4e35
00000340: db8a 0735 7b0a 6d35 bdb7 6435 bfb2 1135
00000350: 4f8d 9135 5c5a 5c35 4899 7c35 7de2 c034
00000360: 031b 3b35 844b 7735 ecd4 7835 659a 1335
00000370: c6f4 fe34 53df 2b35 c22a d634 eb33 b235
00000380: 0f4d 6035 0cf4 2635 c98c 6a35 dbd3 6b35
00000390: fe98 c334 415b b435 55ce 0035 e2fc f134
000003a0: a51e 4935 9765 3835 35f8 2d35 8025 6235
000003b0: 8763 7135 b169 b534 4348 0335 235c 6035
000003c0: cf7f cd34 7b86 bf34 f3ed 2a35 4abe 1335
000003d0: db2b 8135 54dd 8635 c669 8c35 a784 4735
000003e0: dd00 4835 6222 2135 b389 8535 7bf0 2835
000003f0: 21c5 9135 704e 6235 55e4 9735 4fdb 0635
1.4847138e-06 2.2697718e-06 2.3813475e-06 2.7416177e-06 7.1217715e-07 1.3966422e-06 1.6089335e-06 1.6681491e-06
2.3326204e-06 1.7821231e-06 2.471361e-06 4.598053e-06 1.4623134e-06 3.5443948e-06 1.2062666e-06 1.8777049e-06
1.3223585e-06 1.2848112e-06 1.2606562e-06 1.3535238e-06 1.9630118e-06 1.6317902e-06 1.3243032e-06 1.3704969e-06
1.330451e-06 1.5982168e-06 1.85052e-06 1.6297496e-06 1.730158e-06 3.271813e-06 1.118621e-06 1.98238e-06
1.8320624e-06 2.2306576e-06 2.0610821e-06 2.8321028e-06 1.1207943e-06 1.9364884e-06 1.7393883e-06 1.9340598e-06
1.1620534e-06 8.2268315e-07 1.054104e-06 1.0945802e-06 1.2791562e-06 9.2062436e-07 9.2202555e-07 1.418132e-06
1.8961595e-06 1.8303597e-06 2.385149e-06 2.0731377e-06 1.9341448e-06 1.7202085e-06 1.979867e-06 8.6357454e-07
1.5131284e-06 1.5288451e-06 1.7578357e-06 1.2047611e-06 1.9503777e-06 1.33221e-06 1.7903532e-06 1.5082423e-06
2.8439863e-06 4.9417517e-06 4.429036e-06 5.764453e-06 1.2785247e-06 2.509969e-06 2.5947372e-06 3.6687427e-06
2.4326982e-06 3.3610577e-06 3.0067697e-06 4.2568904e-06 2.1306382e-06 2.3008897e-06 2.8413008e-06 4.407219e-06
1.5084787e-06 3.3132321e-06 2.2877598e-06 2.3108319e-06 2.4807316e-06 2.905052e-06 2.3296675e-06 1.5363911e-06
2.815379e-06 2.8987997e-06 3.073965e-06 2.3990162e-06 2.2299812e-06 2.41074e-06 1.0273612e-06 5.0497406e-06
3.2602902e-06 4.0897185e-06 3.5840262e-06 4.4973062e-06 1.881878e-06 1.979984e-06 2.7245103e-06 3.2480884e-06
2.2686925e-06 3.875336e-06 1.7563935e-06 1.5284796e-06 2.6833284e-06 1.6509803e-06 1.5743109e-06 2.5197135e-06
2.4972849e-06 3.0604574e-06 2.409984e-06 5.0428366e-06 3.76837e-06 3.1053291e-06 3.717748e-06 1.659486e-06
2.7492026e-06 1.8327835e-06 1.9496297e-06 2.1878484e-06 2.9413873e-06 2.3615376e-06 1.9064814e-06 1.9661943e-06
1.6151663e-06 2.8133447e-06 1.662819e-06 2.496527e-06 7.90898e-07 1.185615e-06 1.3404737e-06 1.2989744e-06
1.3352374e-06 1.7649022e-06 1.1816182e-06 9.3632445e-07 1.0179267e-06 1.4556823e-06 1.8271959e-06 2.1868432e-06
6.503433e-07 1.4382128e-06 1.1319758e-06 1.1752879e-06 1.1978378e-06 1.0670326e-06 7.759105e-07 9.2548424e-07
1.8113828e-06 2.074337e-06 8.562668e-07 1.3765257e-06 1.9818212e-06 1.7326167e-06 7.907858e-07 2.3817122e-06
1.8205632e-06 2.569922e-06 1.836272e-06 1.7204901e-06 1.212339e-06 1.4906375e-06 1.1791195e-06 1.4713158e-06
1.4007903e-06 1.9735974e-06 1.3395833e-06 1.0839569e-06 1.3990764e-06 1.0624032e-06 1.7664092e-06 1.5369834e-06
1.1811287e-06 1.533804e-06 1.4157374e-06 2.137887e-06 1.9966828e-06 9.2892833e-07 2.125779e-06 6.749638e-07
8.6038614e-07 1.0047637e-06 1.3549839e-06 1.9660579e-06 1.156579e-06 1.1244053e-06 1.1126882e-06 1.0022462e-06
7.479287e-07 9.843251e-07 1.0360171e-06 1.609926e-06 3.540628e-07 4.995615e-07 7.523835e-07 1.0540308e-06
5.974391e-07 7.3493146e-07 9.414927e-07 8.7603485e-07 8.4449476e-07 1.0105474e-06 7.800659e-07 7.7109274e-07
5.049348e-07 8.830463e-07 8.5203993e-07 5.427682e-07 1.0844468e-06 8.2087877e-07 9.410037e-07 3.592758e-07
6.9702236e-07 9.212456e-07 9.269704e-07 5.498644e-07 4.7489283e-07 6.4027444e-07 3.9891717e-07 1.3277144e-06
8.355864e-07 6.2194954e-07 8.737666e-07 8.785261e-07 3.6432897e-07 1.3437603e-06 4.798397e-07 4.5073745e-07
7.492293e-07 6.8693174e-07 6.480871e-07 8.424613e-07 8.992433e-07 3.3790778e-07 4.890646e-07 8.358058e-07
3.8277219e-07 3.567437e-07 6.3676197e-07 5.5038674e-07 9.624013e-07 1.0048193e-06 1.0461597e-06 7.432631e-07
7.450706e-07 6.002721e-07 9.949348e-07 6.293482e-07 1.0860714e-06 8.43057e-07 1.131683e-06 5.0238026e-07

exp_avg f4 [512]
00000000: c397 f338 3713 09b9 387f 083a 356f 5138
00000010: 0977 1f39 3cce ae36 9e84 3c3a d663 2fba
00000020: 15a6 8537 d7f0 ec38 6ebf f637 f31e a0b9
00000030: d697 b237 df86 05ba 120b 593a e158 17ba
00000040: b3da 73ba 363b 7bba 3387 8039 bb40 3cba
00000050: 2106 b8b9 ef9a 3a39 e047 ba39 c587 3e3a
00000060: 1af5 c238 83af b8b9 74ea 94b9 e9e2 163a
00000070: ab5b 26b9 8684 eab8 3210 25b7 8398 5c39
00000080: 0e4f 1c3a b373 3f38 9ad0 0539 919e 6939
00000090: 2ccc 13b9 484d 10ba de88 0f39 a086 a138
000000a0: 8a81 89b7 68ca e6b9 a0eb 17b9 c708 3939
000000b0: 249d fd39 5f89 8a39 f8a1 9cb7 ee8e 24ba
000000c0: 4809 f03a 2af8 e4b9 510e 1239 03b1 82b9
000000d0: b2ef 4e3a 55b6 58b9 7749 2339 9821 64b8
000000e0: f983 66b9 02a5 1a3a 2d15 82b9 492f 3f3a
000000f0: 105f 31b9 7de5 f938 035a 06ba 5a8f 123a
00000100: 8d04 ed38 4089 1aba 23d1 c2b8 9f4e be39
00000110: 8c1e 9939 d104 92b8 3321 8bb9 3895 0639
00000120: 5f83 8eb8 3699 8bb9 3214 c0b8 dd6b 09ba
00000130: 9226 5d39 b114 1f39 91b7 fdb8 e068 2539
00000140: ef28 e439 23ad d139 0604 17b9 c83b 6ab8
00000150: 552b acb9 5da1 7539 7563 6ab9 58a2 8eb9
00000160: 0df4 37ba 8a0a 143a 584c a0b9 dfc2 9ab9
00000170: 4469 ad38 e0d8 2cba 4e75 3ab9 1503 163a
00000180: a173 ce3a 7756 0cba 8c15 a339 1dd4 6537
00000190: 67f1 0938 0943 42b9 fad9 bab8 b0cd 1aba
000001a0: 2ba0 3eb8 de39 5ab9 190f 6d39 92ea 1eba
000001b0: 41f8 e139 900b da38 70f0 f6b8 c33f 53b9
000001c0: d426 3eb9 ba92 ccb8 b5fb 20ba 7e3c e939
000001d0: 292c e839 4732 dab9 f690 5e39 7e76 5237
000001e0: f676 2d39 4575 62b9 0486 2539 4913 beb8
000001f0: a16a a139 5959 10ba 9d10 b9b8 8f3c bdb9
00000200: f6d4 9639 e764 62b8 3fa4 18ba cfee e6b9
00000210: 84dc afb9 84f3 f139 9e3c a839 8ba8 93b8
00000220: cdca c9b8 1fa7 31ba 357e 3dba fb48 2c39
00000230: 9a8b 8739 1f5e fe39 60b2 da39 4ed1 9639
00000240: 6dcb eab9 4f87 d7b8 abfd ee39 4bea c9b9
00000250: 2ffa 8239 4d7e 9b39 0733 5bba 2209 2139
00000260: b301 3bb9 e315 52b9 7123 e739 14bf 2db9
00000270: b81c c839 c5f3 42ba 686b 8c39 1368 c138
00000280: ff38 0b3a 48f7 9b3a e98a b739 a66b bf39
00000290: 13ce fd39 6010 99b9 64f6 26ba 4335 c939
000002a0: d13a 8139 7819 c038 917d 4db9 827e bcb8
000002b0: ff2c 10b9 e6e3 4eb9 9651 04b9 13fa 9d38
000002c0: 8a31 9739 f81c d839 ffae cab8 eaa9 aa39
000002d0: a1df 043a e58c 1b39 3072 17b9 ed76 3a38
000002e0: 3fc4 d539 dc5d 01ba a263 5839 7324 213a
000002f0: 537d 80b9 d3ca e938 fe94 16ba 4500 5f39
00000300: 1e17 c239 63ec 7cb9 a0d5 7c3a b07d 0b3a
00000310: 26f1 2bb7 1bd7 853a 5dc3 50b8 48b7 e9b9
00000320: 98de 873a 93f7 9738 3ba0 8735 7baf bcb9
00000330: 2929 23ba 7b59 5239 8019 3a3a b0ee e5b8
00000340: 7209 57b9 3668 dcb8 f908 8db7 7afa 35b7
00000350: 35ee 8338 d256 0e3a 30a5 8cb9 e06e 613a
00000360: 107e 1fba 2e0a 063a f727 26b9 7c2d a239
00000370: 9529 2439 deee a7b7 3a70 2339 473b a4b8
00000380: 8132 4bb9 6b20 8a3a e8c9 b13a 7e43 ad37
00000390: 102d dd38 7ea9 103a 7b06 3f39 4dc5 363a
000003a0: 8ee9 a839 b226 d739 7fd3 1238 1de7 3cba
000003b0: 48d2 18b9 f02f e839 a789 153a e10a 583a
000003c0: c762 2238 6e5c 7ab9 421e 803a 93dd 143a
000003d0: 0265 d639 b8db 743a 15fa d839 4946 473a
000003e0: 3de6 de39 88fa d638 bab6 59b8 e16d a8b7
000003f0: 7c09 fab9 3056 3e3a 0b60 34b9 c909 a839
0.00011615411 -0.00013072496 0.00052069454 4.9933053e-05 0.00015207766 5.209613e-06 0.00071913924 -0.0006690597
1.5932173e-05 0.00011298217 2.9414627e-05 -0.00030540637 2.1289958e-05 -0.0005093645 0.00082795427 -0.0005773437
-0.0009302303 -0.0009583713 0.00024514794 -0.00071812765 -0.0003509978 0.0001779606 0.00035530236 0.0007268156
9.2962946e-05 -0.0003522598 -0.0002840344 0.0005755858 -0.00015865143 -0.00011182674 -9.838537e-06 0.0002103765
0.0005962708 4.5645702e-05 0.00012761579 0.00022279682 -0.00014095072 -0.000550468 0.0001368853 7.702154e-05
-1.6391994e-05 -0.00044019823 -0.0001448826 0.00017646245 0.00048373 0.0002642376 -1.8672072e-05 -0.00062774017
0.0018313313 -0.00043672445 0.00013928978 -0.00024927416 0.0007893994 -0.00020667289 0.00015572259 -5.4390723e-05
-0.00021983673 0.0005899222 -0.0002481131 0.0007293118 -0.00016915449 0.00011915991 -0.0005125107 0.0005590819
0.00011301888 -0.00058950856 -9.2895956e-05 0.000362982 0.00029205193 -6.9627196e-05 -0.0002653688 0.00012834824
-6.7955574e-05 -0.00026626297 -9.159035e-05 -0.0005242208 0.00021090571 0.0001517113 -0.00012098172 0.00015774695
0.00043518047 0.00039992583 -0.00014401981 -5.5845623e-05 -0.0003283868 0.00023425133 -0.0002235303 -0.00027205306
-0.00070172624 0.00056473224 -0.0003057446 -0.0002951836 8.26889e-05 -0.0006593596 -0.00017782042 0.0005722505
0.0015751013 -0.00053534604 0.00031105836 1.369885e-05 3.288817e-05 -0.00018526254 -8.9097724e-05 -0.00059052836
-4.5448698e-05 -0.00020811657 0.00022607706 -0.00060621754 0.00043100308 0.00010397204 -0.00011774979 -0.00020146281
-0.00018134277 -9.754808e-05 -0.0006141023 0.00044486293 0.0004428339 -0.0004161766 0.00021225572 1.2544564e-05
0.00016542882 -0.00021596726 0.00015785551 -9.063498e-05 0.00030787758 -0.0005506478 -8.824582e-05 -0.0003609401
0.00028768898 -5.397657e-05 -0.00058228144 -0.00044046945 -0.00033542898 0.00046148535 0.0003208862 -7.0409e-05
-9.6222015e-05 -0.0006776917 -0.0007228584 0.00016430386 0.00025853218 0.0004851678 0.000417131 0.00028766174
-0.00044783522 -0.00010277202 0.00045583895 -0.0003851227 0.00024981934 0.00029658005 -0.00083617907 0.00015357559
-0.00017834343 -0.00020035314 0.0004408616 -0.00016569748 0.0003816837 -0.0007436837 0.00026782905 9.2223425e-05
0.0005310922 0.0011899257 0.00035007976 0.00036510563 0.00048409458 -0.00029194634 -0.00063691125 0.0003837739
0.0002464862 9.160017e-05 -0.000195971 -8.9881025e-05 -0.00013749673 -0.0001973059 -0.00012618894 7.532923e-05
0.00028837874 0.00041220314 -9.664706e-05 0.00032551523 0.00050687237 0.00014834439 -0.0001444302 4.4456614e-05
0.0004077274 -0.00049349456 0.00020636481 0.0006147094 -0.00024507436 0.00011148085 -0.00057442475 0.00021267038
0.00037019787 -0.00024120654 0.000964487 0.0005321158 -1.0248541e-05 0.0010211201 -4.977301e-05 -0.00044577778
0.0010366021 7.2463554e-05 1.0104917e-06 -0.00035988897 -0.000622409 0.00020060495 0.0007099137 -0.0001096403
-0.00020507516 -0.00010509828 -1.6812688e-05 -1.0846759e-05 6.290936e-05 0.00054298074 -0.00026825955 0.00085995905
-0.00060841534 0.0005113211 -0.00015845882 0.00030932936 0.0001565575 -2.0019183e-05 0.00015586699 -7.831171e-05
-0.00019378403 0.0010538226 0.0013564201 2.0654636e-05 0.00010546495 0.00055184204 0.00018217594 0.0006972149
0.0003221747 0.00041036826 3.5006084e-05 -0.00072060694 -0.00014574185 0.00044286205 0.0005704411 0.0008241367
3.8715803e-05 -0.0002387629 0.0009774643 0.0005678769 0.00040892517 0.0009340602 0.00041385056 0.0007601721
0.0004251468 0.0001025098 -5.190701e-05 -2.0078327e-05 -0.00047690782 0.0007260768 -0.00017201916 0.00032050748

exp_avg_sq f4 [512]
00000000: b507 cd35 e93a 2136 54ad b035 f5d2 3f35
00000010: 22ca 0b35 e91c 6835 f5c6 af35 7607 b235
00000020: deb2 db35 927f 8735 1798 d335 e501 0d36
00000030: 2871 d235 bb01 bc35 9e2a d635 f3d1 e535
00000040: f317 7835 af84 a335 1dd8 9935 7b55 5635
00000050: 1bad b935 e1b3 5f35 d31a 5335 02af 7e35
00000060: 9ce1 cf35 3d86 d635 d3c2 c135 4ecf c635
00000070: db6f 5535 d988 a735 2192 8635 d1cb 9d35
00000080: d01f 9b35 0a2d 9e35 1cdc cc35 4686 8435
00000090: fea5 3735 dc10 3d35 08c9 b435 7ac7 8735
000000a0: a2cc ef35 7228 8235 06f7 df35 9b55 9035
000000b0: c6a3 b935 ac70 d935 7c86 e035 47aa d735
000000c0: 9d9b ad35 48e1 da35 d579 ba35 b4f6 8735
000000d0: 11bb c035 d194 b035 877d 6535 998e 7f35
000000e0: d7e3 7235 d05b c835 fbc5 bd35 7860 3036
000000f0: bca7 8a35 1c83 5d35 6df9 5135 fa16 9135
00000100: febb c235 751d 0736 2c09 1b35 5401 7335
00000110: 1a86 7635 bd32 3535 8649 8135 a419 8535
00000120: 2a61 7f35 b295 6f36 5a65 a935 4930 9a35
00000130: d6cc 9a35 eafb 4b35 1815 9135 e479 9735
00000140: 7e63 1e35 9e42 9835 8cde 8635 c469 9635
00000150: 725a c835 d3d8 1735 7cb6 a235 e73a 8135
00000160: c77f 6035 7493 a735 cf57 5335 f1e3 f735
00000170: b57d db35 cf86 5935 ab8e a135 023c d735
00000180: df5d ff35 3be3 af35 7a89 a035 ff6d e635
00000190: 444a ca35 e695 b735 c789 a035 ecd6 7435
000001a0: 9ab9 c435 23fe 8d35 c6d2 1136 d7b8 9c35
000001b0: d721 1935 14ed e235 e137 9335 f8d3 2435
000001c0: 326c 7c35 d8d8 6835 e05b 9035 a3a5 9b35
000001d0: 38c0 c135 24d1 5e35 34ae e935 692a 8a35
000001e0: 62ae 1e35 892d f035 d761 8b35 0812 8135
000001f0: e231 ef35 b9cc c835 ef4e 9a35 0c31 9d35
00000200: 271e d035 1a0e e635 4727 ea35 ff00 7835
00000210: 7147 ad35 1e69 8735 e19d ff35 2f78 c335
00000220: 8a07 c035 43a9 e135 ed0f 9535 b5d3 0636
00000230: 0441 0136 dd3f 8435 a704 5e35 3a21 b035
00000240: c136 b135 be1f d635 18bf af35 24c1 e235
00000250: d532 8c35 4b75 d735 7694 b035 0586 b935
00000260: a8f4 3435 b26c 9735 c247 c035 2e0e 9b35
00000270: cfed 9e35 3b71 b135 3c33 1736 a2e5 ac35
00000280: d8e3 a635 6a41 ca35 1a60 5835 229e e235
00000290: 520d 8035 6826 7035 6a4e 6635 98e1 a935
000002a0: 9bc9 4635 ed65 8f35 9187 8d35 2340 ce35
000002b0: 3e0e c935 9705 b235 d815 9035 067a be35
000002c0: d63b 3935 4b62 e635 6944 7f35 42b5 da35
000002d0: d082 9635 f020 9135 41b5 7335 33c8 5035
000002e0: 4b54 a935 624d 5b35 8e14 ab35 6c40 e635
000002f0: 447d 6335 c041 cd35 8a16 b135 c4f2 9835
00000300: 257e a235 ba3e ea35 9368 7b35 c5a8 3b35
00000310: 234a 8235 cb8a f435 f33e 9235 3b39 d535
00000320: 4ac3 9735 70f2 9035 2c9c 8435 1d2f 8e35
00000330: 99f1 fe35 979a 9835 438c 0536 9d24 9435
00000340: 3bf1 b635 8e63 8c35 7e09 6d35 74b6 ba35
00000350: 77a6 7235 26e6 b735 cf5d 8c35 4a5b 8535
00000360: 94f2 d535 9845 9935 9464 f435 03c5 be35
00000370: 00c6 e535 bca6 b435 4a28 b435 8150 a335
00000380: fd8b 9035 5293 7335 7445 7a35 9815 0f35
00000390: 76bb ef35 5e9c d635 a020 6935 4b35 b135
000003a0: 0456 9f35 2c68 9035 3adc 1435 eadd cb35
000003b0: d7de d235 ef40 de35 7774 ea35 e0d0 a435
000003c0: ea54 e735 1975 c235 d139 d235 bd63 2836
000003d0: 6dc8 0d35 d718 a235 7e23 bd35 39c1 3135
000003e0: cc22 9435 778e 7935 d588 ae35 31c3 b335
000003f0: 3281 9735 3b8c 8a35 5aec c735 0f73 9035
1.5275933e-06 2.402516e-06 1.3163467e-06 7.146003e-07 5.2075677e-07 8.6468805e-07 1.309642e-06 1.3264205e-06
1.6368829e-06 1.0095412e-06 1.5764989e-06 2.101174e-06 1.5679152e-06 1.4007595e-06 1.5956646e-06 1.7122933e-06
9.242205e-07 1.2183062e-06 1.1462286e-06 7.98456e-07 1.3833954e-06 8.333573e-07 7.864266e-07 9.4877043e-07
1.5488363e-06 1.5983311e-06 1.4436322e-06 1.4812483e-06 7.9511454e-07 1.2482298e-06 1.0026307e-06 1.175673e-06
1.1557659e-06 1.1785025e-06 1.5263245e-06 9.873845e-07 6.8414363e-07 7.043252e-07 1.3469553e-06 1.0116339e-06
1.7866444e-06 9.697526e-07 1.6686688e-06 1.075375e-06 1.3831238e-06 1.6200552e-06 1.6728441e-06 1.6068306e-06
1.2934794e-06 1.6307831e-06 1.3893538e-06 1.0130084e-06 1.4359558e-06 1.3156333e-06 8.5491814e-07 9.520241e-07
9.0483576e-07 1.4927882e-06 1.4139217e-06 2.6282196e-06 1.0330618e-06 8.2519705e-07 7.822153e-07 1.0810029e-06
1.4508839e-06 2.0133714e-06 5.7755346e-07 9.0526487e-07 9.1837285e-07 6.750159e-07 9.632647e-07 9.916735e-07
9.5136295e-07 3.570091e-06 1.2620978e-06 1.1487947e-06 1.1533509e-06 7.5989976e-07 1.0809481e-06 1.1285852e-06
5.9004367e-07 1.1344271e-06 1.0048548e-06 1.1206653e-06 1.4927484e-06 5.6567404e-07 1.212305e-06 9.628392e-07
8.3632443e-07 1.2485384e-06 7.8731404e-07 1.8469274e-06 1.6353357e-06 8.103497e-07 1.2036957e-06 1.6036213e-06
1.9026301e-06 1.3104649e-06 1.196094e-06 1.7168348e-06 1.5071787e-06 1.3678189e-06 1.1961027e-06 9.1209836e-07
1.4657155e-06 1.0579282e-06 2.172937e-06 1.1676701e-06 5.7046185e-07 1.6907311e-06 1.0968616e-06 6.1403216e-07
9.403476e-07 8.6742284e-07 1.0755575e-06 1.1596607e-06 1.4435564e-06 8.3005784e-07 1.7410553e-06 1.0294144e-06
5.9113347e-07 1.7894646e-06 1.0384782e-06 9.616497e-07 1.7821405e-06 1.4960743e-06 1.1496867e-06 1.1711686e-06
1.5505983e-06 1.714044e-06 1.744579e-06 9.238865e-07 1.2910297e-06 1.0088877e-06 1.9044929e-06 1.456361e-06
1.4307309e-06 1.6813068e-06 1.1106e-06 2.0090786e-06 1.9260342e-06 9.853353e-07 8.2708215e-07 1.3122692e-06
1.3203463e-06 1.5953481e-06 1.3094132e-06 1.6894523e-06 1.0445607e-06 1.6052885e-06 1.315623e-06 1.3822579e-06
6.7411247e-07 1.1282011e-06 1.4325999e-06 1.1552527e-06 1.1841129e-06 1.3220482e-06 2.2530576e-06 1.2881831e-06
1.2434275e-06 1.5069211e-06 8.0606117e-07 1.6884335e-06 9.54062e-07 8.9462856e-07 8.5795784e-07 1.2657138e-06
7.405412e-07 1.0683995e-06 1.0544774e-06 1.5366862e-06 1.4979812e-06 1.326366e-06 1.0735193e-06 1.4191617e-06
6.9004943e-07 1.7164942e-06 9.509445e-07 1.6295019e-06 1.1213942e-06 1.0812928e-06 9.0788313e-07 7.7777366e-07
1.2616014e-06 8.1696464e-07 1.2746475e-06 1.7155085e-06 8.4746375e-07 1.5292826e-06 1.3194087e-06 1.1395537e-06
1.2106653e-06 1.7452614e-06 9.365696e-07 6.990852e-07 9.707331e-07 1.8219811e-06 1.0896168e-06 1.5886393e-06
1.1307213e-06 1.0799395e-06 9.880218e-07 1.0593536e-06 1.8994789e-06 1.1369874e-06 1.9900187e-06 1.1037515e-06
1.3630264e-06 1.0459787e-06 8.8303193e-07 1.3911181e-06 9.0394263e-07 1.3701545e-06 1.0458115e-06 9.935841e-07
1.5940336e-06 1.1419643e-06 1.8208689e-06 1.4213441e-06 1.7119455e-06 1.3459571e-06 1.3422771e-06 1.2167876e-06
1.0769578e-06 9.0738934e-07 9.3233325e-07 5.3303074e-07 1.7861446e-06 1.5989751e-06 8.684674e-07 1.3203038e-06
1.1871457e-06 1.0759154e-06 5.545477e-07 1.5189264e-06 1.5711074e-06 1.6559187e-06 1.7468254e-06 1.2279743e-06
1.7235554e-06 1.4488206e-06 1.5663046e-06 2.5092006e-06 5.281825e-07 1.207717e-06 1.4091927e-06 6.6218814e-07
1.1036987e-06 9.296704e-07 1.3003834e-06 1.3393347e-06 1.1287977e-06 1.0322614e-06 1.4895443e-06 1.0762323e-06
