ldm_checkpoints/ldm_epoch_10.pth (torch, 798986 bytes, 12 tensors)

model.0.weight f4 [512, 64]
000000 ab 18 45 3d 45 d3 ea ba 0d d5 87 3d 56 01 fe 3d
       0.04811923 -0.0017915746 0.06632433 0.124025986
000010 8a 7f bf 3d 72 5c d5 bd d4 3f 7e bb d2 b9 6c bc
       0.09350498 -0.10418023 -0.0038795369 -0.0144486
000020 01 e5 a4 bd 60 e9 0e 3d 39 25 58 bc 76 8c a4 bd
       -0.080514915 0.034890532 -0.013192468 -0.08034603
000030 65 81 06 3e bd 36 12 bd 26 95 0e 3e 90 5c 30 3c
       0.13135298 -0.035696734 0.13924083 0.010764256
000040 b8 6f 2c 3b ad 5c db bd 85 4d 37 bd 22 88 ec bd
       0.0026311707 -0.10711036 -0.044751663 -0.11549403
000050 77 89 66 bd 3a a2 a9 bd 79 08 68 bd 80 72 02 3d
       -0.05628344 -0.082828954 -0.056648705 0.031847477
000060 19 92 e7 bd 6d fb 66 3d 58 56 a2 3d ca 28 db 3d
       -0.11307163 0.056392122 0.07926625 0.10701139
000070 34 bd 8b bd 36 c0 9b bd df 44 e0 3d 04 8d a1 3c
       -0.06823197 -0.07605021 0.10950636 0.019720562
000080 c5 62 ad bd 30 18 9d 3d 4d 21 13 3c 1d 1f c4 3d
       -0.084661044 0.07670629 0.0089801075 0.09576247
000090 4d 84 e2 3d 5b 1b 1b 3d 4a 44 85 3d 61 1b 7c 3d
       0.110603906 0.037867885 0.06507166 0.061549548
0000a0 e2 6f bb 3d 2c 81 f0 bd 92 05 7e 3c 1c 16 22 be
       0.09152199 -0.117433876 0.015504258 -0.15828747
0000b0 a3 d0 b8 bd 1c 54 27 3d 18 da c1 bd 71 20 d3 3d
       -0.09024169 0.040851697 -0.09465426 0.10308922
0000c0 57 d1 e7 bd c0 e3 f2 bd a1 4b bd 3d b6 0f c2 bd
       -0.11319225 -0.11859846 0.09242941 -0.09475653
0000d0 43 7d f1 3d 32 50 74 3d da 06 c4 bd ef 49 67 3c
       0.1179147 0.059646793 -0.09571619 0.014116748
0000e0 8b 50 d4 3d e1 a7 ae 3b b4 02 ae 3c fe 7f ff 3c
       0.10366925 0.0053300713 0.021241523 0.031188961
0000f0 a4 b5 8d bd e4 15 03 be 67 e4 01 3c 26 21 04 bd
       -0.06919411 -0.1280132 0.0079279905 -0.032258175
000100 2d 18 11 bd d7 20 a6 bd c5 56 5e bd ca 85 cd 3d
       -0.035423446 -0.081117325 -0.05428197 0.10035284
000110 be 54 0e 3e 86 35 0b bd 86 18 9e 3d 57 b6 b6 3d
       0.13899514 -0.03398659 0.07719521 0.08921497
000120 e8 37 9a 3d ae 54 4d 3d 7e 98 e4 bc 4e 40 00 3e
       0.075301945 0.050129585 -0.027904745 0.1252453
000130 ae 8b b7 3d 65 95 b2 3c 97 56 ac 3d af fd 76 bd
       0.08962189 0.021799752 0.08414953 -0.060300525
000140 a0 b8 87 3c c4 a6 d0 3d b5 0b 2b 3a 04 0f 3e 3e
       0.016567528 0.10188058 0.0006524877 0.18560416
000150 ba b7 76 3d a4 7f 90 3d d6 b7 22 3e b5 b4 c3 bd
       0.06023381 0.070555955 0.1589044 -0.095559515
000160 e1 2e 05 3e a6 e8 0b be 54 70 b4 3c e0 f5 7c bd
       0.13006164 -0.13662967 0.022026218 -0.061757922
000170 b1 f2 c2 bd b6 cf d7 3d 0d 51 75 3b d6 c6 63 3d
       -0.09518946 0.105376646 0.0037432343 0.055609547
000180 87 a2 d5 bd 29 46 f2 3d 8d 44 e4 bd cf 48 78 bd
       -0.1043139 0.11829788 -0.111458875 -0.06061631
000190 10 ab 98 bd 47 f1 be bd ed e8 66 3d 5a 64 23 bd
       -0.074545026 -0.09323364 0.05637448 -0.039890625
0001a0 3a b5 3a bd 53 7d b4 bc 59 54 bb bc 29 6d 9f bc
       -0.045582987 -0.022032415 -0.022867369 -0.019461231
0001b0 bf 1d 14 be 65 03 11 be 50 35 e0 3c 00 0e 0c be
       -0.14464472 -0.14161451 0.027369171 -0.13677216
0001c0 96 da 93 bd 92 97 97 bd 7b 3d d3 3d a4 00 22 3c
       -0.07219426 -0.074019566 0.10314461 0.009887848
0001d0 f4 8d 20 3d a6 a6 14 bd 4b 08 a6 bd 20 eb 85 3d
       0.039197877 -0.03629174 -0.081070505 0.06538987
0001e0 7f 2f 0a 3e fb 7a c9 bd 12 72 87 3d b3 c5 42 bd
       0.13494681 -0.0983791 0.06613554 -0.047551822
0001f0 ee 49 1f bd 07 ea e5 3c 14 7c 8e 3d 70 4a 2b 3d
       -0.038888864 0.028065694 0.0695726 0.041819036
000200 42 0b e7 bd 51 49 a9 bd e9 35 37 bd 75 a5 0f be
       -0.11281444 -0.08265937 -0.044729147 -0.1402796
000210 d9 e1 01 bd 74 14 e8 bd ba 41 7b bc a0 50 14 be
       -0.031709526 -0.11332026 -0.015335495 -0.14483881
000220 87 21 24 3d a1 8c 60 3d 95 c0 16 be bd d7 0b 3e
       0.040071037 0.054821614 -0.14721902 0.13656516
000230 ec 04 f3 3d 49 35 ff 3c 9e 27 bb 3d 86 2c 61 3d
       0.11866173 0.031153338 0.09138416 0.0549741
000240 b4 06 11 3e 07 6a 7d bb 18 aa ce bd 1b e4 93 3d
       0.14162713 -0.0038667934 -0.100910366 0.07221242
000250 f5 80 0f be 37 46 0a be 70 b0 4c bd 57 22 fe 3a
       -0.14014037 -0.13503347 -0.04997295 0.0019388896
000260 56 c9 a9 3d af 11 ff 3d 01 94 4a 3d a7 4b 32 3d
       0.08290355 0.12454545 0.049457554 0.04352918
000270 bb db b9 3d 74 33 17 3d 75 da 8e 3d 55 49 93 3c
       0.090751134 0.036914304 0.06975261 0.017979303
000280 0d d6 81 bd d9 be 35 3d c0 1e d0 3d 8e bf 91 3d
       -0.06339655 0.04437146 0.10162115 0.07116614
000290 71 bd cb 3d 2c 21 55 3d a3 08 f3 3d 5f 94 a1 bc
       0.099482425 0.05203359 0.11866882 -0.01972407
0002a0 34 ce 94 3d 51 4c ca bd 6b 79 69 bd 6d b2 b6 bc
       0.072658926 -0.098778374 -0.05700056 -0.022301877
0002b0 96 7d 9e 3d 88 41 06 3e 42 61 92 bc 5b da 8e bd
       0.07738797 0.13110936 -0.017868642 -0.06975242
0002c0 60 87 9d 3d 07 0e 54 bd ae dd 5c 3d 09 93 0c bd
       0.07691836 -0.05177119 0.053922348 -0.03431991
0002d0 e7 36 a3 bd 27 d9 de bd ce 72 b7 3d 73 96 26 3d
       -0.07969456 -0.10881262 0.08957444 0.040670823
0002e0 f3 dd 8d 3d ff 8a fe 3d 53 85 cd bd 73 81 1f 3e
       0.06927099 0.12428855 -0.10035195 0.15576725
0002f0 2c f2 7d bc dd f4 65 bb 32 a6 94 3c 1b b7 f4 3b
       -0.015499633 -0.0035088577 0.018145654 0.007468117
000300 6d 3f c8 3c a1 3d 50 3d 65 26 e2 bd 38 64 61 3d
       0.024444306 0.050840024 -0.110424794 0.055027217
000310 7c 64 bc bd 6e 59 46 bd b2 11 51 bd cf b1 82 bd
       -0.091988534 -0.04842513 -0.051042266 -0.063815705
000320 4a b1 87 bc cf 35 e7 bd a0 a9 d6 3d bb 64 01 bd
       -0.01656403 -0.1128956 0.10481572 -0.031590205
000330 05 bb 69 3c 9a f0 cb bd 21 ee b8 3d 36 a7 83 3c
       0.01426578 -0.099580005 0.090297945 0.016070943
000340 c6 01 cc 3c 79 62 03 be 10 7a 67 3d 4b 0c 19 be
       0.02490319 -0.12830533 0.056512892 -0.14946096
000350 05 de d7 bd 92 2a 34 3d 76 2f c9 3d 41 db 6e bd
       -0.10540394 0.04398591 0.098235056 -0.058314566
000360 fb 2f 83 bd 91 a2 02 be fb a7 82 3d 40 13 be 3a
       -0.06405636 -0.12757327 0.06379696 0.0014501587
000370 e6 74 45 3d fa 9b cf bd 9b 01 fb 3c 32 44 be 3b
       0.048207186 -0.10137172 0.030640414 0.0058064694
000380 c6 dd d8 3d 7a f0 57 3d fd 5b 27 3e e0 ea 61 3d
       0.10589175 0.05271957 0.16343684 0.055155635
000390 f8 15 00 3e d0 b7 28 bd ce ae fb bd 3f af 43 bd
       0.1250838 -0.041190922 -0.12289201 -0.04777455
0003a0 5c b5 0c 3d 08 de d2 bd 43 85 c4 3d a3 0e 51 bd
       0.034352645 -0.10296255 0.0959573 -0.05103935
0003b0 20 7e 5b 3d e2 ef a9 bd 4a e3 e7 3d a4 d4 98 3d
       0.05358708 -0.08297707 0.11322649 0.07462433
0003c0 20 04 96 3d c4 ad a2 bd 76 7a f4 3d 00 74 91 bd
       0.073250055 -0.079432994 0.1193742 -0.07102203
0003d0 be c8 0c bd 26 cf 32 bd 14 01 c5 3d 2f 79 45 bc
       -0.03437113 -0.043654583 0.09619346 -0.012052818
0003e0 cb 8b e6 3d 31 ef 04 bd 6e a6 cc bd 97 31 0b 3d
       0.11257132 -0.032454673 -0.099926814 0.03398284
0003f0 3a 8c 73 bc 7e 37 a0 bc 89 4e c6 3d 7f d4 7a bc
       -0.014864976 -0.01955771 0.09682948 -0.015309452

model.0.bias f4 [512]
000000 3a ae 6e bd 8b 74 1d 3e dc 3e 96 3d a4 ea ec 3d
       -0.058271624 0.15376489 0.07336208 0.11568192
000010 d3 82 bf bd 4a 1e b2 bc ce df 88 3d 4d 1c 15 3c
       -0.093511246 -0.021742959 0.06683312 0.009100986
000020 ee bb 7b bd a4 c0 9f 3d af 47 b3 3d b9 a1 8f 3c
       -0.06145852 0.07800415 0.08753907 0.01753317
000030 42 05 19 3e a1 bb 29 3e 6e cf ad 3c d9 36 02 bd
       0.14943412 0.16575481 0.021217074 -0.031790588
000040 6a c2 98 bd 8f 15 0f bd d2 26 9f bd d6 0e 3e 3d
       -0.074589565 -0.03493267 -0.07771076 0.046400867
000050 fa b0 ad 3c 72 ac bd 3d cc 8e 1f 3e d7 3f 5f bc
       0.021202553 0.09261407 0.15581816 -0.01362606
000060 44 9b c6 bd 93 3f e7 3d aa d8 8b 3c 34 20 91 3d
       -0.09697583 0.11291423 0.017071087 0.070862204
000070 ad 14 7c bd ef a5 53 bd 0e 39 68 3d c4 b6 ab 3d
       -0.061543155 -0.05167192 0.056695037 0.08384469
000080 43 09 df bd f2 06 59 bd 0c 7f 21 3d 80 5a fc 3d
       -0.108904384 -0.05298514 0.039427802 0.12321949
000090 cf 16 ba 3c eb ef 9d 3d 7d 87 5c 3d 20 b3 95 bd
       0.022715954 0.07711776 0.05384015 -0.07309556
0000a0 8d 6c 49 bd 7d bc 53 3d 5a 64 e5 3d fe f3 a4 3d
       -0.049175788 0.05169343 0.11200781 0.0805435
0000b0 e3 d8 b1 3d dc 32 2d bc 6f 9e 49 bd 1a fa ad 3d
       0.08683946 -0.010571208 -0.04922336 0.08494969
0000c0 a1 ba bd ba b0 ca af 3d ce c3 5d 3d 72 35 62 3d
       -0.0014475175 0.085835814 0.054141812 0.05522675
0000d0 1a 4d 96 3c 59 cd d8 bd 0d eb 22 3e 06 ae a1 3d
       0.018347312 -0.10586042 0.15909977 0.078945205
0000e0 9d 4b b8 3d dc fd 04 bd e6 ec 12 3d 03 89 97 3c
       0.08998797 -0.03246866 0.035870455 0.01849795
0000f0 95 c2 18 3e ae 15 89 bd d6 11 c5 3d 32 3e 5d 3d
       0.14917977 -0.06693588 0.096225426 0.054014392
000100 c6 e1 09 3e a5 a6 b8 bc 31 60 02 bc 6e 16 b6 3c
       0.13465032 -0.0225404 -0.007957504 0.022227492
000110 eb 9c ee 3d 13 2a e7 bb 1c 50 59 3d 82 ae e6 3d
       0.116510235 -0.007054576 0.053054914 0.112637535
000120 35 a3 c8 3d c2 6b 13 3e 9a 83 f0 bc bc 44 8e bd
       0.09796754 0.14396575 -0.029359628 -0.06946704
000130 a3 20 c2 3d 74 07 26 bc 39 8a c6 bd b6 4d 76 bd
       0.09478881 -0.010133613 -0.09694333 -0.060132705
000140 29 89 53 bd 26 8b cc 3d 19 30 09 3e 26 56 19 bd
       -0.051644478 0.09987478 0.13397254 -0.037435673
000150 d1 01 35 3d a6 0c 0d bd db 54 ac 3d 76 fe e3 3d
       0.044191185 -0.03443589 0.084146224 0.11132519
000160 49 3e 6a 3d 83 8a 12 3d 98 8c d9 bc 2f a9 32 bd
       0.057188306 0.035776626 -0.026556298 -0.043618377
000170 ba f0 b6 bd 0d ee 69 bd 98 8e 88 bd b2 be 73 3c
       -0.08932634 -0.05711179 -0.066678226 0.014877008
000180 db 1f ff bb 89 c5 01 3d dd 45 de 3c 3a 19 a3 3d
       -0.00778578 0.031682525 0.027132923 0.07963796
000190 a0 fc 4e bd cc d6 de bc c3 76 a6 3c 47 8b 8c 3c
       -0.05053389 -0.027202033 0.020320302 0.017156256
0001a0 6f a2 1f 3d f4 49 50 3d 09 ec 6f 3c 22 41 06 3e
       0.038973268 0.050851777 0.0146436775 0.13110784
0001b0 12 e4 1a bc e3 18 05 3e 1d ad 67 bd f8 b2 1f 3d
       -0.00945379 0.12997775 -0.056561578 0.038989037
0001c0 33 d3 08 3e 11 d6 04 bd bf d0 4b bd 1d 56 b4 3c
       0.13361816 -0.032430712 -0.049759623 0.022013718
0001d0 b0 2b cf bd f2 ef 5c bd c1 2c 21 bd 71 e1 fc bc
       -0.101157546 -0.053939767 -0.03934932 -0.030869218
0001e0 d8 bf af bd 30 91 0c bd df 33 a2 3c 34 0d e2 3d
       -0.08581513 -0.03431815 0.019800125 0.110376745
0001f0 d2 c9 c8 3d 86 7f 08 3e 0f 70 c3 3d 8f 45 3a bd
       0.09804119 0.13329896 0.09542858 -0.045476492
000200 02 54 99 bc 71 18 13 3e 34 0e b0 3d 51 ca 87 bc
       -0.018716816 0.14364792 0.08596459 -0.016575964
000210 5d 45 84 3b fb 54 ab bc 75 62 4d 3d 87 6b f9 3c
       0.004036589 -0.020914545 0.050142724 0.03044678
000220 75 81 ad 3d 35 ac cc 3d 58 67 df bc 3a ee 02 3e
       0.084719576 0.099937834 -0.027270958 0.12786189
000230 c6 fd 81 bd bd f5 e3 3d ab 0e 90 bd f7 f4 9e bc
       -0.063472316 0.11130855 -0.07034048 -0.019403918
000240 1c 66 1f bd 45 e8 3c 3d 99 6e 18 bd 0b 2c d0 3d
       -0.03891574 0.046119947 -0.03721485 0.101646505
000250 30 44 19 3d d0 a8 19 bc e3 1a 07 3e f7 1b 46 bd
       0.037418544 -0.009378627 0.1319385 -0.048366513
000260 09 df a0 3d ef 80 69 3d e8 b1 b4 3b 7c bc 03 bd
       0.078550406 0.057007726 0.005514372 -0.032162175
000270 47 8c ba bd 73 33 7b 3c 1f 8c ba 3d 23 17 d3 bd
       -0.09108787 0.015332091 0.09108757 -0.10307147
000280 f5 58 85 3d 60 8e 1c bd 55 23 c6 bc 88 8d 69 bd
       0.06511108 -0.038221717 -0.02418677 -0.05701974
000290 3d cc 16 3e 6d a7 a8 bd 36 c1 c4 3c fd 25 1a 3c
       0.14726348 -0.08235059 0.024017911 0.009408471
0002a0 71 a3 93 3d 2e 3a e4 3d 0c 73 b8 bd 3e 61 b7 3d
       0.07208908 0.111439094 -0.090063184 0.08954094
0002b0 4b 55 07 bd 17 f9 87 3d f8 8b 46 bc b0 c1 82 bd
       -0.033040326 0.06639307 -0.012118332 -0.06384599
0002c0 45 a2 f8 3d de 0a 00 3e 0b 61 22 3e 42 75 89 3d
       0.121403255 0.12504146 0.15857331 0.06711818
0002d0 be 73 39 3d b4 c0 1b 3e 75 99 6f 3a 89 8a 1c bd
       0.045276396 0.15210229 0.00091399933 -0.038218055
0002e0 ee de 15 bc 94 ac ab 3d 29 b4 a8 3d d7 08 d0 3d
       -0.009147389 0.08382526 0.08237488 0.10157936
0002f0 9d 14 7e bc b0 87 22 bd 61 13 0a 3e 9b 26 1f 3e
       -0.015507844 -0.039680183 0.13483955 0.1554207
000300 8b eb 6d bd b2 0f 88 3d 58 1e c8 bb cd c8 a5 3b
       -0.05808596 0.06643619 -0.006107133 0.0050593377
000310 e0 7e 54 bb 3c f2 bb 3d a9 ba c7 3d d9 d8 86 3d
       -0.0032424256 0.09177062 0.097523995 0.06584329
000320 df ee b7 3d 20 87 32 3e 13 f0 91 3d 2a 8d 7a 3c
       0.08981108 0.17434359 0.07125869 0.015292445
000330 1d a3 b4 bd d9 48 ec 3d 17 97 8e bd ce ec fb 3c
       -0.08820174 0.11537332 -0.06962412 0.030752566
000340 a2 d7 8e bd 4f 81 15 3d 58 ce 62 3c 44 e5 b8 3d
       -0.069747224 0.03650027 0.0138431415 0.09028104
000350 70 b2 75 3d d1 e8 dd 3d 71 db b8 3d 8f f0 c7 3d
       0.059984624 0.10835422 0.0902623 0.0976268
000360 ed ea eb 3d e3 b6 25 3d de 3b 0c 3d b3 44 06 bc
       0.11519418 0.040457617 0.03423678 -0.00819509
000370 e1 99 23 bc 0f e6 99 bd 7d 9f 80 bd 36 b5 f3 3d
       -0.009985418 -0.07514583 -0.0628042 0.118997976
000380 6c 32 83 bd f8 d7 bf bc b0 5a 69 3d f2 b6 96 bd
       -0.064061016 -0.023418412 0.056971252 -0.07359113
000390 4e 4d df 3d f0 83 47 bd 8f e9 37 bd 71 9a 28 3e
       0.109034166 -0.04870981 -0.044900473 0.16465165
0003a0 e8 b0 b6 bd b0 2e b7 bd 28 89 33 bc 67 4f 66 3d
       -0.08920461 -0.08944452 -0.010957994 0.056228068
0003b0 8e 3b bf bd 81 d1 f1 bc f7 e4 16 3d 52 6d d1 bb
       -0.09337531 -0.029518845 0.03683945 -0.006391206
0003c0 90 24 b1 3d 47 6f e3 3c cf 2c ba bc 90 15 93 3d
       0.08649552 0.027763022 -0.022726445 0.07181847
0003d0 37 07 b5 3c ed cb 1d 3e 6a a5 b0 bd 24 88 09 bd
       0.022098167 0.15409823 -0.086253 -0.0335771
0003e0 55 47 05 3e 35 b9 3a bd 59 7e cd 3d 59 cc b6 3d
       0.13015492 -0.045586783 0.100338645 0.08925695
0003f0 e5 b5 40 bd cf 19 0d 3d 3d 56 02 3e a6 23 e2 3d
       -0.04704847 0.03444844 0.1272821 0.11041956

model.2.weight f4 [64, 512]
000000 bf 14 1f bd 5c 32 9c bc 58 04 5c bc ed a5 84 3c
       -0.038838144 -0.019066982 -0.01342877 0.0161924
000010 7f 9c 85 3c a7 2a 57 bd 52 9c a5 3c 8e 1e d5 bc
       0.016309975 -0.05253091 0.02021614 -0.026015546
000020 c0 27 1d 3d 93 85 95 bd 2d 4c 40 3d e8 e8 8c 3c
       0.038367987 -0.07300868 0.046947647 0.017200902
000030 19 7f 14 bd 03 3c 4f 3c 26 d9 11 bc 6e b8 c4 bd
       -0.036254022 0.012648585 -0.00890187 -0.0960549
000040 ae 35 b1 3c 3a 7b ee 3b b9 a1 3a bd 5f 9b 11 bd
       0.021632042 0.0072778733 -0.045564387 -0.035548564
000050 cb 6a 21 bc 21 cf 76 bd 39 14 08 3d da e9 a8 3c
       -0.009852122 -0.060256127 0.03322241 0.020619322
000060 5b 67 cc 3c 68 ea a6 bc 39 dc f5 3c 6d b5 44 3c
       0.024951627 -0.020375445 0.030012237 0.012006146
000070 87 30 38 3c 4e 26 58 3c f5 f4 0a 3d 28 70 58 3c
       0.011242039 0.013192726 0.033925015 0.013210334
000080 3e 0c 05 bd d6 af 01 3c 5e 86 55 bd f8 0e d6 3a
       -0.03248238 0.007915458 -0.052130096 0.0016331365
000090 22 01 3e b9 5d 51 3d 3d 90 df 77 bc 02 c3 2f bd
       -0.00018120234 0.046220172 -0.015128985 -0.042910583
0000a0 89 1b a1 3c 95 f3 6e bb 5d 6f 46 3d 19 25 2f 3d
       0.01966645 -0.0036461104 0.048446048 0.04275999
0000b0 15 65 ce bc 92 49 9f bc 27 b3 a9 bd 1f ca 70 3d
       -0.025194684 -0.01944426 -0.08286124 0.058786508
0000c0 a3 c9 75 bc 99 d2 a6 bc 50 4a 84 bc 03 06 52 3d
       -0.015001687 -0.020364093 -0.016148716 0.051275264
0000d0 25 14 bb 3d 79 8d 13 3c d2 b4 c2 3c 4e fe 24 3d
       0.09134702 0.009005898 0.023767862 0.040281586
0000e0 31 e6 16 3d 60 d8 92 3c ea 2f df bc b6 3d 02 3c
       0.03684062 0.017925441 -0.027244527 0.007949283
0000f0 b0 62 ad bd f6 31 a2 3d d4 bd 0b bd 6b 1a 31 3d
       -0.08466089 0.079196855 -0.03411658 0.043238085
000100 dc d6 26 3c eb 3c 55 bd 52 81 6e bc 3c af 3e 3c
       0.010183062 -0.05206005 -0.0145572 0.011638459
000110 3e 08 0b bd 43 29 32 3d 94 3c 81 bd 5a 77 0a 3d
       -0.033943407 0.04349638 -0.063103825 0.03380523
000120 be 4a 96 3c 3c 3a 52 bd a9 e3 0b bd 00 75 e7 bc
       0.018346187 -0.051325068 -0.03415266 -0.028254032
000130 c1 33 13 3d a5 4d 1a 3d dd e1 07 3d 19 25 78 bc
       0.03593803 0.037671704 0.033174384 -0.0151455635
000140 06 1f cb bc 3e c2 32 bc f6 61 02 3d ee 69 34 3d
       -0.024795067 -0.010910569 0.031831704 0.044046335
000150 ce fa 48 bd e5 8f 3f 3c ac a5 b7 3c dd 82 ac bc
       -0.04906731 0.011692022 0.022417866 -0.021058494
000160 48 9f 1a bd 43 80 25 39 08 b4 9c 3c dc c9 fa 3c
       -0.03774956 0.00015783407 0.019128814 0.030613832
000170 20 9e 4b bd 3e 72 f3 3b de f2 e5 bb 34 d9 c8 3c
       -0.049711347 0.00742939 -0.0070174774 0.024517633
000180 3b 50 89 3b b3 fd ec bc 75 2c 15 bd c1 72 50 bb
       0.0041904724 -0.028929567 -0.03641935 -0.003180668
000190 db dc cd bc be 37 1e bd 6a 64 d3 3c e9 f6 c4 3d
       -0.025129726 -0.03862738 0.025804717 0.09617407
0001a0 c6 19 4f b9 8a 71 42 3d 95 58 b6 bc 99 ac 8e 3b
       -0.0001975066 0.04747156 -0.022259036 0.0043540713
0001b0 fb c1 4f 3c 36 92 01 3b 3e 99 89 3c bb 22 1f ba
       0.012680526 0.0019770986 0.016796704 -0.0006070544
0001c0 e3 5e ee bc f5 66 8c bb c6 8c 53 3d cb 5b 65 3d
       -0.02909798 -0.0042847344 0.051647924 0.055995744
0001d0 a5 c3 4e 3c dc 21 b9 3c ba 74 b0 3b e7 44 40 3b
       0.0126198875 0.022599153 0.0053850086 0.0029337944
0001e0 dd 1f 5a 3c 06 0a 4e 3d e7 a2 a1 3d 18 b6 1a 3d
       0.013313261 0.050302528 0.07892399 0.037771314
0001f0 df 8c 88 3b 52 61 76 3d e9 42 34 3d 7f 6d ca bc
       0.004167184 0.060151406 0.044009123 -0.024710415
000200 c0 b7 4b ba 8b d1 af 3a 9f e7 f0 bb fe b0 cc 3c
       -0.00077712163 0.0013413889 -0.00735183 0.02498674
000210 48 a8 3d bd 54 11 40 3c 2d 6c 1a 3c 5f dd 02 bd
       -0.046303064 0.011722881 0.009425205 -0.031949397
000220 33 3e 86 bd f3 c1 86 bb 74 ce 13 3d 1e 89 2e 3d
       -0.06554832 -0.004112476 0.03608556 0.042611234
000230 57 c4 46 3c 51 e9 0e bd f9 b9 14 3d e2 af 59 bc
       0.012131772 -0.034890477 0.03631017 -0.013286563
000240 a3 7d 53 bd 30 d7 81 3d b6 39 da 3c 6f 29 b2 bc
       -0.05163349 0.06339872 0.026638847 -0.021748273
000250 d4 b2 5d 3d 04 5a d4 3c 16 4d 17 3d 0f b8 3e 3c
       0.054125622 0.025921829 0.03693875 0.011640563
000260 8f e7 f8 bc b0 8d d1 bc 4c 5f 86 bd 26 2e 2a 3d
       -0.030383853 -0.025580257 -0.06561145 0.041547917
000270 c8 ef 22 bd f9 a9 9c 3b b1 2d f1 bb 7f 83 4f 3d
       -0.039779454 0.0047810045 -0.007360183 0.050662514
000280 19 78 fd bb 80 8f 8c 3c c2 dd 8c 3c d7 d9 87 3a
       -0.007735264 0.01715827 0.017195586 0.0010364604
000290 de 21 1f bd af 85 af 3d f7 b5 19 3c e6 93 6c 3c
       -0.038850658 0.0857042 0.009381763 0.014439559
0002a0 e5 75 33 bd 6b 17 95 3b fa bf 07 bd 10 ac 5a bc
       -0.043813605 0.004549911 -0.033142067 -0.013346687
0002b0 73 b0 28 bc 4d 71 87 bd 71 66 45 bd 07 90 85 3d
       -0.010295975 -0.06613407 -0.0481934 0.06521612
0002c0 cd 1f be 3b 77 a5 0e 3c 55 23 49 3d bb 77 50 bc
       0.005802131 0.008706442 0.04910596 -0.0127238585
0002d0 2b ff 34 bd 51 a1 c5 bc ce 65 b8 bc 06 e6 9f bc
       -0.04418866 -0.024124773 -0.022509482 -0.019518863
0002e0 80 12 3b 3c b5 d6 fa bc 93 f7 e6 bc 19 76 9f 3c
       0.011417985 -0.030619958 -0.028194224 0.019465493
0002f0 7f 79 7e bc fb 0f 4c 3d ed ed cf 3c 19 6c 0c 3d
       -0.015531897 0.049819928 0.025382007 0.034282777
000300 32 34 87 bd 21 67 12 3d 43 c7 9e bc fe 98 2a bd
       -0.06601752 0.035742883 -0.019382125 -0.04164981
000310 b6 16 1f bd 09 ca c9 3c 41 7d 84 bc 4c 7a e3 3c
       -0.03884002 0.02463247 -0.016173007 0.027768277
000320 2c 53 0c 3d ad 85 50 3c e6 aa 52 3c 3f 1e 2d 3d
       0.034259006 0.012727183 0.012858128 0.042265173
000330 ea c1 a1 bc ee cf 43 3c 51 35 af bc 57 b2 14 3b
       -0.019745786 0.01195143 -0.021387728 0.0022689307
000340 fa 7e 1d bd 53 64 47 3c 2f 77 30 3d b7 67 95 3b
       -0.038451172 0.012169915 0.043082412 0.004559483
000350 0b 91 c9 bc 92 cf 33 3d d1 6b 1f 3d 63 4b a8 3c
       -0.024605295 0.043899126 0.03892118 0.02054376
000360 4e 86 51 3d 5f e9 3f bd a3 93 3e bd 54 fd 20 bd
       0.051153474 -0.04685342 -0.046527516 -0.039304093
000370 73 56 80 bd ef de d8 bc 7d c1 18 bd 17 34 84 3c
       -0.06266489 -0.02647349 -0.0372939 0.01613812
000380 3d b5 55 3d 3c fc da 3c f4 89 18 3d 0e 7b d0 3c
       0.052174795 0.026731603 0.037240937 0.025449302
000390 5e dd 4b bc 11 93 66 3d ce d9 28 bd 61 02 04 3c
       -0.012442915 0.056292597 -0.04122334 0.008057208
0003a0 21 65 ff bc a1 b2 41 bc 65 db 90 3d e8 df 86 bd
       -0.031176152 -0.011822374 0.07073096 -0.065856755
0003b0 ac 32 f8 3c 41 ee 6e 3c c0 e4 eb bc 90 71 08 3d
       0.0302976 0.014583171 -0.0287956 0.033311427
0003c0 42 7b ad 3c 5f aa f4 3c b6 9a a2 bc 2a 7c 8c 3d
       0.021176938 0.029866396 -0.019849163 0.0685962
0003d0 85 02 e5 3c 7a b7 a1 bc c9 7e 01 bd 57 30 2a bd
       0.027955303 -0.019740809 -0.031615052 -0.041550007
0003e0 27 0f 93 bc 58 1e 0f bd 18 6d bf bc 2a 32 91 bc
       -0.017951561 -0.034941047 -0.02336745 -0.017724115
0003f0 5f 9d 8a 3c ca 25 07 3d d3 b7 11 3d a6 95 db bb
       0.016920744 0.032995023 0.0355757 -0.006701189

model.2.bias f4 [64]
000000 d2 09 c6 bb 39 c8 2f 3d e0 9b 48 3c 73 5b 89 3b
       -0.006043651 0.042915557 0.012244195 0.00419181
000010 e5 0d 8b bc 99 7f 70 3c e1 ea d2 3b ea 87 95 bb
       -0.016974399 0.014678859 0.006436691 -0.0045633214
000020 4b 48 df bc c5 f3 99 3c ff 95 a8 bc bc e6 93 bc
       -0.027256152 0.018792996 -0.020579336 -0.018054359
000030 8e 5f e0 bc 67 75 77 3c 10 5e c6 3c c9 9a fa 3c
       -0.027389314 0.0151036745 0.024214774 0.030591385
000040 51 d7 1a bd 10 52 01 bd 75 eb b2 bb 01 1f ad 3c
       -0.037802998 -0.0315724 -0.0054601976 0.021132948
000050 72 e2 84 bc 2a a8 1a 3c 0a 3e 0b bd a8 86 2f bd
       -0.016221259 0.0094395075 -0.033994712 -0.042853028
000060 dc 64 f6 3c 59 34 f2 bc ad e0 1b bc 15 57 25 bd
       0.03007739 -0.029565977 -0.009514016 -0.04036625
000070 9c 9a 25 3c d1 5f 8e bc 28 3b 0c bd 8b 49 26 39
       0.0101076625 -0.017379673 -0.034236103 0.0001585839
000080 74 99 44 3c b3 39 8a bc 5d 52 37 3c 34 27 dc bc
       0.011999477 -0.016873216 0.0111890705 -0.026874162
000090 67 8d 49 3c d3 da 1e bd 35 8f ee 3c 2d 1b 04 bd
       0.012301779 -0.038782906 0.02912102 -0.03225248
0000a0 3e 0a 0f bc 85 da f8 3c 7c e4 b3 bc 18 54 82 3c
       -0.008730469 0.030377636 -0.021959536 0.01590924
0000b0 c8 5a 11 3d bd c8 0a 3d 29 b6 31 3d b2 6c 80 3b
       0.035486966 0.033882845 0.043386612 0.0039192075
0000c0 af 4e 5e 3b b4 ed b1 bb 3f c9 be 3c d0 c9 a2 3c
       0.003392141 -0.0054299477 0.023289321 0.019871622
0000d0 09 88 17 bd 58 4e a4 bc b9 51 e2 bc 41 27 2b 3d
       -0.036994968 -0.020056888 -0.027626859 0.041785482
0000e0 15 cc 09 3d 7c 88 e1 3c b7 eb cc 3c f5 f8 04 3d
       0.033641893 0.027530901 0.025014741 0.032463986
0000f0 7b 26 17 bd e9 2f a9 bc 5a 7d cd 3c 3d eb d9 3c
       -0.036901932 -0.020652728 0.025084186 0.026601428

exp_avg f4 [512, 64]
000000 e1 65 b4 37 02 b7 0d b8 51 7a da 36 d6 6f 85 38
       2.1505113e-05 -3.378746e-05 6.511146e-06 6.362765e-05
000010 d9 f8 b6 37 fc 3a 0e b8 e9 a2 87 b6 4c 7e ab b7
       2.181197e-05 -3.391037e-05 -4.0422788e-06 -2.04436e-05
000020 7a c9 09 b8 df 2a 11 33 f4 fc 54 b8 c5 7b 7c 37
       -3.2850985e-05 3.3799434e-08 -5.078032e-05 1.5049188e-05
000030 ef e5 00 38 e8 1d 28 37 bd d5 c0 36 78 70 34 b6
       3.073172e-05 1.0020543e-05 5.7469283e-06 -2.6887556e-06
000040 72 e1 eb 37 26 05 ea b7 81 1d 52 b8 31 f8 e1 37
       2.8119164e-05 -2.7897371e-05 -5.009538e-05 2.6937663e-05
000050 fe 00 0b b7 09 ed 52 37 21 ac 2e b8 f4 d2 34 b8
       -8.285277e-06 1.2572164e-05 -4.164514e-05 -4.311181e-05
000060 74 40 b0 37 58 bd fb b7 a7 4a 26 37 cf 64 37 b7
       2.1010848e-05 -3.0009702e-05 9.911752e-06 -1.0931121e-05
000070 98 58 5b 37 5d a9 a1 37 b3 3d 2a b8 61 8b f0 37
       1.3074045e-05 1.9271562e-05 -4.058862e-05 2.8675133e-05
000080 90 1f c0 b7 2e d2 92 37 34 43 09 b7 4d 76 27 37
       -2.2902881e-05 1.7502429e-05 -8.181483e-06 9.98152e-06
000090 14 12 d1 37 7a e2 fe 37 02 0a c7 b5 fa b1 d2 b7
       2.492316e-05 3.0384621e-05 -1.4829568e-06 -2.5116828e-05
0000a0 68 f2 83 b7 8e 43 96 36 0d b6 53 36 c3 40 2c b7
       -1.5729296e-05 4.4782128e-06 3.1547418e-06 -1.0267077e-05
0000b0 75 01 3b 38 1b 8e 00 38 d7 19 18 b8 7b be 88 b5
       4.458563e-05 3.0649924e-05 -3.626369e-05 -1.0188227e-06
0000c0 30 2d 67 38 7f 13 83 b8 b3 be 50 38 02 f5 d9 b7
       5.5116776e-05 -6.250198e-05 4.9768667e-05 -2.5982506e-05
0000d0 08 25 a9 b8 e1 7c 99 37 ba e7 f9 37 43 e5 ec 37
       -8.0654456e-05 1.8297173e-05 2.979102e-05 2.824015e-05
0000e0 ce 4f ea b7 73 53 0d 36 76 67 c5 b6 fa 1e 06 38
       -2.7932136e-05 2.105921e-06 -5.883102e-06 3.197694e-05
0000f0 b9 d8 79 b8 6c 35 c6 b7 c9 c4 f3 37 2c 86 48 38
       -5.9568065e-05 -2.3628316e-05 2.9059493e-05 4.7808673e-05
000100 92 b9 e0 37 5d 57 c3 b6 ad 00 36 37 bd 40 3c b8
       2.6789294e-05 -5.8216233e-06 1.0848203e-05 -4.4882985e-05
000110 6c b9 4c 37 31 42 37 b8 92 0f 08 b8 e2 21 af b8
       1.2202519e-05 -4.3692246e-05 -3.2439428e-05 -8.3509614e-05
000120 e6 e0 9a b8 03 f7 12 38 bc 82 16 39 69 9f e8 b7
       -7.385183e-05 3.503916e-05 0.00014353817 -2.7730786e-05
000130 6d 11 5e b8 02 99 2c b8 51 d1 d2 b7 b5 7c 5b b8
       -5.2945154e-05 -4.1150495e-05 -2.5131421e-05 -5.232981e-05
000140 2b cc 21 b8 71 43 8f 37 d0 ac ca 38 09 fd 2b 38
       -3.8575537e-05 1.7078333e-05 9.6642994e-05 4.1005234e-05
000150 7e d6 03 39 8d bc b6 b8 e5 95 64 37 bb 24 77 37
       0.00012573038 -8.7135566e-05 1.3624759e-05 1.4730899e-05
000160 0b 9f 5a 36 06 61 0d b8 b5 0e 89 b8 43 55 64 b8
       3.2577107e-06 -3.370738e-05 -6.5354085e-05 -5.4438842e-05
000170 91 d8 d0 38 3f 53 50 38 a5 c9 14 36 6c 6e a7 38
       9.9585515e-05 4.9668593e-05 2.217109e-06 7.983748e-05
000180 98 9e 53 b6 26 58 6b 38 e5 f5 d1 37 be a6 58 38
       -3.1533764e-06 5.611046e-05 2.5029245e-05 5.1653704e-05
000190 f2 60 72 b6 ee f6 de b6 76 95 02 38 f5 52 aa 36
       -3.611724e-06 -6.644862e-06 3.113361e-05 5.0760523e-06
0001a0 60 eb a2 b7 64 77 d8 b7 bd 05 56 b8 5c f6 97 38
       -1.942151e-05 -2.5804802e-05 -5.102692e-05 7.246129e-05
0001b0 1c 33 c0 b6 2f 90 73 38 12 68 87 b8 29 81 a2 37
       -5.727996e-06 5.8069996e-05 -6.456686e-05 1.937205e-05
0001c0 6c 15 9d 37 f7 5b 95 38 8c 37 64 b7 53 02 5b b8
       1.8725834e-05 7.1220034e-05 -1.3602792e-05 -5.2215833e-05
0001d0 c9 cd ec 38 22 80 08 b7 54 52 a5 37 16 ab 92 b7
       0.000112916874 -8.136065e-06 1.970787e-05 -1.7484224e-05
0001e0 e5 6c 9c b6 8a 7a 83 38 9c ad d2 36 14 94 52 37
       -4.6618393e-06 6.2693915e-05 6.2786985e-06 1.25514525e-05
0001f0 ad 44 4d 38 2b 79 71 b8 d2 d6 23 b8 4c a3 15 b8
       4.8939768e-05 -5.7571724e-05 -3.9062295e-05 -3.567645e-05
000200 17 75 9e b6 ef 43 73 35 1d aa 54 b6 97 f6 d6 b7
       -4.722398e-06 9.062341e-07 -3.168948e-06 -2.5625615e-05
000210 42 78 0f 38 80 78 7f 38 ab 4f b9 b8 a4 9c e7 38
       3.4205856e-05 6.0908962e-05 -8.836327e-05 0.00011044115
000220 30 07 71 37 c1 bd 14 38 a2 b4 16 39 9d 28 39 b6
       1.4366393e-05 3.546267e-05 0.00014372406 -2.7590788e-06
000230 53 69 1e 36 08 7b 2e b8 e3 87 b0 b7 94 06 49 38
       2.3605141e-06 -4.1599415e-05 -2.1044112e-05 4.792826e-05
000240 28 a0 80 b8 ac b1 c4 b5 73 71 25 b5 c3 1d 10 38
       -6.133347e-05 -1.4654847e-06 -6.163238e-07 3.4359993e-05
000250 c7 04 ec b6 9e ec 03 38 1e 3a 28 38 c9 b0 ec b7
       -7.0339042e-06 3.14532e-05 4.0108447e-05 -2.8215714e-05
000260 0b 44 41 b8 ee f2 22 b8 33 ac 11 38 55 81 de 37
       -4.6078156e-05 -3.8850056e-05 3.4731067e-05 2.6524687e-05
000270 14 c8 ce b8 27 ef 8b 38 85 a8 ad 37 29 da 18 b8
       -9.860113e-05 6.672582e-05 2.070168e-05 -3.64428e-05
000280 e7 09 d3 38 7e 22 fd b5 eb e9 fc 38 ad 7e 32 b8
       0.000100631085 -1.8860007e-06 0.00012059867 -4.2556483e-05
000290 4b 41 99 b7 78 93 a7 37 40 ae ff b8 4a 3e b9 b6
       -1.8269426e-05 1.9976622e-05 -0.00012191804 -5.520681e-06
0002a0 f9 6b 44 b8 45 12 3f 38 0a 04 35 38 8b 40 07 37
       -4.68306e-05 4.5554963e-05 4.3157524e-05 8.061655e-06
0002b0 ca 96 32 38 d6 23 68 37 1c b7 62 b6 18 97 f2 b7
       4.257894e-05 1.3836621e-05 -3.3783208e-06 -2.8919007e-05
0002c0 65 a3 99 b8 fb ac 27 39 9a 2c 7a b8 b7 86 c5 38
       -7.326043e-05 0.00015990801 -5.9646183e-05 9.4187846e-05
0002d0 14 5e 77 36 26 dd 66 b8 3f c1 08 b8 a5 8e 48 b8
       3.6860629e-06 -5.5042234e-05 -3.26049e-05 -4.7816564e-05
0002e0 cc 30 49 38 87 64 bf 37 f6 99 53 37 43 53 c8 37
       4.796758e-05 2.2815786e-05 1.2612427e-05 2.388063e-05
0002f0 a4 65 34 38 75 61 d9 38 dc 6c 94 b8 98 13 94 b8
       4.3010004e-05 0.00010365519 -7.0774666e-05 -7.0608396e-05
000300 32 a4 05 38 08 43 a9 37 73 e1 07 38 e2 f7 96 38
       3.186259e-05 2.0177584e-05 3.2396474e-05 7.198729e-05
000310 b3 20 ca 37 cc ec a3 b7 9a 3b c4 37 77 e8 aa 37
       2.4095503e-05 -1.9541381e-05 2.3392775e-05 2.037383e-05
000320 b0 9b 2e b8 c1 c8 14 38 70 e9 23 b8 1d b3 41 38
       -4.1629828e-05 3.5472916e-05 -3.9079634e-05 4.6181598e-05
000330 ad 5e 85 38 5b c7 5c b8 4b 33 86 38 2b ac 36 b8
       6.359569e-05 -5.263775e-05 6.399172e-05 -4.3552525e-05
000340 8e 0f 76 38 7a e1 c9 b8 87 5e b1 b7 b7 44 8d 38
       5.8665457e-05 -9.626425e-05 -2.1144062e-05 6.736203e-05
000350 52 ff 1f 38 b3 64 61 37 16 64 ce b7 6a 48 4b b8
       3.814634e-05 1.3434491e-05 -2.460372e-05 -4.8466412e-05
000360 d6 2f 6c 38 16 ac 84 38 13 ee 36 38 60 2b c7 b7
       5.6311335e-05 6.326304e-05 4.3613905e-05 -2.3742847e-05
000370 20 49 8d 38 6f b4 4c b8 22 6d 7f b8 19 07 38 36
       6.7370245e-05 -4.8805432e-05 -6.0898376e-05 2.7422268e-06
000380 b8 87 28 b8 3f 59 4a b7 76 f7 be b8 12 eb 2d 38
       -4.018072e-05 -1.20609175e-05 -9.105999e-05 4.146534e-05
000390 6b 6a e1 37 49 9f dd b7 55 ee 2d 38 0f d7 ba 37
       2.6871645e-05 -2.6419426e-05 4.146838e-05 2.2273072e-05
0003a0 7d e1 12 b8 a2 93 f1 b6 8e 44 73 b8 af 4e 95 38
       -3.5019115e-05 -7.1995464e-06 -5.799956e-05 7.1195296e-05
0003b0 14 b2 9f b7 b3 a1 d5 37 bf 20 f3 b6 4d 07 df 37
       -1.9037201e-05 2.5466876e-05 -7.2457765e-06 2.6587071e-05
0003c0 65 4e b3 38 b4 54 72 b8 d3 e2 07 39 ac a5 65 b8
       8.549987e-05 -5.7776182e-05 0.00012959102 -5.475215e-05
0003d0 b9 4c 02 36 8f bd 3e b7 71 cb 79 36 a4 b6 bc 38
       1.9416168e-06 -1.1369018e-05 3.722231e-06 8.998558e-05
0003e0 a9 a9 e7 b7 d4 ed b4 b5 f5 00 75 b7 9c 26 8c b7
       -2.761635e-05 -1.3480262e-06 -1.4603361e-05 -1.670728e-05
0003f0 d8 85 90 b8 79 ca 85 b7 cb aa 9f 38 8f 43 7e 38
       -6.8913854e-05 -1.594912e-05 7.6135235e-05 6.0621238e-05

exp_avg_sq f4 [512, 64]
000000 61 00 31 35 f4 34 16 36 bc d8 f8 35 06 e8 21 36
       6.593819e-07 2.2382565e-06 1.8540518e-06 2.4125925e-06
000010 21 e5 00 35 44 8e 04 36 25 0f a2 35 94 0d 96 35
       4.801714e-07 1.9752342e-06 1.2074348e-06 1.1179823e-06
000020 38 3e ba 35 75 66 7a 35 69 c7 88 35 97 c5 b6 35
       1.3876188e-06 9.328135e-07 1.0190826e-06 1.3617563e-06
000030 fe 05 b3 35 5b a0 ae 35 3e 2d 6c 35 e5 45 c1 35
       1.3338283e-06 1.301068e-06 8.7982687e-07 1.4399963e-06
000040 f5 6c b1 35 57 95 86 35 4c 35 cf 35 07 66 8a 35
       1.3219238e-06 1.0027242e-06 1.5438213e-06 1.0311495e-06
000050 2a 6f 89 35 85 62 f8 35 26 98 68 35 fc 2c 7d 35
       1.0239648e-06 1.8506113e-06 8.664814e-07 9.4315305e-07
000060 bb 33 03 36 ec e4 1f 36 11 cc df 35 a7 e1 d0 35
       1.9550632e-06 2.3826096e-06 1.6674186e-06 1.5562881e-06
000070 d7 50 0c 36 b1 58 b1 35 69 e8 95 35 be f5 60 35
       2.090868e-06 1.321334e-06 1.1169005e-06 8.3804105e-07
000080 69 63 47 36 4e ea d7 35 b3 13 8e 35 f3 ff 78 35
       2.9711175e-06 1.608694e-06 1.0585558e-06 9.2759655e-07
000090 5b dc a2 35 80 02 c2 35 b1 9c 9f 35 18 6e 4f 35
       1.2134072e-06 1.4454854e-06 1.1892026e-06 7.7273717e-07
0000a0 bd 80 82 35 52 b4 7b 35 fd 10 82 35 7a 68 7f 35
       9.723223e-07 9.3767187e-07 9.690699e-07 9.5146936e-07
0000b0 ae eb 8d 35 a3 5d 7a 35 47 24 7a 35 38 a0 d7 35
       1.057391e-06 9.3268517e-07 9.318505e-07 1.6065378e-06
0000c0 85 0a 18 36 41 19 10 36 2c 91 43 36 44 11 7f 35
       2.2655888e-06 2.1472372e-06 2.9141765e-06 9.502003e-07
0000d0 80 ea 09 36 93 2b 95 35 48 c3 a3 35 9b 26 3b 35
       2.0551088e-06 1.1114047e-06 1.2201281e-06 6.9719107e-07
0000e0 77 6b 4d 35 c4 43 e0 35 59 f0 fa 35 03 24 cb 35
       7.6524833e-07 1.6709023e-06 1.8696402e-06 1.5135159e-06
0000f0 08 fd c1 35 1c 2e bb 35 3b 94 4f 35 0d 4c 25 35
       1.4453262e-06 1.3946005e-06 7.7329213e-07 6.157796e-07
000100 91 17 1e 36 89 f3 13 36 87 c7 9b 35 16 c1 42 36
       2.3557552e-06 2.2046463e-06 1.160647e-06 2.9020644e-06
000110 42 fb a6 35 5e 4a 20 36 de e8 2b 36 e0 02 bc 35
       1.244109e-06 2.3885145e-06 2.5616532e-06 1.4007928e-06
000120 e4 c1 d9 35 75 38 04 36 6b 93 40 36 49 dc e0 35
       1.622419e-06 1.9702395e-06 2.8696038e-06 1.6753412e-06
000130 52 33 06 36 21 bf f6 35 d4 1b 30 36 cb 69 3c 36
       1.9997428e-06 1.8384054e-06 2.6242242e-06 2.8075763e-06
000140 c7 2c 6b 35 86 b0 e6 35 62 8b f4 35 12 27 ad 35
       8.760948e-07 1.718771e-06 1.8219982e-06 1.2900875e-06
000150 57 5a 11 36 27 1f bb 35 a8 72 eb 35 d0 fc b7 35
       2.1659268e-06 1.3941652e-06 1.7542234e-06 1.3708141e-06
000160 a3 2b 47 36 ef 9b d3 35 bf a4 b4 35 38 b8 fb 35
       2.967871e-06 1.5766108e-06 1.3458992e-06 1.8754572e-06
000170 2f c2 b4 35 8a 4c 3c 36 f6 a8 9a 35 2a 48 39 36
       1.346756e-06 2.8058735e-06 1.1523068e-06 2.7609153e-06
000180 22 99 da 35 17 69 33 36 1a c8 04 36 0f 93 18 36
       1.6286833e-06 2.673425e-06 1.9786007e-06 2.2735364e-06
000190 30 a9 bb 35 e5 a2 06 36 7d 87 29 36 40 3c 13 36
       1.3981826e-06 2.0062373e-06 2.5261827e-06 2.1939777e-06
0001a0 67 b5 b4 35 a7 65 b9 35 ef b5 e9 35 c1 4b ab 35
       1.346384e-06 1.3813159e-06 1.7412802e-06 1.276254e-06
0001b0 b1 f7 d1 35 16 4f 0a 36 fc 1b f5 35 84 c7 0d 36
       1.5643801e-06 2.0609637e-06 1.8262067e-06 2.112677e-06
0001c0 f7 8e 1e 36 ca 82 0e 36 e0 40 3b 36 9f bf 22 36
       2.3627051e-06 2.1235778e-06 2.7902934e-06 2.425142e-06
0001d0 94 bf 0c 36 b9 03 a7 35 27 fa 1c 36 fb 8f 95 35
       2.0973139e-06 1.2443553e-06 2.339142e-06 1.1143269e-06
0001e0 3f 96 0d 36 99 17 a6 35 18 da 03 36 37 bb e3 35
       2.1098092e-06 1.2374832e-06 1.9647468e-06 1.6967305e-06
0001f0 fd 94 08 36 05 c8 a2 35 e9 ea 00 36 1a 32 ca 35
       2.0352302e-06 1.2128154e-06 1.9210222e-06 1.5064754e-06
000200 ad 5b 89 35 da 72 d5 35 32 99 86 35 aa 18 f1 35
       1.0233977e-06 1.5903163e-06 1.0028364e-06 1.7963077e-06
000210 a2 21 3e 35 40 a4 73 35 86 14 b2 35 11 39 c7 35
       7.082946e-07 9.076357e-07 1.3268007e-06 1.4843264e-06
000220 e3 3e c7 35 7a 3c e7 35 47 07 d4 35 58 85 9f 35
       1.4844958e-06 1.7228442e-06 1.5797349e-06 1.1885231e-06
000230 65 23 d1 35 bd 93 e9 35 f3 66 7e 35 2e cc de 35
       1.5582015e-06 1.740285e-06 9.4772184e-07 1.6599713e-06
000240 2a c9 8c 35 16 50 96 36 60 46 13 36 71 b7 8b 35
       1.0489359e-06 4.4796716e-06 2.194567e-06 1.0409696e-06
000250 91 da 05 36 39 d4 a0 35 43 8f b5 35 ac 0b b9 35
       1.9945767e-06 1.1982694e-06 1.3527246e-06 1.3786971e-06
000260 23 b8 b8 35 6d 54 69 36 43 91 56 36 a2 c2 a1 35
       1.3762659e-06 3.4768848e-06 3.1973038e-06 1.205208e-06
000270 0f 5d 32 35 95 61 b6 35 70 ca b8 35 dd 6f 02 36
       6.6445585e-07 1.3588457e-06 1.3767985e-06 1.9436623e-06
000280 5b f6 ea 35 bc c2 88 35 9c 50 06 36 f5 d3 09 36
       1.7506057e-06 1.0189465e-06 2.0014477e-06 2.0537966e-06
000290 ca be 79 35 34 36 e0 35 db 1c c3 35 c6 df 67 35
       9.3037363e-07 1.6705076e-06 1.453703e-06 8.637984e-07
0002a0 1f c9 8d 35 09 c6 8b 35 11 e6 ca 35 1b 57 d6 35
       1.0563853e-06 1.0413943e-06 1.5117131e-06 1.5969594e-06
0002b0 3e 19 6d 35 77 48 70 35 81 8b 85 35 4a c9 d2 35
       8.832611e-07 8.951242e-07 9.949873e-07 1.5704802e-06
0002c0 a8 3d 7a 35 c5 cf f5 35 07 dc ce 35 e1 55 09 36
       9.322198e-07 1.8314391e-06 1.5412232e-06 2.046458e-06
0002d0 bd 4d e1 35 00 a6 c4 35 51 ba e1 35 ba 7e ec 35
       1.6786431e-06 1.465145e-06 1.6818032e-06 1.7620252e-06
0002e0 9d af b5 35 50 ac dd 35 b1 69 8e 35 76 5b 0f 36
       1.3536661e-06 1.6515933e-06 1.0610585e-06 2.1361898e-06
0002f0 ef 60 ff 35 81 1f 93 35 dd 58 b7 35 04 09 e5 35
       1.9027192e-06 1.0961522e-06 1.3660425e-06 1.7064453e-06
000300 d1 ac 8f 35 67 91 c4 35 eb 68 bb 35 5e 25 37 36
       1.0704626e-06 1.4645456e-06 1.3963121e-06 2.7290876e-06
000310 48 14 71 35 b0 3f 9e 35 1b a9 d3 35 31 c8 a0 35
       8.980901e-07 1.1790453e-06 1.5769941e-06 1.1979192e-06
000320 f7 95 c2 35 db b4 c5 35 b3 06 18 36 e3 b2 12 36
       1.4497772e-06 1.473028e-06 2.2653664e-06 2.185982e-06
000330 5a 0b 3b 35 3a 35 9d 35 e4 81 b9 35 46 87 b7 35
       6.967945e-07 1.1712903e-06 1.3821377e-06 1.3673932e-06
000340 f8 be 89 35 30 1a ee 35 68 33 44 35 ea 21 87 35
       1.0262875e-06 1.7740003e-06 7.3090496e-07 1.0068154e-06
000350 da 36 80 35 0a e5 b3 35 9f 03 05 36 c3 47 1c 35
       9.552707e-07 1.3403198e-06 1.9820652e-06 5.8218956e-07
000360 fd d0 f8 35 1c 86 0f 36 90 76 90 35 ca 00 80 35
       1.8538263e-06 2.1386722e-06 1.0763342e-06 9.536973e-07
000370 b2 74 cc 35 42 13 27 36 97 f3 a4 35 d3 c5 fa 35
       1.5233147e-06 2.4896149e-06 1.2289846e-06 1.8684026e-06
000380 60 cb f3 35 33 9a a7 35 6e d1 ec 35 5c a9 c0 35
       1.8164101e-06 1.2487347e-06 1.7644322e-06 1.4354405e-06
000390 9d 97 9a 35 fa 26 ad 35 44 89 8a 35 56 10 67 35
       1.1518019e-06 1.2900848e-06 1.0321751e-06 8.607798e-07
0003a0 fb 6b 65 35 37 1f fb 35 ff 3c a4 35 6c 66 c1 35
       8.546628e-07 1.8710042e-06 1.2236704e-06 1.4409429e-06
0003b0 c8 6c b2 35 d7 4f 5e 35 da 72 b1 35 d6 bf b7 35
       1.3293693e-06 8.2817627e-07 1.3220954e-06 1.3690394e-06
0003c0 59 f5 c3 35 a8 a6 d8 35 17 0b 1f 36 76 3f 8c 35
       1.4600038e-06 1.6141757e-06 2.3699301e-06 1.0449282e-06
0003d0 98 7a 0f 36 55 df 9b 35 a8 fc c0 35 8d 66 a2 35
       2.138002e-06 1.1613398e-06 1.4378647e-06 1.2099787e-06
0003e0 09 9b 2b 35 a2 b7 6a 35 20 a8 e0 35 a9 81 d1 35
       6.392807e-07 8.7439014e-07 1.6738231e-06 1.560945e-06
0003f0 4a 11 38 36 83 37 b9 35 ba 4e d2 35 bc 88 5d 35
       2.74282e-06 1.379973e-06 1.5669132e-06 8.252789e-07

exp_avg f4 [512]
000000 d4 5f 4c 38 12 b2 26 b8 17 ee d2 b8 c2 e3 97 38
       4.8726637e-05 -3.9743325e-05 -0.00010057928 7.242664e-05
000010 98 56 c1 b8 06 fa 87 37 87 d5 01 39 67 ec 13 b9
       -9.2190865e-05 1.620968e-05 0.00012381944 -0.00014107079
000020 a1 a3 a1 b8 be 3e 71 b8 af e3 15 b8 43 99 2e 39
       -7.7075565e-05 -5.751731e-05 -3.5736415e-05 0.00016651028
000030 4e df fb 38 6b f4 2d 39 86 c2 be b8 cc b9 2d 38
       0.000120102064 0.00016589618 -9.096139e-05 4.141945e-05
000040 99 a7 cd 37 4c 66 f2 38 8f 11 fc b8 8c c9 77 37
       2.4515948e-05 0.000115585135 -0.00012019567 1.4769274e-05
000050 2a ed 4c b8 08 95 c3 b6 67 35 7c 38 9a a6 68 38
       -4.8858266e-05 -5.8288024e-06 6.0131217e-05 5.546827e-05
000060 58 34 1f b8 e1 f6 01 38 11 4e 2b b8 4e a7 46 b8
       -3.7957303e-05 3.098592e-05 -4.0842282e-05 -4.7362693e-05
000070 50 a8 f8 b8 f1 7a 06 b9 94 25 4e 38 3b 78 af 37
       -0.00011856912 -0.00012825035 4.9149225e-05 2.0917612e-05
000080 ea a6 87 b7 7e 85 5d b7 90 66 d8 37 3a 25 db 38
       -1.617098e-05 -1.3203708e-05 2.5796966e-05 0.00010449668
000090 a1 2d 1b 37 af ea 9b 37 67 24 9d b7 07 12 04 b8
       9.249344e-06 1.8586723e-05 -1.873281e-05 -3.148804e-05
0000a0 23 16 9e b7 5a 78 fd b7 ff ba c6 b8 a5 91 bc 38
       -1.8845376e-05 -3.0215993e-05 -9.4762065e-05 8.991667e-05
0000b0 ae c9 63 b8 b9 d4 4f 38 b9 2d 16 35 09 31 a9 b8
       -5.4308846e-05 4.955076e-05 5.594589e-07 -8.0676815e-05
0000c0 49 b6 69 38 40 e0 e4 37 00 6e a1 38 7d 71 d7 38
       5.5721295e-05 2.7284143e-05 7.697567e-05 0.00010273138
0000d0 45 10 b0 b8 c5 1e 76 b8 a9 28 d2 b5 6b 78 2a b8
       -8.3953644e-05 -5.8679627e-05 -1.5658053e-06 -4.0643306e-05
0000e0 5d 7f 3d b8 10 2a da b8 86 f6 8d 37 11 8b 83 38
       -4.5179728e-05 -0.00010402885 1.6923306e-05 6.27247e-05
0000f0 f7 e7 20 38 b6 80 80 38 d0 65 a9 b8 23 6f b8 b8
       3.8363007e-05 6.12749e-05 -8.077512e-05 -8.7945045e-05
000100 89 3a 08 b9 fc 17 e6 38 4e b8 1e b9 1c 1e 9f 38
       -0.00012991777 0.00010971722 -0.00015136713 7.587319e-05
000110 e4 dd f5 b8 d0 56 0b b9 2e 29 4b b8 27 8a cf b8
       -0.00011723841 -0.00013288413 -4.8437323e-05 -9.896262e-05
000120 96 02 06 b8 46 14 15 36 e4 c6 d8 38 d2 8f a3 38
       -3.1950498e-05 2.221453e-06 0.00010336729 7.799234e-05
000130 1d e6 d5 b8 cc f4 f7 b6 a7 b7 78 38 8f 96 03 b7
       -0.000101994934 -7.3896717e-06 5.9298847e-05 -7.843263e-06
000140 97 67 cb 37 57 e1 81 b7 f8 b8 a8 36 dd 32 96 38
       2.4247724e-05 -1.548293e-05 5.0283234e-06 7.1620314e-05
000150 11 f0 f4 37 1a 01 34 38 7d a3 72 b8 7e 93 38 b8
       2.9198856e-05 4.291637e-05 -5.7849556e-05 -4.400638e-05
000160 8a 70 b1 b6 0d 0c 32 b7 f1 e3 eb 37 9f ed 6c b8
       -5.2881123e-06 -1.0612433e-05 2.8120327e-05 -5.6488087e-05
000170 f5 08 61 b8 6a ee 04 39 48 02 b3 b8 00 c8 48 38
       -5.3652522e-05 0.00012677317 -8.53581e-05 4.786998e-05
000180 e3 a7 f5 b8 26 9b 55 38 d2 44 c2 b6 fd 44 72 36
       -0.00011713782 5.092765e-05 -5.7896623e-06 3.6100967e-06
000190 c0 2d 06 b9 f3 37 a8 38 10 3e 3e 38 b1 ce bf b8
       -0.00012796279 8.0212856e-05 4.535733e-05 -9.146089e-05
0001a0 ff f0 2e b8 c4 8f 82 38 73 ab c1 b7 80 cd 2e 35
       -4.1709278e-05 6.2256615e-05 -2.308723e-05 6.5119093e-07
0001b0 9b 6b 94 38 4e 43 56 b8 24 86 91 b8 ba 44 cb b8
       7.077233e-05 -5.108426e-05 -6.9391244e-05 -9.6925956e-05
0001c0 8a e8 37 38 4f 8e 31 b8 92 36 72 37 95 73 af b7
       4.384717e-05 -4.2332624e-05 1.443703e-05 -2.0915448e-05
0001d0 77 da f9 b8 92 a4 93 b8 b5 fa 29 b8 85 4b 9b 38
       -0.000119139375 -7.04016e-05 -4.052623e-05 7.4050426e-05
0001e0 a6 50 8f b8 1f 88 8b b8 06 63 8d b8 22 91 b3 b8
       -6.833793e-05 -6.653391e-05 -6.7418485e-05 -8.562418e-05
0001f0 35 04 81 b6 97 fb ca b6 95 47 06 b6 2f 6f b2 37
       -3.8449894e-06 -6.049358e-06 -2.0009222e-06 2.1271027e-05
000200 3a 24 b9 b7 79 e8 4b b8 34 bb 52 38 42 da e0 b7
       -2.2070588e-05 -4.861548e-05 5.0242248e-05 -2.6804515e-05
000210 ac fa 38 b9 02 59 db b7 44 ac 33 38 af 61 6a b8
       -0.0001764099 -2.6148282e-05 4.283736e-05 -5.5880922e-05
000220 aa 3f 34 38 cc ab e5 38 30 90 8a b8 2d 36 6c b7
       4.2974636e-05 0.000109515706 -6.60721e-05 -1.407931e-05
000230 ca 44 65 b8 a6 12 89 37 d0 9f c7 36 6a 39 9d b6
       -5.466192e-05 1.6340357e-05 5.949267e-06 -4.6856485e-06
000240 50 5c 50 37 99 4a 12 b6 d3 43 bd b7 c4 8e 00 38
       1.2419259e-05 -2.1799117e-06 -2.2562139e-05 3.065054e-05
000250 fd a0 20 38 0f 4b 97 38 64 a4 20 37 25 cd 05 b7
       3.8296905e-05 7.214222e-05 9.575018e-06 -7.975182e-06
000260 6f 13 8b b7 fd 54 16 b7 26 2a 14 b6 59 71 e3 38
       -1.657914e-05 -8.960485e-06 -2.2078252e-06 0.00010845316
000270 cc 3b ee b8 2e f0 ce b5 bf fc 8b b8 81 e6 a2 37
       -0.000113598624 -1.5418098e-06 -6.675114e-05 1.9419242e-05
000280 44 af dc b7 2f 71 1d b9 c3 98 8f b7 69 e8 d1 b7
       -2.6307658e-05 -0.00015014851 -1.7118064e-05 -2.5022966e-05
000290 89 98 11 37 a6 45 a7 38 a3 16 3f 36 7d 77 b3 b7
       8.678188e-06 7.9761536e-05 2.8474394e-06 -2.1394104e-05
0002a0 91 b9 34 b8 cd 9c 8d 37 65 48 ac 38 0e f4 85 38
       -4.3088166e-05 1.6881526e-05 8.215084e-05 6.387393e-05
0002b0 95 24 8c b8 9d aa bc b7 cb 2f a9 37 0b b0 2a 37
       -6.682534e-05 -2.2490794e-05 2.0168625e-05 1.0173778e-05
0002c0 ac d8 13 b8 38 02 fa 37 57 b1 89 38 67 82 b2 b7
       -3.5249323e-05 2.9803356e-05 6.565701e-05 -2.1279977e-05
0002d0 fd 3b ae b7 3d 18 ac b8 86 9c 0e 37 b6 8e 1b 38
       -2.077035e-05 -8.206114e-05 8.500303e-06 3.708779e-05
0002e0 12 37 4d b7 de 93 41 b8 de 5e ff 37 d7 cd 9b 38
       -1.2231774e-05 -4.6152498e-05 3.0442545e-05 7.4293166e-05
0002f0 e4 d4 f8 b8 fb 4f dd 35 73 7a 96 37 f8 91 a1 37
       -0.000118652155 1.648906e-06 1.7938413e-05 1.9260668e-05
000300 8d fb 8e 37 c3 3b 23 b9 b5 b3 5d 38 1b 3d 85 b8
       1.7044857e-05 -0.00015567154 5.285787e-05 -6.353316e-05
000310 bc 0b 16 38 47 38 b2 38 e0 fe 6a 38 b3 cd 02 b8
       3.5773715e-05 8.498184e-05 5.602732e-05 -3.1185988e-05
000320 06 fb a5 b8 c5 55 50 b8 7c 9b 4e 38 f3 71 08 b8
       -7.91457e-05 -4.9670944e-05 4.9259033e-05 -3.253105e-05
000330 1d 5b 2a 38 7a 41 0e 39 75 2b 56 b8 53 3c 8a b8
       4.0616014e-05 0.00013566567 -5.106205e-05 -6.591589e-05
000340 77 07 f0 b7 fc 12 94 38 6a 00 50 38 91 16 94 b8
       -2.8613706e-05 7.060726e-05 4.959145e-05 -7.061393e-05
000350 b2 47 7d 38 8c c5 e8 b6 fd a9 1e 38 18 af ed 37
       6.0386672e-05 -6.9371363e-06 3.782845e-05 2.8334136e-05
000360 f9 91 05 38 85 d7 dd 34 c3 fe 40 b9 82 ab 15 38
       3.184562e-05 4.132127e-07 -0.00018405453 3.5684097e-05
000370 25 be 71 38 9c 1d 92 37 2b 89 59 b7 34 d1 15 38
       5.7635963e-05 1.7418344e-05 -1.2966145e-05 3.5719204e-05
000380 c2 7b 15 b7 e1 5c 8e b7 3a be fd 38 41 3e 09 38
       -8.909907e-06 -1.697097e-05 0.000120994126 3.2721324e-05
000390 e8 e0 4d b7 4b d6 a8 b7 b7 da 52 37 16 ca 8e 37
       -1.2271317e-05 -2.0126949e-05 1.2567899e-05 1.7021823e-05
0003a0 6c f1 91 37 75 57 47 34 2a d4 82 38 0d 63 40 38
       1.7397768e-05 1.8565136e-07 6.238402e-05 4.5868615e-05
0003b0 7a f4 d6 b8 e5 3b 02 b8 68 64 7b 38 e2 21 9a b8
       -0.000102498525 -3.1050196e-05 5.9936574e-05 -7.3496034e-05
0003c0 d2 8b 21 b9 79 24 4f 38 a0 5d d4 b7 e5 51 03 b9
       -0.00015406244 4.9386614e-05 -2.5315967e-05 -0.00012523642
0003d0 6b 6c c8 b8 5e c3 53 b7 4b 3d ad b8 c3 a2 6d b7
       -9.5569376e-05 -1.26220675e-05 -8.2606995e-05 -1.4164197e-05
0003e0 33 d0 6b b8 75 6c c7 b8 d1 46 02 b8 7f dd 1b b4
       -5.6222267e-05 -9.509261e-05 -3.106037e-05 -1.451608e-07
0003f0 d7 cd c3 b8 b5 d2 a8 37 80 a3 5b b7 a3 99 83 b7
       -9.336665e-05 2.0125279e-05 -1.3091485e-05 -1.568796e-05
