ldm_checkpoints/ldm_epoch_40.pth (torch, 798986 bytes, 12 tensors)

model.0.weight f4 [512, 64]
000000 9c 71 dd 3d 7e 11 5f 3d 49 3b c3 bd 18 e2 ad bd
       0.10812685 0.05446004 -0.09532792 -0.084903896
000010 f7 83 ed 3d a3 0b e5 3d c4 f7 85 3d 47 63 b0 3d
       0.11597436 0.1118386 0.06541398 0.08612686
000020 2a ea 03 be b3 15 3d 3d 6f 6f 88 3d 0f 5a f5 3d
       -0.12882295 0.046163272 0.06661879 0.11980068
000030 b4 41 51 bd 73 32 62 3d d8 d8 32 3d f2 32 df 3c
       -0.05108805 0.055223893 0.04366383 0.027245972
000040 c7 72 e5 bc d6 4e d2 bd 10 7a d7 bd 46 ff e2 bd
       -0.028008832 -0.10268943 -0.105213284 -0.11083846
000050 3b 2b 0d 3c 2a 02 af 3c ed e9 d3 ba fe 07 74 bd
       0.008616264 0.021363337 -0.0016167738 -0.059577934
000060 41 65 29 3d d9 5b 93 bc b8 92 3d 3d 09 06 a8 bd
       0.04135633 -0.017988132 0.0462825 -0.08204276
000070 4e 77 24 3a 4a 3c 13 bd 73 23 0a 3e 2d a6 07 bc
       0.00062738813 -0.035946168 0.13490085 -0.0082793655
000080 e3 16 ec bc bd ea b9 3d 99 f6 6b bd 95 6a d6 bd
       -0.028819507 0.09077976 -0.05760822 -0.10469548
000090 0a 49 2f 3d a0 b3 63 3d d9 42 0c 3e 4e 59 99 3d
       0.042794265 0.055591226 0.13697375 0.07487737
0000a0 33 d3 77 bc 64 29 03 3e ef 05 be 3c 33 7f a2 3d
       -0.015126037 0.12808758 0.023196189 0.079344176
0000b0 28 69 cd bc bc 15 5c 3d d9 b0 65 3d 87 05 73 3d
       -0.025074556 0.053731665 0.05607686 0.059331443
0000c0 2d 06 67 3c d1 bd 99 bc 4b 3d ba 3d 5e 32 ed bc
       0.0141005935 -0.01876727 0.09093722 -0.028954681
0000d0 d9 d5 f5 bd 9c 88 90 3d 60 a5 ab bd 55 fc ff bb
       -0.12003679 0.07057306 -0.08381152 -0.0078120627
0000e0 ac 5e 87 3d b2 81 8b bd 8a 63 ea 3c f8 b0 68 bd
       0.06609854 -0.06811847 0.028611917 -0.056809396
0000f0 48 aa a0 3d bc 07 d1 3d 48 03 2b bd ca 34 88 3d
       0.078449786 0.10206553 -0.041751176 0.06650694
000100 b8 ed 2d bd 2a 8b f0 bc 8d aa 0a 3c 0d fa c2 bd
       -0.042463034 -0.029363234 0.008463514 -0.0952035
000110 2c 0b 29 bd 1d ec c2 3d 07 ed e1 bd 67 21 b2 3c
       -0.04127042 0.09517691 -0.110315375 0.021744443
000120 6a 8f 92 bd a5 13 3e 3d 23 a9 a6 bd fc c4 19 3c
       -0.0715626 0.046405453 -0.08137729 0.009385344
000130 9a 0b 1e 3d 60 6f 81 3d b6 83 a6 ba c1 08 60 bd
       0.038585283 0.06320071 -0.0012704048 -0.05469585
000140 19 59 05 be 24 9f 4c bd 0e c3 9c bd 47 0a 91 3d
       -0.1302227 -0.049956456 -0.07654391 0.070820384
000150 37 6d 03 3d d6 1d 9f 3d 97 e6 9c 3c e1 f5 e5 bd
       0.032086577 0.07769363 0.019152923 -0.11228538
000160 0e 05 ce bd d6 ac fc 3d e2 65 86 bd 70 70 3a bd
       -0.10059558 0.12337653 -0.06562401 -0.045517385
000170 d5 d3 8d 3d 01 04 2e 3d 14 d5 83 3d 07 7e ce bc
       0.069251694 0.042484287 0.06437126 -0.025206579
000180 32 3f b7 bd b2 50 a7 3d 2e 9a 6a bd 4a 30 9d bd
       -0.089476004 0.08169688 -0.057275943 -0.07675226
000190 91 ff 9e 3d fd 78 b6 bd 2f fe 84 3c 0a c3 f0 bc
       0.07763589 -0.089097954 0.016234485 -0.029389877
0001a0 8a d9 63 3d d5 91 5c 3c 84 80 ca bd fa 31 85 bd
       0.055627383 0.013462503 -0.09887794 -0.06503673
0001b0 1a 60 86 bd e0 10 ca bd 4d 55 79 3c 80 90 2b 3d
       -0.06561299 -0.098665 0.015218091 0.041885853
0001c0 da 45 b0 3c b8 3e 8f 3d 9d 6d a2 bd 79 8e 24 bd
       0.021517683 0.069943845 -0.07931063 -0.040174935
0001d0 1f f8 f6 3d 0c de b1 3d a1 ec b6 bd ce 28 9a 3d
       0.12059044 0.0868493 -0.08931852 0.07527314
0001e0 c1 fc 5c ba ee 69 f1 3d ce bf 48 bd 3e aa b8 3d
       -0.0008429997 0.117877826 -0.049011044 0.09016846
0001f0 a2 c7 9f 3d ae 07 fa 3d 5f 01 da bd 7e 9b 6e bd
       0.07801749 0.12208496 -0.10644793 -0.058253758
000200 ed 9f 4c bd 7b fb ed 3d 86 50 05 3c 2b d1 b4 3d
       -0.049957205 0.11620232 0.008136874 0.08828958
000210 57 c7 ca 3d 1c ae 0d be 84 42 a1 bc 15 2f 14 bd
       0.09901302 -0.13835949 -0.019685037 -0.036177713
000220 cb 7c aa 3c 57 f7 d1 bc ec a6 ba bd 02 b0 f6 3d
       0.020811459 -0.025630636 -0.09113869 0.120452896
000230 ad f7 e3 bd 68 38 d8 3d 4b c6 dd 3d 1d 8f 5f bd
       -0.11131225 0.10557634 0.10828837 -0.054579843
000240 d7 2b 06 bd 16 7e 7d bd cb db bc 3d 12 c5 10 3d
       -0.032756653 -0.061887823 0.0922161 0.03534419
000250 fb 8d d1 bd c2 ff a8 3d d8 66 10 3e 1c c0 cd bd
       -0.10232159 0.08251907 0.14101732 -0.100464076
000260 e6 ee 35 bd 12 97 15 3d c6 a2 ab 3c ff eb a2 3d
       -0.044417284 0.036521025 0.02095164 0.07955169
000270 e7 5b ac bc d2 94 ee bc 07 16 c0 bd 42 b3 23 3e
       -0.021039916 -0.029123697 -0.093792014 0.1598635
000280 e8 58 ff 3d ef 66 3a 3c f9 24 17 bd d0 a0 9f 3c
       0.124681294 0.01137708 -0.036900494 0.019485861
000290 83 d7 1e bc 37 21 55 bd c4 0c 95 3b e2 35 bb 3c
       -0.009694937 -0.05203363 0.004548641 0.022852842
0002a0 be 19 f9 bd f5 c0 be bd 1d 26 a1 3d 19 24 cc bd
       -0.12163113 -0.093141474 0.07868598 -0.099678226
0002b0 79 04 f7 bd f0 85 04 3e 0d 0e 8f bd a0 ae 0b 3d
       -0.120614 0.12941718 -0.06985102 0.034102082
0002c0 9e bf 32 3d 18 fe 3e bd 0a 32 19 3c fe a9 ac bd
       0.04363977 -0.04662904 0.009350309 -0.08430861
0002d0 2b d6 04 be c9 cc 4d bd f3 ef f6 bd f0 83 94 3d
       -0.12972324 -0.050244126 -0.120574854 0.072517276
0002e0 7d cd ac bd ee d4 85 3d 06 14 25 3e a0 ce 45 3d
       -0.08437631 0.06534754 0.1612092 0.048292756
0002f0 46 bb 0a be 3b bc b9 bd d6 a0 8e 3d 0c 3d b2 bc
       -0.13548002 -0.09069105 0.06964271 -0.021757625
000300 2f 11 7d 3d 42 96 00 be 87 0c d0 3c c4 69 ea bd
       0.061783966 -0.12557319 0.025396599 -0.114459544
000310 04 60 4a bc 07 1a a3 3c da 38 87 bd f1 42 52 bd
       -0.0123519935 0.019909872 -0.066026405 -0.05133337
000320 cf e6 39 bd 2b 62 11 be 36 65 43 bc 93 a5 a4 bd
       -0.04538613 -0.14197604 -0.011925986 -0.08039393
000330 4e f2 43 bd 22 72 3d 3c 8c 65 71 bc b1 25 8d 3d
       -0.0478385 0.011562856 -0.014733683 0.06891955
000340 66 ed 53 bd 94 03 4d 3d dd 2d 85 bd 30 fa 66 bd
       -0.051740073 0.05005224 -0.06502888 -0.05639094
000350 fb 0f 0e be 01 bb c2 bd 2b a3 b1 3d 21 42 e4 3d
       -0.13873284 -0.095083244 0.086737 0.111454256
000360 a6 4d 88 3c d1 12 b6 bd 54 3f b8 bd 0e ba ff bb
       0.016638588 -0.08890308 -0.08996454 -0.007804162
000370 67 08 30 3d 18 6d 9b 3c ec e2 68 3d 06 37 92 bd
       0.042976763 0.018972918 0.056857035 -0.07139401
000380 b6 7b a4 bc 50 16 82 bd af 3d 03 3e a2 9c 3d bd
       -0.020078521 -0.06351912 0.12816499 -0.046291955
000390 ae c1 0b 3d 9a 4e 11 3e b5 95 ce bd d9 1d 60 bd
       0.034120254 0.1419014 -0.10087148 -0.054715965
0003a0 38 e5 8d 3d d2 7b cd 3c 74 bf 8c bd 03 25 cd 3d
       0.06928486 0.025083456 -0.06872454 0.10016825
0003b0 4c 0c 9a 3c 0f 10 a4 3d 16 af 48 bd 1b a8 fe bd
       0.018804692 0.080108754 -0.0489951 -0.12434407
0003c0 95 1b 03 3d 5b 2e 79 3d 55 73 b8 3c 6f e5 a6 bd
       0.032008726 0.060835224 0.022515932 -0.0814923
0003d0 2e eb 9f bc 89 bf b1 bd 0e 79 00 3c e0 9b f7 bc
       -0.019521322 -0.086791106 0.007841362 -0.030225694
0003e0 e3 9e a0 bd 22 1c a9 3d a3 cc fd 3c f8 6b 14 3e
       -0.07842805 0.08257319 0.030981367 0.14494312
0003f0 a2 63 5a bd ca 36 a3 3c 56 b3 ed 3b 44 29 8b bd
       -0.053317674 0.019923586 0.0072540445 -0.0679498

model.0.bias f4 [512]
000000 bd 2f bd 3c 42 1b 80 3d b8 9b fe 3c 34 a6 fb bd
       0.023094052 0.06255199 0.031080112 -0.1228756
000010 ad e6 b4 bd 77 01 b0 bc 25 6e 4d bd 56 2d dd bd
       -0.088330604 -0.021485073 -0.05015387 -0.10799663
000020 a9 0e 1c 3c 95 54 97 bd ee c5 01 3d ec 93 88 bc
       0.00952498 -0.073891796 0.0316829 -0.016672097
000030 5f 5c 6a 3d 2c 52 a0 bd 4f 63 c0 3d 1a b5 0a bd
       0.057217 -0.07828173 0.093939416 -0.03386412
000040 8c 11 08 be e7 7a 7c 3c 98 ce c8 bd ef 50 8d 3d
       -0.13287944 0.015410162 -0.0980503 0.069002025
000050 ac 18 cd bd d8 f1 cf bd dd 5b 85 bd df b9 7a bc
       -0.100144714 -0.1015355 -0.06511662 -0.015303104
000060 0d 34 0a 3d 9a f4 15 bc 28 f6 5d 3d f2 dd c2 3c
       0.033741046 -0.009152556 0.05418983 0.023787472
000070 cf ab ab bd f2 cb 3d 3d cb 5c f9 bd 21 a9 1f 3c
       -0.08382379 0.046337076 -0.12175902 0.009744913
000080 57 6a 0e bd f7 97 a6 3d 62 f6 2a 3c 27 c1 a3 bd
       -0.034769382 0.08134454 0.010434719 -0.07995825
000090 1f 37 7f 3d bb 8a 13 bc 33 97 1a 3d 94 c7 f4 3d
       0.062308427 -0.009005244 0.03774185 0.11952129
0000a0 24 52 d9 3d 14 b5 44 3d 53 3f 8b 3d b7 1c 2a 3d
       0.1061137 0.048024252 0.067991875 0.04153129
0000b0 da 0f 91 3d ed 7b 31 bd 4f 8f 40 bd 0a a1 02 bc
       0.070831016 -0.043331075 -0.04701167 -0.007972965
0000c0 a7 5b 3c 3b e6 23 88 3d b5 96 ac bb 92 a5 15 bd
       0.0028741152 0.06647472 -0.005266989 -0.036534853
0000d0 c4 d4 c3 3d aa 39 82 3d dd d4 0f be 25 8b bc bb
       0.09562066 0.06358655 -0.14046045 -0.005753892
0000e0 81 6d b4 3c bb 6c 23 bd a0 e6 fd 3c dc a2 e5 3d
       0.022024872 -0.039898615 0.03099376 0.112127036
0000f0 f4 fd 11 be 06 12 cf bd 78 67 4f bd 28 58 ca 3d
       -0.14257032 -0.101108596 -0.050635785 0.09880096
000100 2e c7 d4 3b 4d c4 82 bd 63 4b 41 bd 11 b3 8c bb
       0.0064934706 -0.06385098 -0.047191035 -0.0042938073
000110 97 e4 51 3d 01 37 5d 3d 4c d3 0b 3d d7 1d 28 3d
       0.05124339 0.054007534 0.034137055 0.041044082
000120 d0 4f 85 ba f0 17 23 bc e2 54 69 3c b3 dd 41 3d
       -0.0010170881 -0.009954438 0.014241429 0.04733057
000130 67 d2 9d bd 64 28 32 3d 19 11 f9 bc 6c 9c 1a bd
       -0.07706147 0.04349555 -0.03040366 -0.03774683
000140 1f e1 79 bd 7b 2c 07 bd 1c bd 7e 3b 4e 3f 43 3c
       -0.061005708 -0.033001404 0.0038870042 0.0119169485
000150 b6 66 08 3d b9 74 17 be 11 21 f4 bd 88 2f 9a 3d
       0.033301078 -0.1479062 -0.119203694 0.07528597
000160 e6 2e 8f 3d dd fb 30 bd ed c4 3f 3d 59 af 58 3c
       0.06991367 -0.043208946 0.046818662 0.0132254
000170 d7 ff 70 3d 6e 6f 82 bb b4 96 c5 3d c7 f3 0c 3d
       0.058837738 -0.0039805686 0.09647885 0.03441217
000180 d6 c4 65 bc 1a 1a b3 bd ec 11 ae 3c c2 9d 26 bd
       -0.01402398 -0.08745213 0.02124878 -0.040677793
000190 c0 36 50 bc 25 2b 46 bc 3b 71 97 3d 7b ed ca bd
       -0.012708366 -0.012095247 0.07394644 -0.09908577
0001a0 ea aa 73 3c a5 70 d6 3b 18 94 fc 3d 9e fa 16 3d
       0.014872292 0.00654419 0.12332934 0.0368601
0001b0 c3 7f a7 bd 5c 95 10 bd 76 d6 f2 3c 68 37 3d bd
       -0.081786655 -0.03529869 0.029643279 -0.046195418
0001c0 fb 2f 5e bd 20 ab c2 bc a1 6f 45 be 57 48 db bd
       -0.054244976 -0.02376324 -0.19280864 -0.10707157
0001d0 e6 26 ee bd da 6f d4 bd 46 6a 80 bd d5 c9 83 bd
       -0.11628513 -0.103728965 -0.0627027 -0.06434981
0001e0 ca 6d b7 bd c9 20 0c 3d 53 51 82 3a e7 2b e8 bd
       -0.089564875 0.034210954 0.0009942449 -0.11336499
0001f0 8f 90 e9 3a 36 e7 40 3d 14 4c b6 3c e0 aa 13 3c
       0.0017819571 0.0470955 0.022253074 0.009012908
000200 fc e8 a6 bc f4 df d1 3c f6 9b ca 3d 08 78 49 3b
       -0.020374767 0.025619484 0.098930284 0.003074171
000210 7e bf 97 3d 1f b5 42 3d 3e 44 d9 3d b2 ae fb bb
       0.07409571 0.04753601 0.10608719 -0.0076807374
000220 12 29 f1 bb 37 91 99 bd ee 80 41 3d 2c 8d 80 bc
       -0.0073596323 -0.07498401 0.047242098 -0.015692316
000230 3a 5e 8d 3d 61 f7 be bd 5e b7 7d bd ea 30 21 bd
       0.06902738 -0.093245275 -0.06194245 -0.03935329
000240 b2 e8 44 bd ea 24 0a be 53 e5 cb bd 9f b3 a6 3c
       -0.048073478 -0.13490644 -0.099558495 0.020349322
000250 9a 99 05 be 5a a5 e2 ba cb c6 a2 bd b3 0d b3 bd
       -0.13046876 -0.001729171 -0.07948073 -0.08742847
000260 9e ac 02 be 48 4d b1 bd ed 3c a9 3d f8 cb 6f bd
       -0.1276116 -0.08657318 0.08263574 -0.05854413
000270 59 82 ec bc 24 c9 b7 3d 76 1b a1 3d 94 48 97 3d
       -0.028870748 0.089739114 0.07866566 0.0738689
000280 96 8f 84 3d c8 a2 01 be 50 88 7f 3d 28 e2 9f 3d
       0.06472699 -0.12659752 0.062385857 0.07806808
000290 ad 94 b4 3d d5 47 0e 3d e5 68 24 be 61 c7 ba 3c
       0.0881742 0.034736473 -0.16055639 0.02280015
0002a0 37 ff 8e 3c de aa 3d bd d2 f7 88 bd 32 fb c9 bd
       0.01745568 -0.04630553 -0.06687893 -0.09862365
0002b0 1a 59 5c bd 4f 0b 78 3c 4f 5c 94 3c 7d 22 18 bd
       -0.05379591 0.015139415 0.018110422 -0.037142266
0002c0 88 8d c4 bd 2d ea b7 bc 51 b6 1e bd c5 9b cc bc
       -0.095973074 -0.02245053 -0.03874809 -0.02497662
0002d0 99 df 0e be 0d f3 7e bd 85 63 ed bd 92 dd bd 3b
       -0.13952483 -0.06224351 -0.115912475 0.0057942355
0002e0 22 d8 9e 3d 1a f7 ad bd af a7 89 bd 84 1d fd 3d
       0.07756068 -0.084943965 -0.06721436 0.12359145
0002f0 9b 10 03 be 62 3e 03 3d 87 1e 53 bc 6a d5 f9 bd
       -0.12799303 0.032041915 -0.012885696 -0.121989086
000300 73 99 7e bd de 54 99 3d ce 72 95 3d 6e 77 44 bd
       -0.06215806 0.0748689 0.07297288 -0.04796546
000310 e9 84 82 bd fb 23 8a bc d3 51 13 bd 30 96 51 3c
       -0.06373007 -0.01686286 -0.035966706 0.012792155
000320 84 a9 34 3d 7c 10 cc 3c ae 33 e8 bd 4a e2 13 be
       0.044106975 0.024910204 -0.11337982 -0.14441791
000330 f0 2c 32 3d 7e e2 fd bb 9e 36 9e 3d 6a ae d2 3c
       0.043499887 -0.0077479472 0.07725261 0.025717933
000340 c2 cc 17 be 6a 57 50 bd f5 c8 2b bd f3 87 31 bd
       -0.14824203 -0.050864615 -0.041939694 -0.043342542
000350 e7 45 6f 3c ce 21 b0 3d 0f e8 68 3d ae 44 0f bd
       0.014604068 0.08600198 0.056861933 -0.034977607
000360 ec 63 26 3d be 4b 27 3c 08 aa 79 3d c7 53 80 bc
       0.040622637 0.010210929 0.06095317 -0.015664948
000370 5e 49 83 bd 4f fa eb 3d 1e 89 04 bc fa bd 2f bd
       -0.06410478 0.11522352 -0.008089332 -0.042905785
000380 66 e0 28 bd ed f7 30 3d 28 6c 16 be 1f cd 0b be
       -0.041229628 0.04320519 -0.14689696 -0.13652466
000390 6a 59 97 3b 87 b4 e4 bd 10 6b 75 bd bd b5 2a bc
       0.0046188133 -0.11167245 -0.059916556 -0.010419306
0003a0 c6 b5 02 3d d4 30 9f 3d df 28 ef bd 3a 5a ed bd
       0.031911634 0.07772985 -0.116777174 -0.11589475
0003b0 7b bc 8f bd 43 38 f6 bd ea 0f 7b 3d 0b 6c b3 3d
       -0.07018372 -0.1202245 0.061294474 0.08760842
0003c0 e2 61 8a 3d 76 6f 1c bc 41 e5 d9 bd f4 ad 8e 3c
       0.06756951 -0.009548059 -0.1063943 0.017416932
0003d0 73 e0 db bd c3 49 3f 3d 19 b0 ae bd ae 17 e1 bc
       -0.1073617 0.046701204 -0.08529682 -0.027477112
0003e0 5c fb a4 3d 44 69 d3 bc 17 1e ef ba f7 cf ed bd
       0.080557555 -0.02580703 -0.001824322 -0.11611932
0003f0 98 fb 81 3d 90 5a b1 bc dd 7c 78 bc 66 cc b9 3d
       0.06346816 -0.021649629 -0.0151664885 0.09072189

model.2.weight f4 [64, 512]
000000 8f 6d 4d 3c 3c 8e 00 3d 66 f2 88 bc d6 dd 6f 3b
       0.012538328 0.031385645 -0.016717147 0.003660073
000010 de 28 a1 bc ee 1b 89 bd 9f 5f 6b 3c 03 d5 95 3d
       -0.019672807 -0.0669478 0.01436606 0.073160194
000020 9e 8c 86 bd bb 90 d7 3c 75 e0 25 bd 7d b6 10 bd
       -0.06569789 0.02631413 -0.040497262 -0.035330284
000030 5c af 01 bd 3e 46 e4 3c 4f 10 23 bc da 97 5d 3b
       -0.031661376 0.027865525 -0.009952619 0.0033812434
000040 c0 bb 92 3b 27 2c 77 bc 5f 60 49 3d 96 fe 17 bd
       0.004477948 -0.01508621 0.049164172 -0.037108026
000050 49 d3 50 3d 15 0f f3 bb 15 8c 8c bd aa 9d 52 3c
       0.050982747 -0.0074175694 -0.06862656 0.012854973
000060 36 92 1a 3d ab ad 1b 3d f4 ee 56 bd d1 75 b0 3d
       0.037737094 0.03800742 -0.052473977 0.08616222
000070 01 7c 9c 3c d3 95 32 3d ef fa 9e bd 91 60 21 bd
       0.019102098 0.043599915 -0.077627055 -0.039398734
000080 a7 2b 5c 3c 23 27 71 3d e4 6a 52 bc 54 ee f1 3c
       0.013438142 0.058875214 -0.0128428675 0.029532589
000090 d3 e2 3b bc 3a f6 d8 3c 1e db db 3c e3 74 49 bd
       -0.011467653 0.026484597 0.026837882 -0.049183737
0000a0 c2 7f f3 3c c1 e7 8c bd 58 3d 70 3d 24 74 ae 3c
       0.029724006 -0.06880141 0.058652252 0.021295615
0000b0 a0 2c b3 3c 49 4c e6 3c 7e fa 25 bd 2a 4c 84 3c
       0.021871865 0.028112547 -0.04052209 0.0161496
0000c0 04 b9 9c 3c a3 1f 87 3d b5 1b 0d bc 69 2e 3c bd
       0.019131191 0.06597831 -0.008612563 -0.045942698
0000d0 41 7f 51 3c e3 e3 db 3b 8c 3e 38 bc f5 38 5c bb
       0.012786687 0.006710516 -0.011245381 -0.0033603285
0000e0 2c 51 96 bc 10 87 96 bd 82 df 40 bc 4f d8 c3 3b
       -0.018349253 -0.0734998 -0.011772038 0.0059767137
0000f0 96 d8 4b bd 28 e6 38 bd 78 52 22 bd da 8e 69 bc
       -0.0497671 -0.04514137 -0.03962943 -0.01425525
000100 d8 51 c1 bc 30 ab 1f 3d 22 15 15 3d 74 e7 a1 bd
       -0.023598596 0.038981616 0.036397107 -0.07905474
000110 d4 8d 47 3d c5 6e 1b 3d 50 e8 0d bd e9 29 00 bd
       0.048719242 0.037947435 -0.03464538 -0.03128997
000120 42 4c 39 3d b7 48 bb bb b5 5d da bc 65 c4 7c bd
       0.04523874 -0.0057154554 -0.026656011 -0.061710734
000130 7b dd 0f 3d f4 59 2e 3d ee 22 53 3d 1a 9d a0 bb
       0.03512333 0.042566255 0.051546983 -0.0049015405
000140 3f 98 43 3b 34 bd 59 3d 87 59 4e bb 90 bd 96 bd
       0.0029845384 0.053158954 -0.0031486468 -0.07360375
000150 79 88 18 3d e1 e2 c0 3b 7e f3 48 3d f2 2c 2d 3c
       0.037239525 0.005886421 0.049060337 0.010569798
000160 a1 6c 9e bc 8f 8a 51 bd 78 bd 49 3d a5 b2 0e 3d
       -0.019338908 -0.05115753 0.049252957 0.034838337
000170 76 f2 46 bc 5c f7 4f 3b fc 3c 74 3d e1 07 95 3c
       -0.012142768 0.003173313 0.05962847 0.018192234
000180 f0 61 00 3b ec f8 02 bd e3 1b f2 bc 67 c5 62 bd
       0.0019589625 -0.03197567 -0.029554313 -0.05536404
000190 5a 6b 9d 3c a4 9a 94 bc 8c cb d6 bc e7 3b 63 3c
       0.019216228 -0.018140145 -0.026220106 0.013869262
0001a0 d4 f5 96 bd bd 07 8c bc 96 d3 8c bd 5b cd 5f 3d
       -0.07371107 -0.017093534 -0.06876294 0.0546392
0001b0 9d a0 5a 3d ff 79 fd 3b 6b ae 59 bb 06 14 b5 bc
       0.05337583 0.0077354903 -0.0033215533 -0.022104274
0001c0 97 05 4a 3d f2 7b 21 bc 1b af 9e bb ca be ec 3c
       0.049321737 -0.009856211 -0.0048426515 0.028899569
0001d0 02 6c 51 bc a1 f1 1c bb 0f ea 83 3d 37 7b 32 bd
       -0.012782099 -0.0023947733 0.064411275 -0.043574538
0001e0 7c 71 48 3c a2 a3 03 3d 64 d6 a3 3d d0 ac 7d 3b
       0.012234088 0.032138474 0.07999876 0.003870774
0001f0 ca 5e fe 3c aa 54 21 3b ee ca 2a bd c5 de 32 bd
       0.031051058 0.0024617114 -0.041697435 -0.04366948
000200 e1 78 3f 3c ee 1b a0 3a 43 03 fd 3c 22 29 af bd
       0.011686535 0.0012215355 0.030885344 -0.08552767
000210 c8 a0 9f bc 27 cb 9c bc 7a 70 4e 3c 42 19 e0 3b
       -0.019485846 -0.01913984 0.012600059 0.0068389485
000220 c9 ea 83 3c 5b e9 1d 3d 78 29 85 bc d6 75 3f bd
       0.016103165 0.038552623 -0.016255125 -0.046743236
000230 b9 3f 6d bc c6 ed cd 3c 9c c7 23 3d 40 fd 24 bc
       -0.014480525 0.025137793 0.039985284 -0.010070145
000240 28 3b aa 3b 94 22 89 bd eb d7 56 3c fb 58 94 bb
       0.0051950403 -0.066960484 0.013113002 -0.004527209
000250 96 e4 d3 3c ba 8d 42 bd 87 45 7b 3c a8 cb 61 3d
       0.025865834 -0.047498442 0.015336401 0.055125862
000260 38 5a c0 3c a3 e4 28 3c 0b 48 03 3c f1 76 8a 3d
       0.02348052 0.0103084175 0.008012782 0.067609675
000270 c0 e8 3b bd 83 c5 73 3d 58 8e 97 bc 82 32 28 3d
       -0.045876265 0.059514534 -0.018500492 0.041063793
000280 c3 a8 40 bd 55 b2 b6 3c 63 c0 8a bc d7 6c ac 3c
       -0.047035944 0.022301832 -0.01693744 0.021047993
000290 39 b2 16 bd c9 88 0b bb c5 5e aa 3d 6d b2 4e bc
       -0.03679106 -0.0021291247 0.08318857 -0.012615782
0002a0 35 6e 10 bb dc f7 4a 3c 2c b4 b4 bd 74 ba 1d bd
       -0.0022038345 0.012388196 -0.088234276 -0.038507894
0002b0 7d 38 ee 3c 6c 91 dc bc c8 b6 a3 3d 41 6e f2 bb
       0.02907967 -0.026924811 0.07993847 -0.007398397
0002c0 de 33 37 bd 10 56 4d 3d a1 56 48 bc 30 37 a0 3c
       -0.0447272 0.050130904 -0.012227685 0.019557565
0002d0 43 9a 95 bc bd 42 9f ba 43 ae 3d bb ff 2d 02 3c
       -0.018262034 -0.0012150627 -0.002894298 0.007945537
0002e0 36 a4 de 3c 37 97 f8 bc 5f 37 5d bd cc 95 44 3d
       0.027177911 -0.030345542 -0.054007884 0.04799442
0002f0 ff 69 73 3c b5 43 35 3d 31 c3 bf bc ab 8d fb 3c
       0.014856814 0.044254024 -0.023408504 0.030707201
000300 ca 96 97 bc 19 b3 5b bb be ce 09 3d e0 5f 64 bb
       -0.018504519 -0.0033523499 0.03364443 -0.0034847185
000310 4a f8 01 3c f7 55 91 bd 01 08 1a 3d 6d ca 48 bd
       0.007932732 -0.070964746 0.03760529 -0.049021173
000320 1e 73 9b bc a9 cf 31 bd 0b e5 b9 bc c1 c5 c0 3c
       -0.01897579 -0.04341093 -0.022692224 0.023531796
000330 f7 6c 96 bc 02 be 0b bd 62 e9 48 bd 8c 3b 6c 3d
       -0.018362505 -0.034116752 -0.049050696 0.057673976
000340 45 c5 8a 3c 28 ed f3 3c 18 63 90 3c 4a 18 bd 3c
       0.016939769 0.02977617 0.017625377 0.023082871
000350 00 be 0d 3d 9b 7a 78 3d c4 94 83 bd df 44 3e bd
       0.034605026 0.0606638 -0.06424859 -0.0464524
000360 2f 7e 9b 3a 9e 00 50 3c 5e 12 bb 3a 1d 6a f3 3a
       0.0011863167 0.01269546 0.0014272442 0.0018571053
000370 66 ab 5a 3d f8 a7 d5 3c 01 e9 2c bd e9 8d 20 3d
       0.053386115 0.02608107 -0.042214397 0.039197836
000380 5f a8 7a 3c 30 24 b6 bd c8 63 c7 3c 42 79 f1 bb
       0.015298932 -0.08893621 0.024339572 -0.0073691914
000390 fb 05 8a bc a7 38 f1 3a 50 95 55 3d b8 1e 0b bc
       -0.016848555 0.0018403725 0.05214435 -0.008491211
0003a0 54 7b 5e bb 00 b0 47 3d 6f ea 02 3d bc dc ee bb
       -0.003394802 0.04875183 0.031961855 -0.007289497
0003b0 18 a4 a8 3c c6 a8 08 3d 75 6d 56 3c b8 55 3c 3d
       0.020586058 0.03336408 0.01308762 0.045980185
0003c0 09 8e 5b bb 98 2e 97 3c ba 07 9e bc 08 cf c2 3b
       -0.0033501408 0.018454835 -0.019290794 0.00594509
0003d0 d7 d5 aa 3c b3 25 8c bd 12 35 0e bd dc c4 96 bc
       0.02085392 -0.06843128 -0.03471858 -0.018404417
0003e0 2c 93 9b 3d 47 13 a4 3d ce 66 ca 3c a5 b6 6d bc
       0.0759643 0.08011489 0.024707224 -0.014508878
0003f0 72 05 9f bd 4f d2 00 bd d2 d5 90 bb b3 7c 26 3d
       -0.077647105 -0.031450566 -0.0044200206 0.040646266

model.2.bias f4 [64]
000000 c4 e8 f5 3c ac e4 5b bb 6b ed db 3c 37 ca fd 3c
       0.030018218 -0.0033553047 0.026846608 0.030980213
000010 64 07 09 3d 76 0f 12 3d 74 8f c5 bc f0 c9 f4 3c
       0.033454314 0.035659276 -0.024116255 0.029881448
000020 e4 02 52 3c 59 7e ad 3c 7a f1 e4 bc 47 d3 90 bc
       0.012818072 0.021178411 -0.027947176 -0.01767887
000030 f2 50 13 bd 1b 65 50 ba 9a ee bb bc d8 b4 af 3a
       -0.035965867 -0.0007949636 -0.022940923 0.0013405336
000040 5a 68 c9 bc d9 f2 44 3d 02 0d 59 3c 09 51 12 bd
       -0.024585892 0.04808316 0.01324773 -0.035721812
000050 19 b2 6e bc 20 37 da 3a f4 88 8a 3c 6a d6 1c 3b
       -0.014568829 0.0016648509 0.016911007 0.0023931512
000060 3c 02 a0 bc 58 94 58 3c 64 ed d9 3c 98 39 64 3b
       -0.019532315 0.013218962 0.026602454 0.0034824368
000070 f6 4f e8 bc fb 09 1a 3d 66 cd c4 bc 29 5a 9e bb
       -0.02835844 0.037607174 -0.024023723 -0.0048325253
000080 a6 d1 22 bb 24 07 40 3d bf fb 91 bc 54 ae 83 bc
       -0.0024844198 0.04688181 -0.017820237 -0.016074337
000090 85 d3 5f 3b 50 77 10 bd f4 c2 8f bc 82 94 21 3d
       0.0034153175 -0.035270035 -0.017549016 0.03944827
0000a0 6d e2 ef bc 83 10 41 3c 4b 89 b6 3c 77 ae 47 3b
       -0.029282773 0.011783722 0.022282263 0.003046898
0000b0 cd cd aa 3c ad fa 6b 3c b8 bd 94 bc 64 9b 85 bc
       0.020850087 0.0144030275 -0.018156871 -0.016309448
0000c0 31 d2 11 3d 71 59 16 bd 65 c2 3b 3d 6c 78 0f 3d
       0.035600845 -0.03670639 0.045839686 0.035026953
0000d0 a9 ee 0c bd d8 b2 41 3d 23 79 ba bc 5f 45 74 ba
       -0.03440729 0.0472897 -0.02276284 -0.00093181984
0000e0 04 ce d2 bc bc e8 da 3b 8b 7d 8a 3c c4 06 59 3b
       -0.025733002 0.006680576 0.016905567 0.0033115605
0000f0 54 93 e6 bc 0e c7 4d 3c e2 18 2c bd ed bd b8 3c
       -0.028146423 0.012559665 -0.042015918 0.022551501

exp_avg f4 [512, 64]
000000 7a 38 ab 39 75 18 66 b8 55 e2 f4 b8 a3 ba 9a 39
       0.0003265774 -5.485905e-05 -0.00011676984 0.00029512224
000010 07 3c 33 b8 8d a1 89 39 9f db 49 b9 56 8d 60 b9
       -4.273283e-05 0.0002625104 -0.00019250669 -0.00021414956
000020 2c c9 10 b9 53 c3 b1 b9 aa 2c ed b9 45 2c 79 b9
       -0.00013807853 -0.000339056 -0.0004523744 -0.00023762982
000030 22 a3 de 39 10 73 41 b9 1c 3d 88 b7 e2 60 6e b9
       0.00042464683 -0.00018448778 -1.624092e-05 -0.0002273354
000040 0b eb ab 38 6e c8 0c 38 ea 2a 11 39 a2 30 ca b9
       8.1976956e-05 3.3565266e-05 0.00013844264 -0.00038564677
000050 d6 19 60 b9 53 51 87 b8 b0 c4 b8 b8 44 e5 11 b8
       -0.0002137193 -6.4524495e-05 -8.8104396e-05 -3.4784214e-05
000060 b5 bf ce b6 6d 76 6b 39 ae 2f 95 39 86 7a 1e 38
       -6.161596e-06 0.00022455463 0.0002845502 3.7784244e-05
000070 42 5a d4 b8 8b 87 bc 39 4c a4 87 b9 b4 26 d0 38
       -0.000101257596 0.00035959142 -0.00025871617 9.925422e-05
000080 1d 97 63 39 64 b7 90 b9 b4 18 a4 b9 7b 35 58 39
       0.00021704701 -0.00027602457 -0.00031298923 0.00020619288
000090 02 27 3f 38 b7 56 85 b9 1f 6e 18 b9 2d 3f f7 38
       4.5574277e-05 -0.00025432344 -0.00014536873 0.00011789645
0000a0 8c c2 91 38 cd fb e6 38 0f 34 d1 b7 ac 66 c6 39
       6.950376e-05 0.00011014156 -2.4938983e-05 0.00037842
0000b0 ef 1d 2f 38 f1 d6 55 39 ce eb 9d b9 d9 c5 17 39
       4.175113e-05 0.00020393335 -0.00030121062 0.00014474186
0000c0 67 22 54 39 ed cd 99 38 08 ee df b9 5f 3e 98 38
       0.00020230711 7.333965e-05 -0.00042711222 7.259542e-05
0000d0 24 10 a0 b6 61 d4 00 38 ee 86 8c b9 85 ea b5 b9
       -4.7702506e-06 3.071537e-05 -0.0002680341 -0.0003469774
0000e0 71 7d 4b 39 0e b8 05 39 11 80 ec b9 dd 9e 3c 39
       0.00019406319 0.00012752434 -0.00045108845 0.00017988258
0000f0 99 83 93 b8 53 b6 8b 37 7e 9d 8c 39 bc 0b b7 b9
       -7.034018e-05 1.6654993e-05 0.00026820222 -0.00034913223
000100 ae 38 f9 39 87 5c 25 b9 11 b1 94 b9 62 59 4c 38
       0.0004753521 -0.00015770095 -0.00028360685 4.8720634e-05
000110 18 ad 8f 39 11 ef 25 39 c0 40 b5 b9 fe 0e e5 b8
       0.0002740405 0.00015824685 -0.00034571253 -0.000109223634
000120 21 0e 9d 38 6c e7 c7 b9 cd e1 f8 b9 b6 f1 24 b8
       7.488975e-05 -0.0003812866 -0.0004747048 -3.9325758e-05
000130 70 10 a7 39 63 c4 e3 b8 3d 40 1e 38 84 88 db b9
       0.0003186497 -0.000108607834 3.7729962e-05 -0.00041872647
000140 53 84 2e 38 9c 7f a3 39 de 85 90 39 23 29 b7 b9
       4.160807e-05 0.0003118486 0.0002756556 -0.0003493513
000150 aa 9b 90 b8 24 be 51 b8 07 ff a6 b9 d5 b0 76 b8
       -6.89545e-05 -5.0006565e-05 -0.00031851997 -5.8815658e-05
000160 f4 d8 95 39 7f 99 2b b9 28 79 9c 39 55 87 dc 38
       0.00028581137 -0.00016365013 0.00029844907 0.00010515625
000170 b2 71 2a b9 ac 6f 41 39 77 97 53 b9 c5 96 00 39
       -0.00016254818 0.00018447515 -0.00020178953 0.00012263197
000180 54 0e 00 3a 88 86 8a 38 09 96 04 b8 8e 4b 6f 39
       0.00048849476 6.605411e-05 -3.1610984e-05 0.00022820962
000190 24 49 0f b9 d4 10 50 b8 c8 7d f7 b9 ef f4 51 39
       -0.0001366479 -4.9606737e-05 -0.00047205226 0.00020023038
0001a0 f0 35 40 b8 23 96 59 38 2c 85 23 39 cc 42 9c 39
       -4.58266e-05 5.1876657e-05 0.00015594502 0.00029804406
0001b0 d9 af 4c 38 dc e4 a6 39 8f 50 60 36 41 97 23 b9
       4.880116e-05 0.000318325 3.3425492e-06 -0.00015601238
0001c0 3e 89 7d b9 8e 19 aa 38 99 11 bc b9 5a b6 bf b9
       -0.00024179087 8.1109916e-05 -0.00035871266 -0.0003656622
0001d0 f2 6c bf b8 34 9d ac 36 00 44 56 b9 d6 11 ff b8
       -9.1278824e-05 5.1443003e-06 -0.00020433962 -0.0001216267
0001e0 1e c5 88 37 a5 82 49 39 57 4a a1 b9 02 7c e7 b8
       1.6304253e-05 0.00019217523 -0.000307637 -0.000110380366
0001f0 36 05 4a 37 03 b8 75 39 c4 c1 25 39 95 e3 cf b9
       1.20413515e-05 0.0002343357 0.0001580781 -0.00039651679
000200 ce 9f 73 b9 ac 64 10 37 d4 d8 91 b8 8d 02 a2 39
       -0.00023233818 8.606508e-06 -6.954526e-05 0.00030900948
000210 e4 26 49 39 35 40 5f 39 3d d4 9c b8 da 04 30 b8
       0.00019183342 0.00021290856 -7.478192e-05 -4.196619e-05
000220 1c 80 30 38 2d 6a 24 39 25 e3 36 39 27 f2 00 39
       4.208098e-05 0.00015679812 0.0001744149 0.0001229724
000230 b1 10 c0 b7 c4 ba 32 38 67 96 85 b8 e0 24 63 b9
       -2.2895956e-05 4.2612446e-05 -6.369949e-05 -0.00021662144
000240 78 9b ea 37 c0 b1 27 39 31 69 a3 34 70 01 98 39
       2.796737e-05 0.00015992578 3.0437653e-07 0.0002899277
000250 1c 15 c2 b6 7c b4 8b 38 35 d9 3b 37 d9 38 92 38
       -5.784108e-06 6.661654e-05 1.1196641e-05 6.972411e-05
000260 6e 47 b5 39 75 25 36 b7 e4 72 1f b9 af 66 58 39
       0.0003457623 -1.08567665e-05 -0.00015206222 0.00020637618
000270 7c 86 bf b8 b1 d2 91 39 f1 7e 47 b9 dd 7a b4 39
       -9.1326394e-05 0.00027813533 -0.00019025408 0.00034423816
000280 c7 6a 92 37 3c 8b 45 b8 e5 75 82 b8 af 65 26 39
       1.7454278e-05 -4.7098132e-05 -6.2208426e-05 0.00015868874
000290 e6 e3 9a b8 eb 0d 2d b9 e6 d1 6c 39 ae db a3 39
       -7.3857416e-05 -0.0001650375 0.00022584907 0.00031253457
0002a0 5b 81 2d b9 04 6e 85 39 4e d1 0c b8 81 74 29 35
       -0.00016546754 0.00025449705 -3.357353e-05 6.312694e-07
0002b0 84 ed 6a 39 7e 00 7d b9 1f 1b 4b b8 c6 47 53 39
       0.0002240446 -0.00024128144 -4.842423e-05 0.00020149266
0002c0 b9 7a eb 38 1c f3 76 38 fe 2c 6b 38 bb 63 eb 36
       0.00011228532 5.8877384e-05 5.607027e-05 7.015156e-06
0002d0 81 02 c1 38 c5 e5 4d 38 83 85 1a b6 8a 35 5e b9
       9.2034235e-05 4.90898e-05 -2.3025502e-06 -0.00021191515
0002e0 d9 21 bf 38 81 f0 f3 36 2d bf 2d 38 18 87 1e 38
       9.113894e-05 7.2699627e-06 4.142446e-05 3.779595e-05
0002f0 f2 0b 4d b9 57 d6 28 39 3d 35 2f 39 07 4e 61 b8
       -0.00019554773 0.00016101576 0.00016709133 -5.371685e-05
000300 25 6a d7 b8 85 bc 0d b9 82 b2 5b 39 2f f3 73 b9
       -0.0001027177 -0.00013517037 0.00020951967 -0.00023264879
000310 a9 86 c1 38 f9 f7 34 39 22 e7 2a 38 80 90 25 b8
       9.2280396e-05 0.00017258515 4.0746418e-05 -3.947364e-05
000320 10 8f 8f b7 7f d1 fb 36 7f 42 43 38 1d aa 0b b9
       -1.7113547e-05 7.5047715e-06 4.6553552e-05 -0.00013319445
000330 26 2e 4a b8 2e 84 a4 b8 77 1d 01 38 9e 7d 8d b5
       -4.8203532e-05 -7.84475e-05 3.0783438e-05 -1.0541878e-06
000340 c4 71 fd b8 f0 88 a0 37 59 a6 f7 38 84 3a 0b 38
       -0.000120851706 1.9137253e-05 0.000118088625 3.319468e-05
000350 8a 4e 83 b8 1e f6 02 38 1f 34 07 39 af 8d ef 38
       -6.261196e-05 3.122363e-05 0.0001289402 0.00011422799
000360 18 64 fa b7 75 58 66 b9 cb dd d5 b8 bd a9 56 b8
       -2.9848932e-05 -0.00021967462 -0.000101979436 -5.1179657e-05
000370 e5 35 fa 37 d5 d3 90 b8 81 d1 82 38 f8 1f ae 37
       2.9827419e-05 -6.905912e-05 6.237906e-05 2.0757303e-05
000380 d1 be 05 b9 9d 4a 18 b9 14 45 45 b8 6a 14 a7 b8
       -0.00012754953 -0.00014523645 -4.7032794e-05 -7.966983e-05
000390 fc c7 90 38 c8 0c 27 b8 29 8b c4 b8 e9 e8 6a b6
       6.903705e-05 -3.9827806e-05 -9.371929e-05 -3.5004289e-06
0003a0 8b 30 4b 39 a9 26 14 b9 f9 eb 91 b8 21 39 84 b8
       0.00019377672 -0.00014128782 -6.958092e-05 -6.3048916e-05
0003b0 82 8a bd 37 e1 1c 8d b8 b8 cf 1b b9 27 e6 fc 38
       2.2595053e-05 -6.728783e-05 -0.00014859333 0.000120591656
0003c0 ef 73 27 b8 45 84 a8 37 26 79 f3 b7 19 23 23 b9
       -3.9923874e-05 2.0088753e-05 -2.9024271e-05 -0.00015557966
0003d0 ee 28 80 b8 da 8c 6b b8 08 8c 50 b8 85 41 91 38
       -6.1111394e-05 -5.6159544e-05 -4.972148e-05 6.926343e-05
0003e0 03 34 48 b8 1d aa ba b8 4e d1 2d 39 b5 e5 1f b9
       -4.7732156e-05 -8.900857e-05 0.00016576538 -0.00015248994
0003f0 7e 48 af b7 db 57 98 b8 f2 ea 6f 38 53 9f d3 b8
       -2.0895382e-05 -7.264289e-05 5.720085e-05 -0.000100909405

exp_avg_sq f4 [512, 64]
000000 fb d0 de 35 a0 36 0c 36 24 57 2f 36 13 c1 52 36
       1.660111e-06 2.0893422e-06 2.6127755e-06 3.1404822e-06
000010 04 d0 55 35 3c ef ac 35 ec d7 dd 35 ec b2 f5 35
       7.9651386e-07 1.2884625e-06 1.6528625e-06 1.8305996e-06
000020 18 96 1e 36 3a 9e fe 35 9c 4c 30 36 d1 63 aa 36
       2.36312e-06 1.8970525e-06 2.6270636e-06 5.078015e-06
000030 00 c3 d3 35 89 80 79 36 7e 39 a2 35 63 2b 05 36
       1.5777478e-06 3.7178709e-06 1.2086673e-06 1.9843799e-06
000040 50 9c b2 35 8e 85 a4 35 ad 26 d4 35 61 c6 b5 35
       1.3307526e-06 1.2257822e-06 1.5806487e-06 1.3543287e-06
000050 e6 29 12 36 f0 3a 00 36 fa 1b b1 35 5d 4b ad 35
       2.1780083e-06 1.9107792e-06 1.319567e-06 1.2911438e-06
000060 5e 2a bb 35 cd 2a d1 35 80 44 0c 36 a0 04 d7 35
       1.3944916e-06 1.558417e-06 2.0901498e-06 1.6020094e-06
000070 4b 46 c8 35 41 75 46 36 52 0a 90 35 ca ea 1b 36
       1.4921619e-06 2.957255e-06 1.073184e-06 2.3233465e-06
000080 9a 1d ed 35 8a 6d 0a 36 da 2e 28 36 55 78 4b 36
       1.7666491e-06 2.0627363e-06 2.5061222e-06 3.03194e-06
000090 70 82 8a 35 b2 fd 0a 36 9f 0e 00 36 54 f6 0f 36
       1.0319764e-06 2.0711273e-06 1.9081997e-06 2.1452042e-06
0000a0 26 e8 8b 35 f7 45 81 35 b0 85 8f 35 d1 18 92 35
       1.0423871e-06 9.631611e-07 1.0693238e-06 1.088507e-06
0000b0 d9 15 a3 35 dc 55 65 35 9e cb 7e 35 05 8f 98 35
       1.2150805e-06 8.543409e-07 9.4918676e-07 1.1366507e-06
0000c0 a1 35 f8 35 97 b9 fd 35 8e 75 20 36 ac 68 19 36
       1.8493048e-06 1.8903983e-06 2.3910284e-06 2.2859704e-06
0000d0 5b d0 0f 36 29 b4 e9 35 e1 8e 0a 36 6a 21 7e 35
       2.142994e-06 1.7412286e-06 2.064677e-06 9.4671e-07
0000e0 29 af ea 35 a6 2b d9 35 9d c4 00 36 04 ad bc 35
       1.7485337e-06 1.6180463e-06 1.918793e-06 1.4057446e-06
0000f0 2f b8 01 36 af 7e c5 35 cf a6 e0 35 0a fb d8 35
       1.9329707e-06 1.4714514e-06 1.6737848e-06 1.6166316e-06
000100 4c ef 49 36 b9 09 a3 36 9b e7 9c 36 42 0d 09 37
       3.0090623e-06 4.8589104e-06 4.6761247e-06 8.168923e-06
000110 a3 21 de 35 23 c2 33 36 50 9e 6f 36 43 46 90 36
       1.6550078e-06 2.678608e-06 3.5705925e-06 4.299714e-06
000120 6a f3 52 36 fb dd ae 36 90 7a 83 36 4e ed db 36
       3.1434124e-06 5.211446e-06 3.9183724e-06 6.5543345e-06
000130 aa d8 57 36 0b 4a 8d 36 0d 32 5f 36 04 7f d7 36
       3.2163612e-06 4.210747e-06 3.3258723e-06 6.422286e-06
000140 d2 16 09 36 85 ff 4e 36 ba a1 57 36 66 44 42 36
       2.0427874e-06 3.0845124e-06 3.2131634e-06 2.8948066e-06
000150 bc 90 8d 36 75 a7 82 36 e3 42 43 36 b7 89 1a 36
       4.2189768e-06 3.8937965e-06 2.9096198e-06 2.3027949e-06
000160 75 dd 80 36 ea 8b 4b 36 be 4f 94 36 94 a6 40 36
       3.8404783e-06 3.0330798e-06 4.420027e-06 2.870719e-06
000170 67 c9 3e 36 ba 94 46 36 a5 f6 a4 35 ad 1c ba 36
       2.8429438e-06 2.959087e-06 1.2290735e-06 5.5465703e-06
000180 ab 59 81 36 56 50 8a 36 a0 2d a1 36 67 3e ad 36
       3.8549383e-06 4.122073e-06 4.8034854e-06 5.1630664e-06
000190 66 a4 01 36 c7 f0 33 36 53 64 82 36 5d ce 85 36
       1.931819e-06 2.681323e-06 3.885981e-06 3.9877327e-06
0001a0 38 92 4d 36 f7 ec 93 36 74 9d 0a 36 05 02 f8 35
       3.063249e-06 4.4085277e-06 2.0655252e-06 1.8478028e-06
0001b0 39 ce 55 36 3b d8 08 36 fe ab 03 36 57 a5 37 36
       3.185951e-06 2.0391442e-06 1.9620634e-06 2.7365365e-06
0001c0 ce 8f 82 36 46 a6 63 36 87 05 53 36 5a 32 bc 36
       3.891043e-06 3.392242e-06 3.1444667e-06 5.6086983e-06
0001d0 27 ab 9c 36 7c b7 91 36 7a 9c c7 36 12 0d f4 35
       4.669087e-06 4.342697e-06 5.9488784e-06 1.8183221e-06
0001e0 7a 56 6a 36 78 a9 50 36 99 ed 28 36 12 d6 30 36
       3.4919053e-06 3.109306e-06 2.517225e-06 2.635065e-06
0001f0 7b d2 71 36 1c 04 4a 36 20 8e 3c 36 1c f3 37 36
       3.6034314e-06 3.0102738e-06 2.809691e-06 2.7410633e-06
000200 61 c2 bf 35 81 b5 23 36 65 c6 b6 35 b5 60 17 36
       1.4287181e-06 2.4394542e-06 1.3617797e-06 2.2557044e-06
000210 89 0d 37 35 74 a6 95 35 13 1f a3 35 65 fd 9c 35
       6.819251e-07 1.1149809e-06 1.215349e-06 1.1696653e-06
000220 10 8a a0 35 91 8a df 35 4b 7e 86 35 d7 c1 57 35
       1.196111e-06 1.6655123e-06 1.0020534e-06 8.0375816e-07
000230 77 1e 84 35 83 03 c6 35 39 f5 d8 35 8d 73 f8 35
       9.843633e-07 1.4753172e-06 1.6164623e-06 1.851107e-06
000240 fa 6a 31 35 20 d2 ae 35 18 81 98 35 bf de 91 35
       6.609331e-07 1.3025165e-06 1.1362454e-06 1.086817e-06
000250 50 aa a0 35 00 04 6d 35 4e 1e 47 35 ab 07 87 35
       1.1970496e-06 8.82952e-07 7.4177376e-07 1.0060515e-06
000260 fd 9f df 35 1d d7 00 36 00 3d 4c 35 41 33 aa 35
       1.6661357e-06 1.9198699e-06 7.608469e-07 1.2680904e-06
000270 73 42 03 36 ad ac f1 35 2a d0 5e 35 f4 c9 fd 35
       1.95592e-06 1.8006155e-06 8.3004363e-07 1.8908745e-06
000280 96 c7 e7 35 10 30 21 36 e1 7a e0 35 dd 13 c8 35
       1.7268928e-06 2.4018846e-06 1.6725063e-06 1.4906942e-06
000290 5e d3 8f 35 d2 6e b0 35 62 da 9c 35 5a 90 ae 35
       1.0715846e-06 1.3145275e-06 1.1686463e-06 1.3006022e-06
0002a0 11 01 b2 35 ca 3b d3 35 dd b2 a0 35 cd a3 80 35
       1.3262344e-06 1.5738126e-06 1.1972985e-06 9.584415e-07
0002b0 2c 5d a8 35 4b c7 82 35 ed 38 cb 35 bd 14 c7 35
       1.2544092e-06 9.743757e-07 1.5141246e-06 1.4832691e-06
0002c0 dc 43 93 35 f3 f0 af 35 f9 17 ab 35 80 cb ef 35
       1.0972103e-06 1.3108641e-06 1.274747e-06 1.7866114e-06
0002d0 9e b8 db 35 50 68 66 35 08 09 0a 36 41 ec 3b 35
       1.6370502e-06 8.583347e-07 2.056886e-06 7.0006723e-07
0002e0 ec 80 58 35 25 aa 80 35 02 1a 9b 35 01 b6 f0 35
       8.0653876e-07 9.586262e-07 1.1555969e-06 1.7934364e-06
0002f0 8e de 9c 35 c8 29 81 35 cc 86 91 35 6a f4 64 35
       1.1687678e-06 9.623409e-07 1.0842573e-06 8.529229e-07
000300 7f 58 6d 35 8d 8e 75 35 4a 2f 80 35 f1 92 f1 35
       8.841816e-07 9.147705e-07 9.550506e-07 1.7998665e-06
000310 e6 79 f4 34 13 56 0f 35 ea 38 5f 35 69 f2 a0 35
       4.5537234e-07 5.3396906e-07 8.3156795e-07 1.199148e-06
000320 7c 7f 1f 35 44 f5 39 35 3d bc 78 35 ae e5 6f 35
       5.941763e-07 6.927478e-07 9.266112e-07 8.9368666e-07
000330 09 0c 69 35 b7 2d 73 35 d5 cd 65 35 f9 bc 59 35
       8.681678e-07 9.059108e-07 8.5608673e-07 8.111379e-07
000340 3f d6 17 35 fb 8e 8b 35 cc 18 8b 35 c2 a3 13 35
       5.656365e-07 1.039792e-06 1.0363524e-06 5.5000066e-07
000350 94 2c 84 35 fe 09 56 35 65 d5 7d 35 9c 90 09 35
       9.84774e-07 7.9735753e-07 9.4560374e-07 5.124691e-07
000360 64 75 63 35 a8 ba 82 35 eb 98 8a 35 08 45 2d 35
       8.4734916e-07 9.740079e-07 1.0326306e-06 6.4547976e-07
000370 cb b9 f9 34 6e 2b 3e 35 6a 55 ef 34 76 82 b6 35
       4.6515046e-07 7.0843714e-07 4.4579366e-07 1.3598026e-06
000380 1d 96 74 35 e3 8f 34 35 65 e6 93 35 4c b5 5b 35
       9.1115527e-07 6.726461e-07 1.1019407e-06 8.184768e-07
000390 2b 92 e0 34 35 c0 c0 35 c0 fa 19 35 c6 f2 e8 34
       4.1829603e-07 1.4361054e-06 5.736183e-07 4.3390008e-07
0003a0 16 4d 8e 35 0d eb 3d 35 80 f8 2e 35 55 20 52 35
       1.0602259e-06 7.075003e-07 6.5181666e-07 7.8278146e-07
0003b0 38 12 6a 35 37 c9 dc 34 7e b9 2d 35 b4 c2 68 35
       8.7198305e-07 4.1124596e-07 6.471745e-07 8.6710065e-07
0003c0 99 a4 e3 34 06 e1 e4 34 5c c1 2f 35 60 07 23 35
       4.2401805e-07 4.2632036e-07 6.5473955e-07 6.0732964e-07
0003d0 fd d2 82 35 15 8f 77 35 0c 3a 92 35 1b 60 84 35
       9.74716e-07 9.222288e-07 1.0894742e-06 9.862737e-07
0003e0 fc 4b 4d 35 ae c9 39 35 0b 53 7b 35 e5 1d 84 35
       7.6479023e-07 6.9211353e-07 9.362563e-07 9.843467e-07
0003f0 f2 5f a3 35 95 16 56 35 1b c5 8e 35 1e 77 14 35
       1.217237e-06 7.9754074e-07 1.063719e-06 5.5307635e-07

exp_avg f4 [512]
000000 2b 30 68 b9 18 85 46 b9 0f fa 2b 39 4f 1b 30 39
       -0.00022143188 -0.00018932333 0.00016400985 0.00016794841
000010 7f fe 85 b8 b0 f1 37 b9 20 81 55 38 55 e2 12 39
       -6.389338e-05 -0.00017542276 5.0903414e-05 0.0001400796
000020 59 17 28 3a d4 c4 a2 37 d1 01 29 b9 fc 68 45 39
       0.00064121705 1.940356e-05 -0.00016117773 0.00018826494
000030 9c 9c 2d b8 59 54 3b 39 bd 69 15 b9 3f e9 82 39
       -4.1392268e-05 0.00017865132 -0.00014249138 0.00024969314
000040 ca 63 bc b9 86 7b e8 b8 8c 68 84 b9 c5 bd 80 ba
       -0.00035932503 -0.0001108563 -0.00025254895 -0.0009822181
000050 05 27 8b 39 45 a6 cf b8 51 9b 8a 39 45 10 61 38
       0.00026541218 -9.901499e-05 0.0002643713 5.3659332e-05
000060 12 72 e6 38 70 fe 0d b9 61 5c aa 39 df 83 11 38
       0.00010988502 -0.00013541593 0.00032493754 3.469351e-05
000070 1d da aa b7 67 16 a1 38 fc 51 e5 35 18 f7 95 b9
       -2.0367146e-05 7.681251e-05 1.708569e-06 -0.00028603594
000080 8c a4 9b 38 4b 7f 79 38 0a df bd b9 04 bc 24 b9
       7.421625e-05 5.9484777e-05 -0.00036215066 -0.000157103
000090 12 e5 6a b8 f0 bc aa 38 d8 65 9d b9 2e b5 c7 37
       -5.6003286e-05 8.141424e-05 -0.00030021253 2.3807017e-05
0000a0 f4 dd cf b8 5d ab a3 b7 2b ca 5e b7 c9 c3 45 39
       -9.911871e-05 -1.9510911e-05 -1.3279302e-05 0.0001886032
0000b0 da 3c 48 39 6c 5a 7e 38 fb 73 35 39 c2 69 55 b9
       0.00019096155 6.064253e-05 0.00017304711 -0.00020352661
0000c0 07 c6 f9 b8 b9 5c 2f 39 d5 a0 f0 b8 2a f4 16 ba
       -0.00011910131 0.00016723842 -0.00011474049 -0.0005758429
0000d0 f4 36 3f b8 b8 9d 17 b6 36 8c 45 b8 08 d4 62 b7
       -4.5589128e-05 -2.2592558e-06 -4.709904e-05 -1.3520017e-05
0000e0 9d b2 07 b9 9b 63 e9 b9 b1 75 1d 39 e1 34 ad b9
       -0.00012941142 -0.00044515435 0.0001501653 -0.0003303653
0000f0 31 2a bb 38 93 d5 da b7 3b 2d e1 b9 70 89 8d 39
       8.9247136e-05 -2.6087078e-05 -0.00042949044 0.00026996015
000100 d5 de a7 38 4f aa cd b9 6e b7 f2 38 1c 00 90 36
       8.004686e-05 -0.00039227537 0.00011573626 4.291547e-06
000110 8a 12 41 39 1e d7 00 38 51 d2 36 b9 2e e0 b5 39
       0.0001841282 3.071792e-05 -0.00017435222 0.00034690037
000120 b7 d5 8a 37 22 56 8a b8 50 55 de b7 02 d3 47 39
       1.65504e-05 -6.596396e-05 -2.6504189e-05 0.00019056725
000130 00 ae 70 38 33 99 34 39 36 47 eb b9 51 70 f4 b6
       5.738251e-05 0.00017223209 -0.0004487575 -7.284842e-06
000140 e2 eb b7 b8 97 d2 b8 38 13 19 96 b9 1b 7c 5e 39
       -8.7700566e-05 8.813029e-05 -0.0002862891 0.00021217803
000150 22 7f 38 39 da e1 0a 38 39 da 43 ba 40 1a 4a b9
       0.00017594968 3.3112105e-05 -0.00074711774 -0.00019274
000160 10 3d c8 b8 10 5b 34 ba 12 10 c0 39 2b 0b dc 37
       -9.548117e-05 -0.00068800244 0.00036633067 2.6231244e-05
000170 ae 98 59 b9 b7 f0 72 39 8b 45 94 b8 fd c2 de b9
       -0.0002075161 0.00023168592 -7.070143e-05 -0.00042488417
000180 ab 56 2b b9 3a 1a 8e b7 aa 58 ae b7 c3 4b a9 39
       -0.00016340117 -1.6939932e-05 -2.0783704e-05 0.0003229064
000190 8d 96 45 39 b4 99 2c 38 9d c1 bc b9 2f 0b 70 b9
       0.00018843469 4.1151143e-05 -0.00036002407 -0.0002289235
0001a0 16 57 be b9 36 48 03 39 c3 a0 73 38 42 70 1d 39
       -0.00036304508 0.00012520034 5.8085436e-05 0.00015014506
0001b0 57 44 81 b8 38 44 f4 34 d8 63 92 37 71 aa c9 38
       -6.1639286e-05 4.5498177e-07 1.745105e-05 9.616174e-05
0001c0 6a 33 d7 37 ac cb ca b8 47 e7 df 38 d1 7e 9c b8
       2.5653939e-05 -9.6700474e-05 0.000106765474 -7.462281e-05
0001d0 8c 47 15 39 87 3e 82 b7 af 0e ff b8 ae 2d 31 b9
       0.000142364 -1.5526324e-05 -0.000121620826 -0.00016897052
0001e0 15 70 21 b9 f7 76 5d b9 f0 45 77 36 f2 19 d4 38
       -0.0001539591 -0.0002112052 3.6846577e-06 0.000101137804
0001f0 a8 8d 9b 38 c2 ea 2b 39 6f 23 e6 38 a8 0c 76 b9
       7.4173615e-05 0.00016395285 0.00010973855 -0.00023465103
000200 06 f1 f0 b7 9d 24 76 39 90 2a 07 39 be 97 6d 39
       -2.8722465e-05 0.00023474028 0.00012890459 0.0002265861
000210 55 eb f6 38 a7 03 dc b9 9c 29 d9 38 54 4b f7 38
       0.00011774028 -0.0004196439 0.00010355117 0.00011791909
000220 d2 61 62 b9 20 04 1c 39 27 15 11 39 30 12 b2 b7
       -0.0002158948 0.00014878856 0.00013836157 -2.1227723e-05
000230 e6 88 c5 38 11 a1 04 b6 e6 12 23 39 ee 53 f9 38
       9.419191e-05 -1.9763286e-06 0.00015551932 0.00011888878
000240 b8 70 50 b9 ba d7 a2 b7 6e 57 3c 39 0c 1a fe 38
       -0.00019878417 -1.941236e-05 0.00017961647 0.000121165154
000250 01 8c 19 b9 82 e8 fa 39 76 30 83 39 09 a3 38 b8
       -0.00014643373 0.00047856948 0.00025022373 -4.4020857e-05
000260 ff 01 e5 b7 28 a4 8a 39 23 31 ae b9 7c 89 c4 38
       -2.7299857e-05 0.00026443717 -0.00033224476 9.371617e-05
000270 2b 5f 80 38 38 3a 51 b8 28 5f c5 b7 81 80 a3 b9
       6.121242e-05 -4.9883703e-05 -2.352854e-05 -0.00031185526
000280 40 0e d1 38 20 68 c3 37 a0 3d 90 b9 70 b5 3d b9
       9.968551e-05 2.3294298e-05 -0.00027511735 -0.00018092035
000290 20 28 bf 38 ba 22 42 b8 ad e2 2e 38 92 ab 22 38
       9.1150636e-05 -4.6285546e-05 4.169594e-05 3.8783597e-05
0002a0 c4 fa 1a 37 9a 2f 3a 39 f2 da f4 37 83 fe c9 38
       9.237501e-06 0.00017756075 2.9189021e-05 9.6318334e-05
0002b0 b6 77 38 38 6c 64 31 38 8f ed 4a 39 c1 7c e0 38
       4.3980508e-05 4.2293614e-05 0.00019352719 0.000107043896
0002c0 1c 33 da 38 21 00 01 38 3d 7e a2 37 c7 77 68 36
       0.0001040457 3.0756117e-05 1.937069e-05 3.4640414e-06
0002d0 0e 4d b5 37 5f 39 a8 39 49 ae 0b 38 f9 c3 c4 b8
       2.1612763e-05 0.00032086202 3.33025e-05 -9.382511e-05
0002e0 6d 37 da b8 70 4d 8e 39 f2 aa 57 38 dd 66 29 b7
       -0.00010405374 0.00027142046 5.14192e-05 -1.0097135e-05
0002f0 0f 42 10 b9 06 92 fe 37 55 3f 46 38 28 bc 0e 38
       -0.00013757519 3.0347157e-05 4.726586e-05 3.4030672e-05
000300 fd 29 d0 b8 8a 0a 03 39 27 39 b1 b8 58 ee 5c b8
       -9.926034e-05 0.0001249706 -8.450663e-05 -5.2674062e-05
000310 db 08 67 ba 09 af 82 37 d7 a8 c1 b6 ca aa bb 38
       -0.000881327 1.5578715e-05 -5.7715038e-06 8.948667e-05
000320 69 05 7f b8 6e 49 07 38 29 38 80 39 77 f2 7a 37
       -6.0801776e-05 3.2254895e-05 0.00024455905 1.4957614e-05
000330 7d 43 03 39 56 38 11 39 79 2e 2c 38 7f 0c 9e 39
       0.00012518275 0.00013849264 4.1051277e-05 0.0003014542
000340 56 77 ed 38 75 36 49 39 fb b4 a4 39 24 89 9b b7
       0.00011323269 0.0001918914 0.00031415359 -1.8541301e-05
000350 20 b6 8d b9 62 42 04 3a ca 9f fa b8 7c 4f a8 39
       -0.0002702931 0.0005045292 -0.00011950692 0.00032102678
000360 6e 11 ce b8 e7 b3 d4 38 72 04 0a 39 1e 1f ac b9
       -9.826092e-05 0.00010142457 0.00013162362 -0.0003282958
000370 63 6b c0 b7 3b b7 75 39 80 41 4d 38 6d 6a ec 38
       -2.293819e-05 0.0002343328 4.893681e-05 0.0001127318
000380 12 7a 21 39 a8 45 5e 39 f9 3e a6 b9 43 73 29 b8
       0.00015399631 0.00021197519 -0.00031708906 -4.0400086e-05
000390 13 9c 23 b8 b2 f4 24 b9 61 84 57 b9 93 0d 96 b9
       -3.9007584e-05 -0.00015731415 -0.00020553313 -0.00028620343
0003a0 ca 34 eb 39 75 97 37 38 31 d9 12 39 0a 25 cb 38
       0.00044862024 4.3771655e-05 0.00014004555 9.6866934e-05
0003b0 70 7c 0f b9 5d b1 f5 38 99 c2 77 b9 66 dd 39 39
       -0.000136839 0.00011715547 -0.00023628249 0.00017725452
0003c0 d1 60 4f b8 12 dd 0c 39 b9 7d 5a b9 51 69 04 b9
       -4.9442813e-05 0.00013433796 -0.00020836935 -0.00012627734
0003d0 4e 03 55 b9 d1 d0 24 b9 05 9b 94 38 44 7b 95 b9
       -0.00020314494 -0.00015718049 7.0860646e-05 -0.00028511335
0003e0 5b 34 33 39 50 3c 7b b8 bc 99 9a 39 77 92 4d b9
       0.00017090274 -5.9899234e-05 0.0002948771 -0.00019604886
0003f0 a6 72 8f b8 17 4c fa b8 d8 e9 62 b9 a3 56 49 38
       -6.840126e-05 -0.00011935102 -0.00021640153 4.800282e-05
