ldm_checkpoints/ldm_epoch_50.pth (torch, 798986 bytes, 12 tensors)

model.0.weight f4 [512, 64]
000000 b4 87 18 3d e1 ad c1 3b bf 81 43 3d 6c 82 b2 3d
       0.03723879 0.0059106206 0.047731157 0.08716282
000010 79 a4 ef 3d 67 d0 fa bd 35 c9 43 bc 2b 3f 91 bb
       0.117012925 -0.12246781 -0.011949827 -0.004432579
000020 33 fc bd bd a0 ef ca 3c b6 6d d7 bb e9 04 a4 bd
       -0.09276619 0.024772465 -0.006574358 -0.08008749
000030 5b e1 fc 3d 3a 58 96 bc 58 5d 06 3e 9b 54 a8 3c
       0.12347671 -0.018352617 0.13121545 0.020548156
000040 33 b5 6e 3b 4d 7d ab bd 2e 3b eb bc c1 52 e8 bd
       0.003642392 -0.083735086 -0.028714743 -0.11343909
000050 35 bf 5c bd ed aa c5 bd cc 4c 0e bd be 57 01 3d
       -0.053893287 -0.09651742 -0.034741208 0.031577818
000060 cd d6 c8 bd 22 f2 8e 3d f2 28 98 3d 1b bb c0 3d
       -0.09806595 0.06979777 0.07429685 0.094106875
000070 18 4f 95 bd 7e b7 6e bd fd b2 d8 3d c9 ca 9c 3b
       -0.072904766 -0.05828046 0.10581014 0.004784916
000080 30 92 81 bd 85 a5 81 3d 40 e1 68 3c d0 62 df 3d
       -0.06326711 0.063303985 0.01421386 0.10907519
000090 ee 9a ec 3d 31 dc 23 3d ee 2e 52 3d c2 e5 88 3d
       0.11552988 0.040004913 0.051314287 0.06684448
0000a0 46 fb b8 3d 6e 42 c7 bd 53 3a f5 3c 86 fa 20 be
       0.090323016 -0.09729467 0.029935038 -0.15720567
0000b0 cf 60 c4 bd 45 ca 79 3d 6b 71 b6 bd f9 59 98 3d
       -0.09588777 0.060983915 -0.089083515 0.07439036
0000c0 59 aa e6 bd 77 f1 c0 bd 87 8f 49 3d 69 b7 9e bd
       -0.1126296 -0.09421056 0.049209144 -0.077498265
0000d0 cf 8b f4 3d 57 55 48 3d 53 10 e8 bd d1 3d 94 bc
       0.11940729 0.04890951 -0.113312386 -0.018095883
0000e0 d8 82 b9 3d 82 0b 6b 3c 19 28 b1 3c 52 97 1f 3c
       0.090581596 0.014346005 0.021625565 0.009740667
0000f0 fa bf 35 bd bb e7 ed bd 12 52 33 3b f8 40 73 bd
       -0.044372536 -0.11616465 0.002736215 -0.05938813
000100 9f 11 a5 bc ff 2a 84 bd 9a 49 11 bd 97 bd b9 3d
       -0.020150004 -0.06453513 -0.035470583 0.090693645
000110 fe 05 0e 3e 14 b8 53 bd f5 83 a6 3d 2f 92 82 3d
       0.13869473 -0.051689222 0.081306376 0.063755386
000120 e5 86 ab 3d 2e 25 57 3d e6 ab 34 bd 6d dc 03 3e
       0.083753385 0.05252569 -0.044109248 0.12877055
000130 24 4b 9f 3d cd 82 27 3b ad 27 8f 3d 3b 0c 16 bd
       0.07778004 0.002556014 0.069899894 -0.036632758
000140 32 02 a2 3b 0a 3f c2 3d 96 af bf 3c 23 7a 29 3e
       0.0049441094 0.0948468 0.023399156 0.16550498
000150 4c c3 3e 3d 72 19 72 3d 3d 05 28 3e f2 d2 83 bd
       0.04657297 0.059106298 0.16408248 -0.06436719
000160 eb 27 0a 3e 83 50 0f be 31 f2 75 3c 05 62 4c bd
       0.1349179 -0.13995557 0.015011356 -0.049898166
000170 f2 fd b6 bd 64 8a da 3d db d9 7e bb d5 8e 39 3d
       -0.08935155 0.10670927 -0.0038887176 0.04530223
000180 30 66 97 bd b2 3b ea 3d 31 46 ed bd 0b 8c 4d bd
       -0.073925376 0.11437167 -0.115856536 -0.050182384
000190 89 7c 8e bd 23 dd a6 bd b4 d3 2d 3d a6 5e 4b bd
       -0.06957347 -0.08147647 0.042438224 -0.04965081
0001a0 95 b1 14 bd 12 7c 67 3b fd 04 1d bd af 58 ec bc
       -0.036302168 0.0035321754 -0.038334835 -0.028850881
0001b0 76 3f 1a be c9 c5 e1 bd d1 44 41 3c 8c 2e 24 be
       -0.15063271 -0.11024053 0.011796192 -0.16033381
0001c0 5f 26 99 bd 4c f0 7d bd 1b ca 74 3d 1c 66 15 3c
       -0.07478022 -0.061996743 0.059763055 0.009118583
0001d0 68 87 41 3d 5d a9 17 bd 19 df 88 bd 6a 5e 7a 3d
       0.047248274 -0.03702675 -0.066831775 0.061125197
0001e0 93 0c 22 3e 93 17 c0 bd 98 63 66 3d 83 be 83 bd
       0.15825109 -0.093794964 0.056247324 -0.064328216
0001f0 26 55 a1 bc cb 49 97 3c 2f d7 99 3d 60 d8 dd 3c
       -0.019693922 0.018467804 0.07511746 0.027080715
000200 fa 2e d0 bd 11 c1 80 bd e4 e8 33 bd 26 12 0f be
       -0.1016521 -0.062868245 -0.043923274 -0.13971767
000210 8e 76 05 bd 18 74 01 be a1 5a c9 bc 05 2e 23 be
       -0.032583766 -0.12641943 -0.024579348 -0.15935524
000220 15 e9 21 3d 6e 50 2d 3d 85 c1 17 be 44 fe 0e 3e
       0.039528925 0.04231303 -0.14819916 0.13964182
000230 44 52 cf 3d 17 e7 a4 3c bf 4b b1 3d c2 39 34 3d
       0.10123113 0.020129723 0.086570255 0.044000395
000240 fe 45 0b 3e 5d a4 6f 3b ca bb 92 bd fc 4d 35 3d
       0.13600919 0.0036566474 -0.07164724 0.044263825
000250 10 2e 0a be 89 d1 ef bd cd 6f 49 bd 26 4e 6f 3c
       -0.13494134 -0.117098875 -0.049178887 0.014606034
000260 a0 23 c1 3d e1 52 f4 3d 4e c5 0f 3d 08 89 15 3d
       0.09430623 0.119298704 0.035100274 0.036507636
000270 3c 5c fc 3d 61 03 c6 3c a8 a1 9c 3d ad c0 d7 bb
       0.1232228 0.024171533 0.07648021 -0.006584248
000280 63 34 03 bd 64 05 ed 3c 2e 04 af 3d 4e f1 a1 3d
       -0.03203238 0.028933235 0.08545719 0.07907353
000290 6a f5 a5 3d 20 07 13 3d 51 04 d9 3d ef 12 51 bc
       0.0810345 0.035895467 0.105965264 -0.012760862
0002a0 51 cd da 3d e9 84 d6 bd 92 e3 61 bd 30 81 c5 bc
       0.10683692 -0.10474569 -0.05514867 -0.024109453
0002b0 86 e8 7a 3d 3b 66 12 3e b6 5f ef bc 89 25 83 bd
       0.061256908 0.1429681 -0.029220443 -0.06403644
0002c0 4f a0 82 3d 64 10 50 bd 41 2d f6 3c 06 d3 e2 bc
       0.06378233 -0.05079688 0.030050876 -0.027688514
0002d0 15 35 63 bd dc 00 c5 bd 55 92 a2 3d a1 32 0d 3d
       -0.055470545 -0.096193045 0.07938067 0.03447211
0002e0 54 00 92 3d ed af 01 3e 8a 2a 86 bd bb d6 0a 3e
       0.07128969 0.12664767 -0.065510824 0.13558476
0002f0 0a 6a d4 bc f3 bb 82 bc 45 4c 37 3c 57 ee a2 bb
       -0.02592947 -0.015958762 0.011187618 -0.00497226
000300 6b b9 e0 3b c0 e2 8a 3d 54 fe ce bd 04 a7 3a 3d
       0.006858041 0.067815304 -0.10107103 0.045569435
000310 15 fe b1 bd 04 28 84 bd 9f e4 1c bd b8 9e b6 bd
       -0.086910404 -0.06452945 -0.038303968 -0.08916992
000320 c7 83 ee bc 07 98 02 be e6 06 89 3d 53 ee ad bc
       -0.02911557 -0.12753306 0.06690769 -0.021231806
000330 52 f4 d7 3c 2a 2b a6 bd d8 ca 95 3d b9 d3 c2 3c
       0.026361618 -0.08113702 0.0731408 0.023782598
000340 88 b9 0d 3d 6f f9 dc bd 45 57 c1 3d fe f7 1f be
       0.034600765 -0.10789763 0.094404735 -0.15621945
000350 00 6f 9d bd 22 e0 2f 3d 86 8a e9 3d 04 6d 51 bd
       -0.07687187 0.04293836 0.114033744 -0.051129356
000360 97 85 42 bd 6b 42 c9 bd d0 be 74 3d 4b 84 3e bc
       -0.047490682 -0.09827121 0.059752285 -0.011628221
000370 3d 6b 66 3d 56 c8 b3 bd bf 15 29 3d 3f 63 84 bc
       0.056254614 -0.087784454 0.041280504 -0.016160605
000380 33 7c cd 3d 6f ad fc 3c 39 92 1b 3e a9 93 94 3d
       0.10033455 0.030844418 0.15192498 0.072547264
000390 7a f3 f1 3d 5b 48 88 bd 81 c2 ee bd e7 b3 0a bd
       0.118140176 -0.06654426 -0.116581924 -0.033862974
0003a0 31 0e 93 3d 2d b3 af bd 6e 14 af 3d 81 6c 09 bd
       0.07180441 -0.08579097 0.085488185 -0.033550743
0003b0 73 dc 44 3d 8b 86 ae bd 69 b1 d6 3d 6a 16 99 3d
       0.0480618 -0.08521756 0.10483057 0.07474978
0003c0 48 d2 89 3d 82 62 31 bd 1f 1d c7 3d 5c f5 a1 bd
       0.06729561 -0.043306835 0.09722351 -0.07908127
0003d0 57 7c 93 bc e2 cd b2 bc f2 ce ab 3d 73 46 1f bc
       -0.018003626 -0.021826688 0.08389081 -0.009721386
0003e0 c8 97 bf 3d c8 48 a4 bc aa fc d6 bd 06 a0 10 3d
       0.09355122 -0.020054236 -0.104974106 0.03530886
0003f0 b7 5e 3f bc 07 92 08 bd 95 a6 b9 3d 52 26 1d bd
       -0.011680297 -0.033342388 0.09064976 -0.038366623

model.0.bias f4 [512]
000000 a7 e3 d7 bd cb 10 b7 3d b4 ae a3 3c 6e df 58 3d
       -0.10541468 0.0893875 0.019980766 0.052947454
000010 16 ee 16 be 41 fa b5 bd 3b 60 68 3c b8 64 23 bd
       -0.1473926 -0.08885623 0.014183099 -0.039890975
000020 31 d1 fd bd a3 f5 12 3d 21 51 2c 3d 0e 64 03 bd
       -0.12393416 0.03587879 0.042069558 -0.03207784
000030 7b 25 e2 3d 64 3c c3 3d a9 7a 0a bd 81 22 9c bd
       0.11042305 0.09533003 -0.033808384 -0.076237686
000040 35 b8 fb bd be 3e b7 bd e7 32 e7 bd 26 4e ca bc
       -0.12290994 -0.08947514 -0.11289006 -0.024695467
000050 4f 7a f5 bc 23 f9 57 3d 47 b8 cd 3d 51 ba ae bd
       -0.029965548 0.05272783 0.10044914 -0.08531631
000060 56 c6 1c be ec b8 61 3d e9 e9 42 bd 54 f7 a4 3b
       -0.15310034 0.055107996 -0.047586355 0.0050343666
000070 68 34 e3 bd db a1 fa bd 00 57 85 bc d4 79 e9 3c
       -0.1109398 -0.12237903 -0.016276836 0.028500475
000080 13 21 31 be 06 ec cf bd 8c b6 b5 bc 55 da 9b 3d
       -0.17297773 -0.1015244 -0.022181772 0.07610003
000090 a4 dc d7 bc 22 e7 01 3d b0 1b 17 bb 39 e6 e7 bd
       -0.026350327 0.031714566 -0.0023057275 -0.11323208
0000a0 f8 5d d5 bd 96 63 45 3b f1 99 ac 3d 80 95 29 3c
       -0.10418314 0.0030119172 0.084277995 0.010350585
0000b0 58 54 24 3d 18 f1 87 bd b0 c2 b0 bd 7d 74 a8 3c
       0.0401195 -0.06637782 -0.08630884 0.020563358
0000c0 29 79 38 bd 89 b4 0c 3c 03 ae 84 bb c8 58 9e bc
       -0.045037422 0.008587965 -0.004049064 -0.019329444
0000d0 1a 0d ce bc 3d e0 2f be c3 eb d0 3d f3 5f 1b 3c
       -0.025152732 -0.17175384 0.10201218 0.009483325
0000e0 9d 34 0f 3d ac 6f af bd 47 5c c9 bc bc 9e 29 bd
       0.034962285 -0.085662216 -0.024580134 -0.041411147
0000f0 42 f0 a0 3d cf 11 00 be 87 3c 11 3d 8a 57 8a 3a
       0.078583255 -0.12506793 0.035458114 0.0010554653
000100 62 9e b9 3d 32 b2 9e bd 3e 97 89 bd 02 8a d7 bc
       0.09063412 -0.07748832 -0.067183 -0.026310924
000110 71 83 6b 3d 3f e3 60 bd 80 dc 90 bb 8e a7 86 3d
       0.0574984 -0.05490422 -0.004420817 0.06574927
000120 92 e4 0a 3d 94 33 c5 3d b0 1a b1 bd 81 11 d9 bd
       0.033909388 0.09628978 -0.08647668 -0.10599042
000130 c7 d6 3a 3d 0a 93 ac bd e7 b1 1d be ae 6d d4 bd
       0.045614984 -0.08426483 -0.15399896 -0.10372482
000140 96 15 f0 bd 98 3c 30 3d 1f ff 91 3d 11 33 c2 bd
       -0.11722867 0.043026537 0.071287386 -0.094823964
000150 1f e8 09 bc 18 93 87 bd 5b be 2d 3d 07 67 41 3d
       -0.008417158 -0.06619853 0.042417865 0.047217395
000160 56 3a 27 3c e0 72 cb bc 24 d2 e3 bd d6 9e 95 bd
       0.010206779 -0.02483505 -0.111240655 -0.07305686
000170 9f f1 ff bd 42 5d c6 bd 80 00 fc bd 1c 6b 09 bd
       -0.124972574 -0.09685756 -0.12304783 -0.033549413
000180 03 22 60 bd 67 01 1d bd b0 4d c0 bb f3 86 0b 3d
       -0.054719936 -0.038331416 -0.005868636 0.034064244
000190 e5 ba d8 bd 33 a0 a7 bd 8e b4 d1 bc ab 7c 07 bd
       -0.10582522 -0.081848525 -0.02559879 -0.033077877
0001a0 2a 5c 20 bb 00 ec 5c bc b6 3b 12 bd 5f 56 a2 3d
       -0.0024468997 -0.013484001 -0.035701476 0.0792663
0001b0 6d ad 5d bd 78 7d 68 3d b5 99 95 bd ec bf 47 3a
       -0.05412047 0.05676028 -0.07304708 0.0007619846
0001c0 e9 3b 94 3d 61 74 99 bd 73 2b a2 bd 3c c4 06 bd
       0.072379895 -0.07492901 -0.079184435 -0.032901987
0001d0 e9 6c 26 be a2 71 c4 bd ad 7e a4 bd 56 80 c3 bd
       -0.16252483 -0.09591986 -0.08031974 -0.095459625
0001e0 4e 89 1f be 88 a7 d5 bd 7e bc 1a bd a4 52 92 3d
       -0.15579721 -0.10432345 -0.037777416 0.07144669
0001f0 fc 77 1c 3d 7b 44 cb 3d b1 06 e0 3c 73 fd bc bd
       0.038200364 0.09925171 0.02734694 -0.09228029
000200 50 2e 89 bd ff fe 9b 3d 62 85 f0 3c d0 19 88 bd
       -0.066982865 0.07616996 0.029360477 -0.06645548
000210 6b 2b b9 bc 11 9e d9 bd 44 d7 82 3a 5c 87 7e bc
       -0.022603711 -0.10625852 0.0009982367 -0.015535202
000220 f5 d9 03 bb d9 f1 66 3d 35 33 a4 bd fb fe 8e 3d
       -0.0020118926 0.056382988 -0.080175795 0.069822274
000230 14 81 c0 bd df 48 40 3d 98 4b ef bd 70 ea 7f bd
       -0.0939962 0.046944495 -0.1168434 -0.062479436
000240 c3 a0 c5 bd 27 90 35 bc 55 ce d4 bd f0 8c 2b 3d
       -0.096498035 -0.011081732 -0.10390917 0.041882455
000250 27 bc b3 3b fc 30 80 bd 3f b9 af 3d 36 d5 de bd
       0.005485076 -0.06259343 0.08580255 -0.108805105
000260 f5 b4 c1 3c da 75 20 3c 68 07 7d bd d7 e9 a4 bd
       0.023645857 0.009793723 -0.06177464 -0.08052414
000270 be 90 01 be ea 85 9e bc 51 ef 10 3d c5 a0 0e be
       -0.12652871 -0.019350965 0.03538448 -0.13928516
000280 42 c7 ff 3a 14 3f b7 bd 1f 11 9a bd 9f 26 d0 bd
       0.001951434 -0.08947578 -0.07522797 -0.101636164
000290 58 40 bd 3d 97 23 18 be e8 61 ac bc ee 43 cb bc
       0.09240788 -0.14857326 -0.02104278 -0.024812665
0002a0 55 f0 18 3c 4f 38 70 3d 53 21 21 be b4 aa 3d 3d
       0.009334643 0.05864745 -0.15735368 0.046305373
0002b0 23 1d ab bd c3 3b 85 3b d6 26 3a bd 2f 81 d8 bd
       -0.08355167 0.004065962 -0.045447193 -0.10571515
0002c0 1c b4 8a 3d 75 55 5c 3d 1d 92 ad 3d ce 75 c9 3b
       0.067726344 0.053792436 0.084751345 0.0061480766
0002d0 f6 30 64 3c 98 67 b2 3d 65 b2 7d bd 39 a9 ac bd
       0.013927689 0.08711165 -0.06193771 -0.08430714
0002e0 cf 58 74 bd 93 83 09 3d 6a 33 4b 3c 62 2a f5 3c
       -0.059655007 0.033572745 0.012402395 0.029927436
0002f0 37 cb 7b bd 86 a2 b6 bd 15 cf d6 3d 95 17 d5 3d
       -0.061473098 -0.08917718 0.104887165 0.104048885
000300 c8 6b e7 bd 74 d0 e0 3c 05 7a 85 bd fc fe 55 bd
       -0.112998545 0.027443148 -0.06517414 -0.052245125
000310 0a bd 10 bd 16 e7 c1 3c 54 86 11 3d df a3 24 3d
       -0.03533653 0.02366976 0.035528496 0.040195342
000320 a4 f5 37 3d 9f 28 01 3e 21 3b 20 bc 55 31 3d bd
       0.044911996 0.12613152 -0.009779722 -0.046189625
000330 ff df 04 be fa 3a 8e 3d bb 91 0e be 81 6d a4 bc
       -0.12976073 0.06944843 -0.1392278 -0.020071747
000340 76 9b f1 bd ae 74 5b bc 1b f9 f8 bc e8 36 14 3d
       -0.1179723 -0.013394518 -0.03039222 0.036185175
000350 01 29 bb bb e7 16 38 3d 32 57 ae 3c 7c a7 59 3d
       -0.005711675 0.044943716 0.021281812 0.05313824
000360 2d 9e 88 3d ca 6b d9 ba 6c de 15 bd d7 de 83 bd
       0.06670795 -0.001658791 -0.03658907 -0.06438988
000370 69 c5 42 bd 63 8a 0d be 3e ee c5 bd 2e 78 7b 3d
       -0.047551546 -0.13822322 -0.09664582 0.06139391
000380 2f b9 0b be 83 ff 8d bd 55 93 9b 3b da a7 0b be
       -0.1364486 -0.069335006 0.004747788 -0.13638249
000390 44 73 44 3c 0c a2 ab bd 45 13 a9 bd 0b fd da 3d
       0.011990372 -0.08380517 -0.082556285 0.10692795
0003a0 83 ff 20 be 72 44 1b be db b7 37 bd d3 b1 69 bb
       -0.1572247 -0.15162829 -0.044853073 -0.003565897
0003b0 6f 98 f0 bd b0 30 99 bd a7 15 20 bc 69 2f a6 bd
       -0.117478244 -0.074799895 -0.009770787 -0.081145115
0003c0 41 65 97 3c fc 48 15 bd 66 32 88 bd 72 5b 07 3d
       0.018480899 -0.036446556 -0.06650238 0.033046193
0003d0 69 be 04 bd 95 f3 cb 3d 2a dc 0c be 2d 2b a9 bd
       -0.03240815 0.09958569 -0.13755861 -0.08260188
0003e0 89 da 41 3d 6d c7 d4 bd 80 2b 6f 3d 93 23 37 3d
       0.047327552 -0.103896 0.058391094 0.04471166
0003f0 c5 7a b1 bd c9 1e 5f bc 45 8c 8a 3d 78 52 8c 3d
       -0.086659946 -0.01361818 0.067650355 0.06851667

model.2.weight f4 [64, 512]
000000 fe f7 c8 bc b7 99 02 bd 25 a6 ef bc 4e 49 82 3c
       -0.024532314 -0.031884875 -0.029254029 0.015904095
000010 e5 04 c7 3c a5 fb 4f bd 5e c3 37 3c 27 fb c0 bc
       0.024294326 -0.050777096 0.011216013 -0.023557259
000020 f6 83 48 3d 19 74 a3 bd f8 d0 47 3d d2 c6 2e 3c
       0.048953973 -0.07981128 0.048783273 0.01066752
000030 f7 01 19 bd f8 2a d9 3c 2d ad 2f bc a9 8f c6 bd
       -0.03735539 0.026509747 -0.010722441 -0.0969537
000040 ef b3 d2 3b d4 17 f5 bb 69 29 ce bc 3b 11 44 bd
       0.006430141 -0.007479647 -0.02516623 -0.047867995
000050 c9 57 d2 ba ad ee 7a bd 06 74 32 3d b3 f7 f8 3c
       -0.001604789 -0.061262775 0.04356768 0.03039155
000060 5c f4 96 3c 48 60 7b bc 9b 25 0a 3d 42 76 25 bb
       0.018427067 -0.015342779 0.03372727 -0.002524749
000070 77 40 2c 3c 38 e1 c7 3c b7 50 0f 3d d1 66 5f 3c
       0.0105134165 0.024399385 0.034989085 0.013635353
000080 d0 80 31 bd a0 eb 79 b9 43 66 8e bd 6b 89 87 3b
       -0.043335736 -0.00023834268 -0.069530986 0.0041362545
000090 a2 a0 9a 3b db 35 34 3d d5 2b 6b 3b 6c 5e 21 bd
       0.004718856 0.043996673 0.003588428 -0.03939669
0000a0 7d 8c bb 3c 19 d5 7c bc 4c 91 53 3d bb 01 4a 3d
       0.022894138 -0.015431666 0.051652238 0.049318057
0000b0 fe 45 70 bc 40 fe 88 bc c5 2a b6 bd 59 33 83 3d
       -0.014665125 -0.016722798 -0.088948764 0.06406278
0000c0 d7 dc 23 bc aa 3b c4 ba cb 0e dd bb 28 15 8d 3d
       -0.010001383 -0.0014971395 -0.006746148 0.06888801
0000d0 4d d3 d4 3d 7b 57 21 3c 12 62 b2 3c c0 79 42 3d
       0.10391865 0.009847517 0.02177528 0.04747939
0000e0 f9 d8 4b 3d 27 1a f4 3b c7 97 1b bd 93 70 8a 3b
       0.049767468 0.0074494067 -0.037986543 0.0042248457
0000f0 90 f4 b3 bd 33 53 9f 3d 39 93 12 bd 3c 0b 6c 3d
       -0.08786881 0.07779541 -0.035784934 0.0576279
000100 64 18 50 3a 35 72 85 bd 22 b1 33 bc c4 eb 9d 3c
       0.0007938205 -0.06515924 -0.010967525 0.01927746
000110 66 8e 1c bd 9e e3 5e 3d 91 91 a3 bd 71 2e 2c 3d
       -0.03822174 0.05441629 -0.07986749 0.042036477
000120 f2 09 30 3c cf 27 6f bd 1a 70 18 bd d4 6a 3a bd
       0.010744559 -0.058387574 -0.037216283 -0.045512035
000130 bb 76 27 3d b4 27 32 3d 38 2e 34 3d 27 67 2a bc
       0.040884715 0.043494895 0.04398939 -0.01040057
000140 5c 36 01 bd e2 d3 15 bc 58 de bc 3c 4b c6 1c 3d
       -0.03154598 -0.009144755 0.02305524 0.038275044
000150 16 25 62 bd cf 02 c1 3c ff 77 93 3c 92 2e 92 bc
       -0.05521115 0.02356091 0.018001555 -0.017844472
000160 f6 41 1f bd 59 30 8d 3c ee ce cd 3c 62 84 d9 3c
       -0.038881265 0.017234968 0.025123086 0.026552383
000170 1b a6 6c bd ea b1 07 3c 7f 5c 48 bc fe 4a cf 3c
       -0.057775598 0.008282164 -0.012229084 0.025304314
000180 88 73 ca 3c 15 87 c2 bc 98 c7 28 bd 6c e1 be bb
       0.024713293 -0.023746053 -0.041205972 -0.005825212
000190 27 23 03 bd 7d d7 ff bc 1c dd 24 3d c4 62 b0 3d
       -0.032015946 -0.031230683 0.04024993 0.08612588
0001a0 89 c0 0b 3c fa d0 24 3d f8 ea c3 bc c7 a8 e0 3b
       0.008529791 0.040238358 -0.023915753 0.0068560573
0001b0 cb 26 da 3c d7 06 2f bc 2a a2 28 3d 76 a8 9d ba
       0.026629826 -0.010682783 0.041170277 -0.0012028355
0001c0 7a 3a 44 bd 13 f9 4f bc 26 ad 66 3d e9 c8 4e 3d
       -0.04790733 -0.012693661 0.05631747 0.05048457
0001d0 da 66 17 3c 27 d0 d9 3c 39 c3 06 3c 15 41 18 3a
       0.00924083 0.026588513 0.008225256 0.0005808038
0001e0 c5 b1 3d 3c 94 55 18 3d 89 11 bb 3d 96 61 4f 3d
       0.011578028 0.03719099 0.09134204 0.050630175
0001f0 f6 41 cb 3c f1 ce 95 3d 49 88 3b 3d bf e6 ef bc
       0.024811726 0.073148616 0.04578427 -0.029284833
000200 43 e7 07 3c ed bf fc ba 00 43 7a 3b e1 93 a5 3c
       0.008294883 -0.0019283273 0.0038186908 0.020212116
000210 9a 7c 2a bd 59 88 92 3c e2 5c 42 3c f1 56 21 bd
       -0.041622736 0.017887281 0.011862965 -0.039389554
000220 5b 25 96 bd 3f 9c e4 bb 16 c9 e7 3c 00 34 4f 3d
       -0.07331344 -0.006976634 0.028294127 0.0505867
000230 fd 94 11 3c 8f 5f 09 bd c7 77 01 3d b3 8f 25 bc
       0.008885619 -0.033538397 0.03160837 -0.010105061
000240 1a b9 47 bd d5 8f 80 3d c4 a1 ce 3c 46 83 f5 bb
       -0.04876051 0.06277434 0.02522362 -0.0074924557
000250 eb bd 7b 3d a5 ad 98 3c ed 1d 47 3d 30 1b 2e 3c
       0.061460417 0.018637488 0.048612524 0.010626599
000260 30 4e 0e bd 6f 6f f7 bc 4a 4f 95 bd de cb 06 3d
       -0.034742534 -0.030204503 -0.07290514 0.032909267
000270 da d7 41 bd 61 c9 5f 3b 76 75 5e bc 2a 2a 64 3d
       -0.047324993 0.003414713 -0.01357781 0.055704273
000280 1d e1 42 bb ea a3 68 3c 6b c3 86 3c aa 4b 53 bb
       -0.0029736229 0.014199236 0.016450604 -0.0032241144
000290 75 aa 03 bd b3 90 db 3d 3a f5 38 3c c3 56 a5 3c
       -0.032144982 0.107209586 0.011288935 0.020182973
0002a0 1e c7 32 bd f8 33 91 bc a3 d5 1c bd 23 27 15 bc
       -0.043646924 -0.017724976 -0.038289677 -0.009103569
0002b0 46 7f 3d bc f8 34 78 bd 7a 53 6a bd 0d 4e a1 3d
       -0.011565989 -0.06059739 -0.057208516 0.07876215
0002c0 83 a6 d7 3c 9b 21 a2 3c 2d 41 56 3d f4 66 91 bc
       0.026324516 0.019791415 0.05230825 -0.017749287
0002d0 98 60 59 bd 8b 45 0d bd 80 b7 38 bc 9b d7 ae bc
       -0.053070635 -0.03449015 -0.011274219 -0.021343043
0002e0 9d dd 8c ba c4 9e d2 bc b6 3c be bc f2 07 00 3d
       -0.0010747198 -0.025710471 -0.023222309 0.031257577
0002f0 95 a5 fc bc a0 25 7b 3d 1b 3e 98 3c af 87 fe 3c
       -0.030840674 0.06131518 0.018584302 0.031070558
000300 77 15 91 bd bc 15 1a 3d d8 cf c6 bc 5a 12 32 bd
       -0.07084172 0.037618384 -0.02426903 -0.043474533
000310 22 1e 1f bd 2d 8d 05 3d 8b 5c 0b bc e6 15 81 3c
       -0.038847096 0.03260534 -0.008505951 0.015757512
000320 07 e1 43 3d 11 ff a6 3c 76 c4 b6 3b 6b bf 1e 3d
       0.047822025 0.020385297 0.005577619 0.03875677
000330 77 8a 05 bd 75 4b c5 3c 0d 6a db bc 89 ee 93 3c
       -0.032602753 0.024083832 -0.026783967 0.018058078
000340 20 9f 9c bc b0 c4 68 3c ff 53 36 3d b8 9a 37 3c
       -0.019118845 0.01420705 0.0445137 0.011206321
000350 11 f3 b5 bc 42 e2 2e 3d df e0 28 3d 04 91 b3 3c
       -0.02221063 0.042696245 0.04123008 0.021919735
000360 c5 03 67 3d a2 87 3b bd 45 93 46 bd 5e 33 02 bd
       0.05640008 -0.045783646 -0.04848029 -0.03178727
000370 21 d3 ae bd da 32 03 bd 1c 91 d2 bc bb d7 05 bb
       -0.085363634 -0.032030918 -0.02570396 -0.0020422775
000380 2e 85 84 3d 6b 77 08 3c 0d aa 51 3d e3 ed f7 3c
       0.064707145 0.008329253 0.051187564 0.0302648
000390 a6 dc 19 b9 90 bb 68 3d a5 0d 09 bd d3 2e 42 bb
       -0.00014673415 0.0568195 -0.033460278 -0.002962996
0003a0 d6 40 2d bd b2 81 34 bc c2 f3 91 3d c2 d5 80 bd
       -0.04229816 -0.01101725 0.07126571 -0.06290771
0003b0 db 28 24 3d eb 23 9a 3b 3e 89 ab bc 9b c9 1a 3d
       0.040078025 0.004703989 -0.020939466 0.037789922
0003c0 7d e9 bf 3c 58 cc 1e 3d 6f cb 8d bc ec 75 94 3d
       0.023426766 0.038769096 -0.017308919 0.07249054
0003d0 b7 e1 d7 3c bc bb f9 bb fc d0 22 bd b1 9a 27 bd
       0.026352746 -0.0076212566 -0.039750084 -0.04091901
0003e0 87 4e a9 bc e5 b0 d5 bc 54 86 a9 bc 4d 60 38 bc
       -0.020667328 -0.026085326 -0.020693935 -0.011253429
0003f0 4b 90 28 3c d6 83 17 3d f1 b7 1f 3d 66 f2 14 bc
       0.010288308 0.036990963 0.03899378 -0.009090995

model.2.bias f4 [64]
000000 5c 52 5c bb cd f6 37 3d d1 18 08 3c 96 e4 2b 3b
       -0.0033618426 0.044913102 0.008306698 0.0026228777
000010 48 27 7a bc 42 f2 69 3c 56 d3 e1 3b 0e 3a 92 bb
       -0.015268154 0.01427895 0.0068916483 -0.004462487
000020 07 e3 ea bc 9c e5 94 3c b7 b8 96 bc c7 81 99 bc
       -0.028672708 0.018175893 -0.018398626 -0.01873864
000030 fb c0 b6 bc 02 a2 a0 3c eb 42 c4 3c e6 ee e1 3c
       -0.022308817 0.019608501 0.02395769 0.027579736
000040 12 de 05 bd a0 d1 dc bc 5e 66 b6 ba 33 15 b3 3c
       -0.032682486 -0.026955426 -0.0013916006 0.021860695
000050 5a 02 7e bc 8a e6 0d 3c 0d e4 0c bd 34 8b 41 bd
       -0.01550349 0.008660922 -0.034397174 -0.047251895
000060 7f 10 f1 3c f4 f0 eb bc 99 92 4d bc 42 db 27 bd
       0.029426811 -0.028801419 -0.012547159 -0.040980585
000070 e2 25 5f 3c af c8 95 bc 4f cf 13 bd 4f 1a 15 bb
       0.013619872 -0.01828417 -0.036086377 -0.0022751277
000080 23 3c 29 3c cf 44 51 bc 43 6a 14 3c 3b da d4 bc
       0.010329279 -0.012772753 0.009058538 -0.025982967
000090 ec 31 6b 3c af 93 25 bd a3 60 01 3d 13 e2 03 bd
       0.014355164 -0.040424045 0.0315863 -0.032198023
0000a0 97 20 0e bc 24 a0 b9 3c 8a cc ac bc ff 9d 92 3c
       -0.008674762 0.022659369 -0.021093626 0.017897604
0000b0 18 29 0a 3d ec a1 0d 3d 21 85 28 3d 74 69 3a 3b
       0.033730596 0.03457825 0.041142587 0.0028444203
0000c0 9b 90 07 3b fa 5e 93 bb dd cc b7 3c 30 2b a0 3c
       0.0020685557 -0.004497406 0.022436554 0.019551843
0000d0 dc 7f 10 bd 7c 66 8b bc 98 bf f2 bc 86 b5 32 3d
       -0.035278186 -0.017016642 -0.029632375 0.043630145
0000e0 c3 74 f4 3c 97 82 e8 3c 74 76 ae 3c 6f 0e 0d 3d
       0.029840833 0.028382583 0.021296717 0.034437593
0000f0 7e 9a 28 bd 02 c0 c3 bc ff 46 cb 3c 23 33 e0 3c
       -0.04116296 -0.023895267 0.024814127 0.027368134

exp_avg f4 [512, 64]
000000 bb f8 56 b9 3e 3b 98 38 1a 67 8b b9 7b 3a 3e b8
       -0.0002050129 7.2589595e-05 -0.00026588963 -4.5353994e-05
000010 68 6c b6 37 7d c8 b1 b7 95 2f 82 b8 58 1a c8 38
       2.1746571e-05 -2.1193404e-05 -6.207746e-05 9.54165e-05
000020 cc e8 16 39 b5 b2 0c b9 dc 7f 8c 39 c6 06 9d 39
       0.00014391838 -0.00013418014 0.00026798144 0.0002995042
000030 2b de 01 b9 a8 c5 2a 39 cc a5 39 b9 2b 6f 39 b9
       -0.00012385163 0.00016286096 -0.00017704739 -0.00017684388
000040 79 aa 9f 38 58 8b cb b9 ad 9a 39 39 e7 0e ce 38
       7.613464e-05 -0.00038822996 0.00017700596 9.825621e-05
000050 2d 50 3d 39 34 d5 a4 b7 a7 b1 02 ba 98 6f 27 b9
       0.00018054312 -1.9649604e-05 -0.00049855787 -0.00015967933
000060 28 9b 7a 39 cb 8a 24 3a 4b 7d 84 39 32 9c 09 39
       0.00023899658 0.0006276785 0.00025270352 0.00013123525
000070 d7 fe d0 b8 2b 29 f4 38 03 06 80 b9 21 cc 84 37
       -9.9656805e-05 0.00011642495 -0.00024418542 1.5830681e-05
000080 76 cc f4 39 61 df 97 b8 59 b4 24 b8 18 e8 29 36
       0.00046691642 -7.241849e-05 -3.926861e-05 2.5318059e-06
000090 dd 0f 4f 37 cf e6 01 b9 ac bc cd b9 30 1b 88 38
       1.2341855e-05 -0.00012388382 -0.00039241218 6.4900494e-05
0000a0 24 5c 88 b9 a4 d7 00 3a 21 6f 56 39 56 d3 93 39
       -0.00026008592 0.00049149455 0.00020450029 0.00028195482
0000b0 41 39 af b9 e7 93 38 b7 a9 25 b6 b7 2e b4 71 b9
       -0.0003342126 -1.1001691e-05 -2.1713628e-05 -0.00023050673
0000c0 95 36 ef 38 80 cf f4 38 8a bf be b8 22 c3 25 b9
       0.00011406575 0.000116734765 -9.095583e-05 -0.00015808319
0000d0 16 94 2b b9 dc c9 a0 b8 46 98 83 b9 2e 0d 61 b8
       -0.00016362997 -7.666994e-05 -0.0002509972 -5.3656455e-05
0000e0 46 61 dc 38 45 6d 47 39 5d d3 8a 39 3f 74 83 b9
       0.00010508536 0.00019018825 0.0002647889 -0.00025072877
0000f0 0b 74 05 3a 59 32 1c 39 79 55 0d 39 e8 0b 47 38
       0.0005090839 0.00014896075 0.00013478649 4.7456386e-05
000100 46 4e 10 ba 5b 6c 93 b9 fe 42 24 39 18 84 e0 38
       -0.0005504828 -0.00028118756 0.00015665215 0.00010705757
000110 de 6a 0c 3a 3a 2e 4e 3a a7 b3 79 ba e7 d5 00 ba
       0.00053565006 0.00078651647 -0.00095253665 -0.00049146864
000120 f0 8c 55 3a f6 6d 83 39 2f c1 61 b8 a8 03 ec b8
       0.00081463065 0.00025068194 -5.3824097e-05 -0.00011254038
000130 7b 8a 20 3a e5 82 31 39 8a b6 59 3a 92 40 2b 39
       0.0006124151 0.00016928797 0.00083050935 0.00016331885
000140 2e 82 d2 b7 5a dc e3 39 b6 de fb b9 29 2b ba b9
       -2.509457e-05 0.0004346099 -0.00048040383 -0.0003550884
000150 2b c4 2d ba 25 90 61 b7 3d 7f f3 39 c0 00 03 3a
       -0.00066286576 -1.3444606e-05 0.00046443372 0.0004997365
000160 48 0e 37 ba ab 4d 8c ba 99 a9 e0 ba 2b 6c 15 39
       -0.0006983024 -0.0010704299 -0.0017140388 0.00014250043
000170 6f e8 8e 38 45 8b 56 39 2f df 1a 3a 0e 16 15 b9
       6.814382e-05 0.00020460512 0.0005907891 -0.00014217963
000180 de 1f 44 ba 1d fb 0a 3a b5 3a 36 b9 15 e8 03 ba
       -0.0007481555 0.0005301701 -0.00017378743 -0.00050318363
000190 90 d5 0c ba 25 01 e0 b8 fb b6 9b b8 3f 1d 40 ba
       -0.00053723995 -0.000106813655 -7.425059e-05 -0.0007328577
0001a0 25 bc c2 39 78 e6 71 ba 0c 22 ab b6 f2 74 65 ba
       0.00037142742 -0.0009227763 -5.1001607e-06 -0.0008753083
0001b0 fa 61 6a 39 83 21 63 b9 ea f3 74 38 63 b7 08 3a
       0.00022352478 -0.00021660891 5.8401296e-05 0.0005215315
0001c0 53 2f 5b b9 53 53 21 ba 25 ae a4 b9 9e 83 a2 39
       -0.00020903097 -0.0006154079 -0.00031410265 0.0003099711
0001d0 33 1a 10 b9 92 97 29 3a d2 14 09 3a bb 05 68 ba
       -0.0001374267 0.0006469424 0.0005229238 -0.00088509516
0001e0 98 de 40 39 69 cd 31 ba c3 eb d1 39 f5 64 39 39
       0.0001839347 -0.00067826227 0.00040039243 0.00017680584
0001f0 7d 20 47 38 03 fa 06 ba 47 2c 9f b9 97 c7 e1 b9
       4.7475554e-05 -0.0005148949 -0.00030359832 -0.0004306405
000200 46 57 9d b8 8c 75 31 b9 02 a5 2c 39 ce c3 59 b8
       -7.502599e-05 -0.00016923825 0.00016464668 -5.191919e-05
000210 94 2b b0 39 10 c6 0e 3a a2 ba 8a b9 b4 00 e4 39
       0.00033601804 0.0005446384 -0.00026460463 0.00043488073
000220 1a 95 bd 39 1b e8 19 b9 e4 13 aa 39 8d e2 ee 37
       0.00036159978 -0.00014677683 0.00032439746 2.8477307e-05
000230 d3 45 92 b9 fa ac b9 38 2b 61 8d 39 e9 43 44 b9
       -0.00027899313 8.853707e-05 0.00026966012 -0.00018717315
000240 41 45 45 b9 8c ce 11 ba 30 f5 21 ba 1e 12 05 ba
       -0.00018813183 -0.0005562089 -0.00061781984 -0.0005076247
000250 12 37 28 ba 1d 3b 7a 39 45 af be 38 23 d7 0a ba
       -0.00064168975 0.0002386388 9.0925525e-05 -0.000529634
000260 33 f5 74 ba ca af a2 b9 d8 82 16 ba 06 b8 e6 39
       -0.0009344399 -0.0003103002 -0.0005741543 0.00044006127
000270 22 3f 3f b8 8c 30 10 39 c8 f7 57 39 bb 0f c3 b9
       -4.5596746e-05 0.00013750995 0.00020596304 -0.00037205018
000280 3a c6 40 39 fc 4e 97 b7 87 9e bc 39 0b d1 a5 b8
       0.00018384392 -1.8037383e-05 0.00035976266 -7.9067504e-05
000290 ae fd bb b9 cd 80 84 38 a7 3c f4 b8 b1 c1 ca b7
       -0.00035856426 6.3182415e-05 -0.00011646124 -2.4170471e-05
0002a0 41 e9 81 38 68 1a e1 b8 79 a1 0e 39 4c b6 3b ba
       6.194646e-05 -0.000107337546 0.00013602329 -0.0007160648
0002b0 7f 05 6b 39 70 b0 a2 b9 e3 b3 15 39 a2 ec 06 b7
       0.00022413394 -0.00031030504 0.0001427676 -8.042118e-06
0002c0 7e d9 db b8 4d 1d 9b 39 57 f2 2b ba 89 d4 50 3a
       -0.00010483245 0.00029585735 -0.0006559244 0.00079662405
0002d0 92 e8 d5 b9 23 b8 06 3a 54 b4 20 39 c0 86 52 b9
       -0.00040799804 0.0005139133 0.00015325967 -0.00020077359
0002e0 38 ef 1b 3a 60 59 6a b9 6a 07 98 38 8c de 40 3a
       0.0005948427 -0.00022349274 7.249306e-05 0.0007357381
0002f0 b3 9c 58 b9 f8 ec a5 37 64 35 7c 37 75 d7 b3 b9
       -0.0002065774 1.977988e-05 1.50328015e-05 -0.00034302069
000300 b2 e5 05 b9 14 ca ac 38 53 99 f2 b8 f2 0b 2b 39
       -0.00012769437 8.239239e-05 -0.00011568018 0.00016312281
000310 f6 20 84 b8 24 d7 89 36 10 80 44 b8 15 e7 cd 38
       -6.30039e-05 4.107964e-06 -4.684931e-05 9.818204e-05
000320 3d f6 da 38 23 03 1e 38 2e 2a c8 b8 e9 75 ec b7
       0.000104409155 3.7673057e-05 -9.5446e-05 -2.8188299e-05
000330 95 2d 87 b7 cd 48 9e b8 ca 94 90 b7 f6 75 70 b9
       -1.611448e-05 -7.547587e-05 -1.7235423e-05 -0.00022932127
000340 49 89 17 38 5a fd 47 b9 85 33 99 b7 96 a2 04 b8
       3.6129062e-05 -0.000190725 -1.8263012e-05 -3.1622672e-05
000350 c7 19 7f b8 fe 8b 71 b8 5d 39 ec b8 0c f7 58 b8
       -6.0820745e-05 -5.7589255e-05 -0.00011264042 -5.1728493e-05
000360 87 7a 11 38 a6 55 a9 b7 e1 4d 87 b8 8a b6 62 39
       3.4684806e-05 -2.0186253e-05 -6.451808e-05 0.0002162104
000370 2c 5b a7 b8 df 59 29 b9 1d b0 10 b9 c3 53 cd b8
       -7.9801626e-05 -0.00016150576 -0.00013798517 -9.7907636e-05
000380 2f 49 cf 38 13 86 3b b8 47 56 dd b8 9d 0d 2f 39
       9.884161e-05 -4.470914e-05 -0.000105541716 0.00016694372
000390 d5 a8 71 38 d5 ae b3 b8 22 08 06 b9 4f 16 9f 38
       5.7616115e-05 -8.56795e-05 -0.00012782266 7.585866e-05
0003a0 32 aa dd 37 1f 7f 46 39 3f 50 85 b8 70 4d 57 38
       2.6424506e-05 0.00018930108 -6.356881e-05 5.1332114e-05
0003b0 e3 04 85 b8 25 03 ec b6 e5 9f f7 b8 4f bc b7 b8
       -6.3428444e-05 -7.033714e-06 -0.000118076605 -8.761195e-05
0003c0 3d cf 6b 38 6b f0 e3 38 fb a6 1a b8 42 fe 05 b9
       5.622137e-05 0.00010868985 -3.6871974e-05 -0.00012778587
0003d0 36 d5 7f b8 e8 87 09 38 85 d1 ec 37 d4 73 a8 b8
       -6.0995306e-05 3.2789918e-05 2.8230957e-05 -8.032439e-05
0003e0 fc fd 4b 37 41 5b 52 b7 aa a9 96 38 2a 76 94 38
       1.2158878e-05 -1.2538222e-05 7.18416e-05 7.0792e-05
0003f0 8d ea 2d 39 f7 da 9b 38 49 83 ca 38 a7 d1 7f 37
       0.00016585943 7.431761e-05 9.656564e-05 1.5247998e-05

exp_avg_sq f4 [512, 64]
000000 7f e3 29 35 c7 49 30 36 23 2b 9a 35 02 45 67 36
       6.3288456e-07 2.6268988e-06 1.1486449e-06 3.446185e-06
000010 b9 f8 04 35 b0 8d da 35 57 cd 8c 35 30 d1 77 35
       4.953577e-07 1.6283502e-06 1.0490575e-06 9.231908e-07
000020 a3 d0 93 35 55 2f 88 35 27 c6 85 35 e4 2a 06 36
       1.1013075e-06 1.0146565e-06 9.966942e-07 1.9992522e-06
000030 b7 a3 99 35 0b 0f 70 35 04 ac 80 35 d8 9d b7 35
       1.1447036e-06 8.942886e-07 9.586806e-07 1.3680501e-06
000040 23 a0 8b 35 59 cb b7 35 01 fe b5 35 1a 14 46 35
       1.0402913e-06 1.3693744e-06 1.3559476e-06 7.379e-07
000050 26 ce 9e 35 4e 49 34 36 da fe 9d 35 62 4c 54 35
       1.1831914e-06 2.686476e-06 1.1771583e-06 7.9087306e-07
000060 12 06 16 36 ee 5a 5f 36 4f 62 af 35 67 83 eb 35
       2.2355275e-06 3.3282518e-06 1.3067128e-06 1.7547108e-06
000070 8b 98 46 36 3e e3 d3 35 ea 88 8e 35 f6 f4 a9 35
       2.959309e-06 1.5786861e-06 1.0619672e-06 1.2662774e-06
000080 59 92 51 36 61 e3 ab 35 3b d7 8f 35 f9 01 20 35
       3.1228612e-06 1.2806669e-06 1.071697e-06 5.9607515e-07
000090 b5 2d 94 35 b1 d0 a5 35 db 9e a2 35 18 b5 0c 35
       1.1040162e-06 1.2354195e-06 1.2116174e-06 5.241759e-07
0000a0 26 7f 4f 35 ab 60 99 35 e6 7b 30 35 46 c2 88 35
       7.7298535e-07 1.1427522e-06 6.5745405e-07 1.0189331e-06
0000b0 ea 34 93 35 8a 3f b6 35 25 2f 8d 35 c4 3f 07 36
       1.0967753e-06 1.3578549e-06 1.051904e-06 2.0153684e-06
0000c0 17 c8 f4 35 18 fe 25 36 8f 65 27 36 ae 7d 62 35
       1.823765e-06 2.4734818e-06 2.4944054e-06 8.437445e-07
0000d0 fc 30 29 36 e0 f0 7f 35 d3 c4 51 35 c2 95 68 35
       2.5211475e-06 9.534542e-07 7.8144984e-07 8.664466e-07
0000e0 53 2a 15 35 23 e5 b1 35 82 0b df 35 fd ef 1c 36
       5.5568415e-07 1.3254215e-06 1.6618144e-06 2.3385503e-06
0000f0 db 2c 1a 36 91 ec 11 35 a2 e1 bf 35 bd e9 27 35
       2.2973898e-06 5.436096e-07 1.4296277e-06 6.255248e-07
000100 4b d6 06 36 90 fd 27 36 e4 8e cc 35 f9 62 86 36
       2.009229e-06 2.5032532e-06 1.5240771e-06 4.005033e-06
000110 a4 4c fa 35 eb 99 09 36 b1 2f 45 36 af 40 3c 36
       1.8648757e-06 2.0504183e-06 2.9383048e-06 2.8051834e-06
000120 72 a6 3a 36 b0 93 02 36 2d 0b 91 36 f6 c8 32 36
       2.7813044e-06 1.9457475e-06 4.322638e-06 2.6641042e-06
000130 2e 51 2d 36 ef 02 36 36 58 30 f9 35 82 62 5a 36
       2.5826262e-06 2.712182e-06 1.8566016e-06 3.254187e-06
000140 ef c6 f2 35 fa 5c 62 36 fe ec 37 36 4f 91 03 36
       1.8088302e-06 3.3730744e-06 2.7407073e-06 1.9605102e-06
000150 af 0b 28 36 b1 82 29 36 55 30 0f 36 14 d9 06 36
       2.5040752e-06 2.5259035e-06 2.1336793e-06 2.0093912e-06
000160 98 2e 5e 36 77 1f 28 36 6c df 49 36 ef de 36 36
       3.31077e-06 2.5052266e-06 3.0081383e-06 2.7249878e-06
000170 b3 a7 fc 35 a0 60 79 36 29 42 f2 35 ff 2f 65 36
       1.882427e-06 3.7160135e-06 1.804966e-06 3.4151597e-06
000180 28 f3 38 36 8f 30 18 36 6d 3e 25 36 c7 3a 3e 36
       2.7559672e-06 2.267803e-06 2.4623253e-06 2.834642e-06
000190 38 ad c4 35 39 be 17 36 b1 7e 17 36 6d 01 f2 35
       1.4653551e-06 2.2611478e-06 2.2574498e-06 1.803082e-06
0001a0 36 44 09 36 56 24 e3 35 3e 44 17 36 b5 20 eb 35
       2.0454295e-06 1.6923393e-06 2.2540476e-06 1.7518383e-06
0001b0 be f6 bc 35 38 5d 28 36 4e 0a d7 35 fa 97 19 36
       1.4078903e-06 2.5088211e-06 1.6021747e-06 2.2887239e-06
0001c0 6f e0 02 36 39 00 73 36 72 84 6c 36 fd 42 36 36
       1.9502147e-06 3.6209951e-06 3.5243834e-06 2.7159106e-06
0001d0 07 14 1a 36 7b dc 30 36 9a ab 2a 36 f7 00 cd 35
       2.2959446e-06 2.635438e-06 2.543186e-06 1.5273971e-06
0001e0 a6 fc f9 35 fb 3f 27 36 61 3d d7 35 dd 4d 14 36
       1.8625476e-06 2.492218e-06 1.6036612e-06 2.209904e-06
0001f0 e8 6e 02 36 13 11 06 36 7f 2c f4 35 b3 2f fa 35
       1.9436065e-06 1.9977495e-06 1.8192367e-06 1.8640334e-06
000200 3d 2c 67 35 75 3f 9c 35 ee 7c a9 35 bd b0 2c 36
       8.611858e-07 1.1641374e-06 1.262784e-06 2.5732872e-06
000210 ba 01 88 35 98 c3 89 35 7b 7f af 35 ea 42 17 36
       1.0133292e-06 1.0264221e-06 1.3075618e-06 2.2539703e-06
000220 7f a0 f1 35 7c 78 00 36 5c cc e8 35 f1 4e 1a 36
       1.800261e-06 1.9143617e-06 1.7344823e-06 2.2993738e-06
000230 d2 1b 0e 36 56 b4 30 36 88 a6 6b 35 78 d4 dd 35
       2.1175842e-06 2.6331013e-06 8.7786657e-07 1.652762e-06
000240 7f 47 97 35 93 95 37 36 6c c2 1b 36 f7 24 99 35
       1.1271185e-06 2.7356189e-06 2.3209968e-06 1.1410146e-06
000250 32 2e 29 36 0f 26 9d 35 f3 74 03 36 0e 6d f1 35
       2.5209852e-06 1.1708488e-06 1.9588595e-06 1.7987638e-06
000260 56 ef ee 35 7b e1 2d 36 a1 9a 0b 36 4f 2b f6 35
       1.7802038e-06 2.5910256e-06 2.080262e-06 1.8341033e-06
000270 98 e9 a5 35 01 43 ce 35 85 0a b1 35 a3 22 1f 36
       1.2361443e-06 1.5367697e-06 1.3190589e-06 2.3713008e-06
000280 0e c3 12 36 5f 69 bc 35 6f dd 24 36 ea f5 b7 35
       2.1869232e-06 1.4037759e-06 2.4566796e-06 1.3706133e-06
000290 65 3c 8b 35 7e ec e6 35 e5 31 d7 35 41 21 9e 35
       1.0373884e-06 1.7205164e-06 1.603327e-06 1.1781596e-06
0002a0 70 4f ce 35 78 4f 9e 35 3c 4c c3 35 89 52 db 35
       1.5371315e-06 1.1795046e-06 1.4550819e-06 1.6340792e-06
0002b0 f0 e4 b3 35 f3 54 5e 35 3b d7 b1 35 a3 29 b7 35
       1.3403169e-06 8.282506e-07 1.3250168e-06 1.364668e-06
0002c0 68 70 8e 35 b5 2f f7 35 ca 64 ff 35 5f 92 24 36
       1.0612539e-06 1.8416819e-06 1.9028314e-06 2.4523104e-06
0002d0 c0 23 05 36 2f bd d5 35 5e 08 ec 35 fb e3 e2 35
       1.9839354e-06 1.5924796e-06 1.7585805e-06 1.6904663e-06
0002e0 0a 11 f6 35 fb 29 d6 35 a4 97 82 35 07 d8 0c 36
       1.8333387e-06 1.595646e-06 9.729888e-07 2.098737e-06
0002f0 5b d2 0a 36 fd e6 95 35 da f0 e6 35 5a 0a a6 35
       2.0686045e-06 1.1168592e-06 1.7206432e-06 1.2370976e-06
000300 08 2f 81 35 bc c4 06 36 70 f3 b6 35 14 6a 5b 36
       9.624937e-07 2.008207e-06 1.3630906e-06 3.2695289e-06
000310 bf 20 6f 35 c4 33 c6 35 45 4d a5 35 cd d1 f6 35
       8.908209e-07 1.4767215e-06 1.2315946e-06 1.8389488e-06
000320 8c e4 ab 35 21 93 bd 35 8f c0 f9 35 b0 d6 e3 35
       1.2807009e-06 1.4124417e-06 1.8607988e-06 1.69753e-06
000330 14 35 71 35 91 aa b0 35 a4 50 cb 35 8e b5 4b 35
       8.9856735e-07 1.3162663e-06 1.5148148e-06 7.588759e-07
000340 8a 4c 72 35 5e 65 b4 35 e9 11 a6 35 27 4e 8a 35
       9.0263404e-07 1.3440547e-06 1.2373176e-06 1.0304547e-06
000350 6a 09 69 35 30 2f 05 36 b7 3c e7 35 08 47 5d 35
       8.6812963e-07 1.984601e-06 1.7228512e-06 8.243228e-07
000360 a2 d5 e5 35 5d a5 0a 36 8e f3 97 35 e3 94 f4 35
       1.7124005e-06 2.0659857e-06 1.132126e-06 1.8222748e-06
000370 b4 20 f5 35 fd ec d5 35 39 3e 6f 35 39 d6 a6 35
       1.826344e-06 1.5938709e-06 8.9124984e-07 1.2430311e-06
000380 33 7a 2f 36 78 64 d1 35 74 fc 9b 35 b5 b8 3e 35
       2.6148161e-06 1.5600954e-06 1.1621873e-06 7.10493e-07
000390 59 c6 8c 35 f4 f7 9d 35 6e 06 99 35 ca 8e 86 35
       1.048854e-06 1.1769575e-06 1.140126e-06 1.0025335e-06
0003a0 64 d1 81 35 18 14 f3 35 b5 d4 84 35 6e 3d 90 35
       9.67219e-07 1.8110759e-06 9.896672e-07 1.0746714e-06
0003b0 ca 62 ce 35 73 df 91 35 71 84 95 35 85 c1 cb 35
       1.5376947e-06 1.0868374e-06 1.1139911e-06 1.5181e-06
0003c0 d2 d1 c2 35 7c d2 00 36 7b 29 07 36 67 95 a7 35
       1.4515192e-06 1.9196004e-06 2.0140712e-06 1.2485951e-06
0003d0 3c 9b 1c 36 69 1c 8c 35 6a 74 ba 35 1e 62 91 35
       2.333617e-06 1.0439081e-06 1.3891961e-06 1.0831898e-06
0003e0 93 35 2e 35 9c d2 95 35 3f ef bb 35 74 a1 f6 35
       6.489801e-07 1.116266e-06 1.4002215e-06 1.8375417e-06
0003f0 b9 4b f1 35 0f 1e 74 35 79 0f 9e 35 32 74 55 35
       1.7977937e-06 9.0940824e-07 1.177642e-06 7.951777e-07

exp_avg f4 [512]
000000 fb bf b1 b9 d4 52 3e 39 7f 25 9f b9 bf 6d cd b6
       -0.00033903107 0.00018150668 -0.0003035478 -6.122252e-06
000010 cd c6 8b b9 b7 15 83 39 b2 e6 3e b9 02 81 d0 b9
       -0.00026660264 0.00025002446 -0.00018205753 -0.0003976897
000020 6a 39 ed b9 78 f6 68 b9 9e c3 6b b8 30 f8 80 38
       -0.0004524694 -0.00022217061 -5.621055e-05 6.149744e-05
000030 8c d7 cc 39 0c 7b b2 b6 e3 9f e4 36 00 ad 17 ba
       0.00039070507 -5.319138e-06 6.8135428e-06 -0.0005785972
000040 54 28 bb b7 ab 98 28 b8 65 33 6c 38 a8 86 69 39
       -2.2310916e-05 -4.0196504e-05 5.631465e-05 0.00022270775
000050 9f 3e 45 37 26 4e 07 ba 89 d5 1a ba 41 76 c4 b8
       1.1756695e-05 -0.00051614863 -0.0005906453 -9.368035e-05
000060 02 02 93 38 b2 7f a3 37 2d 10 67 b8 63 5e d2 b8
       7.00988e-05 1.9490577e-05 -5.5089757e-05 -0.00010031161
000070 ba 53 76 39 11 61 f1 36 30 9a 12 b8 09 bf 07 b9
       0.00023491579 7.1936597e-06 -3.495271e-05 -0.0001294577
000080 a8 9d 11 ba 44 fb 9a 39 8c 68 7d 39 1b 28 b9 38
       -0.00055548036 0.00029560376 0.00024166907 8.828958e-05
000090 9c 2b a6 b7 fb 8c b8 39 0a 6b 04 ba 2b e6 7c b9
       -1.980905e-05 0.00035200253 -0.00050513505 -0.00024118337
0000a0 c5 27 0f 38 fd 8d 88 b9 fe 9f 68 b9 0d c3 ce b9
       3.4130895e-05 -0.0002604573 -0.00022184846 -0.00039436706
0000b0 23 c0 7c 39 c0 84 0e b9 d0 cb a7 b9 4f f5 2a 39
       0.0002410417 -0.00013591629 -0.00032004574 0.00016303848
0000c0 06 42 d0 b9 d1 a3 1d 39 2b e1 7d b9 4b 86 96 b9
       -0.00039722043 0.00015033713 -0.00024211842 -0.00028710286
0000d0 49 d7 fe b6 3a e2 0c 39 a9 0c 2b b9 84 87 91 ba
       -7.5948524e-06 0.00013435716 -0.00016312547 -0.0011103009
0000e0 82 2c 8b b9 04 89 0e 3a 1d bf 42 38 16 82 87 39
       -0.00026545307 0.0005437287 4.6431192e-05 0.00025846128
0000f0 1c 5d 78 b9 db bd 99 b7 f2 17 86 37 16 75 7c b7
       -0.00023685809 -1.832743e-05 1.5985195e-05 -1.5047632e-05
000100 e5 66 1b ba 80 89 67 b9 d7 72 58 39 c9 af 81 b9
       -0.0005928113 -0.000220811 0.00020642146 -0.00024735768
000110 4f db 6e b9 30 ed 38 38 bf 57 a5 39 01 66 e3 38
       -0.00022779148 4.4089917e-05 0.00031536628 0.00010843203
000120 bb 09 1c b9 32 4e 22 ba de 9c f5 b8 ba 3f 88 b9
       -0.00014880944 -0.00061914616 -0.00011711729 -0.0002598742
000130 1d 28 33 39 25 fc a5 b9 e1 6d 51 ba 8e 73 2e 39
       0.00017085714 -0.00031659115 -0.00079890905 0.0001663698
000140 8d 78 9f b9 8e a8 a6 38 70 2f 14 3a 3c 55 69 38
       -0.0003041666 7.9468926e-05 0.00056528207 5.563091e-05
000150 9b a5 84 b9 3d 2c 82 b9 e0 e8 79 ba 80 72 8b 39
       -0.00025300388 -0.00024828492 -0.0009533297 0.00026597455
000160 4b 36 89 39 4d 49 86 39 c5 9a 62 b8 7a 48 0b 3a
       0.00026171128 0.00025613085 -5.402674e-05 0.0005313229
000170 c2 06 98 b9 35 37 16 b9 35 da 2b b9 2a 5d 55 39
       -0.00028996734 -0.00014325681 -0.00016389119 0.00020347969
000180 3b c8 7b 38 ab ca 92 b9 ad 13 24 39 8c 42 5a b9
       6.0029543e-05 -0.0002799829 0.00015647589 -0.00020814891
000190 a6 fb ad b9 63 14 92 39 4b ab 3a 3a ff 51 37 39
       -0.00033184624 0.0002786248 0.00071208616 0.00017482786
0001a0 51 15 5e 38 10 4f 0d ba 47 c8 a8 b9 0a 90 41 39
       5.2948777e-05 -0.00053905044 -0.00032192675 0.00018459573
0001b0 e9 30 40 39 1f dc b6 39 33 39 e8 b8 65 15 02 ba
       0.00018328767 0.00034877748 -0.00011073276 -0.00049622945
0001c0 70 e9 1f 3a 6e c5 97 b9 93 05 a0 39 79 b2 a7 b9
       0.00061001536 -0.0002894806 0.0003052173 -0.00031985695
0001d0 2f d4 25 ba dc f3 0b 39 2a 04 38 39 56 a5 63 b7
       -0.00063258683 0.00013346918 0.00017549159 -1.356875e-05
0001e0 d1 27 d3 39 25 62 c1 b7 c7 45 de 38 b5 d8 e8 b9
       0.00040274722 -2.3053095e-05 0.00010598782 -0.00044411948
0001f0 f1 3b aa 36 4a 62 86 ba ac f2 b9 b9 5b b6 9e b9
       5.073373e-06 -0.0010252681 -0.00035466754 -0.00030271974
000200 8f dc 3d b8 bb 1b f3 b9 ba 27 9f b9 16 ce ba b9
       -4.5266523e-05 -0.00046369233 -0.00030356442 -0.0003563023
000210 81 08 a1 b9 b2 30 47 38 4f c1 b2 b8 f3 c0 96 b9
       -0.0003071465 4.749065e-05 -8.523708e-05 -0.00028753988
000220 a1 26 b0 39 5a 0d 28 39 43 27 70 b9 fd 73 e1 37
       0.00033598117 0.00016026702 -0.0002290281 2.6876101e-05
000230 9d 39 3b b8 e9 0c 8b 39 87 71 f3 37 f1 1c 47 39
       -4.463793e-05 0.00026521765 2.9020723e-05 0.000189889
000240 8b 94 9c 39 74 fd 8e 37 3b 02 12 ba 6e b6 0c ba
       0.00029865312 1.7045742e-05 -0.00055697904 -0.00053677603
000250 a3 ec 82 ba ad e0 3a 39 41 cc 13 b9 73 d7 86 b9
       -0.0009988736 0.0001782204 -0.00014095103 -0.00025718994
000260 f1 05 f4 38 0b 2e 76 b9 47 0a 82 b9 37 12 9b b8
       0.00011635933 -0.0002347754 -0.0002480319 -7.394369e-05
000270 a2 57 3a 3a 39 de 0e 3a 23 34 b5 36 7d 7d 25 39
       0.0007108395 0.0005449984 5.40029e-06 0.00015782374
000280 3d 43 48 39 7e 64 ab b8 a9 9b 6b b9 7b 92 3b b8
       0.00019098535 -8.1726335e-05 -0.00022469334 -4.4720695e-05
000290 04 9a 51 39 f7 76 10 b8 df 5b 8c 39 78 97 8a 39
       0.00019989169 -3.444307e-05 0.0002677133 0.00026434264
0002a0 1c 58 e0 b9 32 30 42 39 19 40 7f 36 a6 2c 8f b7
       -0.00042790256 0.00018519236 3.803527e-06 -1.706772e-05
0002b0 40 79 8d 38 de 7c c1 b9 f7 a5 56 b9 f1 95 d9 38
       6.7459885e-05 -0.00036904862 -0.00020470457 0.00010375295
0002c0 ef d8 79 b7 af 6a 1a 38 42 54 75 b9 fd 18 ca 38
       -1.4892065e-05 3.6815818e-05 -0.00023396409 9.636765e-05
0002d0 6f cb 6d b8 22 29 53 b9 33 f3 8d b8 7d 84 3e b9
       -5.6694666e-05 -0.00020137851 -6.768703e-05 -0.00018169168
0002e0 01 5f 8d b9 d5 b6 87 b7 e5 95 45 b9 47 ac b2 b9
       -0.000269644 -1.6178392e-05 -0.00018843224 -0.00034079162
0002f0 bf 45 a1 b8 4a 62 22 b5 0b 22 17 b9 d6 52 f9 39
       -7.6900695e-05 -6.049273e-07 -0.00014413164 0.00047554699
000300 9d c0 32 3a 21 b5 65 38 d9 b5 75 38 24 d1 0f 3a
       0.0006818863 5.4766544e-05 5.858191e-05 0.00054861815
000310 ec c7 c6 b8 61 c1 a8 b9 e2 cf 68 b9 a2 0d a1 37
       -9.478614e-05 -0.00032187536 -0.00022202687 1.9199044e-05
000320 ef df 9a 39 25 dd 63 3a 00 4d 3c 39 a0 f6 61 b7
       0.00029540012 0.0008692316 0.00017957762 -1.3468467e-05
000330 53 2e ff b9 6c dc 45 38 ba 48 1b b8 1c f7 36 39
       -0.00048671904 4.7173744e-05 -3.702261e-05 0.00017448928
000340 31 2f e2 b9 57 98 fe b8 a8 35 13 3a a1 0c 35 b9
       -0.0004314124 -0.00012140039 0.00056156004 -0.0001726621
000350 22 ee 48 b8 5c 29 de 38 26 0b 89 b9 f7 86 f0 b9
       -4.7905494e-05 0.00010593489 -0.00026138983 -0.00045876924
000360 68 b3 41 b8 8f 00 3d b8 6e 88 7f 39 a5 29 8c b9
       -4.618187e-05 -4.506163e-05 0.00024369519 -0.00026733908
000370 59 51 6c 39 ed dd 15 37 91 ab 90 b9 64 a4 8e b8
       0.00022537018 8.932763e-06 -0.00027593647 -6.801708e-05
000380 f3 81 c2 b9 40 d8 38 39 e9 43 c3 b9 f7 02 03 b9
       -0.00037099383 0.00017628167 -0.00037243895 -0.00012494238
000390 cd 4e 50 38 fb 5e 4a 37 b0 15 ee b7 fe a6 d9 b7
       4.9664453e-05 1.2062253e-05 -2.838191e-05 -2.5946178e-05
0003a0 89 38 1a b9 4b 7e ab b7 16 e1 36 b9 51 46 9a b7
       -0.00014707645 -2.0443598e-05 -0.00017440724 -1.8390974e-05
0003b0 be f6 16 ba 04 34 94 b9 54 9e 3c 38 30 ad 8d b9
       -0.00057588133 -0.00028267514 4.4970147e-05 -0.0002702265
0003c0 0d 15 0c 39 ef cf 68 39 dc 3b da 38 84 f8 83 38
       0.00013359282 0.00022202705 0.000104062 6.2928564e-05
0003d0 d9 32 f8 38 3f e2 73 b9 28 1d 67 b9 43 f5 28 39
       0.00011835033 -0.00023258569 -0.00022040738 0.00016113096
0003e0 8c fa 5f b8 1a b0 61 39 82 a5 7c b7 28 e8 e7 b8
       -5.3400683e-05 0.00021523275 -1.5058906e-05 -0.00011058181
0003f0 eb ac 1c ba f4 a2 52 39 41 2c bb 38 7c 8b ae b8
       -0.00059766945 0.00020087865 8.925098e-05 -8.3229475e-05
