ldm_checkpoints/ldm_epoch_10.pth (torch, 798986 bytes, 12 tensors)

model.0.weight f4 [512, 64]
0	0xbdc8329c	-0.09775278
1	0x3d53feb5	0.05175658
2	0xbcb67654	-0.02227322
3	0x3d003eb7	0.03130981
4	0x3d89e8ec	0.067338794
5	0xbc488249	-0.012238094
6	0xbd9fb22b	-0.07797655
7	0x3d90fe94	0.07079807
8	0x3c7950b8	0.015216999
9	0x3b5ecbcf	0.003399599
10	0x3d998d09	0.074976034
11	0x3db1574f	0.08659231
12	0xbdc4719a	-0.0959198
13	0xbb9b6e84	-0.004743399
14	0xbcb3dc74	-0.021955706
15	0x3e015be4	0.1263271
16	0xbc281314	-0.010258455
17	0xbd8dd082	-0.06924535
18	0xbc7084c9	-0.014680096
19	0x3ccc3176	0.024925929
20	0x3d28e921	0.041237954
21	0x3ddcd848	0.1078344
22	0x3af4f324	0.0018688184
23	0x3dd35bbd	0.10320232
24	0xbd9d7190	-0.07687676
25	0x3deab5e2	0.11460473
26	0xbd52a98e	-0.05143123
27	0xbdf3f8fa	-0.11912723
28	0xbd1b2a55	-0.037882168
29	0xbd56846b	-0.052372377
30	0x3dcafe60	0.099117994
31	0x3d76ea37	0.06028196
32	0x3c0fd0e2	0.008777829
33	0xbdf11840	-0.117722034
34	0x3cb38624	0.02191455
35	0xbd787cc3	-0.060665857
36	0x3e067b07	0.13132869
37	0xbca3cddd	-0.019995624
38	0x3b5a6d07	0.0033329146
39	0x3dd537ed	0.104110576
40	0x3d7729ba	0.060342528
41	0x3db09b18	0.08623332
42	0xbdfc190b	-0.12309464
43	0xbda4b472	-0.0804223
44	0x3db9fc19	0.09081287
45	0x3d8c6e55	0.06856982
46	0x3c0e68fd	0.008692023
47	0x3d6a698e	0.05722957
48	0x3d180284	0.037111774
49	0xbd6d549f	-0.05794203
50	0x3dd4ea76	0.103962824
51	0xbd78c7b0	-0.06073731
52	0xbd26ab0d	-0.04069047
53	0x3d39b323	0.045336854
54	0xbdad7337	-0.08469241
55	0x3d8486f7	0.06471055
56	0x3dc50468	0.09619981
57	0x3d8e9fb6	0.06964056
58	0xbdacc6ed	-0.084363796
59	0x3deafbc2	0.114738
60	0x3df179e1	0.11790825
61	0x3e031062	0.12799218
62	0x3d6ecda0	0.058301568
63	0x3da2be2b	0.07946428
64	0x3d624a74	0.055246785
65	0x3dbe4fd7	0.09292572
66	0x3dc752f7	0.09732621
67	0x3ccebf40	0.02523768
68	0xbd40da73	-0.04708333
69	0x3d83cce8	0.06435567
70	0x3dd4d5a7	0.103923135
71	0x3e0c1d26	0.13682994
72	0xbdf20dce	-0.11819039
73	0xbd9b30d4	-0.075776726
74	0x3df6d520	0.12052369
75	0x3dcd0fb4	0.10012761
76	0xbe03a51f	-0.12855957
77	0xbdf4261e	-0.11921333
78	0xbd091fc6	-0.033477567
79	0x3dfe181e	0.12406944
80	0xbdcaebf5	-0.099082865
81	0xbd95c838	-0.07313579
82	0xbcbf13db	-0.023324898
83	0xbd30b765	-0.04314365
84	0x3e07e8ad	0.13272353
85	0x3cf1095f	0.029423414
86	0xbd939c9d	-0.07207606
87	0xbd9283e2	-0.07154061
88	0xbd165ff6	-0.03671261
89	0xbdc720e9	-0.09723074
90	0xbde08e5f	-0.10964655
91	0xbc28a76e	-0.010293825
92	0x3da2b951	0.079455025
93	0xbdff5513	-0.124673985
94	0x3da9b13d	0.08285759
95	0xbe04fdf8	-0.12987506
96	0x3d244994	0.040109232
97	0x3e01a118	0.12659109
98	0xbdcd2725	-0.10017232
99	0x3c52b106	0.0128595885
100	0xbde16e9e	-0.11007427
101	0x3d3297ee	0.043601923
102	0xbd968e3e	-0.07351349
103	0x3d7af736	0.061270915
104	0x3cfcd1a4	0.030861683
105	0xbd8a0b87	-0.0674048
106	0xbc807c87	-0.01568438
107	0xbe01555a	-0.12630215
108	0x3db0da0f	0.086353414
109	0xbe13efa5	-0.14446886
110	0xbd25467f	-0.040350433
111	0xbd0890ed	-0.033341337
112	0x3df10444	0.11768392
113	0x3d1cddca	0.038297452
114	0x3d238125	0.039918084
115	0xbd365006	-0.04450991
116	0xbdd35c0b	-0.1032029
117	0x3ce0d7a9	0.027446585
118	0xbd40439f	-0.04693949
119	0xbd307bdf	-0.043086883
120	0x3dca41b3	0.098758124
121	0xbda110d2	-0.07864536
122	0x3df9376e	0.121687755
123	0x3d92f0bd	0.071748234
124	0x3d2b401f	0.041809198
125	0x3c8e7e91	0.017394336
126	0xbdd7eb2d	-0.10542903
127	0x3dda7f34	0.10668793
128	0xbdee4337	-0.11633914
129	0xbdd52404	-0.1040726
130	0x3c0691ce	0.0082134735
131	0x3d95a547	0.07306915
132	0xbafc9061	-0.0019269102
133	0x3cd6695c	0.026173286
134	0x3de34489	0.110970564
135	0xbc455b7a	-0.0120457355
136	0x3c56eb04	0.0131175555
137	0x3d42b1af	0.047532734
138	0x3d880403	0.0664139
139	0xbcc2ce6b	-0.023780068
140	0xbdaffbe5	-0.08592967
141	0x3dd54986	0.10414414
142	0x3ad804be	0.0016480905
143	0x3d2a075b	0.04151092
144	0xbdea477c	-0.11439416
145	0xbd99a39f	-0.07501911
146	0x3da50c19	0.08058948
147	0xbe076af7	-0.13224398
148	0xbdbf520f	-0.09341823
149	0x3c4c9ee9	0.012489059
150	0xbd89510c	-0.067049116
151	0xbdef6035	-0.11688272
152	0x3c435347	0.01192171
153	0xbd6aa517	-0.05728635
154	0x3db46a6a	0.08809359
155	0x3daf7ec1	0.08569098
156	0xbd994115	-0.074831165
157	0x3d780f4a	0.060561456
158	0xbc5661a8	-0.0130848065
159	0x3da800b2	0.082032576
160	0xbda3a3eb	-0.07990249
161	0xbddb7860	-0.10716319
162	0x3cc72139	0.024307834
163	0x3a17e528	0.000579434
164	0xbdc14701	-0.09437371
165	0x3dcc7676	0.09983532
166	0x3d260a7d	0.040537346
167	0xbdbf316f	-0.093356006
168	0xbde1edbd	-0.11031673
169	0x3cf8e479	0.030382382
170	0x3de07a14	0.109607846
171	0xbd8678f0	-0.06566036
172	0x3d1e7686	0.03868725
173	0xbcdc98bc	-0.026928298
174	0x3d96e3cd	0.07367668
175	0xbcf8c5ff	-0.03036785
176	0x3da83d3d	0.08214805
177	0xbd33523c	-0.043779597
178	0x3ddf1567	0.10892754
179	0xbb27bba7	-0.0025594027
180	0xbd321227	-0.043474343
181	0xbcc4544b	-0.023965975
182	0x3d23b225	0.039964814
183	0x3d04c108	0.03241065
184	0x3c8adda2	0.016951386
185	0x3d232e97	0.039839353
186	0xbdd6e15e	-0.10492204
187	0x3c65ffe2	0.014038058
188	0x3d9ab8fb	0.075548135
189	0x3c84ed53	0.016226446
190	0xbd98ad5d	-0.074549414
191	0x3c56af1f	0.013103276
192	0xbd8754ed	-0.06607995
193	0xbd85fdff	-0.065425865
194	0xbd4e141e	-0.050312154
195	0x3c4833a6	0.012219345
196	0xbd715c69	-0.05892602
197	0x3c2465d0	0.01003404
198	0x3da0908e	0.078400716
199	0x3dfa438b	0.12219914
200	0x3d3bf60e	0.045888953
201	0xbe060797	-0.13088833
202	0x3c631c88	0.013861783
203	0x3ddffd93	0.10937037
204	0x3dde66c2	0.10859443
205	0xbdb0bb8a	-0.0862952
206	0x3d24907c	0.040176854
207	0xbdc3f88a	-0.095688894
208	0xbc9260fb	-0.01786851
209	0x3dafe67f	0.085888855
210	0xbdd0dc33	-0.1019825
211	0xbda3f6c2	-0.0800605
212	0x3e017a0d	0.12644215
213	0x3cf489a2	0.029850785
214	0xbc9cb6e0	-0.01913017
215	0x3d553bc2	0.052058943
216	0xbdb68727	-0.08912497
217	0x3d9ac77c	0.0755758
218	0xbd3cf0fd	-0.04612826
219	0x3dcabe79	0.09899611
220	0x3cf62bb7	0.030050142
221	0xbd88d0af	-0.06680428
222	0x3c3fe101	0.01171136
223	0x3c6072e3	0.013699266
224	0x3da9b648	0.082867205
225	0xbd6d2e05	-0.057905216
226	0x3c8d52b2	0.017251346
227	0x3abdff6a	0.0014495675
228	0xbdc3dc0b	-0.09563454
229	0xbc313c42	-0.010817589
230	0x3d9da3a3	0.07697227
231	0xbda4ca19	-0.080463596
232	0xbd59a77a	-0.053138234
233	0x3dea59bf	0.11442899
234	0x3df13a4f	0.117786996
235	0xbd0646d6	-0.0327824
236	0xbba2c0cb	-0.0049668304
237	0xbc964278	-0.018342242
238	0x3ddde4b5	0.10834638
239	0xbe026a58	-0.1273588
240	0xbded9e3c	-0.116024464
241	0xbd8c891b	-0.06862088
242	0xbc486995	-0.012232204
243	0x3d2dbab4	0.042414382
244	0xbd75ce35	-0.060011107
245	0xbdee649c	-0.116402835
246	0xbdb61753	-0.088911675
247	0x3cde381c	0.027126364
248	0xbd8fadca	-0.070155695
249	0xbddeffd0	-0.10888636
250	0x3d97b515	0.074075855
251	0x3c63b135	0.01389723
252	0xbd41c2e5	-0.047305007
253	0xbc6a40e0	-0.014297694
254	0xbdf12e65	-0.11776427
255	0xbca2e5b2	-0.019884918

model.0.bias f4 [512]
0	0x3dd1a54b	0.10236605
1	0xbd930424	-0.07178524
2	0x3d94e772	0.07270707
3	0xbdb480bf	-0.08813619
4	0xbc8eb416	-0.017419856
5	0x3c2702a3	0.0101935
6	0xbdd2dc52	-0.10295929
7	0x3d33d453	0.04390366
8	0x3dc62ebc	0.096768826
9	0xb8f01903	-0.000114487506
10	0xbc88743a	-0.016656984
11	0xbc5aed7b	-0.013362284
12	0xbdd3795b	-0.10325881
13	0xbca90727	-0.020633293
14	0x3d3339cb	0.043756288
15	0xbdbaa568	-0.0911358
16	0x3cc2abe3	0.023763603
17	0xbd577c18	-0.05260858
18	0x3cbdc05c	0.023163013
19	0xbdd3510e	-0.10318194
20	0xbce5a134	-0.02803097
21	0x3dfcae70	0.12337959
22	0xbdd0a4a8	-0.10187656
23	0xbd45ab5c	-0.048259124
24	0xbde68786	-0.11256318
25	0xbbf4232a	-0.007450481
26	0x3d9c3d40	0.0762887
27	0x3d5e0a32	0.05420894
28	0xbb5540c5	-0.0032539826
29	0xbd8961f1	-0.06708134
30	0xbdf3d2a3	-0.1190541
31	0xbc6d6d79	-0.014491432
32	0x3e02a89a	0.12759629
33	0xbd5ac776	-0.053412877
34	0xbd854788	-0.06507784
35	0x3c1f0f30	0.009708211
36	0xbddaffec	-0.106933445
37	0xbdc1c8b2	-0.09462108
38	0x3c4d1b44	0.012518708
39	0xbd10c41f	-0.035343286
40	0xbd735c9e	-0.0594145
41	0xbde986c3	-0.11402657
42	0x3d340a35	0.043955047
43	0x3d61700d	0.0550385
44	0x3d4a96b9	0.049460147
45	0xbd1d12f7	-0.038348164
46	0x3da7fe28	0.08202773
47	0xbd8ddefb	-0.06927296
48	0x3c613b0d	0.013746989
49	0x3d89abdd	0.067222334
50	0x3d49dbd6	0.049281918
51	0x3d82f303	0.06394007
52	0x3dafd6c5	0.08585886
53	0x3d8e25dd	0.069408156
54	0x3d14656e	0.036229543
55	0xbcac83ff	-0.021059034
56	0xbc90eb30	-0.017690271
57	0xbdf8f4b8	-0.121560514
58	0x3cf11adb	0.029431751
59	0x3dfc2115	0.123109974
60	0xb98fab4c	-0.00027402712
61	0x3c273021	0.010204346
62	0xba801b49	-0.0009773757
63	0xbc92a761	-0.017902078
64	0xbddf210e	-0.108949766
65	0x3ddc0095	0.107422985
66	0x3c837341	0.016046168
67	0x3cf913c3	0.030404931
68	0x3d2a32e4	0.04155244
69	0x3d1c6525	0.038182396
70	0xbdab9c87	-0.083794646
71	0xbdc4777a	-0.09593101
72	0x3dd966f9	0.106153436
73	0xbc9b6598	-0.018969342
74	0x3cba98b2	0.022777889
75	0xbd74b36e	-0.05974143
76	0xbc6abc11	-0.014327065
77	0xbd9b55e8	-0.07584745
78	0x3dc1cb37	0.09462588
79	0xbd74c551	-0.059758488
80	0x3d143f9a	0.036193468
81	0x3de4b234	0.11166802
82	0x3dcdd5ed	0.10050569
83	0x3dee2ab3	0.11629238
84	0x3d2e5aac	0.04256694
85	0x3dea42d0	0.11438525
86	0xbd923dd2	-0.071406975
87	0x3d91dbf1	0.071220286
88	0xbcd1a966	-0.02559347
89	0xbcd91105	-0.026497373
90	0x3daebf38	0.08532566
91	0x3de7b286	0.113133475
92	0x3d6af65b	0.05736385
93	0xbd7ae587	-0.06125405
94	0x3d9df385	0.07712463
95	0xbd86849e	-0.065682635
96	0xbd8ae9ac	-0.067828506
97	0xbafdcf3f	-0.0019364132
98	0x3ccd7fdb	0.02508538
99	0x3de8b1fc	0.11362073
100	0xbdae409f	-0.08508419
101	0x3c692f23	0.01423243
102	0x3d82167c	0.06351945
103	0xbb74b6a4	-0.0037340308
104	0xbdc81072	-0.09768762
105	0xbd9e60de	-0.0773332
106	0xbdab8b92	-0.0837623
107	0x3db1af24	0.086759835
108	0x3cb85157	0.022499723
109	0xbcd07cac	-0.025450073
110	0x3d89705b	0.06710883
111	0x3dc79d0a	0.0974675
112	0xbdddba82	-0.10826589
113	0xbdac58ac	-0.0841535
114	0xbaa2c926	-0.0012419566
115	0x3d43018d	0.0476089
116	0xbda73456	-0.08164279
117	0x3dcca29d	0.099919535
118	0x3d23d873	0.040001344
119	0x3d9599e9	0.07304747
120	0xbdbeb97f	-0.09312724
121	0x3db61729	0.08891136
122	0xbd5908f7	-0.052987065
123	0xbc617295	-0.013760229
124	0x3e004aca	0.1252853
125	0xbcc43364	-0.023950286
126	0xbc2e4027	-0.010635412
127	0x3d749bab	0.05971877
128	0xbcecd309	-0.028909223
129	0x3d0bccc5	0.03413083
130	0xbd0824fe	-0.033238403
131	0x3d4cdc1d	0.050014604
132	0x3cef6985	0.02922512
133	0xbd11ef49	-0.03562859
134	0x3cfaceea	0.030616242
135	0x3d98c74f	0.0745989
136	0x3b673398	0.0035278555
137	0x3d9a4748	0.07533127
138	0x3df8b3ff	0.121437065
139	0x3c89a168	0.016800597
140	0x3dbc0c37	0.09182017
141	0x3da0ad99	0.07845611
142	0x3dbc0b21	0.0918181
143	0xbcb3bb9f	-0.02194005
144	0x3c156e9e	0.0091206115
145	0xbdbf2c04	-0.09334567
146	0x3cec5ae6	0.028851938
147	0x3df6c03f	0.12048387
148	0xbdf52f00	-0.11971855
149	0x3dd273b9	0.102759786
150	0xbdaac490	-0.083382726
151	0xbdf3ccb2	-0.11904277
152	0xbdae8b0a	-0.08522613
153	0xbd84b954	-0.06480661
154	0x3db0519e	0.08609317
155	0xbddb6030	-0.10711706
156	0xbd733400	-0.059375763
157	0x3db8cc50	0.090233445
158	0xbca13bc0	-0.019681811
159	0x3d49382b	0.04912583
160	0xbd885745	-0.0665727
161	0xbd8f5868	-0.06999284
162	0xbcbf41a3	-0.023346728
163	0xbd9898bb	-0.07451006
164	0x3cfb0ec1	0.030646684
165	0x3b7c7354	0.003852089
166	0x3d864498	0.06556052
167	0x3c3dce80	0.011584878
168	0x3d4646e0	0.048407435
169	0x3dfb688e	0.122758016
170	0x3d378849	0.044807706
171	0xbcaa3a55	-0.020779768
172	0x3ccff880	0.025387049
173	0x3e0154c8	0.12629998
174	0xbb9fa317	-0.0048717367
175	0x3c203afa	0.009779686
176	0xbd0e9955	-0.034814198
177	0x3cd1e413	0.02562145
178	0x3dc83bcf	0.097770326
179	0x3de15d81	0.110041626
180	0x3d0d4fc8	0.034499913
181	0x3dcdf4db	0.10056468
182	0x3c9e1b84	0.01930023
183	0xbd69f260	-0.057115912
184	0x3cb86f67	0.022514058
185	0x3d55bc17	0.05218133
186	0xbda4cc4a	-0.080467775
187	0x3db21631	0.08695639
188	0x3d925871	0.07145775
189	0xbdb54715	-0.088514484
190	0x3d8b95d2	0.06815685
191	0x3d86adc0	0.06576109
192	0xbab13625	-0.0013520165
193	0x3d9433bc	0.0723643
194	0xbbc103d8	-0.005890351
195	0x3cd5a606	0.026080143
196	0xbd8e77be	-0.06956433
197	0x3da12137	0.07867663
198	0xbc32c333	-0.010910797
199	0xbd80d2c6	-0.06290202
200	0xbd2dea6f	-0.0424599
201	0x3d2b0ec8	0.041762143
202	0x3c348d63	0.011020037
203	0x3cb92597	0.022600932
204	0x3d880f3c	0.06643531
205	0x3dd409da	0.103534415
206	0x3d70feda	0.058836795
207	0x3d9595ec	0.07303986
208	0x3cd63173	0.026146626
209	0x3dc6caf1	0.09706677
210	0x3d6d3c29	0.0579187
211	0x3da89b95	0.082328
212	0xbd037f88	-0.032104045
213	0x3dc8207c	0.09771821
214	0xbdda1e0a	-0.10650261
215	0x3d862f76	0.06552021
216	0x3d861597	0.06547087
217	0x3bed7739	0.0072468785
218	0x3de2c3dd	0.11072514
219	0xbd036e44	-0.03208758
220	0xbbc7dd5e	-0.006099387
221	0x3d154bc3	0.036449205
222	0xbce456dc	-0.027873449
223	0xbd42f741	-0.04759908
224	0x3d2deb48	0.04246071
225	0x3dc9fdc1	0.09862853
226	0xbcf9f125	-0.030510494
227	0xbceb440b	-0.028718969
228	0xbcd2c9ab	-0.025730928
229	0x3d0eb21c	0.034837827
230	0x3df50975	0.119646944
231	0x3dfa3867	0.12217789
232	0xbcebcf03	-0.028785234
233	0x3cbce663	0.023059076
234	0xbb313369	-0.00270387
235	0xbdba5cc5	-0.09099726
236	0xbda0b8c1	-0.07847739
237	0xbc81eeb9	-0.015860902
238	0xbd9c5828	-0.07634002
239	0xbc8ec825	-0.01742942
240	0x3d4edfec	0.050506517
241	0xbda4cc6f	-0.08046805
242	0x3d603720	0.05474007
243	0x3c1456d7	0.009053907
244	0x3cf79c3a	0.030225862
245	0xbc97849c	-0.01849585
246	0xbd6fccc7	-0.0585449
247	0xbda1e2fe	-0.079046234
248	0x3d0a26c2	0.03372837
249	0x3d4de8ca	0.050270833
250	0xbdd52c12	-0.10408796
251	0xbdd06775	-0.10175983
252	0x3df3a47c	0.11896607
253	0x3cb23c43	0.02175725
254	0x3d1c7a60	0.038202643
255	0x3dbb0892	0.09132494

model.2.weight f4 [64, 512]
0	0xbc981971	-0.018566819
1	0x3a94f0b2	0.0011363237
2	0x3cbef1c2	0.023308638
3	0x3cc2dca4	0.02378685
4	0xb993f709	-0.0002822208
5	0x3d50d4e3	0.050984275
6	0x3c8e008b	0.017334243
7	0xbbc36e2d	-0.0059640617
8	0x3d2cf469	0.042225275
9	0x3d1969f3	0.037454557
10	0xbc948dc7	-0.018134011
11	0xba827216	-0.0009952213
12	0x3a7e6d5f	0.00097056286
13	0x3c39b6db	0.0113351
14	0xbc64e593	-0.01397075
15	0xbc59872f	-0.013276859
16	0xbd0dcacf	-0.03461724
17	0x3bcd8710	0.006272204
18	0x3d0565f8	0.032567948
19	0xbcf43b33	-0.029813385
20	0xbc1214b9	-0.0089160735
21	0xbcefe7f3	-0.029285407
22	0xbd4d4cbe	-0.050122015
23	0x3a3c7a84	0.0007189887
24	0x3cce5e7c	0.025191538
25	0xbd02bd87	-0.03191903
26	0x3a829ad5	0.0009964356
27	0xbbe30bef	-0.006928913
28	0x3c129deb	0.008948783
29	0x3c17f7fa	0.009275431
30	0x3b056e49	0.0020359925
31	0x3d10b544	0.03532912
32	0x3d276149	0.040864263
33	0x3c50526a	0.012714962
34	0x3bb5a7c2	0.00554368
35	0xbd0c7270	-0.034288824
36	0x3cef36a0	0.029200852
37	0xbc901ceb	-0.017591914
38	0xbd0e473c	-0.034735903
39	0xbbb019dd	-0.005374177
40	0x3d01d698	0.031698793
41	0x3cf449e0	0.029820383
42	0x3a446daa	0.0007493148
43	0x3d0b2d95	0.033979017
44	0x3d5c6715	0.053809244
45	0x3ce48066	0.027893256
46	0xba8a9196	-0.0010571952
47	0xbcc4d429	-0.024026947
48	0xba8b8433	-0.0010644257
49	0xbd3fad8a	-0.04679636
50	0xbba98efc	-0.005174516
51	0xbc51457e	-0.012772916
52	0xbcd31c15	-0.025770226
53	0xbcd702cf	-0.026246456
54	0xbc8c5b22	-0.0171333
55	0xbd059a31	-0.03261775
56	0xbbf3e21f	-0.007442727
57	0xbc7e2fdc	-0.01551434
58	0x3cb56096	0.022140782
59	0x3d134cc5	0.035961885
60	0x3d34dc2a	0.044155277
61	0x3cfb01f1	0.030640574
62	0xbd0a4ca1	-0.033764485
63	0x3b82f728	0.0039967485
64	0xbc528a3b	-0.0128503395
65	0xbbfd24f3	-0.007725352
66	0xbd10c9f4	-0.035348848
67	0x3b7bbb4a	0.0038411194
68	0x3cc38ed3	0.023871815
69	0xbcd4fcfb	-0.025999537
70	0x3c583a38	0.013197474
71	0x3cda2910	0.026630908
72	0x3a5bece7	0.0008389488
73	0xbd611bdf	-0.05495822
74	0x3cb90dfd	0.022589678
75	0xba547408	-0.0008104448
76	0xbd0a4af8	-0.033762902
77	0x3c7b7380	0.015347362
78	0x3c601aa2	0.013678225
79	0xbd1c09c6	-0.03809526
80	0x3a0b1f8e	0.0005307131
81	0x3cddec25	0.027090142
82	0xbc73e0df	-0.014885156
83	0xbd0f57b3	-0.034995746
84	0x3c0a2c1c	0.008433368
85	0x3d2951c0	0.04133773
86	0x3cb8d4fb	0.022562495
87	0x3cd0d513	0.025492227
88	0xbcd33e21	-0.025786461
89	0xb8da36a5	-0.000104052284
90	0x3d118f51	0.035537068
91	0x3c8626db	0.01637595
92	0xbb19c611	-0.0023464004
93	0x3d352620	0.044225812
94	0x3d051d64	0.032498732
95	0xbce910f7	-0.028450472
96	0x39306728	0.00016823097
97	0xbbb32291	-0.005466767
98	0x3c21a3c4	0.009865705
99	0x3ca69cac	0.020338379
100	0xbcaf7185	-0.021416435
101	0x3ca50e1f	0.020148335
102	0xbd00a751	-0.031409565
103	0x3d156117	0.036469545
104	0xbc40b700	-0.011762381
105	0x3cb5f402	0.022211079
106	0xbd0fdc24	-0.03512205
107	0xbd0477d3	-0.032340836
108	0x3c9358db	0.017986706
109	0xbc5e6a24	-0.013575111
110	0xbc85a5cc	-0.01631441
111	0x3cb800d7	0.022461338
112	0xbc8c63da	-0.017137457
113	0x3d28993a	0.041161753
114	0xbc933867	-0.01797123
115	0x3d20fbb0	0.039302528
116	0x3b99ed48	0.0046974756
117	0xbcc08d7e	-0.023504969
118	0x3c588d9b	0.013217355
119	0x3ca6f4ad	0.020380342
120	0xbc99da1f	-0.018780766
121	0xbcad0a18	-0.021122977
122	0x3d0e1c68	0.03469506
123	0x3d07cb07	0.033152606
124	0xbce527d1	-0.027973088
125	0x3cf84aaf	0.03030905
126	0x3cc7d71d	0.024394566
127	0xbbfa4e12	-0.0076387012
128	0x3c1a1c3d	0.009406147
129	0x3b3f75ef	0.002921458
130	0x3c7332a0	0.014843613
131	0xbd39422d	-0.045229126
132	0xbc0c9ac3	-0.00858182
133	0xbc98716a	-0.018608768
134	0x3d1b5ddb	0.037931304
135	0x3ce222e5	0.02760453
136	0x3cf19c17	0.029493375
137	0x3c7373ac	0.014859121
138	0x3cee31d2	0.02907649
139	0xbc546bc8	-0.01296515
140	0x3b99c9eb	0.00469326
141	0x3d0e23f1	0.034702245
142	0xbca34851	-0.019931944
143	0xbc008ddf	-0.007846325
144	0xbb8d0139	-0.0043031243
145	0xbca4797e	-0.020077463
146	0x3d1f877b	0.038947564
147	0x3beb8bc3	0.0071882918
148	0xbc1e61f5	-0.009666909
149	0xbc76a447	-0.015053815
150	0x3c965387	0.018350376
151	0x38ae0267	8.297414e-05
152	0x3c42b226	0.011883294
153	0x3bb1de24	0.0054280926
154	0x3c9c1c0b	0.01905634
155	0xbcf1ac59	-0.029501127
156	0xbba3d0a6	-0.004999238
157	0xbcbc98d9	-0.023022102
158	0xbc5ad0e6	-0.013355469
159	0x3c67d5a7	0.01415006
160	0xbccccbc9	-0.024999516
161	0x3cd21374	0.025644042
162	0xbc088053	-0.008331376
163	0xbd18d30b	-0.03731064
164	0x3aa4103e	0.0012517048
165	0x3c158ae0	0.009127349
166	0xbc5fdfc2	-0.013664188
167	0x3c18dbb5	0.009329726
168	0x3d1233bd	0.035693873
169	0xbb98ace7	-0.0046592834
170	0xbc3f0d41	-0.011660875
171	0xbd016713	-0.03159244
172	0x3cae5b26	0.021283697
173	0x3d18589a	0.037193872
174	0x3bc2f537	0.005949642
175	0xbd16069e	-0.036627404
176	0xba335545	-0.0006841014
177	0x3c2c6750	0.0105226785
178	0x3d138983	0.036019813
179	0xbc0f931e	-0.008763103
180	0xbd2a0a15	-0.04151352
181	0xba1ffc79	-0.000610299
182	0xbcb96497	-0.022630973
183	0x3d254251	0.040346447
184	0xba4e1acc	-0.00078622694
185	0xbcc78b28	-0.024358347
186	0xbd0e6fa7	-0.03477445
187	0xbc85eb3d	-0.016347522
188	0x3caf6b98	0.02141361
189	0x3d0ca9a9	0.034341488
190	0xbd115795	-0.035483915
191	0xbcddd717	-0.027080102
192	0xbbf10d40	-0.007356316
193	0xbc011445	-0.007878368
194	0xbd08b0b6	-0.03337165
195	0xbd1e6fa7	-0.0386807
196	0xbb924224	-0.004463451
197	0x3cf97f82	0.030456308
198	0xbb510280	-0.003189236
199	0x3d1aab6b	0.037761133
200	0x3d10fb4d	0.03539591
201	0xbbf46139	-0.007457879
202	0x3cef629a	0.029221822
203	0x3cd21959	0.025646852
204	0x3bda9fa4	0.0066718627
205	0x3cd4a876	0.025959235
206	0xbc891851	-0.016735228
207	0xbd0df3ed	-0.034656454
208	0x379b2a39	1.8497101e-05
209	0x3d317678	0.04332587
210	0xbca9b1b1	-0.020714613
211	0x3c90adae	0.017660942
212	0xbc1f97a8	-0.0097407475
213	0x3c2658f9	0.010153049
214	0xbcf2665d	-0.029589826
215	0xbd53dfac	-0.051726982
216	0xbd5211ca	-0.051286496
217	0x3bc53594	0.00601835
218	0x3cb5aa08	0.022175804
219	0xbd2128c6	-0.039345525
220	0xbc1a61d9	-0.009422743
221	0x3d0c5d89	0.03426889
222	0x3ccc22cf	0.024918942
223	0x39eda8d7	0.00045329958
224	0x3cdcf2ae	0.026971187
225	0x3c804a38	0.01566039
226	0x3aa079fd	0.0012243387
227	0xbc1ee637	-0.009698442
228	0x37c103a4	2.3009088e-05
229	0xbc00ddaf	-0.0078653535
230	0x3d215ab3	0.03939314
231	0xbca280f4	-0.01983688
232	0xbd3c8c85	-0.046032447
233	0xbd172b50	-0.03690654
234	0xbd1c873e	-0.038214915
235	0x3c22ab9b	0.009928609
236	0x3cecf115	0.02892355
237	0x3cae7aaf	0.021298734
238	0xbcd4edba	-0.025992263
239	0xbd1f865a	-0.038946487
240	0xbd0b25ec	-0.033971712
241	0x3cefdc3e	0.029279824
242	0xbc3842d5	-0.011246403
243	0x3d21f0f1	0.03953642
244	0x3cf7ea05	0.030262956
245	0x3cd5b974	0.026089408
246	0xbc02b08e	-0.007976664
247	0x3c1c1b32	0.009527968
248	0xbccfd07c	-0.025367968
249	0x3cd4565a	0.025920082
250	0x3d44960f	0.04799467
251	0xbca07d5a	-0.019591022
252	0xbd1f01b4	-0.038819984
253	0xbd641511	-0.055684153
254	0xbbfb80ba	-0.0076752575
255	0xbc1d71a0	-0.00960961

model.2.bias f4 [64]
0	0x3b9bb542	0.004751832
1	0x3cc330ab	0.023826918
2	0x3c4da25a	0.012550915
3	0xbcb7a5a9	-0.02241786
4	0x3c2f68e8	0.010706164
5	0xbc45a19d	-0.012062457
6	0x3c3de2a2	0.011589678
7	0xbb8d0554	-0.0043036137
8	0x3cd8b17a	0.026451815
9	0x3d220681	0.039556984
10	0xbd3b1110	-0.04567057
11	0xba4aac05	-0.00077313214
12	0x3d1d1e39	0.0383589
13	0x3c7f0220	0.0155644715
14	0x3b55b646	0.0032609864
15	0x3d048be7	0.032359984
16	0x3ad243b5	0.0016041907
17	0x3cc24dd9	0.023718761
18	0x3cd33d30	0.025786012
19	0x3c8afceb	0.016966304
20	0xbb21aab0	-0.0024668388
21	0xbce36898	-0.027759835
22	0x3c63027c	0.013855573
23	0xbcf94c3c	-0.03043186
24	0x3bafb05a	0.005361599
25	0x3ca6dec4	0.020369895
26	0xbcfea593	-0.031084811
27	0x3b5df045	0.0033865136
28	0xbc3c4ceb	-0.011492948
29	0x3d202e01	0.039106373
30	0xbce562ab	-0.02800115
31	0x3c0b5345	0.00850374
32	0x3cefe68c	0.029284738
33	0x3c9bdc05	0.019025812
34	0x3c2fcc75	0.010729899
35	0xbc1e9859	-0.009679877
36	0x3ce0e706	0.02745391
37	0xbd201b07	-0.039088275
38	0x3b376f74	0.0027990015
39	0x3cfb6ca4	0.030691452
40	0xbcfc2595	-0.03077964
41	0x3b4b64e4	0.0031035477
42	0xbd0c84a7	-0.034306195
43	0xbca9ee92	-0.020743642
44	0xbaa78bcc	-0.0012782752
45	0xbcee4fab	-0.029090723
46	0x3c1c87a9	0.009553828
47	0x3d047a9f	0.032343503
48	0x3cf47e2c	0.02984532
49	0xbc9cc56b	-0.019137105
50	0x3d14f111	0.03636271
51	0x3b695549	0.0035603812
52	0x3d3ebe20	0.046568036
53	0xbc523733	-0.012830543
54	0x3c4bfc98	0.01245036
55	0xbba95026	-0.005167025
56	0x3c39879d	0.011323837
57	0x3c46ef8f	0.012142076
58	0xbc8d372e	-0.017238226
59	0xbcff769c	-0.031184487
60	0xbc6d8e5b	-0.014499272
61	0xbcdedeed	-0.027205909
62	0xbd06989f	-0.032860395
63	0x3ca8d77b	0.020610562

exp_avg f4 [512, 64]
0	0x3a59f0a6	0.00083137525
1	0xbac50092	-0.0015030077
2	0x3a4ae573	0.0007739879
3	0x3a53c396	0.0008078156
4	0xb9bb6cd7	-0.0003574851
5	0x3a0aac4b	0.0005289956
6	0xb7feb67e	-3.036414e-05
7	0x39389b82	0.00017605539
8	0xb9326922	-0.00017014568
9	0x39804ec0	0.00024472736
10	0x3a5a9da7	0.0008339532
11	0xbadd80ba	-0.0016899325
12	0x3b172e02	0.0023068194
13	0x3a10a728	0.0005518072
14	0xba14b066	-0.00056720374
15	0xb9bc2a7f	-0.00035889816
16	0xba51a510	-0.00079973135
17	0xbb16d04f	-0.0023012345
18	0xbb2be7b2	-0.002623063
19	0x3aa3e38c	0.0012503727
20	0xb9776c31	-0.0002359606
21	0xba56e729	-0.00081978977
22	0x39914a6b	0.00027712
23	0xb9a3e0e6	-0.00031257345
24	0xb9c2576b	-0.00037067695
25	0x39988f3c	0.00029098417
26	0xb9d90bfd	-0.00041398397
27	0x3af1bacc	0.0018442511
28	0xb898e1ec	-7.290006e-05
29	0x3ae3631b	0.0017348261
30	0x3a01a1ce	0.000494507
31	0xb9ac50d7	-0.00032866627
32	0xbac9e9fa	-0.0015404813
33	0x3a825138	0.0009942418
34	0x39be81c6	0.00036336313
35	0x3a6baf63	0.0008990673
36	0xba30d964	-0.0006746261
37	0x3aa06d4b	0.0012239603
38	0x39512aac	0.0001994769
39	0xb95b8e2b	-0.00020938429
40	0xba567d94	-0.0008182165
41	0xb8bfa360	-9.138021e-05
42	0x39d2b20d	0.0004018698
43	0x3ae93059	0.0017790898
44	0xba6806e2	-0.0008851123
45	0xb9e41889	-0.0004350583
46	0xb901cd84	-0.00012378959
47	0x38a38b91	7.798442e-05
48	0xba4aef0d	-0.000774131
49	0x39a67f7d	0.00031756973
50	0x3a0ca739	0.0005365494
51	0xbad75f22	-0.001643155
52	0x3a9d8d5f	0.0012020281
53	0x38858489	6.366621e-05
54	0x3a99c1bc	0.0011730711
55	0x3a807f1c	0.0009803507
56	0x3a74b3c8	0.0009334651
57	0xb99641ba	-0.000286592
58	0xba8b74f4	-0.0010639713
59	0xb900f0fb	-0.00012296803
60	0xbadbdbd6	-0.001677389
61	0xba0c3b5d	-0.0005349422
62	0xb9bba9a2	-0.00035793806
63	0x39bb544f	0.00035730234
64	0xba27accf	-0.0006396295
65	0x38ec9293	0.000112806585
66	0x38ec6bcd	0.000112734364
67	0x3912df5b	0.00014006851
68	0x3967729a	0.00022072569
69	0xba19e5b5	-0.0005870716
70	0xba18e002	-0.00058317196
71	0xb985ce38	-0.00025521382
72	0x394f1d25	0.00019751916
73	0x39aa9a79	0.00032540018
74	0x3a24a979	0.0006281357
75	0xb9199a87	-0.00014648783
76	0x3a98fdae	0.0011672282
77	0xb8db1225	-0.000104461134
78	0xb85049e0	-4.9659866e-05
79	0xb8d1fcce	-0.00010012985
80	0x39d6a046	0.00040936674
81	0x3a47d0df	0.0007622372
82	0xb893e53d	-7.052205e-05
83	0x38a52889	7.8753634e-05
84	0xba760dd7	-0.00093862176
85	0xb9bd82a3	-0.0003614622
86	0x38960c56	7.154855e-05
87	0x3a168c4e	0.0005742953
88	0x39e443b3	0.0004353799
89	0x3553189b	7.863943e-07
90	0xb7bf52c1	-2.280751e-05
91	0xb73fa001	-1.1421741e-05
92	0xb986b8c4	-0.00025696133
93	0x397a4663	0.00023868079
94	0xb9e9870e	-0.00044541847
95	0xb8eccdad	-0.00011291667
96	0x389195b6	6.9420246e-05
97	0xba377bad	-0.0006999325
98	0x3a7d6305	0.0009665939
99	0x378ee5d0	1.7034734e-05
100	0xb8d38b11	-0.00010087167
101	0x378988d2	1.6395385e-05
102	0xb7a540ef	-1.969977e-05
103	0xb9a8f6e7	-0.00032227414
104	0xba0a8b33	-0.00052850245
105	0x3928d174	0.00016099756
106	0x3909b4d7	0.00013132706
107	0x3999919d	0.00029290924
108	0xb93aaa52	-0.00017801792
109	0x3a9b7c5d	0.0011862625
110	0xb9e5bec4	-0.00043820415
111	0xb98c1760	-0.00026720297
112	0xba667844	-0.00087917247
113	0x35828d54	9.726887e-07
114	0x3993ce87	0.000281919
115	0xba132275	-0.00056127395
116	0x3794fb18	1.77599e-05
117	0xba212d39	-0.00061484013
118	0xb9094692	-0.00013091628
119	0x3aa094f6	0.0012251425
120	0x3973be9b	0.00023245292
121	0xba4c7856	-0.0007799914
122	0xba66d687	-0.0008805771
123	0x394afd7f	0.00019358656
124	0xb890fa69	-6.9130976e-05
125	0xb8b0d7e0	-8.432544e-05
126	0x39f59159	0.00046838334
127	0xb8b24f3c	-8.50246e-05
128	0xba0c7817	-0.0005358471
129	0xb9aa01f4	-0.00032426382
130	0x3ab884e7	0.0014077694
131	0x39da597a	0.00041646865
132	0xbb0588c3	-0.0020375706
133	0xba6c6c47	-0.000901882
134	0x396c70d1	0.00022548741
135	0x39f10ee4	0.00045978196
136	0xbacac8ce	-0.0015471221
137	0xb912bcd2	-0.00013993986
138	0xb9d867c1	-0.00041276033
139	0xb95db827	-0.00021144804
140	0xba71c120	-0.0009222198
141	0xbabd91d1	-0.0014463012
142	0xba98fefc	-0.0011672671
143	0xb91bc9b5	-0.00014857094
144	0x3a8a6c73	0.0010560885
145	0xba89529f	-0.0010476894
146	0xba804250	-0.0009785388
147	0x3a933ab7	0.0011232708
148	0xba7deb94	-0.0009686288
149	0x3ab5dcbf	0.0013874992
150	0x3aa83edc	0.0012836116
151	0x39514a72	0.00019959526
152	0x3a1d38e2	0.0005997551
153	0xb9aab9b1	-0.00032563278
154	0x3a4e2f27	0.00078653026
155	0x3a5218e9	0.0008014576
156	0x3a97e4ad	0.0011588536
157	0x39d0f49e	0.00039855106
158	0xb90f7a43	-0.00013683089
159	0xb982961f	-0.0002490738
160	0xbaf6a877	-0.0018818517
161	0xbace0c88	-0.0015720287
162	0x3aab6b9c	0.0013078335
163	0x3a6e88d7	0.000909937
164	0xb72c94dd	-1.0286659e-05
165	0x39dc3334	0.0004199982
166	0xb92fe85f	-0.00016775866
167	0x39ec534b	0.00045075486
168	0x3aa34c68	0.0012458684
169	0xbaaa91df	-0.0013013444
170	0xba87587f	-0.0010326057
171	0x39d604a7	0.00040820727
172	0xbafa99a0	-0.001911927
173	0x3ab74e69	0.001398516
174	0xb9288bb3	-0.0001607377
175	0xba4593ba	-0.00075369666
176	0xb935e5c6	-0.00017347102
177	0xba11b9e6	-0.0005559012
178	0x39e06692	0.0004280103
179	0xbaaf991f	-0.0013397074
180	0xbaa6f575	-0.0012737947
181	0xbb0c03ec	-0.0021364642
182	0xbaa3cd6e	-0.0012497136
183	0x3a00d09d	0.00049138983
184	0x3a62648e	0.00086361996
185	0xbad09a21	-0.0015915075
186	0xbad81eb8	-0.0016488647
187	0x3ae27d7c	0.0017279829
188	0x39f28f55	0.00046264628
189	0x3abe6e01	0.0014528633
190	0x3aacf2ec	0.0013194955
191	0xb6db0c89	-6.528168e-06
192	0x39b2d619	0.0003411032
193	0x3a26544a	0.00063449575
194	0xba16c122	-0.0005750825
195	0xb8e32c81	-0.00010832493
196	0xb97b39ad	-0.00023958711
197	0x3a3412fa	0.0006869283
198	0x38e61ae8	0.00010972266
199	0xb929bd2b	-0.00016187567
200	0x3a401982	0.000732802
201	0x3a03ed9d	0.00050326606
202	0xba87c2d5	-0.0010357747
203	0xb8c69711	-9.469514e-05
204	0xba73696f	-0.0009285425
205	0x3a34671d	0.000688182
206	0x385450d1	5.0620005e-05
207	0x3a4b8315	0.0007763368
208	0x3a878c48	0.001034149
209	0xb8e38489	-0.0001084889
210	0xb6a29557	-4.8453617e-06
211	0x39b961f5	0.00035358933
212	0x39b5e8d7	0.0003469649
213	0xb9b8e82f	-0.00035268205
214	0xba0e9bab	-0.00054400665
215	0xb9afd876	-0.00033539877
216	0x3a7cf07f	0.0009648874
217	0x3a0954e5	0.00052387855
218	0xb9fbbfca	-0.00048017345
219	0x392e96b7	0.00016650079
220	0x3a4a8be9	0.0007726537
221	0x3a04b3be	0.0005062184
222	0xb4f49d11	-4.5562822e-07
223	0xba08cc9b	-0.0005218477
224	0x3aca2f60	0.0015425496
225	0x3a0bbf9e	0.00053309824
226	0xb9396fb8	-0.00017684593
227	0xba8aac94	-0.0010579997
228	0x3a21b62e	0.00061688095
229	0x3a02f0a3	0.0004994964
230	0xba84cf26	-0.0010132536
231	0xba11c738	-0.0005560997
232	0xb968968d	-0.00022181329
233	0xb96b6d5f	-0.0002245209
234	0x3a8f973b	0.0010955104
235	0xba8f01f9	-0.0010910622
236	0xb96b14ed	-0.00022419142
237	0x38bf7e00	9.131059e-05
238	0xba2a499c	-0.0006495954
239	0x3a664fe2	0.0008785707
240	0xb8e9e6fc	-0.0001115333
241	0x396abe42	0.00022386856
242	0x3903d371	0.00012571902
243	0xba0c1f29	-0.00053452194
244	0xb945e9b1	-0.00018874441
245	0x39857e82	0.00025461992
246	0xb94f102e	-0.00019747086
247	0xba489ac6	-0.00076524576
248	0x389e5e06	7.55154e-05
249	0xb96d55c0	-0.00022634026
250	0x3a4e7f1b	0.00078772166
251	0xb9fc7ab7	-0.00048156615
252	0x39adc519	0.0003314398
253	0xb9a4b814	-0.00031417666
254	0x3a4f1a0e	0.0007900306
255	0x3a0850b7	0.0005200016

exp_avg_sq f4 [512, 64]
0	0x36c54712	5.879331e-06
1	0x36f72dbf	7.366499e-06
2	0x373e8822	1.1356578e-05
3	0x36c4cd36	5.865145e-06
4	0x375c6439	1.3136357e-05
5	0x37251652	9.839963e-06
6	0x371e3eb6	9.432135e-06
7	0x370c5aa7	8.365757e-06
8	0x36a752ac	4.986612e-06
9	0x37911d7d	1.7299079e-05
10	0x373e3d62	1.1339174e-05
11	0x37687877	1.38563255e-05
12	0x37a56f13	1.9721256e-05
13	0x36c7df45	5.956654e-06
14	0x3787c206	1.6183603e-05
15	0x372675b6	9.921778e-06
16	0x373136ef	1.0562812e-05
17	0x3755b626	1.2738199e-05
18	0x37b46463	2.1504418e-05
19	0x379d8552	1.877794e-05
20	0x373b4667	1.116246e-05
21	0x370c40b7	8.359718e-06
22	0x36eb3405	7.0096016e-06
23	0x37410056	1.1503775e-05
24	0x369abc47	4.611476e-06
25	0x36e4a84d	6.8145223e-06
26	0x36e03472	6.6818257e-06
27	0x370fa962	8.562902e-06
28	0x3752a571	1.2555495e-05
29	0x370e2405	8.472246e-06
30	0x37395817	1.1047369e-05
31	0x36c27ad7	5.795951e-06
32	0x374cfd73	1.2218358e-05
33	0x3688e005	4.079195e-06
34	0x3726022a	9.894875e-06
35	0x3749ae74	1.2021152e-05
36	0x36e2fc35	6.7646856e-06
37	0x36f57556	7.3152287e-06
38	0x370a2759	8.234602e-06
39	0x374fa834	1.2377324e-05
40	0x3714203e	8.828994e-06
41	0x36cb8315	6.0651314e-06
42	0x3728b3b7	1.0055423e-05
43	0x3730f979	1.0548502e-05
44	0x37114310	8.658288e-06
45	0x3710619c	8.605795e-06
46	0x36ef79f8	7.136954e-06
47	0x376860e3	1.3850836e-05
48	0x3739000f	1.1026873e-05
49	0x3722a941	9.69536e-06
50	0x36c0ad8b	5.742249e-06
51	0x37125693	8.722435e-06
52	0x37184e62	9.078156e-06
53	0x36ebf855	7.0324554e-06
54	0x371aa803	9.218234e-06
55	0x370bc701	8.33138e-06
56	0x375bb79f	1.309617e-05
57	0x3740f6a0	1.1501514e-05
58	0x370f5d02	8.545119e-06
59	0x371b8a6f	9.2709515e-06
60	0x3758ebfc	1.2929548e-05
61	0x36a377ab	4.8717097e-06
62	0x3715d8b7	8.93155e-06
63	0x371d49d1	9.375116e-06
64	0x36f67d6b	7.345972e-06
65	0x36767d17	3.6729668e-06
66	0x3770dc75	1.4356444e-05
67	0x36c5c48c	5.8939386e-06
68	0x375fc1cd	1.3336959e-05
69	0x365ded74	3.3069782e-06
70	0x36c3dc42	5.8370942e-06
71	0x37120629	8.703712e-06
72	0x36f0d49c	7.1773084e-06
73	0x36efb017	7.1432546e-06
74	0x368831db	4.05892e-06
75	0x37085fe5	8.128559e-06
76	0x37c30a33	2.325056e-05
77	0x369c6b24	4.661635e-06
78	0x36ec3d4c	7.040484e-06
79	0x3715514c	8.9000205e-06
80	0x3703219f	7.8160365e-06
81	0x3780b6da	1.5343936e-05
82	0x36c8860a	5.9760687e-06
83	0x3744bb7b	1.1726162e-05
84	0x3763294b	1.3539869e-05
85	0x3786afee	1.6055968e-05
86	0x378e8c86	1.6993155e-05
87	0x36ef0b73	7.124088e-06
88	0x369f5d73	4.749448e-06
89	0x36a1a2da	4.8171323e-06
90	0x36a59b29	4.935446e-06
91	0x36f4ee3b	7.2995003e-06
92	0x368dc7d9	4.225393e-06
93	0x37136bf1	8.787015e-06
94	0x370a1fa4	8.232808e-06
95	0x36791548	3.7116279e-06
96	0x3724a178	9.812757e-06
97	0x36bbf342	5.601353e-06
98	0x36e2d64d	6.7602728e-06
99	0x37267110	9.920695e-06
100	0x36afd3d6	5.2400674e-06
101	0x36cad2fc	6.044631e-06
102	0x3764afa9	1.3630758e-05
103	0x36458b32	2.943631e-06
104	0x36f871e0	7.4042327e-06
105	0x37020a4c	7.751001e-06
106	0x37564b6b	1.2772954e-05
107	0x36eeb152	7.1135955e-06
108	0x36f5a7f5	7.3211218e-06
109	0x36d7f721	6.436269e-06
110	0x371b94d7	9.273374e-06
111	0x368bfc31	4.1718818e-06
112	0x37831d4d	1.5630061e-05
113	0x36a666f1	4.9591695e-06
114	0x36acfb46	5.1552515e-06
115	0x36f2aeae	7.2324974e-06
116	0x3723589e	9.73619e-06
117	0x3713aee7	8.802605e-06
118	0x3606dc8c	2.0095931e-06
119	0x36e6f1bf	6.882677e-06
120	0x3698f707	4.5587108e-06
121	0x364943e0	2.9990842e-06
122	0x3727ee44	1.0009451e-05
123	0x36df8347	6.6612006e-06
124	0x36cbd540	6.074697e-06
125	0x37203e87	9.551301e-06
126	0x36d1faaa	6.2578665e-06
127	0x369d7016	4.692013e-06
128	0x364a1aac	3.011587e-06
129	0x36a9b3a4	5.0575054e-06
130	0x3695bfff	4.4628973e-06
131	0x3660824b	3.3454442e-06
132	0x36d3da20	6.313683e-06
133	0x36e0ce80	6.69976e-06
134	0x3683a4ed	3.923304e-06
135	0x3632d058	2.664534e-06
136	0x36a58bb6	4.9336477e-06
137	0x36f5766f	7.3153565e-06
138	0x36c01c9d	5.725377e-06
139	0x368847a0	4.061454e-06
140	0x36d20a26	6.259669e-06
141	0x36b83259	5.4894886e-06
142	0x363d3af4	2.819751e-06
143	0x368252a0	3.8839207e-06
144	0x368bd1e0	4.1669555e-06
145	0x369b7601	4.6330974e-06
146	0x371b0ce6	9.241723e-06
147	0x36c43c9f	5.8483124e-06
148	0x360d4a7a	2.1053988e-06
149	0x369b4945	4.6278897e-06
150	0x36aa1c89	5.0697167e-06
151	0x3695929a	4.4576127e-06
152	0x36811453	3.8468656e-06
153	0x365f4a01	3.3272665e-06
154	0x36a2f9b2	4.8570446e-06
155	0x368436af	3.9402726e-06
156	0x36b97744	5.527314e-06
157	0x36791acc	3.711949e-06
158	0x3679d076	3.7225232e-06
159	0x3692a8d6	4.370794e-06
160	0x36ee6673	7.1048794e-06
161	0x36bbf509	5.60156e-06
162	0x36c8b47a	5.9814747e-06
163	0x36f005fb	7.1532536e-06
164	0x364f4e77	3.0891076e-06
165	0x36a299b4	4.8458696e-06
166	0x36845c56	3.944656e-06
167	0x36811f77	3.8481626e-06
168	0x3695d005	4.4647627e-06
169	0x36408248	2.8686063e-06
170	0x36b41f19	5.3680383e-06
171	0x36d442b9	6.32586e-06
172	0x36ae227b	5.189618e-06
173	0x36a147cb	4.8065317e-06
174	0x369b0306	4.619712e-06
175	0x36b57509	5.407845e-06
176	0x36950cc6	4.442033e-06
177	0x36821538	3.876772e-06
178	0x3658064e	3.2190178e-06
179	0x36b322d9	5.3386725e-06
180	0x36cf933e	6.186222e-06
181	0x3694974c	4.428357e-06
182	0x369851fe	4.539498e-06
183	0x37028835	7.780317e-06
184	0x36d00f7b	6.200685e-06
185	0x36b2d39d	5.3294484e-06
186	0x367c97a7	3.76392e-06
187	0x36b6ca9b	5.447609e-06
188	0x36d0cf23	6.222997e-06
189	0x369d509a	4.688348e-06
190	0x3702311d	7.760039e-06
191	0x36a0b495	4.789394e-06
192	0x360f4be5	2.1352837e-06
193	0x36afb276	5.236182e-06
194	0x36218078	2.4065648e-06
195	0x3656c0c1	3.2000682e-06
196	0x3693ebd5	4.408396e-06
197	0x3699f29c	4.587999e-06
198	0x3655d691	3.1864367e-06
199	0x36674bb6	3.4465752e-06
200	0x36c1be55	5.774006e-06
201	0x36c66c22	5.913448e-06
202	0x36d9e0df	6.4932824e-06
203	0x3642af34	2.9010234e-06
204	0x36cf70c4	6.1822084e-06
205	0x36fe9c25	7.5879675e-06
206	0x363aea16	2.7852416e-06
207	0x3672eb9c	3.6197953e-06
208	0x3719079a	9.1212805e-06
209	0x3684f5e2	3.962531e-06
210	0x375b06c2	1.3054991e-05
211	0x364d3050	3.0575502e-06
212	0x3699a62c	4.5791003e-06
213	0x3679edfb	3.7242414e-06
214	0x35fe22b5	1.8934576e-06
215	0x36ff3d34	7.606717e-06
216	0x3627cbaa	2.5003487e-06
217	0x35f38390	1.8143201e-06
218	0x368b3981	4.149217e-06
219	0x36f1aaa5	7.2022253e-06
220	0x370a5305	8.2447705e-06
221	0x3618dd9b	2.2778756e-06
222	0x36b650be	5.4334223e-06
223	0x36816145	3.8558233e-06
224	0x36ac8c18	5.1423085e-06
225	0x36040ebf	1.9678116e-06
226	0x360efa59	2.130537e-06
227	0x3694a64b	4.4301028e-06
228	0x366d00a8	3.5316134e-06
229	0x369db73f	4.7002973e-06
230	0x36ebba53	7.0252368e-06
231	0x36b639c9	5.4307498e-06
232	0x3680d1cd	3.8391213e-06
233	0x35c86502	1.4930558e-06
234	0x36bce64f	5.629648e-06
235	0x36822943	3.8791054e-06
236	0x361838a7	2.268274e-06
237	0x35a42ae2	1.2231433e-06
238	0x364f2d78	3.087187e-06
239	0x36c229b0	5.7865036e-06
240	0x368aec25	4.1402113e-06
241	0x36696d59	3.4783354e-06
242	0x36655fa2	3.4179325e-06
243	0x36317b85	2.6446953e-06
244	0x368dfbbf	4.2314346e-06
245	0x36836411	3.9157535e-06
246	0x3680ec21	3.8421863e-06
247	0x36a14cfd	4.8071365e-06
248	0x36a8e6af	5.0336453e-06
249	0x36471b3e	2.9669168e-06
250	0x36aab50b	5.087471e-06
251	0x368d4f98	4.2113934e-06
252	0x366d8f8e	3.5399312e-06
253	0x362119cd	2.4005888e-06
254	0x36f59433	7.3188216e-06
255	0x36a2acc6	4.8480897e-06

exp_avg f4 [512]
0	0xba8ad808	-0.0010592947
1	0xba99342d	-0.0011688523
2	0xba3c5409	-0.0007184153
3	0xba051f1b	-0.00050781824
4	0xb8d1364a	-9.976009e-05
5	0x37aa17d0	2.0276668e-05
6	0xb82d2295	-4.127862e-05
7	0xb988415d	-0.0002598864
8	0xbab177e1	-0.0013539755
9	0xbaa55a68	-0.0012615444
10	0xbabfe57e	-0.0014640538
11	0x3a007019	0.00048995164
12	0xba1b5efd	-0.0005926935
13	0xb8b67190	-8.699589e-05
14	0xba7f49e5	-0.0009738489
15	0xba72fd39	-0.00092693005
16	0xba2d14eb	-0.0006602543
17	0xb959f5cd	-0.000207863
18	0xbab863c5	-0.001406782
19	0xba856b07	-0.0010178991
20	0x3abd7c65	0.0014456628
21	0xba975301	-0.0011545123
22	0x38eb4f8d	0.00011220491
23	0xbad2cc40	-0.00160826
24	0xb936ba45	-0.00017426263
25	0xbae36f82	-0.0017351958
26	0x39a9e8d0	0.0003240765
27	0xbabddd23	-0.001448546
28	0xba30b0fa	-0.0006740239
29	0xba4cf460	-0.0007818397
30	0x39ac9b8e	0.00032922294
31	0xba330247	-0.00068286475
32	0xba20f5bd	-0.00061401335
33	0x39fa3e1b	0.00047729988
34	0xbb14f719	-0.002273029
35	0xb9eada58	-0.00044794637
36	0xb98adb5a	-0.0002648484
37	0xbaabc064	-0.0013103602
38	0xb9e17f7e	-0.00043010333
39	0xba08c386	-0.00052171235
40	0xb87d10a8	-6.0335413e-05
41	0x3979a3c9	0.00023807505
42	0xbaa28b85	-0.0012401199
43	0xb927bbf1	-0.00015996375
44	0xbb16ddfa	-0.0023020492
45	0xba87c609	-0.0010358702
46	0xb8d0e852	-9.961486e-05
47	0xbadae49f	-0.0016700214
48	0xba1fc5b1	-0.0006094827
49	0xbabd048b	-0.001442091
50	0xba7c2fd0	-0.0009620162
51	0xbaad4572	-0.0013219549
52	0xbb178be7	-0.002312416
53	0xb9a33ee6	-0.00031136646
54	0xbaf04cf1	-0.0018333477
55	0xb92e687d	-0.00016632858
56	0xba90a9a5	-0.0011036886
57	0x392e02e5	0.00016595011
58	0xb9205075	-0.00015288762
59	0xba8cac70	-0.0010732543
60	0xba8212ff	-0.0009923874
61	0x3806a433	3.2101012e-05
62	0xba2cf196	-0.00065972784
63	0xb9926054	-0.0002791906
64	0xba8a7de4	-0.0010566083
65	0xba64ab4b	-0.00087230344
66	0xba1b9c4e	-0.0005936072
67	0xba08c2f1	-0.0005217037
68	0x3a91eab6	0.0011132571
69	0xb78d675e	-1.6856644e-05
70	0xbacf2af3	-0.0015805647
71	0x380d9ed6	3.3764947e-05
72	0xba855ea9	-0.0010175306
73	0x38cecfa2	9.86152e-05
74	0x3a90dc7c	0.0011052038
75	0xb9a9e284	-0.0003240296
76	0xba75f9ad	-0.0009383213
77	0xb9daad7f	-0.00041709465
78	0x383c5609	4.490282e-05
79	0xba846a1c	-0.0010102424
80	0xbaf9341d	-0.0019012723
81	0xba0dea88	-0.0005413671
82	0xba8320f8	-0.0010004332
83	0xba833bde	-0.0010012349
84	0x38399ceb	4.425358e-05
85	0xb97a35a4	-0.0002386184
86	0xbaa87ec5	-0.0012855163
87	0x399bf005	0.00029742732
88	0x3a5092cb	0.0007956444
89	0x3a6c1cf1	0.0009006998
90	0xbb10da81	-0.0022102895
91	0xb9fbd783	-0.0004803502
92	0x38861f2b	6.3954234e-05
93	0xba164e82	-0.00057337445
94	0xbac55a83	-0.0015056882
95	0xb9a297d7	-0.00031012177
96	0x38aea70f	8.328084e-05
97	0xba2dc39b	-0.0006628574
98	0xba5f93fa	-0.0008528825
99	0xbae986fd	-0.0017816719
100	0x39909bef	0.00027582
101	0xb99adf48	-0.00029539526
102	0xbae6b5bf	-0.0017601772
103	0xb9e1992f	-0.00043029475
104	0xba1765f2	-0.0005775384
105	0xb9f8914e	-0.00047410507
106	0xbad1307f	-0.0015959888
107	0x375a0e73	1.2997177e-05
108	0xba8fcef8	-0.0010971716
109	0xba85dc75	-0.0010212796
110	0xb8481afb	-4.7708843e-05
111	0xb976ceaa	-0.00023537377
112	0xbaf92093	-0.00190069
113	0xba5d99ac	-0.000845338
114	0xbb744709	-0.0037273786
115	0xba4ab672	-0.0007732875
116	0xb9aff4f7	-0.00033561114
117	0xbaa08a2b	-0.0012248209
118	0xba2c30ec	-0.0006568569
119	0xbacb3ec0	-0.0015506372
120	0x3845dec4	4.7175927e-05
121	0xbaa2d2d0	-0.0012422446
122	0xbab25458	-0.0013605459
123	0xbab24189	-0.0013599853
124	0xb93b7bf0	-0.0001787988
125	0xbaa64416	-0.0012685086
126	0xba1822e7	-0.00058035407
127	0xba56072b	-0.000816452
128	0x3999cb3c	0.00029333855
129	0x39b5126d	0.00034536739
130	0xba1cfce9	-0.0005988614
131	0xba83ab69	-0.0010045591
132	0x3911ee4b	0.00013917049
133	0xb99b3082	-0.00029600045
134	0xba952e02	-0.0011381509
135	0xba42f4c9	-0.00074369885
136	0xba6e1605	-0.00090822607
137	0x399b5112	0.00029624306
138	0xba863e42	-0.0010241943
139	0xba1ad145	-0.00059058174
140	0x3a53b445	0.00080758735
141	0xba1ddeb5	-0.00060222606
142	0xba552f10	-0.0008132318
143	0xb9ae28f9	-0.00033218393
144	0xb9d2a6c3	-0.00040178568
145	0x3981409d	0.00024652938
146	0x39963836	0.0002865211
147	0xba87dd67	-0.0010365666
148	0xb950704b	-0.00019878258
149	0xba4689cc	-0.0007573634
150	0x39043c52	0.00012610972
151	0x39ae9185	0.00033296287
152	0xba66647d	-0.00087887776
153	0xba40968e	-0.0007346653
154	0xb9b0bce1	-0.00033710062
155	0x395bd726	0.00020965617
156	0xb9d50f4d	-0.00040637926
157	0xba5206bf	-0.00080118695
158	0x3a55d10e	0.0008156457
159	0xba295408	-0.000645936
160	0xba4162f3	-0.00073771103
161	0xbab7da1e	-0.0014026796
162	0xb9ce7b94	-0.00039383455
163	0xbad51bad	-0.0016258858
164	0xbac348b2	-0.0014898984
165	0xba2749e5	-0.00063815556
166	0x3a423703	0.000740871
167	0xba9b40d8	-0.0011844886
168	0xb8c7ad07	-9.521288e-05
169	0xbaad278c	-0.0013210638
170	0xba2360e0	-0.0006232392
171	0xba9c4641	-0.0011922793
172	0xba81c986	-0.0009901978
173	0xba160feb	-0.0005724418
174	0xba2e3387	-0.00066452514
175	0xb9d40056	-0.0004043604
176	0xbaa3b3d3	-0.0012489505
177	0xba1eac06	-0.0006052855
178	0xba30aeec	-0.00067399326
179	0xba7a9e22	-0.0009560307
180	0x3a0873ff	0.0005205273
181	0x3b0f1bc7	0.0021836625
182	0xba339e97	-0.000685194
183	0xba89abe7	-0.0010503501
184	0x3918ab04	0.00014559558
185	0xbb0b19cf	-0.00212251
186	0x3a1d74a1	0.0006006454
187	0x39d3ab9a	0.0004037291
188	0xba64fd8a	-0.000873529
189	0xba77adb0	-0.00094481837
190	0xba51a3af	-0.0007997108
191	0xba59288d	-0.00082839356
192	0xbac0ecdd	-0.0014719028
193	0x3a4a6146	0.00077201833
194	0xbacb0a31	-0.0015490708
195	0xba84ecae	-0.0010141337
196	0xba1b2f1a	-0.00059197994
197	0xb9599786	-0.0002075118
198	0xbadd6b14	-0.0016892874
199	0xba6bd358	-0.0008996031
200	0xbb04303a	-0.0020170347
201	0xba8ac6ce	-0.0010587813
202	0x39897ba1	0.00026222787
203	0xbb19a9a2	-0.0023447056
204	0xb99dfbd0	-0.00030132988
205	0x3a0cc54e	0.0005369977
206	0xba53961d	-0.000807138
207	0xba9032c0	-0.0011001453
208	0xba80cf25	-0.0009827359
209	0xbacb3959	-0.0015504762
210	0xba8c62e9	-0.001071063
211	0xbb01dfea	-0.00198173
212	0xba40bdbc	-0.00073524914
213	0xba1db131	-0.0006015478
214	0xba863825	-0.0010240121
215	0x3849356d	4.797189e-05
216	0xba86a052	-0.0010271168
217	0xb9e81622	-0.00044266979
218	0xbadc8418	-0.0016824035
219	0xbae009a6	-0.0017092719
220	0xba62ccb9	-0.0008651722
221	0x370300dd	7.8084095e-06
222	0xba11499b	-0.0005542279
223	0x389f0155	7.581959e-05
224	0xbb05ec19	-0.0020434915
225	0x3785383a	1.5881018e-05
226	0x39dbf305	0.00041952
227	0xb9fc55e5	-0.00048129182
228	0xba82c7ad	-0.0009977721
229	0xba149ead	-0.00056693965
230	0xbb092c3c	-0.0020930907
231	0xbaac442d	-0.0013142877
232	0xba7f326a	-0.00097349903
233	0xb942a414	-0.00018562406
234	0xba805145	-0.0009789845
235	0xb9dbac33	-0.00041899233
236	0xba5a71b8	-0.00083329855
237	0xb73ec01e	-1.1369613e-05
238	0x3a6247bc	0.0008631905
239	0x3a0c66a8	0.0005355873
240	0x38a4a651	7.851108e-05
241	0x39663620	0.00021954672
242	0xb982a8de	-0.00024921348
243	0xbabe7598	-0.0014530895
244	0x3a7955c6	0.00095113774
245	0xb98297ff	-0.00024908778
246	0xba7be754	-0.0009609361
247	0xbb18a464	-0.0023291344
248	0xba26590e	-0.00063456676
249	0xbad7cdff	-0.001646459
250	0x39adfef6	0.00033187092
251	0xba83c3b3	-0.001005283
252	0xba3d06f4	-0.0007210814
253	0xba76e578	-0.0009418349
254	0xba414534	-0.0007372678
255	0xbad3db75	-0.0016163426
