ldm_checkpoints/ldm_epoch_20.pth (torch, 798986 bytes, 12 tensors)

model.0.weight f4 [512, 64]
0.11156375 0.053728357 -0.099191904 -0.07001167 0.11728476 0.11272205 0.06652551 0.09465793
-0.13142289 0.045805942 0.06465359 0.12669252 -0.03093358 0.07332609 0.06655391 0.018445875
-0.03741884 -0.107899025 -0.13036409 -0.09790479 0.003173393 0.02212054 -0.0044695386 -0.07169816
0.04271542 -0.015859356 0.05287295 -0.09591476 -0.002353754 -0.047818087 0.12819535 0.004418147
-0.030149437 0.08528918 -0.062181722 -0.11708855 0.039219778 0.06349987 0.13309634 0.06267733
-0.027320111 0.11934423 0.018763313 0.066656806 -0.0070781023 0.05592254 0.07421224 0.06548364
0.02874698 -0.025312815 0.11069176 -0.03398654 -0.13218714 0.078713834 -0.09699372 0.0047140266
0.05497849 -0.0724594 0.03761056 -0.06080284 0.08878976 0.10413983 -0.053232703 0.08577847
-0.04370563 -0.037385434 0.006778246 -0.092871726 -0.04117835 0.10753034 -0.09972259 -0.0004737518
-0.05505765 0.07130676 -0.06583842 0.0024761953 0.038335733 0.07649049 0.0032148259 -0.053858116
-0.13630503 -0.036909092 -0.08669561 0.07672588 0.019944739 0.06136856 0.017759135 -0.09611473
-0.09917543 0.1365651 -0.070789725 -0.043723915 0.079236366 0.046680126 0.054209474 -0.019106077
-0.08811746 0.078585096 -0.064112544 -0.07391437 0.08799941 -0.090500586 0.0101791425 -0.026294349
0.043908715 0.014992592 -0.111524746 -0.06883339 -0.05871273 -0.10041971 0.027943652 0.046236735
0.02251988 0.073015586 -0.09159575 -0.03916749 0.116556145 0.09024036 -0.07543389 0.07033378
-0.002975408 0.09494145 -0.05167774 0.105713435 0.09086493 0.1054237 -0.09125999 -0.047415126
-0.053706527 0.116406046 -0.005760605 0.090468846 0.09846522 -0.13510178 -0.019596469 -0.042571362
0.034377243 -0.014716544 -0.08416703 0.102695085 -0.11485545 0.11178197 0.12275763 -0.07411239
-0.024125341 -0.060141917 0.0812957 0.030495267 -0.12417457 0.08387496 0.146743 -0.10376207
-0.04833942 0.050579358 0.027502317 0.0750218 -0.022324206 -0.029548658 -0.11663454 0.16702253
0.12394619 0.008129734 -0.04394579 0.010666602 -0.017895766 -0.052543793 0.010811072 0.04125753
-0.12586558 -0.10424293 0.09203949 -0.10601114 -0.10927825 0.14184535 -0.079645336 0.04165028
0.044453945 -0.03751044 0.014320957 -0.10316586 -0.14448562 -0.04345123 -0.13481551 0.07504596
-0.0886018 0.07426132 0.16258474 0.044974677 -0.13794592 -0.09087167 0.08661133 -0.013853842
0.06708687 -0.14876285 0.065505244 -0.13028607 -0.018098164 0.04288917 -0.05874088 -0.03245359
-0.026687251 -0.14260587 -0.0006399334 -0.09506288 -0.053477738 -0.007672503 -0.01776289 0.059960894
-0.07587095 0.058020808 -0.07235082 -0.06922074 -0.16337137 -0.09080606 0.10596525 0.1441124
-0.001603657 -0.11415483 -0.102684565 -0.02467834 0.037564848 -0.0059815203 0.05708294 -0.08367584
-0.023495784 -0.08150305 0.13455643 -0.053910602 0.031111673 0.15735367 -0.09784935 -0.053559057
0.10006773 0.004669279 -0.075578064 0.084888384 0.018483229 0.081703216 -0.04064389 -0.1309918
0.03461921 0.07809161 0.03848405 -0.09273491 -0.04025744 -0.10654619 0.027390905 -0.0248602
-0.09431585 0.083112866 0.052397467 0.15349914 -0.05572354 0.032854885 0.009267978 -0.08971829
00000000: 897b e43d 4412 5c3d 2025 cbbd 4762 8fbd
00000010: fe32 f03d d1da e63d 873e 883d 04dc c13d
00000020: b993 06be 039f 3b3d 1a69 843d afbb 013e
00000030: 6b68 fdbc fd2b 963d 6b4d 883d ce1b 973c
00000040: 7f44 19bd 2afa dcbd 2a7e 05be 4e82 c8bd
00000050: b3f8 4f3b 2236 b53c 3575 92bb 7cd6 92bd
00000060: 5df6 2e3d 7beb 81bc 4e91 583d f56e c4bd
00000070: 7041 1abb e6dc 43bd a445 033e 1ac6 903b
00000080: f4fb f6bc 18ac ae3d 43b2 7ebd 1fcc efbd
00000090: eba4 203d 380c 823d 684a 083e f95c 803d
000000a0: 6dce dfbc bf6a f43d 85b5 993c 5d83 883d
000000b0: 6def e7bb 090f 653d 96fc 973d 491c 863d
000000c0: c97e eb3c d25c cfbc 5db2 e23d 7835 0bbd
000000d0: 115c 07be b834 a13d a5a4 c6bd 1f78 9a3b
000000e0: 2031 613d 9865 94bd 880d 1a3d 660c 79bd
000000f0: 68d7 b53d 4347 d53d 890a 5abd 9fac af3d
00000100: ad04 33bd 7821 19bd 0c1c de3b 8833 bebd
00000110: a1aa 28bd de38 dc3d 5b3b ccbd e461 f8b9
00000120: 2184 61bd 4709 923d 4bd6 86bd aa47 223b
00000130: ee05 1d3d 0ca7 9c3d d4af 523b 549a 5cbd
00000140: 8c93 0bbe fd2d 17bd 788d b1bd 7522 9d3d
00000150: 2663 a33c 995d 7b3d 9b7b 913c cdd7 c4bd
00000160: 7d1c cbbd b9d7 0b3e 34fa 90bd d917 33bd
00000170: ad46 a23d a933 3f3d c10a 5e3d 5984 9cbc
00000180: ed76 b4bd 39f1 a03d 704d 83bd 6b60 97bd
00000190: 0939 b43d 5f58 b9bd 6bc6 263c 3f67 d7bc
000001a0: a0d9 333d 7da3 753c 1667 e4bd 85f8 8cbd
000001b0: c27c 70bd d9a8 cdbd 16ea e43c bb62 3d3d
000001c0: 9d7b b83c 3289 953d 8d96 bbbd 176e 20bd
000001d0: fdb4 ee3d f0cf b83d 157d 9abd 280b 903d
000001e0: 10ff 42bb aa70 c23d 0aac 53bd 4980 d83d
000001f0: 6417 ba3d 61e8 d73d 85e6 babd 5d36 42bd
00000200: 60fb 5bbd 4b66 ee3d 75c3 bcbb bb47 b93d
00000210: 22a8 c93d 1f58 0abe c688 a0bc 4f5f 2ebd
00000220: 27cf 0c3d a91d 71bc c45f acbd cd51 d23d
00000230: 5639 ebbd f2ed e43d 5a68 fb3d 3dc8 97bd
00000240: 82a2 c5bc 5f57 76bd 5c7e a63d 36d1 f93c
00000250: 3d4f febd a3c6 ab3d cc43 163e 3581 d4bd
00000260: 8eff 45bd 4d2c 4f3d 8a4c e13c 08a5 993d
00000270: 41e1 b6bc 0710 f2bc 17de eebd f407 2b3e
00000280: 80d7 fd3d 9332 053c 8000 34bd f9c2 2e3c
00000290: 249a 92bc 2938 57bd ec20 313c a8fd 283d
000002a0: e8e2 00be 517d d5bd 337f bc3d 5e1c d9bd
000002b0: 46cd dfbd e83f 113e 181d a3bd 7c99 2a3d
000002c0: 5715 363d 8ca4 19bd 72a2 6a3c 9f48 d3bd
000002d0: 0af4 13be ebf9 31bd 140d 0abe b2b1 993d
000002e0: dc74 b5bd 5216 983d 9d7c 263e 5e37 383d
000002f0: b241 0dbe ed1a babd 4861 b13d 3afb 62bc
00000300: d764 893d 4a55 18be 9d27 863d b669 05be
00000310: 9a42 94bc 8eac 2f3d 479a 70bd 0eee 04bd
00000320: 399f dabc 4607 12be 34c1 27ba 54b0 c2bd
00000330: 790b 5bbd 9f69 fbbb 7b83 91bc 8e99 753d
00000340: 3b62 9bbd 3aa7 6d3d ab2c 94bd 9ac3 8dbd
00000350: d34a 27be 87f8 b9bd 4f04 d93d 3392 133e
00000360: cd31 d2ba 02ca e9bd 494c d2bd 3b2a cabc
00000370: 99dd 193d a100 c4bb cdcf 693d 3d5e abbd
00000380: 3b7a c0bc 12eb a6bd 29c9 093e 5dd1 5cbd
00000390: e8dd fe3c 5221 213e 3d65 c8bd be60 5bbd
000003a0: 4ff0 cc3d c000 993b acc8 9abd f6d9 ad3d
000003b0: 246a 973c 0454 a73d 357a 26bd b722 06be
000003c0: dfcc 0d3d 7eee 9f3d 74a1 1d3d cdeb bdbd
000003d0: fce4 24bd e434 dabd e462 e03c 9ea7 cbbc
000003e0: ab28 c1bd 1437 aa3d ba9e 563d e12e 1d3e
000003f0: 5e3e 64bd d892 063d b8d8 173c 39be b7bd

model.0.bias f4 [512]
0.061728213 0.08442983 0.06437914 -0.0685617 -0.032030653 0.016242672 -0.014293079 -0.05441563
0.04688584 -0.024636265 0.06639142 0.016865456 0.105020754 -0.032676984 0.13522248 0.004474219
-0.08149872 0.07776743 -0.07352813 0.11143044 -0.07289184 -0.060811453 -0.009812906 0.050071817
0.074371874 0.027000993 0.090489 0.04896621 -0.025166469 0.087100126 -0.07266359 0.033687774
0.0068089706 0.13361362 0.027754432 -0.0409884 0.11931284 0.040691637 0.07947078 0.17358671
0.16527714 0.08777706 0.0952636 0.09338556 0.10531239 -0.019527782 -0.002884281 0.027008064
0.041162487 0.09940429 0.029710723 0.00024181182 0.1443507 0.09682255 -0.09107851 0.042970084
0.061432395 -0.009030492 0.081594564 0.15222724 -0.09447895 -0.046215754 -0.0061881226 0.13322419
0.05908436 -0.036139347 -0.001636301 0.033469755 0.09496962 0.09642619 0.09047956 0.0881868
0.04120664 0.011325535 0.04135855 0.09081145 -0.039909124 0.09128789 0.017195264 0.018156502
-0.010654619 0.00084144226 0.050243527 0.058969464 0.075751096 -0.06592224 -0.08306886 0.10144022
0.12239012 -0.014201857 0.09627672 0.047169473 0.09304527 0.042711213 0.14307553 0.08815436
0.020391708 -0.027708698 0.06487015 -0.019366186 0.023376722 0.04734826 0.13503656 -0.058177464
0.05649914 0.050046675 0.16302387 0.09742369 -0.020164175 0.0072432784 0.07557128 -0.0009079581
-0.009029144 0.018479988 -0.12936409 -0.060899336 -0.08105021 -0.06124558 -0.027770506 -0.037259158
-0.023367682 0.07101379 0.055231187 -0.073221885 0.026536532 0.08975081 0.06791752 0.05206131
0.0071270824 0.065934844 0.14254266 0.043031003 0.11679841 0.10526473 0.15595898 0.034688983
0.039879266 -0.03800774 0.07842946 0.012953899 0.11574389 -0.053790916 -0.026860919 0.0013983772
-0.016134122 -0.080313765 -0.044374295 0.06794581 -0.076925255 0.018806545 -0.030955471 -0.06536884
-0.09376869 -0.04279873 0.11754739 -0.0277959 0.012173848 0.13255422 0.10818997 0.12237411
0.09518992 -0.084196076 0.13850887 0.11336821 0.12154099 0.07608003 -0.11541707 0.07144669
0.07548878 0.0035838273 -0.015838334 -0.060783 -0.03099523 0.07586224 0.052021105 -0.0067350315
-0.05040929 0.02187184 0.005241226 0.035262518 -0.095419064 -0.023320928 -0.080246426 0.043115497
0.12113832 -0.025487324 -0.020023508 0.16030549 -0.087405406 0.082493626 0.03042659 -0.07226398
-0.016917303 0.114631265 0.13483588 0.011754838 -0.02987321 0.017098498 0.005921905 0.045748945
0.09378634 0.079489246 -0.069984645 -0.082929455 0.078956954 0.03728198 0.12391134 0.05546569
-0.10379048 -0.011271114 -0.004395369 -0.01726146 0.046517372 0.14138709 0.10176138 0.015200689
0.08953382 0.052251652 0.08840156 0.024599267 -0.025045352 0.14936605 0.03161944 -0.0116583835
0.006939765 0.105982326 -0.09067907 -0.09636696 0.04869662 -0.08008103 -0.0065471865 0.03868924
0.08535527 0.10051621 -0.08202943 -0.07218431 -0.033580758 -0.077913985 0.10869671 0.13705021
0.10276508 0.023955472 -0.06691803 0.050948933 -0.05325642 0.10095339 -0.045895524 0.03955572
0.12296572 0.025565961 0.03149549 -0.082045 0.10055805 0.008530329 0.018526008 0.14294773
00000000: b9d6 7c3d 8ce9 ac3d 36d9 833d 146a 8cbd
00000010: 9332 03bd 5a0f 853c 852d 6abc ece2 5ebd
00000020: 5e0b 403d fed1 c9bc 3af8 873d 6d29 8a3c
00000030: 1f15 d73d 4dd8 05bd c377 0a3e 789c 923b
00000040: cde8 a6bd 8844 9f3d eb95 96bd a435 e43d
00000050: 5148 95bd 6e15 79bd 50c6 20bc 1b18 4d3d
00000060: 4850 983d 3031 dd3c 4c52 b93d cb90 483d
00000070: e929 cebc 8d61 b23d a6d0 94bd 31fc 093d
00000080: c91d df3b 02d2 083e 435d e33c 74e3 27bd
00000090: 4a5a f43d 46ac 263d 94c1 a23d b7c0 313e
000000a0: 693e 293e 76c4 b33d 9019 c33d ee40 bf3d
000000b0: 06ae d73d baf8 9fbc 3506 3dbb 0440 dd3c
000000c0: ff99 283d 7a94 cb3d e763 f33c de8e 7d39
000000d0: abd0 133e e74a c63d 5f87 babd 6601 303d
000000e0: 89a0 7b3d a1f4 13bc 0d1b a73d 75e1 1b3e
000000f0: 2e7e c1bd bb4c 3dbd bcc5 cabb ec6b 083e
00000100: 7102 723d da06 14bd 2779 d6ba 9517 093d
00000110: 6f7f c23d 187b c53d 594d b93d 489b b43d
00000120: 4bc8 283d bd8e 393c 9567 293d 5afb b93d
00000130: c077 23bd 25f5 ba3d 15dd 8c3c f2bc 943c
00000140: b690 2ebc 3c94 5c3a 28cc 4d3d f789 713d
00000150: 6423 9b3d 3d02 87bd 0220 aabd e4bf cf3d
00000160: aca7 fa3d e8ae 68bc bb2c c53d c734 413d
00000170: 858e be3d f4f1 2e3d 6482 123e 468a b43d
00000180: 830c a73c 5afd e2bc a4da 843d d6a5 9ebc
00000190: 8a80 bf3c 40f0 413d 0647 0a3e 7e4b 6ebd
000001a0: a46b 673d befd 4c3d bbef 263e 1286 c73d
000001b0: 572f a5bc 0659 ed3b 1ec5 9a3d 0904 6eba
000001c0: faee 13bc 5863 973c 0578 04be 9571 79bd
000001d0: a7fd a5bd a5dc 7abd f97e e3bc 0f9d 18bd
000001e0: 956d bfbc ae6f 913d 193a 623d 5bf5 95bd
000001f0: 2463 d93c 46cf b73d 5718 8b3d 3d3e 553d
00000200: 4d8a e93b d908 873d b4f6 113e 4741 303d
00000210: 0134 ef3d 0995 d73d b6b3 1f3e 0916 0e3d
00000220: 7158 233d 01ae 1bbd a09f a03d 973c 543c
00000230: 220b ed3d dd53 5cbd 6e0b dcbc c149 b73a
00000240: b52b 84bc 8b7b a4bd d2c1 35bd 2c27 8b3d
00000250: fd8a 9dbd 2f10 9a3c 5496 fdbc 19e0 85bd
00000260: cd09 c0bd b94d 2fbd b0bc f03d 3ab4 e3bc
00000270: d274 473c 4bbc 073e b492 dd3d 479f fa3d
00000280: eff2 c23d fe6e acbd 45d5 0d3e 982d e83d
00000290: 7cea f83d d9cf 9b3d c95f ecbd a452 923d
000002a0: dd99 9a3d a5de 6a3b 65bf 81bc 98f7 78bd
000002b0: b5e9 fdbc a95d 9b3d 1514 553d 8ab1 dcbb
000002c0: f979 4ebd 932c b33c 97be ab3b 6e6f 103d
000002d0: 126b c3bd 880b bfbc 3d58 a4bd e099 303d
000002e0: 5e17 f83d cbca d0bc 5708 a4bc 1f27 243e
000002f0: 9b01 b3bd 6bf2 a83d 2f41 f93c 23ff 93bd
00000300: 2896 8abc ccc3 ea3d 6b12 0a3e 5d97 403c
00000310: a9b8 f4bc 2612 8c3c 8a0c c23b 3f63 3b3d
00000320: 0d13 c03d 42cb a23d 1c54 8fbd ebd6 a9bd
00000330: 2fb4 a13d fdb4 183d 3bc5 fd3d fe2f 633d
00000340: 1a90 d4bd 7baa 38bc 0707 90bb e867 8dbc
00000350: 0089 3e3d c7c7 103e 4568 d03d 500c 793c
00000360: 825d b73d d405 563d e10b b53d 6784 c93c
00000370: e92b cdbc 6af3 183e 6383 013d ce02 3fbc
00000380: f866 e33b 430d d93d f3b5 b9bd 0a5c c5bd
00000390: 1b76 473d 8601 a4bd c889 d6bb 9c78 1e3d
000003a0: bece ae3d 71db cd3d 0cff a7bd 5ed5 93bd
000003b0: fa8b 09bd 5e91 9fbd 619c de3d e456 0c3e
000003c0: 8076 d23d 443e c43c 520c 89bd d4af 503d
000003d0: 6723 5abd a7c0 ce3d f2fc 3bbd 2e05 223d
000003e0: 74d5 fb3d b56f d13c 6a01 013d 3507 a8bd
000003f0: 61f1 cd3d cbc2 0b3c dbc3 973c e460 123e

model.2.weight f4 [64, 512]
0.0022535918 0.03518455 -0.014285984 0.002048747 -0.034881417 -0.056646656 0.02394346 0.071833424
-0.06299938 0.02542352 -0.038765438 -0.019845678 -0.0257423 0.03632112 -0.012207219 0.005565739
-0.006689188 -0.008697792 0.04221982 -0.041558288 0.040103324 -0.013041784 -0.047395796 0.014431792
0.038586833 0.03030761 -0.049796663 0.09469892 0.02040848 0.044979725 -0.07107136 -0.04006058
0.005522284 0.059880286 -0.020686993 0.028120242 -0.018150622 0.029344045 0.023422034 -0.03673097
0.03612639 -0.058646247 0.05146829 0.028639697 0.022070646 0.03494744 -0.030307766 0.005243705
0.015540467 0.057733037 -0.0014780904 -0.04683068 0.0049824696 0.009218112 -0.013422014 0.004110171
-0.023373893 -0.069661 -0.014326031 0.01849788 -0.045266915 -0.056372482 -0.04226988 -0.016135328
-0.018771097 0.03668474 0.03404533 -0.07870956 0.045505274 0.026686655 -0.04033963 -0.030058263
0.045360237 -0.011843489 -0.022209572 -0.062008485 0.039961327 0.029221104 0.058300655 0.0025389055
0.0015803186 0.039650988 -0.0040631862 -0.066823795 0.027448969 -0.007066964 0.048208006 0.0005916422
-0.034342982 -0.052113533 0.048032466 0.020004911 -0.019174956 0.003992805 0.047830272 0.013638817
-0.0028727103 -0.020404192 -0.033354294 -0.04846209 0.021996545 -0.025599357 -0.033451702 0.0034458102
-0.07349817 -0.016344083 -0.059596196 0.0525682 0.05072827 0.005724112 0.0015813147 -0.013263771
0.034904093 -0.02248949 -0.0171308 0.03282767 -0.004267501 -0.0114996955 0.049076647 -0.035398476
-0.0017086563 0.035276398 0.07796458 -0.00968394 0.025298761 0.004072024 -0.034596182 -0.039860163
0.0036733127 -0.0027282038 0.026027853 -0.077613376 -0.011304564 -0.019288374 0.019483063 0.0053438568
0.014375108 0.03280898 -0.0066718413 -0.042057723 -0.0029300167 0.014119063 0.026752813 -0.0073091174
0.0027408376 -0.054588694 0.013665078 -0.006310134 0.026962955 -0.049680077 0.018667568 0.042605944
0.016618138 0.010500575 0.0077673653 0.065706804 -0.046551034 0.05628832 -0.015640067 0.04375437
-0.0379517 0.0294785 -0.011661619 0.019747678 -0.03163883 -0.00097027933 0.07728946 -0.0089243315
-0.009854268 0.015129029 -0.07417981 -0.039321247 0.020894032 -0.02555495 0.08297611 -0.020687666
-0.03198206 0.04837079 -0.017961398 0.013855689 -0.020740023 0.0069348426 -0.0017827138 0.005026471
0.02173044 -0.019870829 -0.050106745 0.053018037 0.0058731316 0.03865902 -0.020753158 0.029784465
-0.0169368 0.00039733425 0.03467284 -0.023406096 0.00682926 -0.06587665 0.030555671 -0.045609042
-0.015242062 -0.04429531 -0.012543013 0.010639775 -0.02544742 -0.029792838 -0.051715776 0.065211095
0.02451174 0.027151205 0.01588633 0.008963305 0.031230466 0.04832981 -0.06343563 -0.036758654
0.0006677416 0.019359889 -0.009299906 -0.003945367 0.055338442 0.02416599 -0.039251007 0.044850364
0.026709102 -0.0848122 0.016317086 0.0037795578 -0.013691309 -0.000719736 0.03594756 -0.0011390779
-6.750459e-05 0.044581212 0.030496836 -0.0149612855 0.024980376 0.038471308 0.014630303 0.0450954
-0.010449633 0.014332457 -0.0065050144 0.013017285 0.022626491 -0.05967219 -0.03641502 -0.025603587
0.06956361 0.06916438 0.013436423 -0.011350519 -0.07610231 -0.01496416 -0.0018856531 0.03718814
00000000: ffb0 133b ad1d 103d c30f 6abc 4544 063b
00000010: d1df 0ebd 5306 68bd 1325 c43c 671d 933d
00000020: d205 81bd fc44 d03c 82c8 1ebd 6793 a2bc
00000030: 84e1 d2bc 74c5 143d ca00 48bc cd60 b63b
00000040: fa30 dbbb 2f81 0ebc b1ee 2c3d 0639 2abd
00000050: 6243 243d 35ad 55bc 1822 42bd 5373 6c3c
00000060: 3a0d 1e3d aa47 f83c 96f7 4bbd 82f1 c13d
00000070: af2f a73c a93c 383d dc8d 91bd 9016 24bd
00000080: 47f4 b43b 0845 753d c577 a9bc 6c5c e63c
00000090: 9db0 94bc ec62 f03c 91df bf3c 3773 16bd
000000a0: 44f9 133d 0c37 70bd 6ad0 523d cc9d ea3c
000000b0: 80cd b43c 0c25 0f3d fe47 f8bc 63d3 ab3b
000000c0: 719d 7e3c 7a79 6c3d 7cbc c1ba 87d1 3fbd
000000d0: fc43 a33b 9007 173c 02e8 5bbc 9dae 863b
000000e0: 9b7a bfbc 6daa 8ebd bbb7 6abc de88 973c
000000f0: cd69 39bd d5e6 66bd 2f23 2dbd 3c2e 84bc
00000100: d8c5 99bc bd42 163d 1e73 0b3d 7a32 a1bd
00000110: bd63 3a3d f99d da3c 2b3b 25bd bf3c f6bc
00000120: a8cb 393d 310b 42bc d9f0 b5bc 9cfc 7dbd
00000130: 7dae 233d 1961 ef3c abcc 6e3d c463 263b
00000140: b122 cf3a 1369 223d 7a24 85bb eada 88bd
00000150: a9dc e03c fe91 e7bb c275 453d 7018 1b3a
00000160: 3aab 0cbd 0075 55bd b1bd 443d 57e1 a33c
00000170: cc14 9dbc 13d6 823b ade9 433d 5875 5f3c
00000180: 1544 3cbb b126 a7bc 839e 08bd 2f80 46bd
00000190: 1932 b43c beb5 d1bc a704 09bd 1ad3 613b
000001a0: 3586 96bd 07e4 85bc 241b 74bd c151 573d
000001b0: 72c8 4f3d 5591 bb3b 1e44 cf3a 4a50 59bc
000001c0: 98f7 0e3d e13b b8bc e455 8cbc 4f76 063d
000001d0: 65d6 8bbb 3869 3cbc 9804 493d fefd 10bd
000001e0: fef4 dfba fc7d 103d e5ab 9f3d 63a9 1ebc
000001f0: 593f cf3c 9d6e 853b bab4 0dbd 6944 23bd
00000200: f6bb 703b aacb 32bb 5d38 d53c c3f3 9ebd
00000210: c736 39bc a702 9ebc f29a 9f3c 851b af3b
00000220: 9385 6b3c b662 063d 769f dabb b844 2cbd
00000230: 8605 40bb a453 673c b728 db3c 5281 efbb
00000240: a09f 333b 6598 5fbd 7ee3 5f3c 3ec5 cebb
00000250: 6ae1 dc3c 567d 4bbd baec 983c 9283 2e3d
00000260: c322 883c 9b0a 2c3c 6285 fe3b 4a91 863d
00000270: 4cac 3ebd 958e 663d 991f 80bc c837 333d
00000280: 3e73 1bbd e57c f13c 6010 3fbc e2c5 a13c
00000290: b897 01bd 585a 7eba f049 9e3d 5c37 12bc
000002a0: cc73 21bc bfdf 773c 96eb 97bd 510f 21bd
000002b0: f629 ab3c 9d58 d1bc 61ef a93d 2e79 a9bc
000002c0: 9fff 02bd 7320 463d c823 93bc f902 633c
000002d0: fbe6 a9bc ad3d e33b f3a9 e9ba 18b5 a43b
000002e0: 0904 b23c 26c8 a2bc bb3c 4dbd 7129 593d
000002f0: 6673 c03b ec58 1e3d 8702 aabc 8dfe f33c
00000300: 0bbf 8abc 4d51 d039 1c05 0e3d 24be bfbc
00000310: fcc7 df3b 56ea 86bd e34f fa3c 8cd0 3abd
00000320: d7b9 79bc 006f 35bd 3681 4dbc 7352 2e3c
00000330: 1c77 d0bc 1c10 f4bc ecd3 53bd 658d 853d
00000340: d8cc c83c 346c de3c 0c24 823c d3da 123c
00000350: 09d7 ff3c 7bf5 453d 8aea 81bd 3e90 16bd
00000360: 610b 2f3a a198 9e3c a25e 18bc 2348 81bb
00000370: 90aa 623d c1f7 c53c aac5 20bd 04b5 373d
00000380: 0ccd da3c 05b2 adbd 69ab 853c 75b2 773b
00000390: 8351 60bc aaac 3cba c03d 133d 1d4d 95ba
000003a0: 4091 8db8 ca9a 363d 80d4 f93c 2e20 75bc
000003b0: a5a3 cc3c 1794 1d3d f0b3 6f3c f4b5 383d
000003c0: f034 2bbc afd2 6a3c 0428 d5bb 7346 553c
000003d0: 315b b93c d46a 74bd ea27 15bd 9dbe d1bc
000003e0: 5e77 8e3d 0ea6 8d3d 7124 5c3c 87f7 39bc
000003f0: 87db 9bbd 3c2c 75bc 0528 f7ba 9752 183d

model.2.bias f4 [64]
0.028326698 -0.0031510105 0.026446793 0.032420047 0.032157797 0.03292452 -0.02564034 0.031147618
0.011833705 0.022278246 -0.03138151 -0.016008517 -0.034754954 0.000104325896 -0.025580162 0.0051464993
-0.025468297 0.045537345 0.012085306 -0.036758598 -0.017412048 0.0010041015 0.01930439 0.0043765516
-0.019649992 0.015026904 0.027052946 0.004822057 -0.029991234 0.039871503 -0.02564225 -0.004158165
-0.0022287122 0.04396651 -0.017095407 -0.016754735 0.005294507 -0.035909437 -0.018695313 0.040528186
-0.02758922 0.012526593 0.022272794 0.004324595 0.018812964 0.016014928 -0.021314185 -0.0144352075
0.036954023 -0.03762109 0.043258034 0.036209743 -0.035050496 0.04840078 -0.022951033 -0.0015889968
-0.023839284 0.007090486 0.01746517 0.0044356105 -0.029080959 0.012570259 -0.039219595 0.022151088
00000000: 640d e83c 2f81 4ebb f2a6 d83c e2ca 043d
00000010: e5b7 033d dddb 063d b10b d2bc 4a29 ff3c
00000020: 28e2 413c de80 b63c e689 00bd 4b24 83bc
00000030: 365b 0ebd 8ac9 da38 7d8d d1bc f7a3 a83b
00000040: e4a2 d0bc 5e85 3a3d 7301 463c 2f90 16bd
00000050: b6a3 8ebc 0e9c 833a 3d24 9e3c 2d69 8f3b
00000060: 05f9 a0bc 6733 763c 249e dd3c 5902 9e3b
00000070: 2db0 f5bc 4d50 233d b20f d2bc 3741 88bb
00000080: 960f 12bb 3a16 343d ab0b 8cbc 3a41 89bc
00000090: 8b7d ad3b c615 13bd ea26 99bc e200 263d
000000a0: ca02 e2bc 573c 4d3c 6f75 b63c 55b5 8d3b
000000b0: a51d 9a3c bd31 833c 169b aebc a681 6cbc
000000c0: 1a5d 173d 9218 1abd 562f 313d ab50 143d
000000d0: 1c91 0fbd e53f 463d ce03 bcbc e345 d0ba
000000e0: 9a4a c3bc 4f57 e83b 1e13 8f3c 9958 913b
000000f0: 313b eebc 7df3 4d3c baa4 20bd 3376 b53c

exp_avg f4 [512, 64]
-2.9615628e-06 -9.101741e-07 2.672344e-07 -1.2559505e-05 2.9877008e-06 -3.880913e-07 1.3039328e-05 -1.0839506e-05
1.2210104e-05 8.9214245e-06 1.1388378e-05 -1.1731378e-05 -1.9412562e-05 -8.495271e-07 1.3533077e-06 8.726836e-06
-6.5514973e-06 -1.0974268e-05 5.1429492e-06 4.605683e-06 8.142564e-06 1.3003493e-06 1.038141e-05 4.2180923e-06
1.3822585e-05 6.0579537e-06 -1.0425497e-06 1.2976188e-05 3.6600031e-06 -1.2920253e-05 -6.2728725e-07 1.6193382e-05
-3.5712935e-06 8.165812e-06 -1.2234012e-06 6.53457e-06 -1.307907e-05 2.3558077e-06 -1.9263568e-06 3.6701947e-06
-6.2553477e-06 -1.50633605e-05 5.7904235e-06 2.8227355e-06 -1.0673163e-05 -1.1272708e-05 1.871579e-05 1.3448346e-05
-8.615045e-06 8.371406e-07 1.3656934e-05 -7.458575e-06 -6.6030134e-06 7.969941e-06 -5.6047395e-07 6.7108326e-06
7.270639e-06 -6.799519e-06 1.1830122e-05 -8.216228e-06 -6.7377337e-06 -7.5880207e-06 2.4521447e-05 -1.1684256e-06
-1.5708687e-05 -1.3442939e-05 -7.813462e-06 1.9490508e-05 -5.4707493e-06 2.086682e-05 -3.7756075e-05 1.9068351e-05
9.772704e-06 2.0360741e-05 -2.8120705e-05 -3.401187e-05 -2.7791157e-05 -1.3609915e-06 -5.394613e-06 -2.2790315e-05
-8.0772015e-06 3.4138153e-05 6.3471896e-07 2.6319838e-05 -5.373971e-05 2.7307706e-05 -2.404103e-05 -1.2080897e-05
-6.6642006e-06 -1.7998185e-05 4.180529e-05 -1.9026416e-05 1.6396547e-05 1.7224083e-05 -5.5810287e-06 2.5162419e-05
-3.1198677e-05 -3.2826232e-05 2.0217756e-05 1.6317497e-05 -1.1988122e-05 1.6371383e-05 -1.1477763e-07 4.2245643e-05
-2.28784e-05 -1.7126762e-05 -8.327084e-06 1.3764763e-05 2.3796307e-05 5.5197543e-06 3.5099883e-06 2.1059534e-05
-7.3321706e-07 1.9192921e-06 -6.6002787e-07 3.613834e-05 -1.2385312e-05 3.6726775e-05 -2.3309558e-05 -1.7444318e-05
-3.777537e-05 -4.5084334e-06 -1.3969087e-07 5.878753e-06 -1.597702e-05 -8.8146035e-06 1.7152975e-05 -3.0079275e-06
-1.9395446e-05 1.2663039e-06 9.7184775e-06 -2.2066366e-05 1.7927243e-05 2.8446655e-06 1.3866782e-05 -1.6515745e-05
-9.414377e-06 -1.4622007e-05 1.03867105e-05 7.181306e-06 2.6957882e-06 7.1774975e-06 1.0095379e-05 2.0713163e-05
-6.9008497e-06 2.8270074e-06 2.1004995e-05 -1.16327565e-05 1.5205701e-05 -2.424226e-06 9.099956e-06 2.3849856e-05
9.377429e-06 7.879066e-06 -1.0844334e-05 -3.8200565e-06 -1.323801e-05 5.978797e-06 2.6682887e-08 -7.208961e-07
7.3405e-06 -6.708243e-06 -2.511762e-05 1.0111691e-05 2.6901302e-05 6.3369744e-06 -6.7692768e-06 -1.691842e-05
2.5532963e-05 1.6600265e-05 1.35368955e-05 -4.4236485e-06 -7.5197245e-06 -5.4991733e-06 -1.0031796e-05 -1.391484e-05
7.939689e-06 -8.58816e-06 -1.5139803e-05 -1.9034123e-05 1.1541711e-05 -2.371232e-05 1.718935e-05 -1.4681375e-06
1.1244541e-05 4.9773644e-06 -3.832001e-06 -1.0873386e-05 2.5286405e-05 1.068898e-06 -1.2805387e-05 -8.500049e-06
-2.4327206e-05 -1.3121419e-06 9.543536e-06 -2.1803983e-06 6.737461e-06 -5.1125035e-06 2.2440327e-06 -7.1929835e-06
-5.139262e-06 -4.8359316e-06 3.2262703e-06 -1.1184524e-05 -1.5815718e-05 4.9616588e-06 1.5121999e-05 -3.4473007e-06
-1.1231497e-05 4.3382447e-06 2.0387333e-05 -2.496196e-06 -6.6109596e-06 2.662393e-06 3.5910502e-06 -1.3086286e-06
6.470019e-06 -2.8571978e-06 1.0763674e-05 -1.28875645e-05 -1.01773e-07 9.870568e-06 -6.505949e-06 6.486581e-06
8.3695465e-07 -1.218679e-05 -3.8332087e-06 2.215582e-06 1.5621337e-05 8.108888e-06 8.813698e-07 4.8951847e-06
5.072533e-06 9.195555e-07 -8.715284e-06 1.1262532e-05 2.571165e-06 1.716606e-06 -4.989052e-06 -5.0534086e-06
-1.1071277e-05 4.304702e-06 -2.8934724e-06 -3.5312298e-06 8.136419e-06 2.3517928e-06 5.5216165e-06 -4.543606e-06
5.506201e-06 1.4044815e-05 1.0914664e-05 -2.3203586e-06 2.1600556e-05 -5.4849684e-06 -4.5244356e-06 -1.0483699e-06
00000000: 43bf 46b6 b052 74b5 6b78 8f34 aab6 52b7
00000010: 4f80 4836 dd5a d0b4 7dc3 5a37 53db 35b7
00000020: ffd9 4c37 3aad 1537 b610 3f37 e3d1 44b7
00000030: 29d8 a2b7 0f0b 64b5 4ca3 b535 7a69 1237
00000040: efd4 dbb6 1f1e 38b7 9991 ac36 848a 9a36
00000050: 0c9c 0837 a987 ae35 d12b 2e37 2389 8d36
00000060: 8de7 6737 6d45 cb36 bced 8bb5 4eb4 5937
00000070: 609e 7536 10c4 58b7 da62 28b5 06d7 8737
00000080: 5baa 6fb6 e5ff 0837 bf33 a4b5 8743 db36
00000090: 2e6e 5bb7 7818 1e36 8f46 01b6 774d 7636
000000a0: 07e5 d1b6 a4b8 7cb7 5c4b c236 3a6e 3d36
000000b0: e310 33b7 ea1f 3db7 daff 9c37 35a0 6137
000000c0: 5689 10b7 ddb7 6035 1620 6537 ac44 fab6
000000d0: 748f ddb6 a3b6 0537 7a73 16b5 9d2d e136
000000e0: 50f6 f336 6c27 e4b6 fd79 4637 6ed8 09b7
000000f0: b114 e2b6 9a9c feb6 68b3 cd37 ccd2 9cb5
00000100: 26c6 83b7 fc88 61b7 9016 03b7 8c7f a337
00000110: 6191 b7b6 280b af37 475c 1eb8 f9f4 9f37
00000120: 72f5 2337 5ccc aa37 c1e4 ebb7 f8a7 0eb8
00000130: 0e21 e9b7 50ab b6b5 5f03 b5b6 d42d bfb7
00000140: 5183 07b7 902f 0f38 8e61 2a35 6cc9 dc37
00000150: 9366 61b8 da12 e537 b8ab c9b7 0faf 4ab7
00000160: 0c9d dfb6 cffa 96b7 1758 2f38 eb9a 9fb7
00000170: 518b 8937 707c 9037 ac44 bbb6 e213 d337
00000180: 53db 02b8 e6ae 09b8 4d99 a937 8fe1 8837
00000190: 9820 49b7 4755 8937 ab7b f6b3 ea30 3138
000001a0: fdea bfb7 71ab 8fb7 8eb4 0bb7 35ef 6637
000001b0: 2e9e c737 5436 b936 248d 6b36 01a9 b037
000001c0: 4bd2 44b5 30cd 0036 c52c 31b5 3f93 1738
000001d0: 83ca 4fb7 130b 1a38 e588 c3b7 6355 92b7
000001e0: ff70 1eb8 2647 97b6 effd 15b4 1b42 c536
000001f0: 6406 86b7 6fe2 13b7 bce3 8f37 cddb 49b6
00000200: 67b3 a2b7 dff5 a935 8b0c 2337 291b b9b7
00000210: 7662 9637 fbe6 3e36 60a5 6837 4b8b 8ab7
00000220: 71f2 1db7 0b51 75b7 9542 2e37 f3f6 f036
00000230: 4ae9 3436 3cd6 f036 535f 2937 2ec1 ad37
00000240: d98d e7b6 9eb7 3d36 e233 b037 4f2a 43b7
00000250: fd1b 7f37 e3af 22b6 03ac 1837 2d11 c837
00000260: c053 1d37 5530 0437 0ff0 35b7 092e 80b6
00000270: d218 5eb7 7a9d c836 4a34 e532 9a83 41b5
00000280: 6a4e f636 5e17 e1b6 aeb3 d2b7 62a5 2937
00000290: 1baa e137 32a2 d436 a523 e3b6 08ec 8db7
000002a0: 9f2f d637 cc40 8b37 861c 6337 da6e 94b6
000002b0: f151 fcb6 8a85 b8b6 3c4e 28b7 c873 69b7
000002c0: b434 0537 de15 10b7 f500 7eb7 78ab 9fb7
000002d0: 45a3 4137 d2e9 c6b7 d931 9037 d20c c5b5
000002e0: f0a6 3c37 3c03 a736 a394 80b6 d66c 36b7
000002f0: 241e d437 0e77 8f35 b8d6 56b7 6f9b 0eb7
00000300: 4712 ccb7 da1c b0b5 2d1d 2037 f552 12b6
00000310: 5912 e236 128c abb6 3098 1636 425b f1b6
00000320: ed71 acb6 5644 a2b6 e782 5836 2aa5 3bb7
00000330: ffab 84b7 537c a636 7eb4 7d37 2d58 67b6
00000340: ea6e 3cb7 3d91 9136 7705 ab37 5284 27b6
00000350: b6d3 ddb6 90ab 3236 c6fd 7036 23a4 afb5
00000360: 0a19 d936 49be 3fb6 a195 3437 ab37 58b7
00000370: 4c8e dab3 c499 2537 ad4d dab6 4ea7 d936
00000380: 16ab 6035 dd75 4cb7 039f 80b6 69af 1436
00000390: 910a 8337 690b 0837 4597 6c35 5141 a436
000003a0: ba34 aa36 5fd7 7635 dc37 12b7 35f4 3c37
000003b0: 478c 2c36 2266 e635 a167 a7b6 7390 a9b6
000003c0: c6be 39b7 1c71 9036 7a2d 42b6 11fa 6cb6
000003d0: a781 0837 7ed3 1d36 5346 b936 4775 98b6
000003e0: e8c1 b836 05a2 6b37 201e 3737 75b7 1bb6
000003f0: d732 b537 850b b8b6 9bd0 97b6 b7b5 8cb5

exp_avg_sq f4 [512, 64]
1.1924876e-06 2.4521505e-06 2.0319183e-06 2.263913e-06 5.0915764e-07 1.2347485e-06 1.1661958e-06 1.0789141e-06
1.5675536e-06 1.2584603e-06 1.5998143e-06 2.8800912e-06 8.8163983e-07 2.4836193e-06 1.1106894e-06 1.4444992e-06
9.060543e-07 1.0793838e-06 9.553364e-07 1.165012e-06 1.5093693e-06 1.0993604e-06 1.0853964e-06 9.189137e-07
1.0855961e-06 1.2381889e-06 1.4564621e-06 1.2223068e-06 1.7552669e-06 2.8342056e-06 9.1544496e-07 1.3988868e-06
1.637407e-06 2.1057906e-06 1.431851e-06 2.2246422e-06 9.685424e-07 1.6157787e-06 1.3001157e-06 1.664075e-06
9.99542e-07 6.240278e-07 8.2560234e-07 9.962757e-07 9.651014e-07 6.3829344e-07 5.9887776e-07 1.4759734e-06
1.4542734e-06 1.1788901e-06 1.6025815e-06 1.6119822e-06 1.418257e-06 1.1229523e-06 1.7226071e-06 5.5234005e-07
1.2350015e-06 1.2028532e-06 1.4915761e-06 8.5899256e-07 1.6126972e-06 9.914493e-07 1.5295225e-06 1.0697582e-06
2.3652713e-06 3.5567055e-06 3.165019e-06 2.5661066e-06 6.527083e-07 1.9347478e-06 1.3662702e-06 1.4283772e-06
1.8549406e-06 1.0521253e-06 1.8276496e-06 1.8191996e-06 1.0840364e-06 1.7385789e-06 1.2306762e-06 3.9151314e-06
8.5472544e-07 2.0412215e-06 1.2756907e-06 9.6187e-07 1.6836486e-06 1.3197332e-06 1.2411953e-06 1.0438109e-06
1.9047116e-06 1.7354007e-06 1.1232793e-06 1.3053442e-06 1.7621629e-06 1.467917e-06 7.523501e-07 3.1323377e-06
1.9875072e-06 3.1502252e-06 2.3273894e-06 3.040623e-06 1.3568333e-06 1.2282543e-06 2.1226865e-06 2.4821793e-06
1.339086e-06 1.0843211e-06 1.426886e-06 9.537739e-07 1.6552895e-06 1.0774486e-06 5.139239e-07 1.8228181e-06
1.959988e-06 2.3053867e-06 1.39247e-06 3.425103e-06 1.48199e-06 1.2295723e-06 2.268878e-06 1.1157346e-06
2.5678169e-06 1.1982613e-06 9.3646827e-07 1.174339e-06 1.2036907e-06 9.3043803e-07 8.230311e-07 1.0077947e-06
8.460087e-07 2.1641263e-06 6.307458e-07 1.4848443e-06 8.177109e-07 7.757411e-07 9.276532e-07 7.658059e-07
1.1884969e-06 9.612937e-07 1.2667816e-06 7.7545127e-07 5.881902e-07 1.203332e-06 1.2008209e-06 1.6348198e-06
5.1398376e-07 7.933108e-07 8.099084e-07 8.1258946e-07 6.22609e-07 1.1412387e-06 6.50634e-07 4.4949903e-07
1.723004e-06 1.6283772e-06 6.448571e-07 9.578829e-07 2.130252e-06 1.5143326e-06 8.177054e-07 1.5391961e-06
1.3769442e-06 1.6591819e-06 1.3250628e-06 6.9431155e-07 1.0539994e-06 1.1429862e-06 6.553631e-07 7.3674124e-07
9.940936e-07 1.3666978e-06 1.3425305e-06 1.1660654e-06 1.0310769e-06 8.6634185e-07 1.6535573e-06 1.3752793e-06
1.262551e-06 1.350392e-06 1.3413841e-06 1.0999735e-06 1.9281133e-06 8.155638e-07 1.217988e-06 4.7658332e-07
4.851239e-07 9.878663e-07 1.1001601e-06 1.7871704e-06 1.1926511e-06 8.9771464e-07 8.75102e-07 6.944921e-07
8.6797314e-07 1.0591483e-06 1.2260946e-06 1.3396088e-06 3.4384087e-07 4.6473102e-07 7.712057e-07 9.231778e-07
6.691138e-07 5.233585e-07 9.461716e-07 9.028363e-07 1.0463069e-06 1.3142226e-06 5.773376e-07 8.6049397e-07
5.124357e-07 9.573353e-07 1.0458089e-06 4.9198866e-07 1.3310071e-06 1.0139294e-06 9.940364e-07 3.1726154e-07
6.5112624e-07 7.93862e-07 8.604964e-07 5.80827e-07 5.310033e-07 6.778546e-07 3.8910838e-07 1.4453868e-06
9.2991905e-07 6.6675574e-07 9.887256e-07 1.0535564e-06 2.879863e-07 1.471575e-06 5.2870774e-07 4.5346266e-07
6.765206e-07 4.1533795e-07 7.4849964e-07 8.7598e-07 8.2521007e-07 2.9237222e-07 3.172441e-07 9.640854e-07
3.2086987e-07 3.2926977e-07 7.542002e-07 4.8852706e-07 8.7349133e-07 1.146381e-06 9.97128e-07 5.9891823e-07
8.967905e-07 6.1639184e-07 1.1263885e-06 6.0690087e-07 9.14791e-07 8.8701e-07 9.731066e-07 3.9724458e-07
00000000: 900d a035 a08f 2436 175c 0836 bbed 1736
00000010: 0cad 0835 a3b9 a535 2f86 9c35 35cf 9035
00000020: bb64 d235 5ee8 a835 33b9 d635 9747 4136
00000030: d4a9 6c35 41ac 2636 ff12 9535 9de0 c135
00000040: 9437 7335 58df 9035 1c39 8035 825d 9c35
00000050: 8995 ca35 bc8d 9335 f0ad 9135 45ab 7635
00000060: ccb4 9135 d92f a635 a87b c335 240e a435
00000070: 8396 eb35 4833 3e36 e6bc 7535 62c1 bb35
00000080: e0c4 db35 3551 0d36 072e c035 104b 1536
00000090: ddfe 8135 bcdd d835 a37f ae35 2e59 df35
000000a0: 0028 8635 dd82 2735 f69e 5d35 c6b7 8535
000000b0: a288 8135 3157 2b35 91c2 2035 0f1a c635
000000c0: 7430 c335 5b3a 9e35 4818 d735 495b d835
000000d0: f15a be35 59b8 9635 5434 e735 8544 1435
000000e0: 54c2 a535 b971 a135 2a32 c835 8595 6635
000000f0: db73 d835 f011 8535 fe49 cd35 9d94 8f35
00000100: 0dbb 1e36 bcaf 6e36 9d66 5436 6035 2c36
00000110: c635 2f35 b7d6 0136 b060 b735 abb6 bf35
00000120: 46f7 f835 c036 8d35 904d f535 392b f435
00000130: 357f 9135 1e59 e935 b62d a535 b95e 8336
00000140: 4970 6535 ebfb 0836 6638 ab35 9a19 8135
00000150: baf9 e135 b021 b135 2597 a635 1219 8c35
00000160: 64a5 ff35 eaeb e835 95c3 9635 4933 af35
00000170: 7583 ec35 3e05 c535 1bf5 4935 2735 5236
00000180: 1d61 0536 7568 5336 3f30 1c36 810d 4c36
00000190: 701c b635 7fda a435 7a73 0e36 8493 2636
000001a0: a5ba b335 fd88 9135 6e83 bf35 6c03 8035
000001b0: 502b de35 da9c 9035 95f4 0935 8ea7 f435
000001c0: 5688 0336 3eb6 1a36 e8e4 ba35 d2da 6536
000001d0: cae8 c635 c807 a535 0743 1836 59c0 9535
000001e0: c252 2c36 f2d3 a035 9c61 7b35 fb9d 9d35
000001f0: 7f8e a135 37c3 7935 44ee 5c35 9043 8735
00000200: 4619 6335 683b 1136 8550 2935 dd4a c735
00000210: aa80 5b35 863c 5035 d803 7935 c891 4d35
00000220: 7184 9f35 cd05 8135 4906 aa35 9b28 5035
00000230: 1fe4 1d35 2c82 a135 e42b a135 fb6b db35
00000240: b2f8 0935 e7f3 5435 7b68 5935 b920 5a35
00000250: 5d21 2735 aa2c 9935 3aa7 2e35 ad52 f134
00000260: f741 e735 9d8e da35 3e1a 2d35 9b90 8035
00000270: 73f5 0e36 1240 cb35 4a80 5b35 6096 ce35
00000280: 71cf b835 0eb1 de35 d0d8 b135 ba60 3a35
00000290: 2577 8d35 b568 9935 36ec 2f35 79c4 4535
000002a0: cc6c 8535 616f b735 ff30 b435 b481 9c35
000002b0: 8863 8a35 8f8e 6835 ccef dd35 3d96 b835
000002c0: ec74 a935 1e3f b535 9b09 b435 cda2 9335
000002d0: bc64 0136 1eed 5a35 c079 a335 1ddd ff34
000002e0: 7639 0235 d496 8435 37a9 9335 b5de ef35
000002f0: 2e13 a035 7bfa 7035 8de8 6a35 226d 3a35
00000300: a9fe 6835 0f28 8e35 4a90 a435 9ccc b335
00000310: 2199 b834 2580 f934 da04 4f35 4cd0 7735
00000320: 269d 3335 ec7c 0c35 6bfc 7d35 705a 7235
00000330: d56e 8c35 5864 b035 56fa 1a35 b2fc 6635
00000340: 508e 0935 ca7d 8035 b85d 8c35 3411 0435
00000350: 0ea5 b235 5916 8835 d56a 8535 1854 aa34
00000360: 0ec9 2e35 c819 5535 ddfc 6635 21ea 1b35
00000370: 458a 0e35 d0f5 3535 a6e6 d034 1dff c135
00000380: 8d9f 7935 1bfb 3235 5ab4 8435 ec67 8d35
00000390: 899c 9a34 ef82 c535 85ec 0d35 6f73 f334
000003a0: 249a 3535 9dfb de34 81ec 4835 e324 6b35
000003b0: 0184 5d35 55f7 9c34 b251 aa34 b965 8135
000003c0: 0544 ac34 7ec6 b034 3e74 4a35 5323 0335
000003d0: de79 6a35 5add 9935 0fd5 8535 59c5 2035
000003e0: f9ba 7035 2076 2535 6a2e 9735 e9e9 2235
000003f0: f58f 7535 dd1a 6e35 b09b 8235 e144 d534

exp_avg f4 [512]
-2.166944e-06 2.7023809e-05 -4.9429977e-06 -3.4363832e-06 1.7507708e-05 8.435695e-06 2.1742972e-05 1.4049271e-05
-3.744451e-05 -3.673301e-06 3.10646e-05 -3.0631122e-06 2.820564e-05 1.737658e-05 -1.2809857e-05 -7.774293e-06
4.3387598e-07 -6.685492e-06 8.487734e-06 4.0321145e-05 -1.308311e-05 2.6858312e-05 3.2329473e-05 -2.7490578e-06
1.8213477e-05 -2.202694e-06 1.912856e-05 2.83295e-06 -4.173761e-06 1.5593666e-06 -2.0293198e-06 1.8883507e-05
-6.2300474e-05 -2.4561688e-05 2.9919114e-05 2.6893927e-05 2.516982e-06 1.3797638e-05 -4.504886e-05 7.65448e-06
-4.5796645e-05 2.7832984e-05 -4.593155e-05 4.5256363e-07 2.3196963e-05 5.3792857e-05 1.8509483e-05 -3.840827e-06
8.9402465e-06 1.2095357e-05 1.9215688e-05 -1.7138136e-05 -2.0418178e-05 -2.7914408e-05 1.6178e-05 3.74515e-05
-5.786298e-06 -3.8276036e-07 -5.9576552e-05 -4.642214e-05 3.0569997e-06 5.6042195e-06 -1.1739311e-06 -2.624785e-06
-1.3286306e-05 -5.9855656e-06 -1.6750952e-06 -1.3825303e-05 1.1282525e-05 -1.856877e-06 -3.767017e-05 4.400627e-06
-2.4099656e-06 -5.6109246e-05 -6.041612e-06 -7.2717417e-06 -2.3341372e-05 3.0806874e-05 3.6579022e-05 -2.1627195e-05
2.1121612e-05 8.36089e-06 -1.3668825e-05 5.958431e-05 -9.663363e-06 -2.2519574e-05 9.411226e-06 9.7014545e-06
1.710878e-05 -5.7828706e-06 2.4624123e-05 -6.3672815e-05 1.0025193e-05 8.030104e-06 -1.3836971e-05 1.4383587e-05
2.3504215e-06 -2.5032175e-05 -1.5094592e-05 2.8408573e-05 -1.0284262e-05 1.9750769e-05 -2.0932528e-05 -2.6702613e-05
4.6761525e-06 -2.4203814e-06 6.046893e-06 -1.3778957e-06 2.079868e-07 -8.533501e-05 8.211036e-06 -2.1347669e-05
-1.3229344e-05 -2.8974158e-05 2.0468922e-05 -8.068747e-06 -3.1233958e-05 -4.3450666e-07 -1.0832209e-05 -2.396677e-05
2.5505426e-05 6.4510755e-06 1.7409695e-05 2.3873092e-05 3.287054e-05 -2.433454e-06 7.61814e-06 -8.871511e-06
1.664674e-05 -2.4246068e-05 -3.0701172e-05 -1.0162859e-05 -2.7036524e-05 -4.000016e-06 3.9184004e-05 -5.5846063e-05
-9.867858e-06 -4.6916444e-05 -3.677743e-05 3.6130223e-05 2.0017642e-06 1.634898e-05 1.0866215e-05 3.3249828e-05
3.1302116e-05 6.385349e-06 1.2576566e-05 -3.4398097e-05 2.1093954e-06 1.5382467e-06 -2.5986446e-05 -7.997809e-06
1.7237928e-05 3.9494444e-06 -3.2035266e-05 5.2249784e-06 1.068142e-05 -2.9617274e-06 -9.11439e-06 -1.3783013e-05
-3.4021283e-05 7.566701e-06 1.899085e-05 -5.7268676e-07 3.3067005e-05 -2.0638781e-05 -2.5958172e-05 6.863831e-06
6.2748754e-06 -2.3160983e-05 9.844013e-06 -1.8054719e-06 8.927719e-06 -5.4308416e-08 6.5125977e-07 3.0567877e-05
5.7377506e-06 -3.2198943e-05 7.617471e-07 5.083938e-05 -4.2786755e-06 -6.0398793e-06 -4.2031397e-06 -4.3618315e-06
-9.5179035e-07 -1.5145025e-05 5.020427e-06 4.3130785e-05 3.908624e-05 4.8985235e-06 -2.1199261e-05 3.6912047e-06
-5.5327414e-06 -4.288974e-05 -5.2411237e-06 -1.066799e-05 1.1990152e-05 9.825008e-07 -9.048874e-06 1.3993786e-05
2.1989329e-06 2.7342783e-06 -1.39324175e-05 6.189236e-06 -2.5450152e-05 -4.303145e-05 -1.2878209e-05 -1.1366182e-05
8.135456e-06 4.3020395e-06 2.5272519e-05 -1.9001716e-05 2.4559338e-05 4.7390367e-05 2.5359482e-06 -1.8144981e-05
8.202076e-06 5.711928e-05 -1.3108959e-05 8.816825e-06 -7.0183028e-06 1.318603e-05 -1.0481426e-05 6.281425e-05
4.5209686e-06 -1.6389733e-05 2.4593575e-05 -4.211994e-05 -3.7709156e-06 -1.17447935e-05 2.9949184e-05 3.0792555e-06
-4.9593014e-05 -1.1520136e-05 -8.650949e-06 3.0956802e-05 -1.4277136e-05 -5.1108243e-05 -3.6637368e-05 -8.809261e-06
5.646848e-05 4.402749e-05 1.0446315e-05 -1.4292418e-05 -1.986768e-05 1.0945466e-06 1.2019859e-05 -3.3461907e-05
-2.8550514e-06 4.9879714e-06 -2.7729055e-05 5.598341e-06 1.7552024e-05 -1.9720715e-05 -4.09819e-05 5.3575995e-06
00000000: d06b 11b6 30b1 e237 07dc a5b6 9d9c 66b6
00000010: 84dd 9237 0987 0d37 ad64 b637 29b5 6b37
00000020: bd0d 1db8 d582 76b6 5c4b 0238 de8f 4db6
00000030: 279b ec37 ecc3 9137 ebe9 56b7 566e 02b7
00000040: 76ef e834 f053 e0b6 8a66 0e37 801e 2938
00000050: 887f 5bb7 c94d e137 8299 0738 747c 38b6
00000060: 25c9 9837 ffd1 13b6 4576 a037 b61d 3e36
00000070: 560c 8cb6 6e4b d135 732f 08b6 0668 9e37
00000080: 50a7 82b8 d309 ceb7 cffa fa37 459a e137
00000090: 6ce9 2836 677c 6737 d8f2 3cb8 be6b 0037
000000a0: c615 40b8 e17a e937 a0a6 40b8 dff7 f234
000000b0: 1997 c237 a49f 6138 d044 9b37 74e0 80b6
000000c0: 11fe 1537 2aed 4a37 6031 a137 dec3 8fb7
000000d0: b447 abb7 bc29 eab7 feb5 8737 3e15 1d38
000000e0: ec27 c2b6 2f7e cdb4 d6e1 79b8 65b5 42b8
000000f0: db26 4d36 e10b bc36 f78f 9db5 7725 30b6
00000100: 40e8 5eb7 9ed7 c8b6 d5d3 e0b5 39f3 67b7
00000110: 134a 3d37 cf39 f9b5 0900 1eb8 19a9 9336
00000120: e5ba 21b6 d856 6bb8 0db9 cab6 c9ff f3b6
00000130: 37cd c3b7 a136 0138 6d6c 1938 0c6c b5b7
00000140: 512e b137 c045 0c37 2853 65b7 2aea 7938
00000150: d41f 22b7 6be8 bcb7 e8e4 1d37 6ec3 2237
00000160: d384 8f37 7b0a c2b6 e78f ce37 1588 85b8
00000170: e031 2837 09b9 0637 5725 68b7 0951 7137
00000180: efbb 1d36 30fc d1b7 c73e 7db7 f24e ee37
00000190: 928a 2cb7 74ae a537 4398 afb7 6dff dfb7
000001a0: d8e7 9c36 d66d 22b6 6ae6 ca36 23f0 b8b5
000001b0: fa52 5f34 e2f5 b2b8 22c2 0937 c513 b3b7
000001c0: 9af3 5db7 880d f3b7 adb4 ab37 015f 07b7
000001d0: 3501 03b8 2446 e9b4 fcbb 35b7 3f0c c9b7
000001e0: 7cf4 d537 5176 d836 090b 9237 1343 c837
000001f0: 79de 0938 6c4e 23b6 539f ff36 dad6 14b7
00000200: 9aa4 8b37 0964 cbb7 22c5 00b8 2681 2ab7
00000210: 7ecc e2b7 e037 86b6 8159 2438 413c 6ab8
00000220: 218e 25b7 26c8 44b8 7741 1ab8 888a 1738
00000230: 0c56 0636 2b25 8937 0a4e 3637 bb75 0b38
00000240: 644a 0338 bb41 d636 f1ff 5237 ad46 10b8
00000250: 238f 0d36 c175 ce35 78fd d9b7 542e 06b7
00000260: 2b9a 9037 7885 8436 9b5d 06b8 3952 af36
00000270: 5934 3337 17c2 46b6 02ea 18b7 973d 67b7
00000280: 13b2 0eb8 77e5 fd36 8a4e 9f37 bcba 19b5
00000290: 6db1 0a38 7221 adb7 c0c0 d9b7 dc4f e636
000002a0: c58c d236 d549 c2b7 b727 2537 8b53 f2b5
000002b0: 43c8 1537 bc40 69b3 3bd2 2e35 0236 0038
000002c0: e786 c036 5a0d 07b8 dd7a 4c35 5e3c 5538
000002d0: 8b91 8fb6 2baa cab6 b208 8db6 d95b 92b6
000002e0: 897e 7fb5 6317 7eb7 2475 a836 54e7 3438
000002f0: 88f0 2338 ff5d a436 11d5 b1b7 6ab6 7736
00000300: e3a5 b9b6 82e4 33b8 e9dc afb6 abfa 32b7
00000310: 5029 4937 78de 8335 9ed0 17b7 dac6 6a37
00000320: 6191 1336 8b7e 3736 47bf 69b7 22ad cf36
00000330: c97d d5b7 ab7c 34b8 7d0f 58b7 61b1 3eb7
00000340: 847d 0837 3d5a 9036 5200 d437 e065 9fb7
00000350: c704 ce37 05c5 4638 422f 2a36 0d36 98b7
00000360: a69b 0937 5c93 6f38 8dee 5bb7 faeb 1337
00000370: c37e ebb6 9139 5d37 62d9 2fb7 25bb 8338
00000380: d3b2 9736 af7c 89b7 4d4e ce37 f1a9 30b8
00000390: d60f 7db6 810b 45b7 623b fb37 35a5 4e36
000003a0: 1802 50b8 9b46 41b7 8b23 11b7 9dd7 0138
000003b0: d587 6fb7 0f5d 56b8 13ab 19b8 7dcb 13b7
000003c0: 92d8 6c38 28aa 3838 9542 2f37 78c9 6fb7
000003d0: 85a9 a6b7 56e8 9235 e7a8 4937 7359 0cb8
000003e0: 6999 3fb6 595e a736 b19b e8b7 62d9 bb36
000003f0: af3c 9337 ea6d a5b7 fbe3 2bb8 6ec5 b336

exp_avg_sq f4 [512]
1.1856246e-06 1.4666822e-06 1.0315078e-06 7.3139284e-07 5.341919e-07 8.9245657e-07 6.831538e-07 1.2061566e-06
1.2121882e-06 9.418313e-07 1.2520446e-06 1.2113697e-06 7.8076835e-07 9.969665e-07 1.0516433e-06 1.5035004e-06
4.8439216e-07 8.304122e-07 1.2619381e-06 7.581246e-07 1.2699871e-06 7.1877827e-07 5.9134663e-07 6.379319e-07
7.5262807e-07 1.1091045e-06 7.6115657e-07 7.7866054e-07 7.81192e-07 1.4409237e-06 1.1089319e-06 7.5800233e-07
1.010729e-06 9.139812e-07 1.1938249e-06 7.7022605e-07 6.4234735e-07 7.3077723e-07 1.2969367e-06 9.908192e-07
9.998204e-07 5.8113557e-07 8.350633e-07 9.161408e-07 1.1585123e-06 9.847992e-07 1.1715299e-06 1.1198866e-06
1.0391648e-06 8.47032e-07 1.0888831e-06 6.8638394e-07 7.188881e-07 7.464649e-07 5.7303686e-07 9.0778036e-07
6.9050924e-07 1.0745267e-06 1.1790786e-06 1.4472415e-06 8.873678e-07 3.974758e-07 6.099436e-07 7.6410385e-07
1.0988351e-06 1.1432676e-06 5.962251e-07 8.2392677e-07 9.450561e-07 8.2710403e-07 7.4334923e-07 1.0175842e-06
5.107014e-07 1.4959106e-06 1.0644028e-06 7.9671355e-07 7.0939194e-07 6.547249e-07 1.1990801e-06 9.1035207e-07
5.7367697e-07 1.128958e-06 1.0051143e-06 8.7330847e-07 9.906881e-07 4.310542e-07 9.1623e-07 8.2185136e-07
7.2475564e-07 1.2546855e-06 8.2073075e-07 9.2003296e-07 1.0867404e-06 5.621354e-07 1.2297045e-06 9.35695e-07
1.1908286e-06 6.232926e-07 1.0093459e-06 7.469811e-07 9.1049895e-07 7.40221e-07 8.7926213e-07 7.5548877e-07
1.031825e-06 1.172695e-06 1.3678945e-06 9.454013e-07 6.257513e-07 6.42766e-07 9.747848e-07 6.0485377e-07
6.191438e-07 1.1189339e-06 8.13244e-07 6.6474496e-07 1.0392753e-06 9.860339e-07 1.1828718e-06 7.7194125e-07
6.1183476e-07 1.2245181e-06 4.462079e-07 7.975894e-07 1.2185149e-06 1.6434608e-06 7.8292777e-07 1.4072513e-06
1.0288961e-06 1.3728384e-06 1.0129463e-06 8.043752e-07 1.0079158e-06 8.967584e-07 1.3654404e-06 1.1670314e-06
1.319106e-06 9.4001297e-07 9.595364e-07 1.2591631e-06 6.99546e-07 9.0838836e-07 8.2535144e-07 1.3196682e-06
9.352029e-07 7.977838e-07 6.6564314e-07 1.4524309e-06 6.8555215e-07 1.0356788e-06 7.042672e-07 1.034008e-06
6.4611027e-07 5.999203e-07 9.4719894e-07 6.074829e-07 1.1222511e-06 1.0937886e-06 1.2718599e-06 9.19186e-07
9.332142e-07 1.2199317e-06 6.3576624e-07 9.674283e-07 6.226534e-07 7.1516433e-07 7.075619e-07 1.2139169e-06
7.442771e-07 7.788746e-07 8.5974244e-07 1.1224593e-06 1.0686855e-06 9.0359794e-07 7.5003993e-07 7.1421545e-07
6.634825e-07 1.188996e-06 8.628937e-07 1.095203e-06 9.4505594e-07 1.0050778e-06 7.9900553e-07 7.167293e-07
7.916605e-07 5.9488417e-07 5.8280773e-07 9.709623e-07 8.3471247e-07 1.2062872e-06 7.703664e-07 9.4143576e-07
1.085106e-06 1.6849483e-06 8.773929e-07 4.347369e-07 8.348709e-07 1.1547071e-06 8.29697e-07 1.3290726e-06
8.5869084e-07 1.0183848e-06 9.048546e-07 5.6116346e-07 1.2441968e-06 1.2106192e-06 7.223033e-07 9.4066337e-07
8.199649e-07 9.546665e-07 7.48818e-07 8.257671e-07 6.6715916e-07 1.2394056e-06 1.1998897e-06 8.156236e-07
1.0981454e-06 8.4097974e-07 7.507625e-07 6.8631425e-07 1.1787643e-06 9.274543e-07 8.494658e-07 6.718649e-07
1.0645546e-06 9.615324e-07 8.30537e-07 4.1137838e-07 1.0736405e-06 9.894718e-07 7.3950326e-07 7.903449e-07
1.21114e-06 8.9163274e-07 6.325043e-07 9.01715e-07 1.4427494e-06 9.623043e-07 1.3811789e-06 8.571941e-07
1.2238942e-06 1.4345445e-06 1.0469569e-06 1.1610806e-06 4.7784874e-07 1.0294603e-06 1.084929e-06 5.782866e-07
7.671002e-07 6.062219e-07 1.0081411e-06 9.965029e-07 9.363605e-07 1.2332282e-06 9.526589e-07 8.733762e-07
00000000: c021 9f35 d1da c435 5772 8a35 ef54 4435
00000010: 6365 0f35 2691 6f35 f961 3735 3ae3 a135
00000020: 78b2 a235 27d2 7c35 ed0b a835 5996 a235
00000030: fe95 5135 82cf 8535 3026 8d35 e1cb c935
00000040: 2d07 0235 7ee9 5e35 dd5f a935 ed81 4b35
00000050: 6d74 aa35 11f2 4035 08bd 1e35 593e 2b35
00000060: 3508 4a35 8adc 9435 4852 4c35 2505 5135
00000070: 1bb3 5135 c365 c135 9cd6 9435 8679 4b35
00000080: 62a8 8735 4f58 7535 833b a035 88c1 4e35
00000090: c66d 2c35 a12a 4435 6812 ae35 4afc 8435
000000a0: 9131 8635 55ff 1b35 1d29 6035 b7ec 7535
000000b0: 2e7e 9b35 712d 8435 763d 9d35 034f 9635
000000c0: 6e79 8b35 995f 6335 bd25 9235 f23f 3835
000000d0: 9df9 4035 ad60 4835 cbd2 1935 31ae 7335
000000e0: 6f5b 3935 7538 9035 d540 9e35 d73e c235
000000f0: 7333 6e35 a864 d534 01bb 2335 d11c 4d35
00000100: b07b 9335 6072 9935 470c 2035 d12b 5d35
00000110: c3af 7d35 2806 5e35 928a 4735 ed93 8835
00000120: 2217 0935 19c7 c835 9adc 8e35 bddd 5535
00000130: 0b6d 3e35 5ac0 2f35 14f0 a035 eb5e 7435
00000140: c8fe 1935 b486 9735 77e7 8635 4d6d 6a35
00000150: c9f7 8435 a36b e734 d9f2 7535 329d 5c35
00000160: d48c 4235 aa66 a835 3050 5c35 2ff8 7635
00000170: 1edc 9135 a7e5 1635 530c a535 792c 7b35
00000180: 8fd4 9f35 5750 2735 dc78 8735 2684 4835
00000190: 0369 7435 9ab3 4635 6f06 6c35 cbcc 4a35
000001a0: 3d7d 8a35 7e65 9d35 7f98 b735 7cc7 7d35
000001b0: 4df9 2735 8b8a 2c35 5ad5 8235 3c5d 2235
000001c0: 3d33 2635 472e 9635 b44d 5a35 ed70 3235
000001d0: 3a7d 8b35 de57 8435 2ac3 9e35 6637 4f35
000001e0: f73c 2435 1f5a a435 598e ef34 ed19 5635
000001f0: da8b a335 e294 dc35 632a 5235 c9e0 bc35
00000200: 9a18 8a35 5e42 b835 92f4 8735 3eec 5735
00000210: b947 8735 c5b8 7035 2d44 b735 e5a2 9c35
00000220: 230c b135 3355 7c35 6bc9 8035 8400 a935
00000230: 6fc8 3b35 f9d7 7335 b88d 5d35 741f b135
00000240: a70a 7b35 4927 5635 a6ae 3235 25f1 c235
00000250: c906 3835 a701 8b35 e00c 3d35 3fc8 8a35
00000260: 5c70 2d35 360a 2135 0443 7e35 e811 2335
00000270: 41a0 9635 4ace 9235 c6b4 aa35 fbbd 7635
00000280: fe81 7a35 89bc a335 86a9 2a35 95d8 8135
00000290: 6a24 2735 b8f9 3f35 49ef 3d35 deed a235
000002a0: 55ca 4735 db13 5135 0dc9 6635 68a7 9635
000002b0: c16f 8f35 c78e 7235 5a56 4935 83b8 3f35
000002c0: 2c1a 3235 9795 9f35 9ba1 6735 e3fe 9235
000002d0: c0af 7d35 36e6 8635 3e7b 5635 4365 4035
000002e0: 7f82 5435 21b0 1f35 3e72 1c35 0352 8235
000002f0: 0111 6035 b6e7 a135 2dcb 4e35 f9b6 7c35
00000300: f5a3 9135 6226 e235 fb85 6b35 c965 e934
00000310: e41b 6035 6ffb 9a35 58b8 5e35 9662 b235
00000320: c980 6635 6faf 8835 22e5 7235 dca2 1635
00000330: 47fe a635 8f7c a235 4ee4 4135 e581 7c35
00000340: 8f1b 5c35 1722 8035 6202 4935 48aa 5d35
00000350: d416 3335 a759 a635 e50b a135 3af1 5a35
00000360: fd63 9335 b0bf 6135 0288 4935 283b 3835
00000370: 0836 9e35 2df6 7835 d806 6435 345a 3435
00000380: d1e1 8e35 000e 8135 11f2 5e35 6adb dc34
00000390: 021a 9035 fecd 8435 4782 4635 1728 5435
000003a0: 748e a235 8958 6f35 5dc9 2935 620d 7235
000003b0: 7ea4 c135 8628 8135 f260 b935 ee19 6635
000003c0: af44 a435 938a c035 2a85 8c35 6dd6 9b35
000003d0: 8445 0035 fd2b 8a35 e09d 9135 8d3b 1b35
000003e0: b9ea 4d35 40bb 2235 774f 8735 94bf 8535
000003f0: 345a 7b35 6685 a535 39ba 7f35 f571 6a35
