ldm_checkpoints/ldm_epoch_90.pth (torch, 798986 bytes, 12 tensors)

model.0.weight f4 [512, 64]
-0.1361811 0.08563208 -0.03048304 0.024328453 0.07567351 -0.026241373 -0.06560315 0.075424485
0.034441154 -0.0076467097 0.100308865 0.12155158 -0.12980588 -0.015629418 -0.016237574 0.14474483
0.0052506677 -0.041075636 0.0014760874 0.023933733 0.07293825 0.11422033 -0.0061394093 0.11420329
-0.099200964 0.13177814 -0.06713419 -0.1663031 -0.03489223 -0.08899884 0.103815325 0.073175795
0.02144054 -0.11384188 0.029096758 -0.06563719 0.14921962 -0.04411745 -0.022820812 0.11745768
0.07354472 0.094068564 -0.14434451 -0.09841262 0.12264267 0.053089045 -0.00049822096 0.066360414
0.042471476 -0.067998715 0.09918288 -0.047905084 -0.06241101 0.038953543 -0.11097101 0.053850174
0.08297273 0.0802999 -0.09301675 0.13117173 0.10745998 0.13519134 0.042801708 0.06945705
0.07174452 0.054848038 0.09481844 0.028346866 -0.07085395 0.10688517 0.133332 0.16610493
-0.13864718 -0.07181713 0.08643523 0.07921056 -0.16029674 -0.11506565 -0.04928603 0.118585266
-0.07864918 -0.09830768 -0.028695993 -0.055726483 0.1433876 0.046489272 -0.06566313 -0.09248903
-0.042921346 -0.110410936 -0.106574304 0.0114752 0.103365935 -0.11595024 0.100183696 -0.16251531
0.011760478 0.14836626 -0.14250682 0.03952437 -0.10032584 0.039191347 -0.0724352 0.06590329
0.03932931 -0.08652038 0.00964977 -0.14832376 0.061202243 -0.18769534 -0.032844156 -0.012406815
0.11288466 0.019667543 0.009197557 -0.015801357 -0.082468264 0.01793562 -0.043450955 -0.080264
0.06900267 -0.05194012 0.1593936 0.042971026 0.055356003 0.03912935 -0.10320006 0.1236081
-0.099151954 -0.12043821 -0.024655977 0.10242588 0.024481906 0.040147297 0.13691378 -0.005622535
0.010507865 0.04715111 0.06564068 -0.04176415 -0.056506425 0.15722719 0.045928553 0.05645125
-0.13020678 -0.09587234 0.09364207 -0.14780337 -0.10860163 0.011524445 -0.06607177 -0.13672954
-0.028791124 -0.06320562 0.098452516 0.089168824 -0.09730801 0.029656613 -0.0025565643 0.06558387
-0.075070255 -0.10719361 0.006282636 -0.0042485273 -0.10057932 0.093558714 0.027887318 -0.08607987
-0.116757385 0.03969526 0.13420376 -0.045432128 0.047617976 -0.058960374 0.064858586 -0.017966513
0.06312016 -0.037569903 0.1309902 0.0016708432 -0.029812828 -0.010047306 0.046109952 0.0055899913
-0.0033892703 0.0599058 -0.10130917 -0.007964738 0.069109395 -0.0013084637 -0.08174999 -0.0038781487
-0.08263368 -0.06527157 -0.070017934 -0.010478222 -0.05883744 0.008388016 0.086214826 0.104294136
0.044610027 -0.1417705 0.025064502 0.14914465 0.13546188 -0.095402025 0.060267784 -0.0633596
-0.06883649 0.12546612 -0.0948074 -0.1146733 0.13313045 0.045519162 -0.029204533 0.068651125
-0.09471978 0.066899344 0.0069966144 0.11831801 0.03459247 -0.11888786 0.028260348 0.0096819345
0.07279883 -0.100914955 0.03261124 0.007355805 -0.12764366 0.00870132 0.0985493 -0.089940585
-0.05441711 0.13585767 0.12828393 -0.035735324 0.0022764695 -0.016153393 0.114488706 -0.16852158
-0.13385111 -0.0657794 0.0020800852 0.06562523 -0.037412584 -0.12113096 -0.08715607 0.01524526
-0.0807822 -0.12393755 0.03722507 0.037276592 -0.050804015 -0.014358091 -0.13841857 -0.014323287
00000000: 0f73 0bbe df5f af3d 91b7 f9bc 774c c73c
00000010: b7fa 9a3d 26f8 d6bc f25a 86bd 2778 9a3d
00000020: 2b12 0d3d 4091 fabb bc6e cd3d 09f0 f83d
00000030: d5eb 04be 4409 80bc a904 85bc fd37 143e
00000040: cb0d ac3b ed3e 28bd 4679 c13a ad10 c43c
00000050: a660 953d 59ec e93d 192d c9bb 6ae3 e93d
00000060: e029 cbbd d9f0 063e a67d 89bd 5c4b 2abe
00000070: 28eb 0ebd 0645 b6bd 219d d43d 31dd 953d
00000080: 12a4 af3c ee25 e9bd 535c ee3c cb6c 86bd
00000090: 07cd 183e 80b4 34bd b6f2 babc a78d f03d
000000a0: 9d9e 963d 05a7 c03d 0ccf 13be 8e8c c9bd
000000b0: 152c fb3d e673 593d 0b9b 02ba f8e7 873d
000000c0: 92f6 2d3d e942 8bbd 6520 cb3d 1f38 44bd
000000d0: b0a2 7fbd c08d 1f3d c544 e3bd 0092 5c3d
000000e0: 9bed a93d 4674 a43d 917f bebd e251 063e
000000f0: fa13 dc3d 996f 0a3e d850 2f3d 7f3f 8e3d
00000100: caee 923d 56a8 603d 2c30 c23d b037 e83c
00000110: e01b 91bd 9de6 da3d 2f88 083e 6917 2a3e
00000120: 87f9 0dbe dc14 93bd f404 b13d 2539 a23d
00000130: d424 24be 8aa7 ebbd 26e0 49bd d5dc f23d
00000140: d212 a1bd 8955 c9bd dc13 ebbc 7441 64bd
00000150: 33d4 123e 896b 3e3d 647a 86bd e36a bdbd
00000160: 4bce 2fbd 211f e2bd a143 dabd 7a02 3c3c
00000170: 85b1 d33d 5277 edbd 1c2d cd3d 6a6a 26be
00000180: 05af 403c 53ed 173e 4fed 11be 4ee4 213d
00000190: a277 cdbd 1b87 203d e858 94bd 4ef8 863d
000001a0: c517 213d 9931 b1bd 121a 1e3c 2fe2 17be
000001b0: 34af 7a3d 3533 40be 9887 06bd f445 4bbc
000001c0: 1330 e73d d41d a13c 5ab1 163c d971 81bc
000001d0: 1fe5 a8bd b9ed 923c a1f9 31bd 7461 a4bd
000001e0: 4651 8d3d 2abf 54bd 1338 233e 6302 303d
000001f0: fabc 623d 1946 203d 8e5a d3bd 3e26 fd3d
00000200: 2e10 cbbd 4fa8 f6bd 55fb c9bc a9c4 d13d
00000210: 478e c83c 7e71 243d 2033 0c3e 3e3d b8bb
00000220: 2e29 2c3c 8621 413d 9f6e 863d e310 2bbd
00000230: 4873 67bd 2a00 213e 941f 3c3d 6d39 673d
00000240: ed54 05be b858 c4bd 6ac7 bf3d c459 17be
00000250: 886a debd 07d1 3c3c a350 87bd d402 0cbe
00000260: 5ddb ebbc f371 81bd 79a1 c93d 259e b63d
00000270: 6c49 c7bd 6df2 f23c 088c 27bb d650 863d
00000280: 6fbe 99bd 5388 dbbd 92de cd3b 3b37 8bbb
00000290: 88fc cdbd b69b bf3d f273 e43c a54a b0bd
000002a0: 7f1e efbd 7f97 223d b66c 093e 0a17 3abd
000002b0: 110b 433d 6f80 71bd 94d4 843d 822e 93bc
000002c0: 2445 813d e6e2 19bd 4c22 063e 3200 db3a
000002d0: 083a f4bc 759d 24bc cadd 3c3d 3f2c b73b
000002e0: 851e 5ebb c95f 753d 2f7b cfbd 887e 02bc
000002f0: 3a89 8d3d c280 abba 8a6c a7bd 8a28 7ebb
00000300: d93b a9bd 1aad 85bd 9065 8fbd d9ac 2bbc
00000310: 87ff 70bd e46d 093c 6691 b03d 2a98 d53d
00000320: 01b9 363d 492c 11be 1254 cd3c 60b9 183e
00000330: 85b6 0a3e 2362 c3bd 5adb 763d aec2 81bd
00000340: 25fa 8cbd 317a 003e 622a c2bd d6d9 eabd
00000350: 5953 083e 4d72 3a3d 583e efbc f698 8c3d
00000360: 72fc c1bd 8602 893d db43 e53b b650 f23d
00000370: d5b0 0d3d 7a7b f3bd 3f82 e73c faa0 1e3c
00000380: 8e17 953d 80ac cebd 5d93 053d f708 f13b
00000390: 05b5 02be fb8f 0e3c 37d4 c93d c532 b8bd
000003a0: 7ae4 5ebd 461e 0b3e dd5c 033e 345f 12bd
000003b0: d230 153b 1f54 84bc 0e79 ea3d ec90 2cbe
000003c0: 4410 09be 5ab7 86bd 0a52 083b 8566 863d
000003d0: f03d 19bd 8213 f8bd e27e b2bd 41c7 793c
000003e0: 2371 a5bd f8d2 fdbd 5179 183d 57af 183d
000003f0: df17 50bd 333e 6bbc 99bd 0dbe 38ac 6abc

model.0.bias f4 [512]
0.1309013 -0.052714694 0.11243052 -0.060712922 0.018128026 0.05228572 -0.07348466 0.08511422
0.1186299 0.025541846 0.04369577 0.011632223 -0.083861105 -0.0015338705 0.06365203 -0.06510208
0.04921585 -0.028562851 0.068913855 -0.06949918 0.0038626418 0.16352195 -0.077236 -0.008129574
-0.0810951 0.05683673 0.12325036 0.08013761 0.029878335 -0.031820502 -0.088739365 -0.003003363
0.18188055 -0.023573717 -0.01752436 0.04837044 -0.07159627 -0.03762376 0.06378561 0.0016021553
-0.013623296 -0.08963928 0.09687345 0.09530468 0.10544974 -0.02723448 0.1253297 -0.04716536
0.056993727 0.10969102 0.082434006 0.1015115 0.12921077 0.09363761 0.066928186 0.04142207
-0.0013186319 -0.09391456 0.054871846 0.1453156 0.043724183 0.05532246 0.019203484 -0.004218501
-0.064292274 0.15198693 0.04749874 0.06304828 0.060626548 0.064216875 -0.057345144 -0.04220974
0.14691158 0.0157598 0.029791612 -0.013199339 0.0046705217 -0.02811747 0.124994665 -0.00980377
0.07869736 0.15384711 0.1252671 0.1660251 0.07557534 0.15347469 -0.022388184 0.09430425
-0.016801016 -0.0054092263 0.12817654 0.12888147 0.08179671 -0.04256788 0.10209846 -0.030498613
-0.01676595 0.037543926 0.0669729 0.15764582 -0.061323628 0.055780783 0.118259765 0.031296737
-0.062880635 -0.037171073 -0.050705604 0.119216 0.06857297 0.040423073 0.06974423 0.13560309
-0.055480987 -0.041600253 0.04351775 0.08489488 -0.03752993 0.121436656 0.059615795 0.111579716
-0.06374388 0.12331054 -0.014781282 0.06346139 0.17435274 0.0030154597 0.030468402 0.09548587
0.0005820137 0.064116836 0.008335965 0.080839895 0.053932965 -0.004333464 0.07639678 0.11786341
0.05644031 0.09284395 0.16388492 0.05588114 0.10942835 0.088977054 0.11986177 0.035332106
0.04764491 -0.0739633 0.066494875 0.13749275 -0.07994349 0.14159767 -0.04334 -0.07660383
-0.020466102 -0.02358878 0.13034266 -0.068127275 -0.0186409 0.111870036 -0.004081357 0.09495104
-0.037962146 -0.020080676 0.013631823 -0.040213585 0.06871169 0.049163986 0.10234763 0.05231332
0.101888664 0.18280113 0.07893509 0.020891001 0.058182873 0.18905954 0.03054117 0.031207265
-0.004800457 0.07488018 0.15799715 0.13149682 0.06314661 0.13354853 0.07289576 -0.020270929
0.055633888 0.10656734 -0.041811373 0.114871025 0.088738725 -0.03198559 0.104563884 0.12161573
0.045334928 0.116137914 0.02348639 0.079359725 -0.033598784 0.093258254 0.04592226 -0.024500186
-0.0041106204 0.08468606 0.022855802 0.07267451 0.09019574 0.1444107 0.1011736 0.115360305
0.065873764 0.14503865 0.09448659 0.13557488 0.0034968066 0.12734896 -0.09374285 0.11772017
0.09834572 0.020870274 0.13469833 0.010827329 0.026145967 0.07303153 0.018186852 0.010046618
0.06346935 0.11818055 0.013758342 0.006339885 0.016934114 0.061278187 0.16104686 0.16387635
0.006491193 0.0573617 0.0069167605 -0.06412433 -0.051080085 0.020691304 -0.03982554 0.02490213
0.08499039 -0.06233876 0.095239 0.0419707 0.047152217 0.024739714 -0.02247285 -0.036974262
0.07128359 0.08653509 -0.09940491 -0.061254453 0.16816285 0.061691746 0.066483945 0.108617514
00000000: fe0a 063e 5deb 57bd f941 e63d 1dae 78bd
00000010: 3a81 943c 8d29 563d 207f 96bd 5d50 ae3d
00000020: 3cf4 f23d 223d d13c 56fa 323d 1495 3e3c
00000030: 5fbf abbd 270c c9ba ff5b 823d 3d54 85bd
00000040: 8f96 493d a4fc e9bc b522 8d3d 9655 8ebd
00000050: 6024 7d3b 4c72 273e e82d 9ebd e831 05bc
00000060: 3015 a6bd a2cd 683d af6a fc3d 301f a43d
00000070: 69c3 f43c 3756 02bd fcbc b5bd 12d4 44bb
00000080: e53e 3a3e ab1d c1bc 3f8f 8fbc 1520 463d
00000090: 11a1 92bd 5f1b 1abd 08a2 823d 69ff d13a
000000a0: 3f34 5fbc cd94 b7bd 9665 c63d 1a2f c33d
000000b0: 09f6 d73d d81a dfbc 6e56 003e 7730 41bd
000000c0: 4172 693d afa5 e03d 29d3 a83d 43e5 cf3d
000000d0: d44f 043e 13c5 bf3d a511 893d 30aa 293d
000000e0: f2d5 acba 4756 c0bd 4dc1 603d 9dcd 143e
000000f0: 2118 333d ce99 623d a050 9d3c 5a3b 8abb
00000100: abab 83bd 76a2 1b3e 0a8e 423d 751f 813d
00000110: 8b53 783d 2384 833d bee2 6abd 1fe4 2cbd
00000120: fd6f 163e b21a 813c 8a0d f43c 0a42 58bc
00000130: 2d0b 993b 9c56 e6bc 34fd ff3d fe9f 20bc
00000140: 152c a13d 198a 1d3e 0546 003e 7c02 2a3e
00000150: 3ec7 9a3d 7828 1d3e 6d67 b7bc 9622 c13d
00000160: 49a2 89bc e13f b1bb b640 033e 81f9 033e
00000170: 0985 a73d a85b 2ebd ff18 d13d 3ad8 f9bc
00000180: bf58 89bc a9c7 193d 1629 893d e86d 213e
00000190: 7c2e 7bbd 647a 643d 2d32 f23d 0231 003d
000001a0: 90c7 80bd b240 18bd aeb0 4fbd 8527 f43d
000001b0: fc6f 8c3d aa92 253d 10d6 8e3d 89db 0a3e
000001c0: 0840 63bd 0765 2abd ab3f 323d 5edd ad3d
000001d0: fcb8 19bd c8b3 f83d b12f 743d e883 e43d
000001e0: 278c 82bd 3d8a fc3d 312d 72bc 0cf8 813d
000001f0: 8689 323e 059f 453b df98 f93c 198e c33d
00000200: 4792 183a b04f 833d 9293 083c 638f a53d
00000210: d0e8 5c3d bbff 8dbb ea75 9c3d 5f62 f13d
00000220: f42d 673d f824 be3d 73d1 273e 9fe3 643d
00000230: f91b e03d 9a39 b63d 167a f53d 66b8 103d
00000240: 4f27 433d 127a 97bd 772e 883d e6ca 0c3e
00000250: 6ab9 a3bd fbfe 103e 4985 31bd 78e2 9cbd
00000260: 87a8 a7bc 423d c1bc 8c78 053e 5086 8bbd
00000270: cdb4 98bc 1e1c e53d e7bc 85bb b175 c23d
00000280: 327e 1bbd 3b80 a4bc 0258 5f3c 00b7 24bd
00000290: b7b8 8c3d 2d60 493d a29b d13d 7e46 563d
000002a0: 01ab d03d 3830 3b3e b8a8 a13d 9b23 ab3c
000002b0: 2a51 6e3d d398 413e 7a31 fa3c 61a6 ff3c
000002c0: 274d 9dbb c85a 993d 01ca 213e 1aa7 063e
000002d0: 0353 813d f2c0 083e 5f4a 953d 380f a6bc
000002e0: 5ce0 633d fa3f da3d 6742 2bbd 8041 eb3d
000002f0: a6bc b53d 5203 03bd 9725 d63d ab11 f93d
00000300: 1eb1 393d b7d9 ed3d 8866 c03c 5a87 a23d
00000310: e19e 09bd 2ffe be3d fb18 3c3d 9db4 c8bc
00000320: 62b2 86bb e36f ad3d 173c bb3c 60d6 943d
00000330: 8bb8 b83d 66e0 133e 1b34 cf3d 0642 ec3d
00000340: d3e8 863d 0385 143e 2f82 c13d 24d4 0a3e
00000350: ae2a 653b c467 023e 40fc bfbd 4617 f13d
00000360: 7b69 c93d 23f8 aa3c 5cee 093e 1c65 313c
00000370: 1130 d63c 8e91 953d 98fc 943c 929a 243c
00000380: 38fc 813d a508 f23d ab6a 613c cfbe cf3b
00000390: 69b9 8a3c d6fe 7a3d 78e9 243e 34cf 273e
000003a0: 13b4 d43b 1af4 6a3d fea5 e23b 9e53 83bd
000003b0: 5a39 51bd cf80 a93c 1b20 23bd 8dff cb3c
000003c0: 710f ae3d ed56 7fbd aa0c c33d 78e9 2b3d
000003d0: af22 413d f1aa ca3c fb18 b8bc 5372 17bd
000003e0: 21fd 913d 4f39 b13d cd94 cbbd f3e5 7abd
000003f0: e232 2c3e 7cb0 7c3d bc28 883d dc72 de3d

model.2.weight f4 [64, 512]
-0.041352615 0.016268939 0.002076523 0.0033744092 -0.0015088109 0.05257378 0.0168384 -0.0059439912
0.044420112 0.044751957 -0.016415188 -0.015525783 -0.014760165 0.029149769 -0.0011667229 0.019723272
-0.060477972 0.00373917 0.05510424 -0.038705066 -0.003125223 -0.025410285 -0.077150956 0.024938565
0.028371066 -0.050451495 0.008403827 -0.01214863 0.0030604673 0.01709529 -0.027443048 0.040289924
0.0666655 0.02044602 0.0027957854 -0.030937681 0.014612635 -0.030266292 -0.027912926 0.0036045043
0.03190951 0.036192607 0.00043053654 0.049230333 0.07906446 0.04305866 -0.022942966 -0.021824524
0.014916196 -0.075189285 0.0069175363 -0.026170308 -0.026028588 -0.011002522 0.0014311046 -0.05059182
0.007960786 -0.02602589 0.02239389 0.06214111 0.07290798 0.06573944 -0.01547862 0.022722937
-0.030070066 0.0128726335 -0.02857907 0.01939442 0.037261 -0.039351236 0.016832437 0.012504541
0.00042038353 -0.088848144 0.035602957 -0.011026548 -0.030977847 0.0021986587 0.0022024175 -0.023731226
-0.00058134407 0.007544979 -0.0040450906 -0.053623278 -0.0053266166 0.05865489 0.009318075 0.027859613
-0.03712676 -0.009229499 0.058215603 0.008028273 -0.011314845 0.06476563 0.014132336 -0.044545803
-0.032716762 -0.015624776 -0.0019515398 0.051516633 -0.042043496 0.016889136 -0.04977933 0.04641818
-0.037922665 0.01101599 -0.027148828 -0.03196169 0.022978688 0.0015383544 -0.016654983 0.031287435
0.004593355 0.045949973 -0.023530403 0.05219825 0.006653132 -0.02527736 0.015181597 0.012571356
-0.0077244993 -0.032504894 0.020337379 0.04178078 -0.0583048 0.031344097 0.019770414 -0.008995074
0.018967891 -0.00093066547 0.017568761 -0.065300584 0.0048232777 -0.030936781 0.06260692 0.022521706
0.036772642 0.02350912 0.025713796 0.01786275 -0.009819035 0.06483175 -0.030603204 -0.0044396226
0.0012270092 0.014766891 0.03526575 0.019896224 -0.023884183 -0.03111832 -0.002260594 -0.017298458
-0.012352792 0.010184863 0.021505583 -0.050544217 -0.0005405918 -0.031134339 -0.013776527 0.0017544865
0.0025260928 0.04446484 0.012825094 -0.020737417 0.009259253 -0.009190319 -0.002717072 0.027534079
0.04821002 0.0056695454 0.010293317 -0.039965503 0.016306145 0.034608204 -0.02822481 -0.02463453
0.0011467896 0.010143129 0.06176568 -0.009946645 -0.054114223 -0.0048289862 -0.024467517 0.037837617
0.025707513 -0.0067382804 -0.035642214 0.003967824 0.040243875 0.012624457 -0.05266227 -0.020540621
-0.031307694 -0.020879583 -0.035187304 -0.030777998 0.023710959 0.029285192 -0.012208857 0.05020268
0.022362385 -0.013876341 0.059667017 0.014680894 0.0051828986 0.014642844 -0.023640238 -0.06680087
-0.009094499 0.026975388 -0.025868034 0.0348347 -0.0050933617 0.017537454 -0.058166925 -0.08064583
-0.062839836 -0.02621372 0.01881422 -0.024608053 -0.0025945138 0.03429344 0.041208804 0.019735022
0.023193624 0.010520707 -0.021721976 0.00080288365 -0.004011949 -0.01236517 0.025758402 -0.0024371631
-0.05208906 -0.045706548 -0.027749632 0.02675566 0.015773794 0.04728358 -0.040397134 -0.038683876
-0.05245841 0.035882883 -0.022171969 0.020322716 0.0054895226 0.058799863 -0.011581608 -0.015061575
-0.04066573 0.03303774 0.046918724 -0.0037808195 -0.056775205 -0.070558615 -0.020227667 -0.0318829
00000000: 5c61 29bd 7046 853c 4616 083b 3125 5d3b
00000010: 4bc3 c5ba 9b57 573d aff0 893c d0c5 c2bb
00000020: ddf1 353d d44d 373d 2579 86bc db5f 7ebc
00000030: 9ed4 71bc 7fcb ee3c b9ec 98ba b392 a13c
00000040: c0b7 77bd dd0c 753b fcb4 613d 3489 1ebd
00000050: 8bd0 4cbb 3b29 d0bc 5201 9ebd f64b cc3c
00000060: 706a e83c 3aa6 4ebd 35b0 093c 0c0b 47bc
00000070: 1f92 483b 6c0b 8c3c 3ed0 e0bc 0c07 253d
00000080: ec87 883d 697e a73c 7f39 373b 0571 fdbc
00000090: d569 6f3c 04f1 f7bc a6a9 e4bc 8c39 6c3b
000000a0: 8cb3 023d b33e 143d a3b9 e139 bfa5 493d
000000b0: 8cec a13d 475e 303d e3f2 bbbc 58c9 b2bc
000000c0: 1063 743c d7fc 99bd 80ac e23b 1d63 d6bc
000000d0: e839 d5bc ec43 34bc e793 bb3a 5e39 4fbd
000000e0: f56d 023c 3f34 d5bc 6473 b73c ad87 7e3d
000000f0: c750 953d 66a2 863d 0a9a 7dbc 7425 ba3c
00000100: 8055 f6bc bde7 523c a71e eabc 0ce1 9e3c
00000110: fe9e 183d c32e 21bd 2ee4 893c d9df 4c3c
00000120: ec66 dc39 04f6 b5bd 68d4 113d b2a8 34bc
00000130: 41c5 fdbc 5f17 103b 6f56 103b fd67 c2bc
00000140: 5765 18ba df3b f73b ae8c 84bb 15a4 5bbd
00000150: e68a aebb 1c40 703d d7aa 183c d839 e43c
00000160: 3b12 18bd 5337 17bc 7c73 6e3d 0489 033c
00000170: e661 39bc d8a3 843d 508b 673c a975 36bd
00000180: 0302 06bd 0fff 7fbc cfca ffba 1b03 533d
00000190: cd35 2cbd 165b 8a3c 69e5 4bbd fd20 3e3d
000001a0: cc54 1bbd 697c 343c 3867 debc 43ea 02bd
000001b0: cd3d bc3c 9ca2 c93a 0870 88bc 4127 003d
000001c0: db83 963b 0a36 3c3d d5c2 c0bc d5cd 553d
000001d0: 8402 da3b 7712 cfbc 3cbc 783c 17f8 4d3c
000001e0: cc1d fdbb da23 05bd 939a a63c 5322 2b3d
000001f0: 04d1 6ebd ab62 003d 90f5 a13c 1360 13bc
00000200: 8d62 9b3c e7f7 73ba 5dec 8f3c 50bc 85bd
00000210: 960c 9e3b 226f fdbc 0f38 803d 717f b83c
00000220: e99e 163d 3396 c03c bda5 d23c e754 923c
00000230: 05e0 20bc 82c6 843d 92b3 fabc 417a 91bb
00000240: 99d3 a03a d4f0 713c d272 103d 68fd a23c
00000250: c3a8 c3bc d9eb febc 7926 14bb 7fb5 8dbc
00000260: 5d63 4abc 69de 263c 7a2c b03c 7407 4fbd
00000270: 80b6 0dba 710d ffbc f1b6 61bc ccf6 e53a
00000280: ce8c 253b c420 363d 5820 523c 84e1 a9bc
00000290: 1fb4 173c fe92 16bc e710 32bb 268f e13c
000002a0: df77 453d 98c7 b93b 4da5 283c deb2 23bd
000002b0: 7794 853c 55c1 0d3d b737 e7bc 5bce c9bc
000002c0: e04f 963a 5e2f 263c 02fe 7c3d 41f7 22bc
000002d0: e0a6 5dbd 793c 9ebb 1a70 c8bc 9efb 1a3d
000002e0: 9098 d23c cbcc dcbb 92fd 11bd 8504 823b
000002f0: c3d6 243d cfd6 4e3c 64b4 57bd ce44 a8bc
00000300: 7f3c 00bd a90b abbc 9020 10bd 2422 fcbc
00000310: 7c3d c23c 80e7 ef3c a807 48bc 53a1 4d3d
00000320: 5231 b73c 9859 63bc 6765 743d 2288 703c
00000330: 4ed5 a93b 8ae8 6f3c 2ca9 c1bc e5ce 88bd
00000340: 1801 15bc 7dfb dc3c 33e9 d3bc d5ae 0e3d
00000350: 37e6 a6bb b5aa 8f3c 7140 6ebd a429 a5bd
00000360: 2cb2 80bd 28be d6bc 4720 9a3c d496 c9bc
00000370: b808 2abb 4777 0c3d 90ca 283d 57ab a13c
00000380: 8e00 be3c 0b5f 2c3c 49f2 b1bc 9c78 523a
00000390: ab76 83bb 4897 4abc 4903 d33c d0b8 1fbb
000003a0: 575b 55bd ca36 3bbd 3253 e3bc b02e db3c
000003b0: 0b38 813c 6dac 413d 7777 25bd fc72 1ebd
000003c0: a1de 56bd eef9 123d fda1 b5bc d37b a63c
000003d0: 74e1 b33b 20d8 703d c9c0 3dbc d3c4 76bc
000003e0: 1c91 26bd 9552 073d d92d 403d a0c7 77bb
000003f0: 1e8d 68bd 0981 90bd 7eb4 a5bc a597 02bd

model.2.bias f4 [64]
0.0073314845 0.027411507 0.012397802 -0.02157789 0.0116230175 -0.012019922 0.007452499 -0.0061314264
0.027229326 0.039561924 -0.039277118 -0.00066167524 0.03789493 0.017106028 0.0042155087 0.034488127
0.00443206 0.021831967 0.026057534 0.021687668 -0.00012960038 -0.028518658 0.01624252 -0.023813207
0.005978779 0.020568684 -0.036876705 -3.5435263e-05 -0.011475428 0.038879056 -0.032331318 0.011440946
0.023356393 0.02493198 0.012109303 -0.0089006405 0.024660911 -0.038683094 0.002407842 0.031254046
-0.029939918 0.0013435765 -0.032969415 -0.02472277 -0.0014443232 -0.028145835 0.009048691 0.0308928
0.03042551 -0.020144138 0.033746965 0.0007106775 0.048757296 -0.013173853 0.012337148 -0.0038419014
0.014479145 0.006868449 -0.020808693 -0.028407305 -0.014138087 -0.031251144 -0.030853683 0.023977397
00000000: f33c f03b 198e e03c 2720 4b3c 1dc4 b0bc
00000010: 786e 3e3c 35ef 44bc 1834 f43b 22ea c8bb
00000020: 0910 df3c af0b 223d 0be1 20bd 4674 2dba
00000030: b737 1b3d f121 8c3c 4022 8a3b 6c43 0d3d
00000040: d03a 913b f4d8 b23c 9c76 d53c 56aa b13c
00000050: 56e5 07b9 f69f e9bc 090f 853c ea13 c3bc
00000060: a2e9 c33b a87f a83c 070c 17bd 53a0 14b8
00000070: 6f03 3cbc a53f 1f3d d86d 04bd ce72 3b3c
00000080: e855 bf3c 273e cc3c 1966 463c fed3 11bc
00000090: ae05 ca3c 2a72 1ebd e3cc 1d3b 3e04 003d
000000a0: 8f44 f5bc f21a b03a f00a 07bd 6887 cabc
000000b0: 724f bdba 1892 e6bc f640 143c e612 fd3c
000000c0: eb3e f93c 5205 a5bc 423a 0a3d c24c 3a3a
000000d0: bbb5 473d 25d7 57bc c021 4a3c 69c8 7bbb
000000e0: f039 6d3c ba10 e13b fe76 aabc 70b6 e8bc
000000f0: 6fa3 67bc 3301 00bd ddc0 fcbc 3f6c c43c

exp_avg f4 [512, 64]
2.1566555e-05 -4.2227434e-06 8.257846e-06 2.592874e-05 -8.719274e-06 2.2014177e-05 -7.204728e-06 -5.8049695e-06
1.2857663e-05 5.182312e-05 -6.6653565e-06 -4.1257375e-05 -2.992805e-05 -4.1546036e-06 -5.788663e-07 8.073271e-06
-2.6524138e-05 -1.2890715e-05 -1.818727e-05 -1.85636e-05 -4.5058892e-05 -2.0730657e-05 1.0803824e-06 -7.2966063e-06
-3.7964995e-07 2.218492e-05 -9.3170665e-06 -5.5586395e-07 -1.9302348e-05 -1.1232707e-05 1.185209e-05 3.4467357e-06
5.288697e-05 -3.2307067e-05 4.7998088e-05 -1.3482454e-05 1.1389342e-06 1.4700475e-05 1.3927947e-05 -2.5910317e-06
3.060355e-05 -8.936406e-06 -1.4962536e-05 -2.1347043e-06 3.3532074e-06 -1.824951e-05 -2.8550638e-05 -4.658718e-05
-1.1106219e-05 -1.005696e-05 3.6955819e-06 -1.887315e-05 -1.06904145e-05 -1.1448766e-05 2.6460224e-05 -2.021247e-06
2.8149689e-05 -5.6959812e-05 -1.5484171e-05 -1.6662943e-05 1.3467231e-05 -3.4233737e-05 2.6628044e-05 -4.16737e-06
-1.6900121e-07 -7.3955454e-07 -6.4444805e-07 -1.3904433e-06 -3.627425e-06 -1.3608302e-05 3.1802924e-06 5.9901618e-06
9.033872e-06 -1.3620038e-05 2.1849066e-06 3.1805796e-06 -6.7524536e-07 -9.373311e-06 3.4361624e-06 7.119435e-07
-5.830974e-06 -6.985474e-06 3.6908164e-06 -8.442358e-06 1.1225408e-06 -1.40652e-05 1.2205179e-05 -5.694103e-06
-1.00743755e-05 -1.0795641e-05 4.1448857e-06 1.4916017e-06 1.2340697e-06 -2.2265533e-06 1.2008012e-06 2.2612633e-06
1.00900215e-05 -3.612692e-06 4.1661865e-06 3.21225e-06 3.4681855e-06 -4.1180905e-07 3.7741816e-06 1.3367217e-07
-7.025236e-06 -9.917262e-06 3.9159313e-06 4.596863e-06 4.372166e-06 2.231214e-06 -6.2239205e-06 -1.1338365e-05
-1.6859494e-06 1.230898e-05 3.1970321e-06 3.117593e-06 1.1105081e-05 3.4496145e-06 4.6485434e-06 3.3032645e-06
6.1375954e-06 -4.5777892e-06 9.714335e-06 8.936447e-07 6.00171e-06 -9.412111e-07 2.3065345e-06 -6.155073e-06
-2.7931113e-05 1.217513e-05 1.1613704e-05 -7.5205785e-06 3.9843894e-06 -4.0951338e-05 2.074285e-05 6.3584785e-06
-1.828409e-05 -4.385214e-05 9.998506e-06 3.3602853e-05 3.832167e-05 7.3207284e-06 -1.971603e-06 -1.2680738e-05
4.0153252e-05 1.7485663e-05 1.3683889e-05 2.7003982e-05 1.7795455e-05 2.9600176e-05 1.6374917e-05 1.7178494e-06
-4.3836603e-06 -3.498493e-05 -3.2994315e-06 -1.6646928e-06 3.4063713e-05 -2.6408006e-06 -1.7781582e-05 -6.3502233e-07
-6.56585e-05 2.1026639e-05 -2.5490775e-05 1.5426502e-06 -2.524043e-05 -3.276896e-05 -1.3187488e-05 2.1973197e-05
-3.9575434e-06 1.2228571e-05 -1.2204197e-05 6.240682e-06 -5.580243e-06 2.3086575e-05 3.5920108e-05 2.5034999e-05
5.5275773e-06 5.8565033e-06 -2.9953687e-06 8.928565e-06 -3.6137986e-05 2.8110744e-06 -2.6123138e-05 2.863685e-05
-3.3807406e-05 4.346738e-05 2.6921296e-05 2.3342789e-05 -1.7469071e-06 3.6263496e-05 -2.9353967e-05 -1.6273166e-06
6.849849e-06 -9.581988e-06 -4.205278e-06 8.1267635e-06 -1.4001403e-05 -5.1061133e-06 5.9531277e-07 6.56243e-06
-1.917104e-05 -1.1764837e-05 6.6944317e-06 -5.5702685e-06 5.9713507e-06 -5.3321637e-06 -5.4715724e-06 -1.8086655e-06
6.5279546e-06 -1.2065681e-05 -7.68724e-06 -1.0263651e-05 3.6760983e-07 -1.6941856e-06 3.5670196e-06 -1.0037753e-05
-1.3717413e-05 -1.6750117e-05 2.0938478e-06 5.685315e-07 -5.5064033e-06 1.3441703e-05 -1.814771e-06 1.274482e-06
-8.442209e-06 8.769876e-06 1.3791898e-05 1.9513847e-05 3.790322e-06 -7.977459e-06 -1.1634422e-06 1.0084076e-05
-1.4129867e-05 9.087671e-07 -9.178052e-06 1.8413266e-05 1.0172095e-05 -1.990658e-06 1.15203875e-05 -1.1156565e-05
-5.027631e-06 8.235592e-06 -9.330869e-06 3.2139928e-06 1.7217186e-05 -1.1812603e-05 5.854053e-06 1.5367491e-06
1.0194781e-06 -3.1292393e-06 -1.8031305e-06 1.6469416e-05 -1.2175221e-05 1.7523923e-06 -2.4823861e-05 6.9580306e-06
00000000: d3e9 b437 17b1 8db6 2e8b 0a37 8c81 d937
00000010: ff48 12b7 16ab b837 24c0 f1b6 4fc8 c2b6
00000020: 3eb7 5737 a75c 5938 faa6 dfb6 c50b 2db8
00000030: ff0d fbb7 c667 8bb6 6463 1bb5 6f72 0737
00000040: 2780 deb7 3345 58b7 dd90 98b7 07b9 9bb7
00000050: 9efd 3cb8 bfe6 adb7 a801 9135 5fd5 f4b6
00000060: b1d2 cbb4 c119 ba37 7f50 1cb7 ae36 15b5
00000070: 7aeb a1b7 1c74 3cb7 57d8 4637 784e 6736
00000080: f4d2 5d38 7381 07b8 8e51 4938 b332 62b7
00000090: 7bdd 9835 0fa2 7637 14ac 6937 96e1 2db6
000000a0: 505c 0038 92ed 15b7 9a07 7bb7 f141 0fb6
000000b0: aa07 6136 8616 99b7 0780 efb7 9b66 43b8
000000c0: d954 3ab7 50ba 28b7 9d01 7836 c851 9eb7
000000d0: fb5a 33b7 1314 40b7 e6f6 dd37 c2a4 07b6
000000e0: ff22 ec37 22e8 6eb8 01e4 81b7 66c7 8bb7
000000f0: 51f1 6137 3296 0fb8 4a5f df37 70d5 8bb6
00000100: b376 35b4 cd85 46b5 22fe 2cb5 459f bab5
00000110: b06e 73b6 364f 64b7 026d 5536 19ff c836
00000120: 2f90 1737 9e81 64b7 69a0 1236 f171 5536
00000130: 8242 35b5 1042 1db7 d298 6636 631c 3f35
00000140: afa7 c3b6 c464 eab6 beaf 7736 a7a3 0db7
00000150: 35aa 9635 93f9 6bb7 d8c4 4c37 f90f bfb6
00000160: 1d05 29b7 ed1e 35b7 4c14 8b36 0b33 c835
00000170: 50a2 a535 e56b 15b6 372b a135 35c0 1736
00000180: 5048 2937 9371 72b6 45cb 8b36 0992 5736
00000190: f9be 6836 9b16 ddb4 f247 7d36 8787 0f34
000001a0: 51ba ebb6 5162 26b7 9865 8336 c13e 9a36
000001b0: 9fb4 9236 f7bb 1536 12d7 d0b6 e839 3eb7
000001c0: c848 e2b5 ab82 4e37 988c 5636 d737 5136
000001d0: f64f 3a37 ed7f 6736 affa 9b36 a7ad 5d36
000001e0: 8bf1 cd36 e99a 99b6 c0fa 2237 cce2 6f35
000001f0: 4c62 c936 89a7 7cb5 f6c9 1a36 ad87 ceb6
00000200: 9c4d eab7 c943 4c37 7bd8 4237 4759 fcb6
00000210: a5b1 8536 2ac3 2bb8 ee00 ae37 ea5a d536
00000220: c960 99b7 e0ed 37b8 42bf 2737 caf0 0c38
00000230: 94bb 2038 94a4 f536 e24f 04b6 5bbf 54b7
00000240: 3a6a 2838 2dae 9237 db93 6537 9c86 e237
00000250: 7347 9537 e54d f837 de5c 8937 db90 e635
00000260: 5b17 93b6 c8bc 12b8 cd6b 5db6 696e dfb5
00000270: a2df 0e38 9c38 31b6 a829 95b7 6776 2ab5
00000280: 24b2 89b8 5d62 b037 06d5 d5b7 0f0d cf35
00000290: 69bb d3b7 6771 09b8 d43f 5db7 1553 b837
000002a0: 0acb 84b6 5029 4d37 a1c0 4cb7 0d67 d136
000002b0: ec3d bbb6 0baa c137 eca8 1638 4002 d237
000002c0: 8779 b936 fb82 c436 0b04 49b6 e5cb 1537
000002d0: de92 17b8 e4a5 3c36 0323 dbb7 2b39 f037
000002e0: 6dcc 0db8 be50 3638 0bd5 e137 42d0 c337
000002f0: 4577 eab5 a219 1838 2a3d f6b7 2c6a dab5
00000300: c1d7 e536 53c2 20b7 101b 8db6 2f58 0837
00000310: 91e7 6ab7 2e55 abb6 95cd 1f35 d832 dc36
00000320: 7fd1 a0b7 9761 45b7 bba0 e036 3ee8 bab6
00000330: 835d c836 f0ea b2b6 7398 b7b6 46c1 f2b5
00000340: b40a db36 b56d 4ab7 72f8 00b7 0c32 2cb7
00000350: e95b c534 c663 e3b5 ee60 6f36 d267 28b7
00000360: d723 66b7 9a82 8cb7 0884 0c36 309d 1835
00000370: a5c3 b8b6 ad83 6137 0f93 f3b5 de0e ab35
00000380: 03a3 0db7 5522 1337 c063 6737 abb1 a337
00000390: 3c5d 7e36 edd6 05b7 9227 9cb5 c72e 2937
000003a0: 510f 6db7 00f2 7335 6ffb 19b7 3076 9a37
000003b0: d1a8 2a37 3e97 05b6 b047 4137 152d 3bb7
000003c0: 05b3 a8b6 992b 0a37 c78b 1cb7 faaf 5736
000003d0: a06d 9037 be2e 46b7 ef6d c436 4c42 ce35
000003e0: 00d5 8835 ecff 51b6 1803 f2b5 cd27 8a37
000003f0: 2d44 4cb7 be33 eb35 d63c d0b7 0779 e936

exp_avg_sq f4 [512, 64]
3.0176554e-07 2.0616913e-07 4.799761e-07 2.8040438e-07 4.7214658e-07 4.6267198e-07 3.311145e-07 3.2302938e-07
1.975801e-07 5.7777015e-07 4.4994698e-07 5.676632e-07 7.986522e-07 2.8082312e-07 6.99583e-07 3.960055e-07
3.2949444e-07 5.413648e-07 8.238572e-07 7.688106e-07 5.9143304e-07 3.132395e-07 2.4033798e-07 8.268875e-07
1.4884291e-07 3.0508556e-07 2.4028665e-07 3.465632e-07 3.9775597e-07 3.439176e-07 4.4362795e-07 2.081758e-07
5.7752175e-07 1.9363671e-07 4.6254655e-07 5.519784e-07 2.3622393e-07 3.5392065e-07 3.254252e-07 4.649691e-07
3.2432666e-07 2.3590772e-07 4.0536455e-07 2.60201e-07 2.8725117e-07 3.2194183e-07 4.443865e-07 4.745733e-07
4.902521e-07 3.699163e-07 2.0060699e-07 3.5570883e-07 3.9796072e-07 3.8830336e-07 3.0923553e-07 4.059767e-07
4.2462023e-07 3.699232e-07 3.804984e-07 3.5426592e-07 5.4574565e-07 1.7846097e-07 3.480012e-07 3.8162767e-07
3.183612e-07 2.0120483e-07 5.189671e-07 2.2471546e-07 4.960677e-07 2.01453e-07 2.9942422e-07 3.5022967e-07
3.417675e-07 4.6466025e-07 2.3296002e-07 5.2208594e-07 9.4492225e-07 2.2350699e-07 2.747533e-07 3.3779034e-07
3.4022926e-07 7.3376935e-07 2.8228237e-07 7.465257e-07 4.9944066e-07 6.284618e-07 6.595443e-07 3.0965157e-07
1.9736578e-07 2.4340227e-07 2.9224682e-07 3.262853e-07 2.043241e-07 3.5415616e-07 3.5142884e-07 1.7313948e-07
4.966904e-07 2.7466493e-07 3.4677421e-07 4.7218148e-07 2.2817902e-07 2.7777867e-07 5.1059095e-07 1.576258e-07
3.581586e-07 2.8731384e-07 6.315611e-07 3.0123437e-07 3.281405e-07 2.66316e-07 3.6486873e-07 2.4712264e-07
7.2251004e-07 2.4102087e-07 2.431034e-07 3.0920776e-07 4.6202618e-07 4.548555e-07 1.420478e-07 2.8291987e-07
2.400141e-07 1.7246461e-07 5.515523e-07 5.128313e-07 2.8892111e-07 3.8508904e-07 3.1530334e-07 1.993219e-07
1.8240547e-07 2.6579974e-07 2.0950354e-07 2.3192001e-07 4.5529532e-07 2.7775314e-07 2.65733e-07 1.6458499e-07
2.0881821e-07 4.1674372e-07 2.666349e-07 2.4249718e-07 3.602328e-07 3.0926535e-07 1.813647e-07 1.9563971e-07
2.4956898e-07 3.1693256e-07 3.9575923e-07 2.9858506e-07 1.796209e-07 1.9314935e-07 2.4487417e-07 1.6485664e-07
1.479917e-07 1.8124828e-07 2.4422118e-07 1.499541e-07 2.0119822e-07 2.3741111e-07 1.5067411e-07 2.2439477e-07
3.9038824e-07 2.3442261e-07 2.4742934e-07 3.8134226e-07 2.1064291e-07 2.3799642e-07 2.326943e-07 1.4150865e-07
2.3715184e-07 1.3201677e-07 2.9262978e-07 3.6477758e-07 2.691643e-07 2.4835947e-07 2.46779e-07 2.2065336e-07
2.3638236e-07 2.2144242e-07 1.5059382e-07 2.2618102e-07 2.9154313e-07 2.176047e-07 2.5816155e-07 3.5011334e-07
3.5756378e-07 2.643131e-07 2.3489356e-07 2.6537768e-07 2.9646716e-07 2.5265376e-07 3.2205728e-07 3.149635e-07
1.927905e-07 2.7738085e-07 2.2219876e-07 2.1049071e-07 2.7455332e-07 2.2032565e-07 1.5716127e-07 1.9165307e-07
2.4545852e-07 4.0725914e-07 4.2083929e-07 2.860377e-07 3.516601e-07 4.4345722e-07 1.8541974e-07 1.9799876e-07
5.587105e-07 3.5526728e-07 6.583281e-07 2.5993384e-07 2.815165e-07 2.0958802e-07 1.057643e-07 7.0708427e-07
1.25089e-07 1.0214225e-07 2.646778e-07 4.9810166e-07 4.1224988e-07 1.5260066e-07 4.576499e-07 3.2993844e-07
2.3546433e-07 1.252521e-07 1.14170206e-07 2.4035944e-07 1.9326377e-07 3.363929e-07 3.2961594e-07 4.7109637e-07
2.2250063e-07 9.287867e-08 2.7429613e-07 2.1418845e-07 1.4618568e-07 1.1478105e-07 2.149314e-07 5.494525e-07
2.8958965e-07 2.487293e-07 2.6525453e-07 2.5375198e-07 2.2750736e-07 2.3971273e-07 1.7830315e-07 2.242138e-07
3.3324127e-07 1.3306126e-07 3.2014086e-07 2.0292268e-07 2.4397872e-07 1.1269404e-07 4.247164e-07 2.715754e-07
00000000: 5702 a234 575f 5d34 b5d7 0035 7c8a 9634
00000010: 557b fd34 2765 f834 08c4 b134 d26c ad34
00000020: 6826 5434 1018 1b35 3e90 f134 8561 1835
00000030: f662 5635 09c4 9634 faca 3b35 959a d434
00000040: 5fe5 b034 4e52 1135 0927 5d35 4360 4e35
00000050: f8c2 1e35 4f2b a834 cd07 8134 47f7 5d35
00000060: a1d1 1f34 a4ca a334 bf00 8134 490f ba34
00000070: 2a8b d534 ada3 b834 c32b ee34 ee86 5f34
00000080: fe06 1b35 74ea 4f34 ea53 f834 ab2b 1435
00000090: bda4 7d34 7c02 be34 19b6 ae34 dea0 f934
000000a0: 1e1f ae34 d24d 7d34 e1a0 d934 c1b1 8b34
000000b0: 8037 9a34 59d7 ac34 0494 ee34 dcc8 fe34
000000c0: de99 0335 e998 c634 6e66 5734 40f8 be34
000000d0: 4ea7 d534 0278 d034 0205 a634 03f5 d934
000000e0: 5cf7 e334 dc99 c634 4d47 cc34 f031 be34
000000f0: 5b7f 1235 fa9e 3f34 ecd4 ba34 82e2 cc34
00000100: 3beb aa34 c30a 5834 264f 0b35 5149 7134
00000110: 8329 0535 fb4e 5834 8dc0 a034 3307 bc34
00000120: 2b7c b734 6b76 f934 9023 7a34 7925 0c35
00000130: 90a6 7d35 22fd 6f34 ce81 9334 8d59 b534
00000140: c1a8 b634 3ff8 4435 988c 9734 db64 4835
00000150: 4d11 0635 91b3 2835 8a0b 3135 303e a634
00000160: 7eeb 5334 f4ac 8234 19e6 9c34 4f2c af34
00000170: 2e64 5b34 da22 be34 03ac bc34 38e8 3934
00000180: 4e54 0535 a975 9334 492c ba34 2180 fd34
00000190: 5f01 7534 9c21 9534 8b0f 0935 da3f 2934
000001a0: f148 c034 1d40 9a34 8c88 2935 56b9 a134
000001b0: 492b b034 31fa 8e34 2de3 c334 47ac 8434
000001c0: 83f2 4135 a865 8134 e083 8234 3101 a634
000001d0: 650c f834 dd32 f434 cd85 1834 36e4 9734
000001e0: 49db 8034 b62e 3934 630e 1435 80a9 0935
000001f0: 041d 9b34 3cbe ce34 f646 a934 3005 5634
00000200: 3cdb 4334 3db3 8e34 e5f3 6034 b005 7934
00000210: 506f f434 1a1e 9534 11aa 8e34 c7b8 3034
00000220: 8337 6034 d2bc df34 0626 8f34 8f30 8234
00000230: 0566 c134 1b09 a634 26bd 4234 0911 5234
00000240: 80fc 8534 e126 aa34 bc78 d434 384d a034
00000250: d1dd 4034 7d64 4f34 4077 8334 7303 3134
00000260: a6e7 1e34 269d 4234 811d 8334 1203 2134
00000270: f208 5834 12eb 7e34 fcc8 2134 2af1 7034
00000280: 8d96 d134 99b5 7b34 6ed6 8434 48bb cc34
00000290: 152d 6234 f58b 7f34 86da 7934 9af1 1734
000002a0: cda3 7e34 7ec0 0d34 bb1a 9d34 a6d6 c334
000002b0: a981 9034 4456 8534 0c7d 8434 bcec 6c34
000002c0: 4ad0 7d34 a1c5 6d34 eab2 2134 2adc 7234
000002d0: 6285 9c34 b9a6 6934 7499 8a34 36f7 bb34
000002e0: 31f7 bf34 eae6 8d34 0d37 7c34 3b79 8e34
000002f0: 232a 9f34 78a4 8734 37e7 ac34 4118 a934
00000300: d901 4f34 efea 9434 8895 6e34 3f03 6234
00000310: 5266 9334 a792 6c34 29c0 2834 32c9 4d34
00000320: 90c7 8334 45a5 da34 b6ef e134 b990 9934
00000330: cccb bc34 4c14 ee34 ca17 4734 7c99 5434
00000340: 4bfa 1535 90bb be34 f6b7 3035 098d 8b34
00000350: 5523 9734 1e0b 6134 8a20 e333 76ce 3d35
00000360: 3450 0634 4c59 db33 0a19 8e34 49b5 0535
00000370: 3153 dd34 8dda 2334 ecb2 f534 6522 b134
00000380: f1d3 7c34 097d 0634 bc2d f533 c00a 8134
00000390: f183 4f34 7d99 b434 12f6 b034 feea fc34
000003a0: 82e8 6e34 9774 c733 f942 9334 acfb 6534
000003b0: 37f7 1c34 8d7d f633 e5c7 6634 177e 1335
000003c0: e678 9b34 1889 8534 4e68 8e34 683b 8834
000003d0: bf48 7434 deb1 8034 9973 3f34 6cbf 7034
000003e0: 55e8 b234 9adf 0e34 d3df ab34 f6e2 5934
000003f0: 2efc 8234 3402 f233 9404 e434 0acd 9134

exp_avg f4 [512]
2.7777536e-05 3.220495e-06 -1.4251687e-05 1.2825807e-05 8.017545e-06 1.380231e-05 1.3053082e-05 -3.7575668e-05
1.2930619e-05 -3.81029e-05 -1.6749744e-05 -3.8901126e-05 1.4980822e-06 2.0059517e-06 1.2292616e-05 3.2419089e-06
-1.6820812e-05 3.855516e-05 -2.0759437e-05 -3.5025093e-07 -1.4306988e-05 -1.6691777e-06 -1.4107671e-05 1.3548202e-05
-1.0160243e-05 1.9920193e-05 -3.0617255e-06 -7.9342935e-06 8.918643e-06 1.4121696e-06 1.19787e-05 8.830799e-06
1.6722223e-06 -4.2952483e-06 -7.842319e-06 -8.377565e-06 -5.6946512e-05 -1.4030731e-05 -1.6442089e-05 -2.9052496e-06
-2.320132e-05 1.4102068e-05 1.1488427e-05 -2.3609211e-05 -3.1851578e-05 -5.533466e-06 3.1833988e-05 9.791521e-07
1.2205075e-05 -2.5676769e-05 -1.6125025e-06 9.241731e-06 -1.4400402e-05 -2.4351146e-05 -4.16055e-05 1.5821907e-07
2.923371e-05 3.0247633e-05 -4.2352553e-05 3.7549637e-06 -2.2440754e-05 1.7320786e-05 -1.8795196e-05 5.2998266e-06
-1.2371245e-05 -3.747047e-05 1.3391003e-05 6.798438e-06 -4.630771e-06 1.6189455e-06 -3.8526156e-05 -1.4710603e-05
2.0126452e-05 6.0481443e-06 -5.0620038e-06 -7.3845245e-06 -3.1847862e-06 1.557626e-05 -6.5405357e-06 -6.531896e-06
-6.080895e-06 -8.5373285e-06 3.314874e-05 -1.915046e-06 -3.96889e-06 1.1993203e-07 -1.3897047e-06 -2.1007732e-05
1.1784308e-05 4.9234077e-06 4.4922785e-05 1.7127673e-05 -7.4106474e-06 5.753203e-05 -2.5511088e-05 -1.9635778e-05
-2.3885204e-05 -6.63099e-06 -2.7791016e-06 1.689185e-05 1.3035963e-05 -4.6968003e-06 1.6111859e-05 -1.7332457e-05
-7.5989337e-06 -5.3622243e-05 -1.31205925e-05 -2.5272157e-05 5.247493e-06 -1.5986636e-05 6.7761025e-06 1.3595495e-06
1.5409107e-05 8.585588e-06 -1.9075237e-06 7.906864e-06 1.1940756e-05 -5.7174652e-06 1.1342461e-05 3.029413e-05
-2.992259e-06 2.3891711e-05 6.8538566e-06 -2.7252595e-06 1.3054425e-05 2.8090131e-05 -2.5856289e-05 1.3052416e-05
2.4648507e-06 1.45647455e-05 -7.1228505e-06 1.6626995e-05 -8.064999e-06 5.930105e-06 2.307351e-05 -1.9466086e-05
2.7921806e-05 1.8071341e-05 -6.0306394e-07 -1.9012441e-05 1.2220988e-05 -1.3806283e-05 -1.9330986e-05 2.3044443e-06
-4.4968306e-06 2.1010093e-05 -6.4479364e-06 1.2713098e-05 4.2518906e-05 3.774274e-05 -1.18772305e-05 4.4753633e-06
-2.5667332e-05 2.8402515e-05 -1.3078427e-05 4.2131447e-05 -3.916859e-06 2.201801e-05 6.9595562e-06 -3.0114315e-05
6.763942e-06 -1.8889534e-05 2.4797278e-05 -3.5075323e-06 2.0737301e-05 -1.1733943e-06 2.7625936e-06 5.8156456e-06
1.0730821e-05 9.226986e-06 2.9241195e-05 1.2299307e-05 1.4712751e-05 -1.8471756e-05 1.076038e-05 -1.1581719e-05
2.0601528e-05 -6.6679836e-06 -5.4241817e-05 -1.1192432e-05 -1.4530148e-05 -2.0362151e-05 -3.6492464e-05 1.4928351e-05
-1.9020084e-05 -4.30937e-05 2.5743544e-05 -2.6160296e-05 1.5167472e-05 -6.715574e-06 1.1472553e-05 -1.6252396e-05
2.716752e-05 -2.455013e-06 1.4466964e-05 -2.6767631e-05 6.200221e-06 -1.6302045e-05 9.283705e-06 7.2132807e-06
7.391989e-06 1.4260249e-05 -2.1593264e-06 2.4081804e-05 -1.9669647e-05 3.7362195e-06 4.010059e-05 1.4956395e-05
-5.974592e-06 -3.901838e-06 1.8932187e-05 8.403343e-06 2.37785e-06 -3.358899e-05 -1.8941852e-05 -1.9860125e-05
8.6938535e-06 -4.8870706e-06 1.8272473e-06 -1.0338789e-05 -3.086605e-05 -5.830497e-06 -5.5311352e-06 1.6300086e-05
3.1793516e-06 2.0152627e-05 -1.10232095e-05 -7.16303e-06 -4.5511784e-05 -2.0176585e-05 2.7602873e-05 -6.14144e-06
-4.408432e-06 8.496593e-07 1.3343352e-05 -1.577476e-05 1.6648177e-06 1.3448683e-05 -1.2732003e-05 -1.4747787e-05
-2.3322127e-05 2.713885e-05 -3.388008e-05 1.5995005e-05 1.1092257e-05 4.2225244e-07 1.090014e-05 1.4433272e-06
1.8855302e-05 1.081165e-05 1.7853745e-05 -1.0409383e-05 -2.9099117e-05 3.9652914e-06 -3.445591e-06 2.902018e-05
00000000: ce03 e937 af1f 5836 881a 6fb7 6c2e 5737
00000010: 1883 0637 7890 6737 8ffe 5a37 919a 1db8
00000020: 96f0 5837 add0 1fb8 cd81 8cb7 c429 23b8
00000030: b611 c935 fd9d 0636 623c 4e37 928f 5936
00000040: 6b1a 8db7 4ab6 2138 8d24 aeb7 1f0a bcb4
00000050: 0c08 70b7 8208 e0b5 fcaf 6cb7 164d 6337
00000060: e975 2ab7 4a1a a737 0b78 4db6 881d 05b7
00000070: 48a1 1537 c789 bd35 20f8 4837 fe27 1437
00000080: 1f71 e035 e71f 90b6 8192 03b7 5e8d 0cb7
00000090: dad9 6eb8 8865 6bb7 1eed 89b7 cff7 42b6
000000a0: 75a0 c2b7 ec97 6c37 6bbe 4037 650c c6b7
000000b0: 5f98 05b8 1cac b9b6 7c85 0538 696b 8335
000000c0: 66c4 4c37 7164 d7b7 2a6d d8b5 ef0c 1b37
000000d0: 4199 71b7 b045 ccb7 9181 2eb8 ede2 2934
000000e0: ea3a f537 4cbc fd37 b5a3 31b8 c9fd 7b36
000000f0: 273f bcb7 1b4c 9137 60aa 9db7 2ad5 b136
00000100: 188e 4fb7 9c29 1db8 eca9 6037 231e e436
00000110: 0562 9bb6 8b4a d935 2597 21b8 8fcd 76b7
00000120: 3ad5 a837 2af1 ca36 48da a9b6 95c8 f7b6
00000130: 36ba 55b6 c3a9 8237 c676 dbb6 8f2c dbb6
00000140: 7e0a ccb6 8c3b 0fb7 3009 0b38 3d84 00b6
00000150: 812c 85b6 aac6 0034 e485 bab5 c339 b0b7
00000160: 38b5 4537 c033 a536 796b 3c38 66ad 8f37
00000170: faa8 f8b6 8c4e 7138 a500 d6b7 83b7 a4b7
00000180: 165d c8b7 c57f deb6 9a80 3ab6 f9b2 8d37
00000190: 09b5 5a37 3599 9db6 f427 8737 2b65 91b7
000001a0: 58fa feb6 72e8 60b8 8420 5cb7 8bff d3b7
000001b0: 9f13 b036 0a1b 86b7 475e e336 c479 b635
000001c0: ce42 8137 d20a 1037 0203 00b6 b9a7 0437
000001d0: 2855 4837 a7d8 bfb6 804b 3e37 2620 fe37
000001e0: 9ece 48b6 0f6b c837 2efa e536 9ae3 36b6
000001f0: 5404 5b37 19a3 eb37 f5e5 d8b7 b3fb 5a37
00000200: d069 2536 1b5b 7437 d200 efb6 337a 8b37
00000210: e84e 07b7 37fb c636 fc8d c137 1a4b a3b7
00000220: 9f39 ea37 e997 9737 3de2 21b5 e87c 9fb7
00000230: be08 4d37 89a1 67b7 fa28 a2b7 0da6 1a36
00000240: 7be3 96b6 d53e b037 5a5b d8b6 574a 5537
00000250: 5456 3238 f54d 1e38 5144 47b7 142b 9636
00000260: 2d50 d7b7 f041 ee37 6b6b 5bb7 4cb6 3038
00000270: 906d 83b6 51b3 b837 2286 e936 009e fcb7
00000280: d2f5 e236 f774 9eb7 c003 d037 f262 6bb6
00000290: 04f5 ad37 857d 9db5 ff64 3936 0424 c336
000002a0: 8608 3437 9acd 1a37 fd4a f537 1f59 4e37
000002b0: c9d6 7637 cbf3 9ab7 7b87 3437 1b4f 42b7
000002c0: 72d1 ac37 8bbd dfb6 b581 63b8 21c7 3bb7
000002d0: 83c6 73b7 63cf aab7 7c0f 19b8 c874 7a37
000002e0: 528d 9fb7 82bf 34b8 d7f3 d737 cf72 dbb7
000002f0: cc77 7e37 5756 e1b6 3d7a 4037 c155 88b7
00000300: cee5 e337 cdc0 24b6 23b7 7237 0d8b e0b7
00000310: 7e0b d036 60c0 88b7 36c1 1b37 9c09 f236
00000320: b408 f836 4e3f 6f37 f2e8 10b6 4803 ca37
00000330: 3f00 a5b7 c3bb 7a36 ae31 2838 3aed 7a37
00000340: 5b79 c8b6 89ec 82b6 90d0 9e37 15fc 0c37
00000350: 2793 1f36 e7e1 0cb8 51e5 9eb7 4b99 a6b7
00000360: d1db 1137 9efb a3b6 bd3f f535 c374 2db7
00000370: 2b76 01b8 96a3 c3b6 1798 b9b6 2bbc 8837
00000380: d85c 5536 700d a937 53f0 38b7 f659 f0b6
00000390: e8e3 3eb8 e340 a9b7 b88c e737 9112 ceb6
000003a0: 24ec 93b6 2414 6435 43dd 5f37 0a54 84b7
000003b0: b372 df35 a7a1 6137 899b 55b7 436d 77b7
000003c0: e3a3 c3b7 3da8 e337 751a 0eb8 032d 8637
000003d0: e218 3a37 efb1 e234 bfdf 3637 58b8 c135
000003e0: 742b 9e37 af63 3537 a0c4 9537 f6a3 2eb7
000003f0: e119 f4b7 980d 8536 cd3a 67b6 5d70 f337

exp_avg_sq f4 [512]
4.1038427e-07 3.820701e-07 2.5800503e-07 2.7618842e-07 3.0830242e-07 4.4397234e-07 4.934273e-07 4.294744e-07
5.4637354e-07 4.7625147e-07 3.787949e-07 3.021488e-07 5.338358e-07 3.3968237e-07 4.4333575e-07 4.7554968e-07
2.8376357e-07 3.6083296e-07 4.2292922e-07 3.2155307e-07 3.27067e-07 3.8992442e-07 2.7006843e-07 3.1682458e-07
2.2471794e-07 2.912353e-07 3.320241e-07 3.2692313e-07 3.1635278e-07 4.3999378e-07 1.5627118e-07 3.255698e-07
2.4241794e-07 2.2637738e-07 4.891789e-07 5.557134e-07 4.72694e-07 2.613238e-07 4.4579045e-07 2.8061285e-07
4.023658e-07 4.4845254e-07 3.3902316e-07 3.2245998e-07 4.3699745e-07 2.7025723e-07 4.635826e-07 4.82037e-07
2.6967308e-07 3.251064e-07 4.5078625e-07 4.955823e-07 4.636134e-07 3.6445383e-07 5.408967e-07 4.1991285e-07
2.7093944e-07 2.9076355e-07 4.6752143e-07 5.8911684e-07 3.5924649e-07 3.6880868e-07 2.8907883e-07 3.4785842e-07
2.5886695e-07 4.6798124e-07 2.6865197e-07 3.5398884e-07 3.1751483e-07 3.841399e-07 4.5176125e-07 3.034271e-07
2.5933753e-07 3.4654164e-07 4.3455086e-07 3.5468508e-07 4.62051e-07 5.255683e-07 2.0538288e-07 3.1039133e-07
2.4662066e-07 4.171869e-07 2.35707e-07 3.7090513e-07 2.8584012e-07 2.724238e-07 4.8928695e-07 2.8135935e-07
2.7669938e-07 2.7553506e-07 4.3287938e-07 2.757701e-07 4.2493267e-07 4.0492966e-07 4.0076165e-07 2.136892e-07
2.3928442e-07 3.0448317e-07 4.3645574e-07 4.3479e-07 2.7367815e-07 2.1350854e-07 2.938291e-07 4.0165605e-07
5.728164e-07 5.8561034e-07 4.8677333e-07 4.0612508e-07 3.7736964e-07 4.6252563e-07 5.644621e-07 3.1427638e-07
3.9421627e-07 3.329854e-07 4.7809954e-07 4.970878e-07 2.5247215e-07 4.4571894e-07 3.546951e-07 2.9643388e-07
3.5148867e-07 5.072324e-07 3.571504e-07 2.709513e-07 3.9046853e-07 3.0110155e-07 3.4942596e-07 4.0992208e-07
2.9101304e-07 3.5518227e-07 3.1866728e-07 4.765881e-07 3.2888792e-07 3.1110932e-07 2.5687422e-07 4.5926797e-07
3.229693e-07 5.759579e-07 3.2407263e-07 2.3030435e-07 3.9729989e-07 2.655722e-07 3.3815834e-07 2.8450756e-07
3.0245238e-07 3.6698447e-07 3.0161087e-07 3.278401e-07 2.0202528e-07 2.5416387e-07 3.2428667e-07 2.7160073e-07
2.4914854e-07 2.531647e-07 4.3263267e-07 3.5605132e-07 2.7906168e-07 3.630272e-07 3.2130478e-07 3.0368807e-07
3.4179482e-07 3.513761e-07 3.7954288e-07 3.9456356e-07 4.7801814e-07 3.2512887e-07 4.1325984e-07 2.4897514e-07
3.0066843e-07 4.003815e-07 5.222454e-07 3.143359e-07 3.3299463e-07 4.324798e-07 2.9869375e-07 3.0214625e-07
3.5071068e-07 2.6269282e-07 3.0398627e-07 4.0505608e-07 2.6776382e-07 4.642522e-07 3.2722716e-07 3.5150407e-07
4.2189242e-07 3.1864755e-07 3.149846e-07 3.0881526e-07 4.1745037e-07 2.4506872e-07 3.293397e-07 3.7607387e-07
2.828533e-07 3.1485467e-07 5.4203537e-07 3.2564145e-07 2.9765138e-07 3.6849423e-07 3.0784057e-07 2.6325316e-07
2.2830942e-07 4.46351e-07 2.6995448e-07 2.9568992e-07 4.217445e-07 5.7264305e-07 4.135669e-07 3.0893986e-07
3.3284772e-07 4.730979e-07 3.42863e-07 4.6085208e-07 4.5711235e-07 2.9632366e-07 2.9419942e-07 5.7537915e-07
3.251328e-07 4.2604847e-07 4.0876282e-07 3.0737604e-07 4.1388915e-07 1.723563e-07 4.0093988e-07 3.1588186e-07
3.8541992e-07 2.9670912e-07 4.1022113e-07 2.973091e-07 4.89252e-07 4.952536e-07 4.7672557e-07 2.7841315e-07
3.114629e-07 2.7609772e-07 4.177717e-07 4.308796e-07 4.0625858e-07 2.4687063e-07 3.270817e-07 2.7345908e-07
5.1020635e-07 4.695266e-07 2.546094e-07 2.3194791e-07 4.0837082e-07 2.4354367e-07 2.4601098e-07 4.863775e-07
4.031399e-07 4.97675e-07 1.8595632e-07 2.6726852e-07 4.664611e-07 2.8820256e-07 4.1304205e-07 5.527157e-07
00000000: c952 dc34 511f cd34 f183 8a34 0c47 9434
00000010: c384 a534 185b ee34 1174 0435 8392 e634
00000020: 81aa 1235 81af ff34 2d5d cb34 0437 a234
00000030: eb4c 0f35 975d b634 9a03 ee34 0d4f ff34
00000040: 2b58 9834 81b8 c134 f30e e334 eba1 ac34
00000050: bf97 af34 ce56 d134 ecfd 9034 0a18 aa34
00000060: ff49 7134 135b 9c34 0b41 b234 f983 af34
00000070: 32d7 a934 4938 ec34 7fcb 2734 f9c9 ae34
00000080: ab25 8234 2412 7334 1e50 0335 562c 1535
00000090: 92c6 fd34 124c 8c34 f954 ef34 23a7 9634
000000a0: bc04 d834 d9c2 f034 fd02 b634 901e ad34
000000b0: 799c ea34 df17 9134 4fe2 f834 5565 0135
000000c0: 96c7 9034 498a ae34 9703 f234 2808 0535
000000d0: 8ae6 f834 27aa c334 2332 1135 6270 e134
000000e0: a275 9134 3d1a 9c34 a8ff fa34 cd23 1e35
000000f0: 76de c034 ae00 c634 b132 9b34 4cc1 ba34
00000100: 67fa 8a34 da3e fb34 3f3b 9034 db0b be34
00000110: e876 aa34 c93b ce34 9889 f234 b4e6 a234
00000120: 143b 8b34 520c ba34 374c e934 8c6b be34
00000130: ce0f f834 c714 0d35 3787 5c34 dca3 a634
00000140: 4967 8434 bbf9 df34 a616 7d34 d020 c734
00000150: 9175 9934 a441 9234 8b57 0335 bc0d 9734
00000160: 468d 9434 40ed 9334 7d66 e834 8e0d 9434
00000170: 4d22 e434 1c65 d934 4328 d734 7172 6534
00000180: 0077 8034 d977 a334 0552 ea34 156d e934
00000190: 0aee 9234 c840 6534 90bf 9d34 30a3 d734
000001a0: a5c3 1935 d632 1d35 cfaa 0235 6809 da34
000001b0: 4a99 ca34 0a51 f834 8a85 1735 d1b9 a834
000001c0: aca4 d334 2ac5 b234 c056 0035 9d6f 0535
000001d0: 828b 8734 254b ef34 ec6c be34 9025 9f34
000001e0: 3cb4 bc34 bf28 0835 61be bf34 4377 9134
000001f0: 96a1 d134 15a7 a134 bd98 bb34 4313 dc34
00000200: 873c 9c34 e1af be34 4c15 ab34 c5dd ff34
00000210: 0392 b034 8a06 a734 86e8 8934 4f91 f634
00000220: 9064 ad34 879b 1a35 34fc ad34 9449 7734
00000230: 7b4c d534 f793 8e34 218c b534 6cbe 9834
00000240: bd60 a234 f605 c534 15ed a134 0002 b034
00000250: 49ec 5834 0474 8834 9f19 ae34 85d0 9134
00000260: b7c2 8534 b1ea 8734 9544 e834 5227 bf34
00000270: f2d1 9534 14e6 c234 cb7f ac34 920a a334
00000280: ec7f b734 c3a4 bc34 fac3 cb34 67d4 d334
00000290: 2851 0035 5f8d ae34 00de dd34 e2aa 8534
000002a0: 8e6b a134 04f4 d634 6e30 0c35 ffc1 a834
000002b0: 6fc6 b234 922f e834 285c a034 aa36 a234
000002c0: 4f49 bc34 3a08 8d34 8e33 a334 7c76 d934
000002d0: 2ec1 8f34 563e f934 c2ad af34 5ab6 bc34
000002e0: 7480 e234 9612 ab34 271b a934 3fcb a534
000002f0: f11d e034 fd91 8334 1bd0 b034 33e7 c934
00000300: 10db 9734 4c09 a934 6380 1135 d2d3 ae34
00000310: e5cc 9f34 76d5 c534 4945 a534 3d55 8d34
00000320: 3725 7534 04a2 ef34 43ee 9034 50bf 9e34
00000330: 1f6c e234 bbb7 1935 3408 de34 5fdc a534
00000340: 3eb2 b234 15fe fd34 bb12 b834 076b f734
00000350: 0b69 f534 6a16 9f34 76f2 9d34 c173 1a35
00000360: e98d ae34 a8bb e434 ef73 db34 7105 a534
00000370: 7e34 de34 f010 3934 c240 d734 7996 a934
00000380: b6eb ce34 644b 9f34 5d3c dc34 da9d 9f34
00000390: 2455 0335 91f1 0435 aaf0 ff34 d078 9534
000003a0: 2337 a734 953a 9434 1b4a e034 a453 e734
000003b0: c11b da34 a489 8434 c499 af34 eecf 9234
000003c0: 1df5 0835 3f13 fc34 40b1 8834 5b0d 7934
000003d0: 0f3e db34 63c0 8234 7e13 8434 9b8f 0235
000003e0: 206f d834 f797 0535 49ab 4734 1b7d 8f34
000003f0: ed6d fa34 42ba 9a34 11c0 dd34 555e 1435
