ldm_checkpoints/ldm_epoch_90.pth (torch, 798986 bytes, 12 tensors)

model.0.weight f4 [512, 64]
0.02596626 0.010067958 0.05397667 0.07215882 0.11937898 -0.11785048 -0.0072274166 -0.008420116
-0.07315883 0.025232354 0.013841751 -0.06854245 0.108327545 -0.027872443 0.10836164 0.023014596
0.0067652846 -0.07188426 -0.0031522333 -0.107079156 -0.03747346 -0.09041919 -0.030042255 0.051031616
-0.07597062 0.070706196 0.08006378 0.107264996 -0.07616561 -0.06377015 0.10046243 -0.013694817
-0.0439038 0.062410537 0.0051830495 0.11646712 0.088310674 0.016376078 0.032687448 0.09040023
0.08859322 -0.085835636 0.018862948 -0.12629306 -0.11106644 0.056669075 -0.0871813 0.06102115
-0.111226015 -0.06818643 0.051437557 -0.057676964 0.13054462 0.047326304 -0.12011618 -0.02461657
0.101635166 0.0037188563 0.032712996 0.0072364793 -0.03900388 -0.10457303 -0.00612566 -0.07562717
-0.009523116 -0.05882029 -0.05050904 0.09014817 0.14074479 -0.04839779 0.08105612 0.051925354
0.053733554 0.042703416 -0.05369411 0.1232222 0.07733497 0.006534339 0.065782614 -0.030797191
-0.01126047 0.078425415 0.029889556 0.15302101 0.048463657 0.06868094 0.16994894 -0.06636563
0.12856424 -0.14271337 0.02795345 -0.04874708 -0.0922405 0.10799225 -0.002527103 0.057274397
-0.077408835 0.1195321 -0.11230511 -0.052740473 -0.058097005 -0.08238995 0.02967107 -0.041758608
-0.026170688 0.010685398 -0.031262435 -0.0255178 -0.16206571 -0.11674217 -0.0007999085 -0.15901904
-0.06636174 -0.06733466 0.051175267 0.008782856 0.059949324 -0.022250863 -0.072630204 0.04394232
0.1538983 -0.08886516 0.035647932 -0.06558969 -0.0050807483 0.016774317 0.07616626 0.02088104
-0.098369144 -0.06794625 -0.044962686 -0.12920305 -0.013417742 -0.118425846 -0.040973607 -0.15482648
0.03333926 0.041965794 -0.15414229 0.12895499 0.116359144 -0.0022356643 0.06823983 0.049854483
0.13923974 0.002576446 -0.06986102 0.05859095 -0.11435141 -0.118746646 -0.04566988 0.015554516
0.09727868 0.11633748 0.046823706 0.02877815 0.10117689 0.04778726 0.08267033 -0.013251209
-0.04370282 0.023282375 0.07075279 0.075312026 0.06629567 0.026568703 0.10759153 -0.040835742
0.11019126 -0.096596316 -0.07915314 -0.0074037057 0.05100739 0.124882944 -0.03856025 -0.053737547
0.05846644 -0.057797305 0.03224128 -0.024679601 -0.049938273 -0.11073165 0.060903996 0.024306761
0.07381895 0.119791016 -0.06403682 0.1235927 -0.02130428 -0.016735021 -0.00059759815 -0.017293217
0.016880048 0.07317852 -0.09860898 0.044995643 -0.081743725 -0.06457467 -0.04244636 -0.08709971
-0.043486644 -0.12947965 0.06482641 -0.0026451247 0.03283144 -0.0836205 0.052136563 0.04086384
0.03187105 -0.11290484 0.09000434 -0.13916458 -0.07562923 0.05381916 0.113859795 -0.059665866
-0.041093234 -0.07752813 0.04237387 0.016097203 0.04250202 -0.062212195 0.027754849 -0.039668124
0.09593993 0.025638303 0.14902796 0.052936997 0.09420246 -0.063729964 -0.1047677 -0.024149386
0.069279015 -0.08106762 0.0685189 -0.010028574 0.043075025 -0.07799793 0.081352055 0.06294339
0.08490202 -0.041132323 0.08854646 -0.070813954 0.0026092196 -0.0020584096 0.07092466 -0.012500232
0.061905738 -0.033039466 -0.11675631 0.034730263 -0.015027304 -0.018788887 0.083953895 -0.033407405
00000000: 32b7 d43c 14f4 243c a416 5d3d 01c8 933d
00000010: f77c f43d 985b f1bd f7d3 ecbb 87f4 09bc
00000020: 4cd4 95bd 15b4 ce3c 83c8 623c fc5f 8cbd
00000030: d5da dd3d c054 e4bc b5ec dd3d 1b89 bc3c
00000040: 52af dd3b 0e38 93bd b395 4ebb 514c dbbd
00000050: c57d 19bd b22d b9bd 2d1b f6bc 8706 513d
00000060: 7c96 9bbd 69ce 903d 7bf8 a33d c0ad db3d
00000070: b7fc 9bbd ed99 82bd 3fbf cd3d 3a60 60bc
00000080: 79d4 33bd 31a2 7f3d 92d6 a93b 5086 ee3d
00000090: 3adc b43d 2027 863c 46e3 053d c123 b93d
000000a0: 5d70 b53d 98ca afbd 7886 9a3c f852 01be
000000b0: cd76 e3bd d51d 683d 1c8c b2bd 50f1 793d
000000c0: 77ca e3bd 54a5 8bbd 30b0 523d ae3e 6cbd
000000d0: 7dad 053e 3ad9 413d 79ff f5bd b0a8 c9bc
000000e0: 1926 d03d 0eb8 733b 10fe 053d fd1f ed3b
000000f0: 88c2 1fbd 622a d6bd c3b9 c8bb 6be2 9abd
00000100: d806 1cbc 8bed 70bd 91e2 4ebd 9b9f b83d
00000110: 671f 103e c33c 46bd c000 a63d aeaf 543d
00000120: b717 5c3d c7e9 2e3d 5bee 5bbd ec5b fc3d
00000130: cc61 9e3d 021e d63b 09b9 863d 644a fcbc
00000140: d67d 38bc 819d a03d f1da f43c 8ab1 1c3e
00000150: d481 463d 98a8 8c3d 1807 2e3e b4ea 87bd
00000160: 58a6 033e 7423 12be a2fe e43c 05ab 47bd
00000170: 96e8 bcbd 0a2b dd3d c19d 25bb 8f98 6a3d
00000180: 8688 9ebd 3fcd f43d 3900 e6bd 6506 58bd
00000190: 20f7 6dbd 10bc a8bd be10 f33c 130b 2bbd
000001a0: e963 d6bc cf11 2f3c 0a0d 00bd b50a d1bc
000001b0: 8ef4 25be 8516 efbd f3b0 51ba e3d5 22be
000001c0: aae8 87bd c1e6 89bd 289d 513d f8e5 0f3c
000001d0: 6c8d 753d 7147 b6bc 25bf 94bd ddfc 333d
000001e0: 8497 1d3e f0fe b5bd 9103 123d e353 86bd
000001f0: 687c a6bb 4b6a 893c 0efd 9b3d b70e ab3c
00000200: c375 c9bd 6727 8bbd cb2a 38bd ce4d 04be
00000210: 17d6 5bbc 4089 f2bd f1d3 27bd d58a 1ebe
00000220: bf8e 083d 53e4 2b3d 7ad7 1dbe c70c 043e
00000230: b44d ee3d 3984 12bb 53c1 8b3d 3734 4c3d
00000240: dd94 0e3e 97d9 283b 4b13 8fbd 10fd 6f3d
00000250: 1231 eabd 7131 f3bd 5710 3bbd 5ed8 7e3c
00000260: 0b3a c73d 5842 ee3d 37ca 3f3d 28c0 eb3c
00000270: d435 cf3d 93bc 433d 104f a93d 991b 59bc
00000280: ba01 33bd aeba be3c d7e6 903d 313d 9a3d
00000290: 06c6 873d 9ca6 d93c f358 dc3d 6143 27bd
000002a0: f5ab e13d 4ad4 c5bd 0b1b a2bd c99a f2bb
000002b0: 20ed 503d a1c2 ff3d 5af1 1dbd e71b 5cbd
000002c0: 817a 6f3d debc 6cbd 6f0f 043d e02c cabc
000002d0: 138c 4cbd 46c7 e2bd 7876 793d f91e c73c
000002e0: 642e 973d fe54 f53d bc25 83bd 2b1e fd3d
000002f0: 5086 aebc e217 89bc 22a8 1cba 81aa 8dbc
00000300: 0748 8a3c 9fde 953d 81f3 c9bd 5a4d 383d
00000310: 4169 a7bd b93f 84bd 3cdc 2dbd 5561 b2bd
00000320: 0d1f 32bd 5096 04be b5c3 843d d459 2dbb
00000330: 437a 063d 3a41 abbd 268d 553d d860 273d
00000340: 388b 023d a73a e7bd 3254 b83d 2981 0ebe
00000350: 7fe3 9abd 7b71 5c3d 532f e93d 3264 74bd
00000360: 6151 28bd 11c7 9ebd 3990 2d3d 48de 833c
00000370: 9916 2e3d 37d2 7ebd 235e e33c 0b7b 22bd
00000380: 277c c43d 6b07 d23c c99a 183e 77d4 583d
00000390: 38ed c03d db84 82bd 7390 d6bd efd4 c5bc
000003a0: 28e2 8d3d c806 a6bd a353 8c3d e34e 24bc
000003b0: 706f 303d 61bd 9fbd e89b a63d 77e8 803d
000003c0: 1ce1 ad3d 5e7a 28bd d957 b53d e806 91bd
000003d0: 71ff 2a3b 62e6 06bb f340 913d c6cd 4cbc
000003e0: df90 7d3d 6454 07bd ef1d efbd 5241 0e3d
000003f0: 1535 76bc 27eb 99bc 05f0 ab3d 34d6 08bd

model.0.bias f4 [512]
-0.15498349 0.06332351 -0.016122008 0.0009256464 -0.17341326 -0.12861964 -0.004193345 -0.07983095
-0.15553752 0.0066390843 -0.002433284 -0.0536903 0.103598446 0.06551817 -0.08067769 -0.11188676
-0.19768098 -0.11149745 -0.15186687 -0.04130054 -0.08304559 0.027448887 0.058851395 -0.11294631
-0.16135882 -0.002056169 -0.08992494 -0.050892763 -0.14189073 -0.1339848 -0.06972997 0.026261086
-0.1830726 -0.11285215 -0.058470614 0.037535086 -0.048604634 -0.021951983 -0.030191703 -0.15177433
-0.17894301 -0.02311034 0.058065202 -0.0485457 0.012857118 -0.100300655 -0.11296235 -0.01844462
-0.05125081 -0.06265616 -0.06936738 -0.075425595 -0.057522077 -0.22115235 0.037065543 -0.023651006
-0.018602898 -0.13019043 -0.052852508 -0.10500023 0.029635297 -0.15978833 -0.0031480151 -0.049123373
0.042587463 -0.108421825 -0.11495332 -0.055038102 0.04126417 -0.09329323 -0.043171376 0.048086107
-0.038761288 0.059247613 -0.109894596 -0.12756246 0.023028322 -0.11614553 -0.19500747 -0.1554185
-0.1539125 -0.02998199 0.020974789 -0.1056072 -0.054035332 -0.09491927 -0.0049830084 0.013697833
-0.02896587 -0.05555212 -0.121081345 -0.099589966 -0.14405161 -0.14205351 -0.14267986 -0.090694144
-0.09548749 -0.07985163 -0.029369246 -0.016810542 -0.16367544 -0.13527313 -0.046530493 -0.06687508
-0.03153318 -0.050142273 -0.07569998 0.024676202 -0.07823683 -0.0081124 -0.08707672 0.009184162
0.036786575 -0.108248636 -0.0951094 -0.04823134 -0.19482897 -0.109146 -0.09891998 -0.11743012
-0.19314517 -0.13877913 -0.08479382 0.048441183 -0.018200707 0.08319008 -0.0090186335 -0.12923992
-0.09752354 0.011734085 -0.030546939 -0.10318385 -0.04883539 -0.16716981 -0.04183767 -0.041048583
-0.026065333 0.014429465 -0.09791228 0.026889225 -0.0865563 -0.03859631 -0.15184893 -0.11357778
-0.12988171 -0.0057886657 -0.14247905 0.0066404315 -0.008305035 -0.10927967 0.054883003 -0.14153317
-0.00016707368 -0.023232492 -0.08285816 -0.09823586 -0.15791519 -0.060091745 -0.041813403 -0.18661043
-0.07938535 -0.120732814 -0.11915588 -0.12242609 0.06640484 -0.16796392 -0.05968891 -0.05049325
-0.020319687 0.0237125 -0.1929594 0.007400255 -0.12220474 -0.043646615 -0.062626064 -0.13244767
0.040796228 -0.0057886187 0.02362411 -0.040946566 -0.018917575 0.071607776 -0.09409672 -0.091950804
-0.08645304 -0.0141029395 -0.040455148 -0.028404782 -0.110575885 -0.10295993 0.013875366 0.07295576
-0.12967128 -0.010294736 -0.09167261 -0.08389911 -0.041267212 -0.01915599 -0.0040421383 0.028369373
0.01211424 0.10688138 -0.06103721 -0.07586761 -0.13161302 0.012691366 -0.1881852 -0.04480904
-0.16135213 -0.0725262 -0.03388171 0.0009408209 -0.051740896 0.011487704 -0.027163513 0.040150244
0.018954724 -0.018706044 -0.07983898 -0.09526363 -0.060541727 -0.18038383 -0.119733214 0.032171886
-0.16939522 -0.109768905 -0.042437047 -0.16444004 -0.055259313 -0.09886014 -0.080350585 0.07590174
-0.22195323 -0.1960167 -0.062260833 -0.032207485 -0.14470932 -0.08870015 -0.06416419 -0.10721666
-0.015935874 -0.07415095 -0.07686189 0.00066054094 -0.06303987 0.049505483 -0.16867465 -0.12576891
-0.0039696773 -0.15384677 0.021326382 0.022077737 -0.11589729 -0.04201189 0.010125079 0.04598222
00000000: feb3 1ebe c2af 813d 4d12 84bc 14a7 723a
00000010: 3f93 31be deb4 03be 5468 89bb 697e a3bd
00000020: 3a45 1fbe ad8c d93b bb77 1fbb 5cea 5bbd
00000030: 6c2b d43d 642e 863d 583a a5bd e324 e5bd
00000040: e26c 4abe c658 e4bd fd82 1bbe c12a 29bd
00000050: ce13 aabd 7ddc e03c 290e 713d 6550 e7bd
00000060: 3f3b 25be cbc0 06bb 912a b8bd ee74 50bd
00000070: ce4b 11be 5033 09be 96ce 8ebd 7d21 d73c
00000080: 6277 3bbe 071f e7bd e27e 6fbd 64be 193d
00000090: a715 47bd a5d4 b3bc 9754 f7bc bb6a 1bbe
000000a0: d63c 37be e551 bdbc c7d5 6d3d dbd7 46bd
000000b0: a9a6 523c 6e6a cdbd ce58 e7bd 2c19 97bc
000000c0: 5fec 51bd df51 80bd 7c10 8ebd bc78 9abd
000000d0: 459c 6bbd c375 62be 0ad2 173d c1bf c1bc
000000e0: 1b65 98bc a450 05be df7b 58bd 5c0a d7bd
000000f0: b9c5 f23c 8d9f 23be ee4e 4ebb 9735 49bd
00000100: 3170 2e3d 430c debd a56c ebbd a26f 61bd
00000110: 9e04 293d 8510 bfbd 78d4 30bd f0f5 443d
00000120: 28c4 1ebd a0ad 723d 6b10 e1bd bc9f 02be
00000130: e4a5 bc3c b5dd edbd 0ab0 47be 0726 1fbe
00000140: 3d9b 1dbe ca9c f5bc 52d3 ab3c 9648 d8bd
00000150: 2754 5dbd 0965 c2bd 8148 a3bb e06c 603c
00000160: d549 edbc 9f8a 63bd 7ff9 f7bd d3f5 cbbd
00000170: 4482 13be 7a76 11be ab1a 12be dabd b9bd
00000180: f28e c3bd 4089 a3bd c697 f0bc 43b6 89bc
00000190: 899a 27be 0a85 0abe c296 3ebd cdf5 88bd
000001a0: f028 01bd fc61 4dbd 9708 9bbd bf25 ca3c
000001b0: a23a a0bd dfe9 04bc 4855 b2bd 2b79 163c
000001c0: 85ad 163d 76b1 ddbd b8c8 c2bd 3a8e 45bd
000001d0: 3f81 47be f087 dfbd 8f96 cabd 347f f0bd
000001e0: d9c7 45be 1e1c 0ebe 62a8 adbd 436a 463d
000001f0: a619 95bc 905f aa3d e4c2 13bc 7857 04be
00000200: 6cba c7bd 5240 403c 933d fabc 0e52 d3bd
00000210: 9e07 48bd 902e 2bbe fa5d 2bbd 8f22 28bd
00000220: f786 d5bc 9069 6c3c 3c86 c8bd cb46 dc3c
00000230: 6e44 b1bd 2a17 1ebd 497e 1bbe 789b e8bd
00000240: b6ff 04be d9ae bdbb 07e6 11be fa97 d93b
00000250: d711 08bc 05ce dfbd 00cd 603d 12ee 10be
00000260: 8030 2fb9 1152 bebc 8ab1 a9bd e22f c9bd
00000270: 85b4 21be c322 76bd 8844 2bbd ce16 3fbe
00000280: c994 a2bd c442 f7bd ff07 f4bd 88ba fabd
00000290: 43ff 873d bcfe 2bbe 5c7c 74bd 03d2 4ebd
000002a0: 7975 a6bc b840 c23c 2697 45be d77d f23b
000002b0: 7b46 fabd cbc6 32bd 1842 80bd 5da0 07be
000002c0: f219 273d 74ae bdbb 5987 c13c 96b7 27bd
000002d0: 08f9 9abc 19a7 923d c8b5 c0bd b450 bcbd
000002e0: 4b0e b1bd 0410 67bc 4cb4 25bd 25b1 e8bc
000002f0: 9c75 e2bd a8dc d2bd 8155 633c d469 953d
00000300: 8cc8 04be 41ab 28bc d9be bbbd 4cd3 abbd
00000310: cf07 29bd 06ed 9cbc ea73 84bb e366 e83c
00000320: ce7a 463c a0e4 da3d 2702 7abd 7a60 9bbd
00000330: 90c5 06be 72ef 4f3c 9fb3 40be af89 37bd
00000340: 7e39 25be 9e88 94bd 8cc7 0abd 6ca1 763a
00000350: 43ee 53bd ec36 3c3c 0486 debc 9574 243d
00000360: f046 9b3c 6b3d 99bc 9f82 a3bd 9419 c3bd
00000370: 9afa 77bd 8ab6 38be b036 f5bd abc6 033d
00000380: f175 2dbe 85ce e0bd 78d2 2dbd f862 28be
00000390: 9757 62bd 2f77 cabd d98e a4bd 5f72 9b3d
000003a0: b547 63be 9ab8 48be 3705 7fbd ffeb 03bd
000003b0: ae2e 14be 6da8 b5bd 8468 83bd 6994 dbbd
000003c0: f38b 82bc 74dc 97bd c469 9dbd 2728 2d3a
000003d0: 0c1b 81bd 43c6 4a3d 0cb9 2cbe 91c9 00be
000003e0: 1114 82bb 028a 1dbe aab4 ae3c 5fdc b43c
000003f0: 8f5b edbd a914 2cbd a9e3 253c da57 3c3d

model.2.weight f4 [64, 512]
-0.041089516 -0.043264166 -0.02867378 0.0009511438 0.04062986 -0.049496118 0.0040958594 -0.023381114
0.049757008 -0.08224686 0.043360244 0.018074 -0.038938392 0.028410977 -0.016402217 -0.09236184
-0.0010022944 -0.0010453361 -0.026028205 -0.053829838 0.0071786097 -0.07185626 0.06496097 0.02439228
0.023214646 -0.016068717 0.030470941 -0.022902075 0.0014166385 0.03846466 0.034500577 0.005761918
-0.036184683 -0.0076818466 -0.07992124 0.004741498 0.0038339116 0.04365118 0.01622157 -0.026148641
0.017343944 7.0143964e-05 0.059674684 0.043531287 -0.013244328 -0.022920571 -0.08967799 0.07037571
-0.009748095 0.006093353 -0.011709347 0.061131943 0.14036866 0.017536758 0.018069113 0.046765823
0.056987774 0.014304117 -0.03739498 -0.0048492174 -0.08909338 0.10403174 -0.031035647 0.058733366
0.00291361 -0.07770072 -0.002630155 0.010504454 -0.047686536 0.048628457 -0.08639891 0.038168933
0.016419247 -0.0675311 -0.052551247 -0.04658466 0.045184854 0.04729463 0.048833422 -0.017892027
-0.015860127 -0.0036683423 0.022801287 0.04926316 -0.05961821 0.02460529 0.012175006 -0.027083239
-0.034816865 0.028810503 0.025886262 0.024340509 -0.056023445 0.00014393976 -0.0023445026 0.027128516
0.01955855 -0.016604511 -0.043349992 -0.0015110342 -0.032257717 -0.021233821 0.04686217 0.09402249
-0.0056561143 0.046197563 -0.017055275 0.013023934 0.032899365 -0.0061993077 0.06141199 -0.006151021
-0.049314376 -0.010484636 0.060389485 0.055517547 0.012500159 0.016431307 0.015361287 0.0025302637
0.0011927586 0.043448705 0.08165224 0.05190346 0.020875243 0.08991756 0.050857082 -0.024408367
0.017450007 0.010539919 0.01978597 0.014350247 -0.046620555 0.029902764 0.01646719 -0.0424998
-0.079681955 -0.009752364 0.025888357 0.051176585 0.007832951 -0.03695509 0.030253036 -0.012160228
-0.0504531 0.06697684 0.02470897 -0.009951537 0.05797073 0.023855364 0.0542868 0.011680139
-0.03940029 -0.039777342 -0.08193845 0.047707014 -0.051936414 0.00030292763 -0.012577316 0.068400584
-0.0074945213 0.02173648 0.0021514988 -0.0008206021 -0.031909395 0.113698885 0.01744818 0.0290211
-0.062033623 -0.030642994 -0.03406062 -0.02033137 -0.008797353 -0.03932644 -0.06099436 0.07564901
0.034489952 0.018778587 0.06766863 -0.027756043 -0.062333286 -0.03168812 -0.021090722 -0.020575678
0.0043600723 -0.035155967 -0.0048663267 0.028749427 -0.027998367 0.06856361 0.03199117 0.033884954
-0.07931743 0.03533069 -0.028185265 -0.03525791 -0.036109217 0.038941063 -0.024984714 0.024277098
0.061581697 0.02617736 0.013373399 0.029947191 -0.04031812 0.011670842 -0.028097043 0.023939004
-0.023299776 0.02730004 0.045141403 -0.004785179 -0.025667733 0.060942378 0.04124278 0.02453495
0.05266784 -0.053256318 -0.05770197 -0.039181404 -0.0872506 -0.031798296 -0.025632272 -0.0071331463
0.057467185 0.0084084 0.064303845 0.025645373 -0.010390895 0.063411795 -0.05754545 -0.025032882
-0.04233756 -0.006664384 0.0760941 -0.058951084 0.033780113 0.00059494236 -0.019070944 0.03326783
0.02330201 0.04259995 -0.028028749 0.07595341 0.028064894 -0.013365088 -0.043797232 -0.04919883
-0.013984207 -0.03202954 -0.009021558 -0.023579175 0.007836101 0.027751068 0.0379638 -0.009638492
00000000: 7b4d 28bd c435 31bd 46e5 eabc 2e56 793a
00000010: 7f6b 263d 71bc 4abd 8f36 863b c089 bfbc
00000020: 01ce 4b3d 0b71 a8bd 839a 313d ed0f 943c
00000030: dd7d 1fbd 23be e83c f15d 86bc 3428 bdbd
00000040: 6b5f 83ba a903 89ba 1a39 d5bc ad7c 5cbd
00000050: 8b3a eb3b 6029 93bd 420a 853d 52d2 c73c
00000060: a42c be3c 8ba2 83bc 329e f93c 229d bbbc
00000070: 80ae b93a 1f8d 1d3d 7a50 0d3d 79ce bc3b
00000080: 6436 14bd 00b8 fbbb bfad a3bd 915e 9b3b
00000090: 5d42 7b3b 94cb 323d 19e3 843c ad35 d6bc
000000a0: e314 8e3c 411a 9338 716d 743d dd4d 323d
000000b0: bdfe 58bc ecc3 bbbc 18a9 b7bd 2421 903d
000000c0: 79b6 1fbc c0aa c73b 90d8 3fbc 7d65 7a3d
000000d0: cdbc 0f3e 3fa9 8f3c ad05 943c 858d 3f3d
000000e0: 036c 693d d15b 6a3c 7b2b 19bd 2fe6 9ebb
000000f0: 9776 b6bd 980e d53d 783e febc 6692 703d
00000100: 44f2 3e3b 8e21 9fbd ae5e 2cbb e01a 2c3c
00000110: f552 43bd a22e 473d e9f1 b0bd 0757 1c3d
00000120: a881 863c bf4d 8abd fa3f 57bd 8ecf 3ebd
00000130: c113 393d 04b8 413d 8e05 483d 4d92 92bc
00000140: 19ed 81bc 9268 70bb c4c9 ba3c 2bc8 493d
00000150: 3932 74bd 0891 c93c ad79 473c abdd ddbc
00000160: 219c 0ebd 0104 ec3c 6d0f d43c bf65 c73c
00000170: d778 65bd 89ee 1639 3aa6 19bb 9f3c de3c
00000180: 4139 a03c 2f06 88bc c38f 31bd e50d c6ba
00000190: ab20 04bd 8df2 adbc 8cf2 3f3d dd8e c03d
000001a0: ed56 b9bb a839 3d3d 81b7 8bbc 5762 553c
000001b0: 7cc1 063d 9023 cbbb 248b 7b3d 818e c9bb
000001c0: dffd 49bd c0c7 2bbc f75a 773d 5e66 633d
000001d0: 78cd 4c3c f39a 863c e8ad 7b3c c8d2 253b
000001e0: 5656 9c3a 45f7 313d 4a39 a73d b998 543d
000001f0: 8f02 ab3c b326 b83d 844f 503d 0ef4 c7bc
00000200: 51f3 8e3c a0af 2c3c 3016 a23c 4c1d 6b3c
00000210: 32f5 3ebd a4f6 f43c 33e6 863c 4514 2ebd
00000220: 4b30 a3bd 61c8 1fbc d213 d43c 8a9e 513d
00000230: c755 003c 385e 17bd 37d5 f73c b13b 47bc
00000240: e9a7 4ebd 272b 893d 776a ca3c c50b 23bc
00000250: b772 6d3d 536c c33c d65b 5e3d 0e5e 3f3c
00000260: 3362 21bd 91ed 22bd 59cf a7bd 6e68 433d
00000270: 47bb 54bd 42d2 9e39 1611 4ebc 9b15 8c3d
00000280: 9a94 f5bb b410 b23c 2900 0d3b ad1d 57ba
00000290: 6db3 02bd f6da e83d 7cef 8e3c a8bd ed3c
000002a0: f816 7ebd 0407 fbbc 2683 0bbd f98d a6bc
000002b0: c622 10bc c314 21bd 39d5 79bd deed 9a3d
000002c0: 5645 0d3d 8dd5 993c da95 8a3d a460 e3bc
000002d0: 3051 7fbd 67cb 01bd 73c6 acbc 538e a8bc
000002e0: f0de 8e3b b4ff 0fbd b575 9fbb eb83 eb3c
000002f0: d55c e5bc 146b 8c3d 2c09 033d f3ca 0a3d
00000300: 2d71 a2bd eab6 103d c9e4 e6bc 996a 10bd
00000310: 42e7 13bd aa80 1f3d beac ccbc c4e0 c63c
00000320: 173d 7c3d e771 d63c 1a1c 5b3c d053 f53c
00000330: 9d24 25bd 0f37 3f3c c52b e6bc bb1b c43c
00000340: 2cdf bebc 55a4 df3c 31e6 383d fecc 9cbb
00000350: 2345 d2bc b79e 793d 30ee 283d 85fd c83c
00000360: 3cba 573d 4c23 5abd e758 6cbd ae7c 20bd
00000370: 71b0 b2bd ee3e 02bd c5fa d1bc 2bbd e9bb
00000380: b662 6b3d 63c3 093c bcb1 833d 3f16 d23c
00000390: 933e 2abc 0bde 813d c7b4 6bbd c211 cdbc
000003a0: 266a 2dbd e860 dabb 39d7 9b3d b176 71bd
000003b0: 045d 0a3d e8f5 1b3a ab3a 9cbc d943 083d
000003c0: dbe3 be3c 497d 2e3d 8c9c e5bc 768d 9b3d
000003d0: 59e8 e53c 3ef9 5abc ba64 33bd b684 49bd
000003e0: 041e 65bc 6831 03bd 28cf 13bc 1d29 c1bc
000003f0: fd62 003c 3556 e33c ee7f 1b3d c4ea 1dbc

model.2.bias f4 [64]
0.00060584384 0.0364947 0.008941091 -0.005385456 -0.020898094 0.024041979 0.012860546 -0.0058331075
-0.028679341 0.016367957 -0.017495051 -0.013697015 -0.017088521 0.022355247 0.021242743 0.021245072
-0.034662135 -0.021802904 -0.000232573 0.023828678 -0.018108746 0.010093055 -0.034699023 -0.043043774
0.024116281 -0.031314712 -0.013652793 -0.04336061 0.013400796 -0.031698115 -0.03615325 -0.0015726184
0.0029903755 -0.011990796 0.010920621 -0.027833179 0.011762443 -0.038119853 0.03014639 -0.025379581
-0.015832921 0.0155729875 -0.023978297 0.013569033 0.035178438 0.027496865 0.042266462 -0.0030162071
0.0060838535 -0.0052894396 0.03184507 0.01720752 -0.03454926 -0.018251192 -0.033085827 0.041097376
0.022602042 0.026576249 0.021986138 0.03985143 -0.040571757 -0.02213285 0.018897083 0.028233098
00000000: 7ed1 1e3a 777b 153d a77d 123c 7b78 b0bb
00000010: 7b32 abbc aff3 c43c 0ab5 523c a723 bfbb
00000020: f0f0 eabc 1816 863c c851 8fbc 7269 60bc
00000030: 3afd 8bbc 5a22 b73c 4305 ae3c 250a ae3c
00000040: e2f9 0dbd 019c b2bc d7de 73b9 5c34 c33c
00000050: cb58 94bc 575d 253c 9020 0ebd ab4e 30bd
00000060: 828f c53c db43 00bd f7af 5fbc e59a 31bd
00000070: 038f 5b3c e2d5 01bd 6e15 14bd 5120 ceba
00000080: 2dfa 433b 0b75 44bc 68ec 323c 6802 e4bc
00000090: 43b7 403c 9023 1cbd 90f5 f63c d7e8 cfbc
000000a0: 0bb4 81bc d825 7f3c 226e c4bc a650 5e3c
000000b0: 4417 103d 1b41 e13c 991f 2d3d 8fab 45bb
000000c0: 105b c73b 0953 adbb fa6f 023d c9f6 8c3c
000000d0: 8683 0dbd 8683 95bc 0185 07bd b955 283d
000000e0: eb27 b93c 6fb6 d93c 461c b43c 413b 233d
000000f0: 922e 26bd f34f b5bc 0ece 9a3c 1949 e73c

exp_avg f4 [512, 64]
2.9420999e-06 -2.4123956e-06 -5.6227622e-05 -9.763697e-06 -0.00013399831 -2.6929558e-05 0.00013670897 -0.000105243314
-7.609489e-05 3.3590397e-05 0.00014044557 2.8326995e-06 -2.5644837e-05 0.000119821365 -9.48461e-06 -5.00373e-05
2.0468449e-06 4.577447e-05 -0.00014076862 -9.058984e-05 -0.00014557879 1.1621785e-05 0.00014628738 2.9318056e-05
-0.00012449248 0.00032413634 0.0003087877 -4.4552864e-05 5.3476015e-06 0.0002251249 -0.00016653171 0.00017691289
2.5762063e-05 -0.00011252587 9.2497285e-05 -7.951299e-05 0.000121791265 2.6430389e-05 0.00023029577 7.808323e-05
-4.1844032e-05 -4.8284528e-05 0.0001434571 -2.7498794e-05 3.5722904e-05 0.00012283471 1.8460947e-05 0.00012894778
9.7540935e-05 -5.228043e-06 -0.00013411844 2.6555419e-05 -9.610053e-05 4.0910192e-05 5.5878958e-05 -3.1830732e-05
0.00013947753 0.00015239825 -0.00027329175 0.00018175544 -0.00018160215 4.9665567e-05 5.2694384e-05 7.642393e-05
-0.00032459592 -0.0006242218 -4.924456e-05 -0.00015454176 0.00063736417 -8.724988e-05 -0.00077212363 0.00026758094
0.00068894675 0.00056208787 0.00032889872 0.0007647838 0.00029327796 0.0002804092 0.00060082914 8.643951e-05
0.00025363546 0.00018996141 -0.000352045 0.00014808093 0.00030934022 -0.0002538711 -0.00025535398 0.0004955631
0.0002765449 -0.00095709244 -0.0008600264 -6.8776e-05 -0.00017887133 0.00010546009 0.00033270943 0.0006051865
-5.258134e-05 0.0006244428 0.00071754097 7.518891e-05 -0.0007260917 0.00022214964 0.00022065053 -0.00050129596
-0.00011766999 -0.00079745974 0.00037622615 -0.0008314225 -3.738173e-05 9.015264e-05 0.00037350814 0.00015628422
-0.00044715076 -0.0011162384 0.0008284286 -0.0007316193 -0.0006339831 -4.378749e-05 0.00020508637 2.3556047e-05
-6.108442e-06 4.9409657e-05 0.00065747433 -0.0004271749 -0.0002190611 0.00013941525 -0.000101115635 -0.00014694051
-0.00016644874 -7.5975746e-05 -8.1308586e-05 -0.00017125072 0.00018980369 0.00015980696 -0.00019981025 -0.0004578221
0.00018277098 3.4459063e-05 0.00073599064 8.36246e-06 -1.1051545e-05 0.0004058642 8.6506e-05 0.00017139074
-0.00010820727 -0.00010210771 0.00017359914 8.996728e-05 -6.0595025e-06 8.847569e-06 -0.00029819034 -0.000303746
2.08254e-05 0.0009640272 0.0004014128 -0.0002686303 8.031936e-05 0.00033995142 1.3841677e-05 0.00019594863
0.00052263914 0.000101485355 0.0008721409 -0.00013747186 -0.00038121923 -1.6237735e-05 9.6295575e-05 -0.000116144314
-0.00044924815 -6.0726805e-05 0.0005407415 -0.00029451394 -0.00021417429 5.4845223e-05 -0.00013625482 9.824701e-06
0.00029509416 -0.00035114394 -0.00016404042 2.0983578e-05 -0.0008204154 0.0005641145 0.00021293854 -0.0002746416
0.00025228967 0.0003313914 -2.9420205e-05 -7.987061e-05 -5.8503792e-05 0.00038971304 0.000266953 0.00019894177
3.398289e-05 9.514383e-06 -6.7418005e-05 7.537984e-05 -0.00013179115 -0.0001664226 0.00019869585 0.00024460285
5.434484e-05 8.7348955e-05 -0.00016030068 -0.00011579421 -0.00031578765 -0.00010390171 -0.00010197172 -0.0001460176
4.4027634e-05 -0.00014829109 -0.00023230504 -0.00014255787 -0.00019630618 -1.0413812e-05 0.00013940045 0.00013896175
-0.00019297429 -0.00039520685 1.4629101e-05 0.00024301498 -1.3450768e-05 -4.779426e-05 -0.000111307185 0.00023762244
-0.00024501173 0.00016021548 -0.00012670094 5.2357118e-05 0.00020949327 0.00025076504 -1.1694666e-05 0.0001511241
0.00012731465 -6.492409e-05 6.784528e-05 3.1617175e-05 0.00022260148 0.00015843492 6.19514e-05 -7.5513955e-05
-0.00015067398 0.00018559332 2.6034959e-05 -9.105857e-05 6.7225825e-05 -0.0001546396 0.00013706397 0.00024916514
0.00018242275 0.000105440085 -9.605168e-05 0.00027784987 -6.11322e-05 -0.00016584987 7.525302e-05 2.575428e-06
00000000: e470 4536 a4e4 21b6 f3d5 6bb8 c2ce 23b7
00000010: e681 0cb9 c9e6 e1b7 8959 0f39 13b6 dcb8
00000020: 2295 9fb8 6ae3 0c38 9244 1339 6819 3e36
00000030: de1f d7b7 9b48 fb38 1720 1fb7 24df 51b8
00000040: 875c 0936 f7fd 3f38 4a9b 13b9 0dfb bdb8
00000050: 82a6 18b9 30fb 4237 b864 1939 0cf0 f537
00000060: 328a 02b9 d8f0 a939 c9e4 a139 46de 3ab8
00000070: 8c6f b336 810f 6c39 049f 2eb9 b181 3939
00000080: 9c1b d837 defb ebb8 1afb c138 36c0 a6b8
00000090: 306a ff38 d4b6 dd37 8d7b 7139 9dc0 a338
000000a0: b081 2fb8 1e85 4ab8 f96c 1639 36ad e6b7
000000b0: 2dd5 1538 31cd 0039 95dc 9a37 2836 0739
000000c0: e48e cc38 8c6c afb6 25a2 0cb9 54c3 de37
000000d0: 9489 c9b8 fc96 2b38 935f 6a38 fd81 05b8
000000e0: b740 1239 18cd 1f39 9948 8fb9 9b95 3e39
000000f0: 756c 3eb9 ff4f 5038 2a04 5d38 c945 a038
00000100: 872e aab9 d1a2 23ba f28b 4eb8 7d0c 22b9
00000110: c914 273a ecf9 b6b8 5768 4aba 1b4a 8c39
00000120: 6f9a 343a 1459 133a 0a70 ac39 c67b 483a
00000130: 1ac3 9939 e303 9339 f680 1d3a dc46 b538
00000140: 60fa 8439 6130 4739 ae92 b8b9 2c46 1b39
00000150: f12e a239 011a 85b9 08e1 85b9 ade8 013a
00000160: 3afd 9039 63e5 7aba 6573 61ba d53b 90b8
00000170: 688f 3bb9 742a dd38 816f ae39 61a5 1e3a
00000180: c98a 5cb8 a6b1 233a 5c19 3c3a bdae 9d38
00000190: 3057 3eba d7f0 6839 6d5e 6739 6769 03ba
000001a0: 98c5 f6b8 9e0c 51ba 3840 c539 d2f3 59ba
000001b0: 54ca 1cb8 5410 bd38 6ad3 c339 3ae0 2339
000001c0: 8f6f eab9 bf4e 92ba e72a 593a 24ca 3fba
000001d0: e331 26ba 76a8 37b8 740c 5739 3a9a c537
000001e0: 1ef7 ccb6 373d 4f38 5b5a 2c3a 72f6 dfb9
000001f0: c4b3 65b9 ff2f 1239 0b0e d4b8 0b14 1ab9
00000200: be88 2eb9 2b55 9fb8 3784 aab8 c491 33b9
00000210: 0a06 4739 db91 2739 2884 51b9 d807 f0b9
00000220: 36a6 3f39 2388 1038 7fef 403a 7e4c 0c37
00000230: 066a 39b7 2cca d439 8e6a b538 5ab7 3339
00000240: 56ed e2b8 a922 d6b8 2a08 3639 d1ac bc38
00000250: bb52 cbb6 0570 1437 6e56 9cb9 1940 9fb9
00000260: 35b2 ae37 c5b6 7c3a b774 d239 f3d6 8cb9
00000270: 2171 a838 823b b239 8d39 6837 8f77 4d39
00000280: b801 093a 89d4 d438 63a0 643a 5226 10b9
00000290: 61de c7b9 4536 88b7 4bf2 c938 8192 f3b8
000002a0: 1189 ebb9 e9b4 7eb8 8cc0 0d3a fe68 9ab9
000002b0: f993 60b9 9c09 6638 a0df 0eb9 c5d4 2437
000002c0: deb6 9a39 be19 b8b9 4402 2cb9 e405 b037
000002d0: 2511 57ba 15e1 133a 4148 5f39 c6fd 8fb9
000002e0: bf45 8439 9abe ad39 69cb f6b7 3580 a7b8
000002f0: f861 75b8 6652 cc39 d3f5 8b39 069b 5039
00000300: da88 0e38 f79f 1f37 c462 8db8 3e15 9e38
00000310: 6b31 0ab9 ba81 2eb9 0359 5039 0a3e 8039
00000320: 54f0 6338 1d2f b738 6316 28b9 8bd6 f2b8
00000330: 4d90 a5b9 cee5 d9b8 a6d9 d5b8 4d1c 19b9
00000340: 50aa 3838 967e 1bb9 e996 73b9 967b 15b9
00000350: 8ad7 4db9 fbb6 2eb7 062c 1239 43b6 1139
00000360: 2459 4ab9 c433 cfb9 836f 7537 d6d1 7e39
00000370: 9caa 61b7 b276 48b8 976d e9b8 4a2a 7939
00000380: eb74 80b9 84ff 2739 06db 04b9 079a 5b38
00000390: 6cab 5b39 1d79 8339 3534 44b7 1177 1e39
000003a0: c47f 0539 db27 88b8 2848 8e38 af9c 0438
000003b0: 216a 6939 8d21 2639 e8eb 8138 3f5d 9eb8
000003c0: 3dfe 1db9 d49b 4239 a665 da37 b3f6 beb8
000003d0: 97fb 8c38 c026 22b9 d4b8 0f39 61a2 8239
000003e0: bc48 3f39 b71f dd38 5a6f c9b8 61ac 9139
000003f0: 1a34 80b8 fce7 2db9 28d1 9d38 84d5 2c36

exp_avg_sq f4 [512, 64]
4.980915e-07 1.8457087e-06 8.715691e-07 2.0591099e-06 3.7499373e-07 1.0144773e-06 7.2128813e-07 6.418822e-07
8.907271e-07 1.0542627e-06 6.9409174e-07 1.483563e-06 9.5116644e-07 6.8866325e-07 8.738032e-07 8.184056e-07
8.384563e-07 1.2287489e-06 9.3783285e-07 5.1069674e-07 9.839674e-07 1.789185e-06 9.764283e-07 6.968815e-07
1.4766143e-06 3.0943763e-06 1.9603547e-06 1.1356132e-06 2.1719839e-06 1.3627227e-06 1.0620616e-06 8.926681e-07
2.3332657e-06 9.1064635e-07 7.060999e-07 3.8969253e-07 7.774099e-07 5.7675254e-07 1.0510873e-06 3.1709823e-07
5.684002e-07 1.0545486e-06 6.511299e-07 8.352909e-07 6.988821e-07 8.6390975e-07 6.8859885e-07 1.650764e-06
1.3676946e-06 1.829689e-06 1.5507122e-06 5.538527e-07 1.8549429e-06 9.082368e-07 6.1318485e-07 9.45821e-07
4.1881506e-07 1.2521798e-06 1.3209944e-06 1.524589e-06 1.7545328e-06 4.7645727e-07 9.306504e-07 6.14484e-07
2.1036665e-06 2.977651e-06 1.5830295e-06 4.702924e-06 1.8542886e-06 2.0030416e-06 3.0790306e-06 2.78476e-06
2.8501693e-06 1.9872707e-06 3.7270963e-06 3.436579e-06 3.0120875e-06 2.7296567e-06 1.7727265e-06 3.2543364e-06
2.0270745e-06 2.965665e-06 2.6929836e-06 1.5091558e-06 2.9793598e-06 3.4534878e-06 2.3956522e-06 2.070987e-06
4.1124686e-06 2.3886942e-06 2.9759856e-06 3.3336148e-06 2.1991602e-06 3.2793985e-06 1.942846e-06 3.685081e-06
3.0549436e-06 2.078558e-06 2.484876e-06 3.1619982e-06 1.3223763e-06 2.2444733e-06 2.4361414e-06 1.6973158e-06
2.1833594e-06 1.6621407e-06 2.151762e-06 1.4707814e-06 1.2888318e-06 2.5603154e-06 1.3043243e-06 2.5137524e-06
2.1125163e-06 3.6709198e-06 3.6914719e-06 2.8335712e-06 2.6245107e-06 2.7736103e-06 2.7705846e-06 1.3087745e-06
1.8073732e-06 2.716381e-06 1.6514763e-06 3.059753e-06 1.9635168e-06 2.0218154e-06 1.6274546e-06 1.8140403e-06
9.4895165e-07 1.7309676e-06 1.3062194e-06 2.1649153e-06 9.643268e-07 1.2497441e-06 1.521532e-06 2.8103636e-06
1.8556943e-06 2.690975e-06 1.8327003e-06 1.7594198e-06 2.4492929e-06 2.8011466e-06 1.2752223e-06 1.7224334e-06
1.2777724e-06 2.8419731e-06 2.2869754e-06 1.3336265e-06 2.6228208e-06 1.1313917e-06 2.5609372e-06 2.1920982e-06
1.964716e-06 3.973329e-06 3.060601e-06 2.1965977e-06 1.8341251e-06 1.7838697e-06 1.9304907e-06 2.3785794e-06
3.3237145e-06 1.5939451e-06 2.4645162e-06 1.3628056e-06 1.1927006e-06 1.8202959e-06 2.144239e-06 9.743898e-07
2.1709716e-06 1.5945508e-06 1.6455095e-06 2.1953538e-06 1.5784342e-06 1.0203329e-06 1.6767697e-06 1.8516857e-06
1.3952447e-06 2.2354293e-06 2.1468493e-06 2.331941e-06 2.5586648e-06 1.812668e-06 1.8045702e-06 2.602161e-06
1.6387012e-06 1.895973e-06 1.055684e-06 2.3838757e-06 2.2933148e-06 1.2724122e-06 2.16417e-06 1.5910312e-06
9.4231495e-07 2.5510724e-06 1.6159877e-06 3.911595e-06 9.0548303e-07 1.8625703e-06 1.2710902e-06 1.8169484e-06
1.3731734e-06 1.3684811e-06 1.4574975e-06 2.3432467e-06 1.0210811e-06 1.271485e-06 1.368928e-06 6.446364e-07
1.1465423e-06 1.4473044e-06 1.4773102e-06 1.0694632e-06 9.684663e-07 2.806023e-06 2.0289642e-06 1.1604122e-06
2.1814756e-06 2.1623277e-06 1.2835624e-06 2.1479748e-06 2.388931e-06 1.6123827e-06 8.979839e-07 1.0242469e-06
3.4957309e-06 1.6940952e-06 1.3240095e-06 7.019562e-07 1.3192748e-06 9.722236e-07 1.2343651e-06 9.878952e-07
1.0932016e-06 1.8714269e-06 9.945888e-07 1.0292191e-06 1.6119293e-06 1.2595211e-06 1.2164139e-06 1.9052559e-06
1.7902246e-06 2.265114e-06 2.5246766e-06 1.1872391e-06 2.7327499e-06 1.3097664e-06 1.2668777e-06 1.2100592e-06
7.963305e-07 1.1787779e-06 1.5168238e-06 2.101996e-06 2.2880024e-06 8.389342e-07 1.1380108e-06 7.7774786e-07
00000000: 96b4 0535 11ba f735 c6f5 6935 3d2f 0a36
00000010: bf52 c934 2d29 8835 8b9e 4135 cf4d 2c35
00000020: 4d1a 6f35 3180 8d35 9f51 3a35 d61e c735
00000030: a953 7f35 94dc 3835 4c8f 6a35 68b0 5b35
00000040: 4712 6135 7eeb a435 62bf 7b35 d016 0935
00000050: dd10 8435 ee23 f035 d20d 8335 5511 3b35
00000060: 1530 c635 fba8 4f36 a38e 0336 5f6b 9835
00000070: 66c2 1136 cce6 b635 298c 8e35 af9f 6f35
00000080: 3395 1c36 2473 7435 d18a 3d35 ef36 d134
00000090: 34af 5035 22d2 1a35 1613 8d35 a63d aa34
000000a0: 2a94 1835 048a 8d35 4ec9 2e35 c138 6035
000000b0: d09a 3b35 6de7 6735 27d8 3835 d28f dd35
000000c0: a191 b735 a393 f535 1122 d035 78ac 1435
000000d0: 5af7 f835 8fcd 7335 be99 2435 53e4 7d35
000000e0: 81d9 e034 9210 a835 064d b135 7ba0 cc35
000000f0: 4a7d eb35 cacb ff34 cfd1 7935 05f3 2435
00000100: b72c 0d36 a8d3 4736 7b78 d435 cfcd 9d36
00000110: dfe0 f835 fe6b 0636 58a1 4e36 d0e1 3a36
00000120: 8945 3f36 0d5d 0536 071f 7a36 fa9f 6636
00000130: 4523 4a36 252f 3736 6bee ed35 1365 5a36
00000140: e008 0836 bd05 4736 1bb9 3436 338e ca35
00000150: 03f1 4736 78c2 6736 fec4 2036 49fb 0a36
00000160: d6fd 8936 744d 2036 0bb7 4736 11b7 5f36
00000170: 4995 1336 a313 5c36 d761 0236 364d 7736
00000180: 8803 4d36 5b7d 0b36 d8c1 2636 b732 5436
00000190: 817c b135 c29f 1636 977c 2336 54cf e335
000001a0: d485 1236 b816 df35 fd66 1036 aa67 c535
000001b0: ecfb ac35 e2d1 2b36 3e10 af35 f0b1 2836
000001c0: c1c4 0d36 ec59 7636 01bb 7736 6228 3e36
000001d0: c020 3036 4322 3a36 48ee 3936 26a9 af35
000001e0: df94 f235 124b 3636 4ba8 dd35 2856 4d36
000001f0: f6c4 0336 86ae 0736 ea6e da35 f379 f335
00000200: 76bb 7e35 9853 e835 5b51 af35 f648 1136
00000210: 046e 8135 e1bc a735 7137 cc35 ae99 3c36
00000220: 2c11 f935 9996 3436 1afb f535 3425 ec35
00000230: 885e 2436 55fb 3b36 4e28 ab35 5c2e e735
00000240: ed7f ab35 bab8 3e36 f079 1936 0fff b235
00000250: b803 3036 53da 9735 91dc 2b36 f61b 1336
00000260: 90d9 0336 a352 8536 ba64 4d36 4369 1336
00000270: 0f2c f635 4c6d ef35 948d 0136 af9f 1f36
00000280: fb0c 5f36 89ef d535 1164 2536 a5e9 b635
00000290: e114 a035 e450 f435 bfe5 0f36 c7c7 8235
000002a0: 02b1 1136 5904 d635 47db dc35 e453 1336
000002b0: 96da d335 5ff2 8835 5e0d e135 7087 f835
000002c0: 3e44 bb35 6204 1636 9712 1036 717e 1c36
000002d0: 87b5 2b36 cc4a f335 8f34 f235 c9a0 2e36
000002e0: 58f1 db35 2379 fe35 07b1 8d35 acfa 1f36
000002f0: d9e6 1936 c0c7 aa35 283c 1136 6a8b d535
00000300: 64f3 7c35 1733 2b36 eae4 d835 5840 8336
00000310: 5210 7335 6efd f935 549a aa35 dfdd f335
00000320: e14d b835 a7ac b735 3c9f c335 ac40 1d36
00000330: 140c 8935 e4a7 aa35 02bc b735 130b 2d35
00000340: e5e2 9935 0041 c235 fe47 c635 7a8a 8f35
00000350: 40fc 8135 1c4f 3c36 5729 0836 76bf 9b35
00000360: 7765 1236 821c 1136 de46 ac35 ed25 1036
00000370: 8651 2036 0c69 d835 fc0c 7135 db78 8935
00000380: 3398 6a36 ab60 e335 9fb4 b135 106e 3c35
00000390: f011 b135 597d 8235 76ac a535 d297 8435
000003a0: 1fba 9235 bd2d fb35 d07d 8535 b323 8a35
000003b0: 7859 d835 d10c a935 aa43 a335 18b8 ff35
000003c0: a647 f035 5d02 1836 9d6d 2936 3a59 9f35
000003d0: 4964 3736 3bcb af35 9609 aa35 5169 a235
000003e0: 6ac3 5535 8036 9e35 ab95 cb35 0410 0d36
000003f0: 958b 1936 1f33 6135 c1bd 9835 6dc6 5035

exp_avg f4 [512]
9.252285e-05 0.00060270505 -0.00014478472 0.00015236498 0.00010864758 5.2009724e-05 -0.00015781475 -0.00013622317
0.0005131053 0.00014210478 -0.00018877265 4.5707904e-05 -0.00021817946 -0.00015632443 0.00015212092 0.0004100575
7.481811e-05 0.00024315972 -4.9333303e-05 -0.00012927839 -0.00031796584 0.00017152993 0.0001152459 -5.7981224e-06
0.00015593845 0.00012758559 -0.00015782341 2.2353535e-05 3.0113742e-05 -0.00011721117 -2.1961094e-05 0.00057762576
-1.1854248e-05 0.00034504334 0.0005100578 -9.208793e-05 0.00015495138 0.00031981475 0.00019120365 0.00044315867
-0.00016342173 -1.9547519e-05 7.6097196e-05 -0.00019155475 -0.00060792774 -0.00025841684 -0.00015171104 -4.4189506e-05
0.00019158737 0.00011958586 -0.00014066297 -0.00025867167 0.00012098871 0.00011413372 1.940845e-05 -0.00019339086
0.00013405307 -4.2426756e-05 1.9815704e-06 -0.0001148112 -1.595555e-05 4.2849162e-05 1.3041868e-05 -9.050185e-05
0.00029163656 0.00062927406 0.00032624797 -0.00025173195 0.0005902973 -2.8123144e-05 0.00018256309 0.00019719983
-0.0001036397 -0.00016304944 0.00078437367 -0.00017561945 -0.00013470609 0.0003573463 -9.495255e-05 -6.5935834e-05
0.00022976808 0.00029734653 0.00013475736 9.593755e-05 7.64466e-05 -0.00022544357 -3.5658104e-05 -0.0002864509
-9.8340315e-05 -6.534601e-06 -0.0006715727 0.00016251481 0.000106250794 -6.951398e-06 -0.00036110065 9.770513e-05
-0.000302279 8.949225e-05 0.00045373666 3.3643937e-06 0.00012937067 0.00014236232 -0.0001891319 -0.00022233662
-2.4953206e-05 7.935688e-05 -2.6972219e-05 0.00011090746 -0.00019728241 0.00018840138 0.00035157023 -2.119461e-06
0.00034601244 1.3033066e-05 -0.0002705106 8.593092e-05 0.00025324116 -0.00012056876 -3.9966115e-05 0.00062138384
-0.00019528781 3.7605678e-05 0.0002251919 -9.032594e-05 -0.00017518808 -0.00020187841 -3.3185413e-05 -0.00013089413
-0.00048189366 -3.152384e-05 0.00013053467 0.00012109998 0.00051287154 0.00026156797 0.00039300416 0.0005458489
0.0008266446 -0.00082646834 0.00011860098 -2.518559e-05 0.00012985565 -0.00035769073 -6.8597335e-05 -7.136241e-05
7.188285e-05 0.00027844682 -6.5380365e-05 0.0003112482 -0.00043891923 -0.000101763595 0.00012514992 -6.3427346e-05
0.0002444892 0.0008423694 -0.00015767854 0.00016225726 0.00015711827 7.6038737e-06 6.543087e-05 0.00023254068
-4.0800216e-05 0.00012795615 7.1153714e-05 -0.00026516904 -0.0005605169 -0.00016778882 -0.00011606952 -0.00037754653
2.1544154e-05 -7.2201387e-06 0.00024033041 6.836393e-05 0.0005448163 0.00017135912 0.0007143743 -0.00057602394
0.00045888196 -2.6697355e-06 0.00014548124 -0.00018778509 -0.00023285627 0.00044712127 -0.00042434246 -0.00027604168
0.00027909884 -2.7841486e-05 0.00010655534 -8.310857e-06 -3.6983465e-06 -0.00036493217 0.00028495502 0.000103723
6.2483545e-05 -0.00024474462 -2.4460953e-05 0.00013267633 -0.00012207148 -0.0002628348 -4.8305836e-05 -0.00031440717
-0.0007792248 0.00010886979 -8.10558e-05 0.00025651787 -0.000111558926 -0.0003783172 0.00019379995 0.00024264454
-2.818703e-05 -7.329826e-06 -0.000498794 -0.0002029083 0.00040140722 -0.0002433109 -0.00012610148 -0.00010910088
-0.0003480346 -0.00022782714 0.00029436563 0.00047311012 0.0004974017 2.4393132e-05 4.5230438e-05 0.00012280766
1.640263e-05 0.00028944403 0.00027121755 0.00022585788 0.000104216444 -1.2768073e-05 8.3470795e-06 -0.00023072623
0.00042081386 -6.16737e-05 -1.5512991e-05 0.00040459837 0.00016583706 -0.00046265282 0.00013509237 0.00013623938
-0.00027296113 0.00028434495 0.00052491867 -0.00036805123 0.0003919197 -7.1001756e-05 -0.00023181787 -3.329929e-05
1.979892e-06 0.00025727093 8.1819635e-06 0.00031207644 -0.00025356305 7.2360854e-05 -0.00013660625 -0.000113642476
00000000: d408 c238 dafe 1d3a 5ad1 17b9 2ac4 1f39
00000010: bad9 e338 0425 5a38 137b 25b9 21d7 0eb9
00000020: ea81 063a f601 1539 46f1 45b9 7db6 3f38
00000030: 1ac7 64b9 05eb 23b9 a682 1f39 fcfc d639
00000040: abe7 9c38 b1f8 7e39 3beb 4eb8 e78e 07b9
00000050: a7b4 a6b9 b7dc 3339 2cb0 f138 7e8d c2b6
00000060: 6983 2339 7fc8 0539 667d 25b9 da83 bb37
00000070: c59c fc37 45cf f5b8 1739 b8b7 cf6b 173a
00000080: 9ce1 46b7 efe6 b439 66b5 053a 551f c1b8
00000090: 727a 2239 cfac a739 d77d 4839 c057 e839
000000a0: 305c 2bb9 faf9 a3b7 5f96 9f38 16dc 48b9
000000b0: 575d 1fba 1f7c 87b9 9f14 1fb9 1f58 39b8
000000c0: d8e4 4839 2bca fa38 ee7e 13b9 539e 87b9
000000d0: 52bb fd38 135b ef38 54cf a237 f7c8 4ab9
000000e0: 9990 0c39 62f3 31b8 1ffb 0436 cbc6 f0b8
000000f0: 48d8 85b7 f0b8 3338 66ce 5a37 d0cb bdb8
00000100: cce6 9839 def5 243a 430c ab39 e4fa 83b9
00000110: 2ebe 1a3a fee9 ebb7 686e 3f39 6dc7 4e39
00000120: 2459 d9b8 40f8 2ab9 6d9e 4d3a 7d26 38b9
00000130: e43f 0db9 355a bb39 4321 c7b8 0847 8ab8
00000140: e6ed 7039 2de5 9b39 a74d 0d39 1432 c938
00000150: f551 a038 0c65 6cb9 998f 15b8 ca2e 96b9
00000160: 0e3c ceb8 cc43 dbb6 7b0c 30ba bd68 2a39
00000170: f6d2 de38 0e40 e9b6 1c52 bdb9 0be7 cc38
00000180: 337b 9eb9 c9ad bb38 81e3 ed39 d8c7 6136
00000190: ada7 0739 1847 1539 b551 46b9 0823 69b9
000001a0: 9a52 d1b7 676c a638 6642 e2b7 fd96 e838
000001b0: 98dd 4eb9 9c8d 4539 f552 b839 103c 0eb6
000001c0: 0169 b539 98a8 5a37 51d3 8db9 d035 b438
000001d0: 74c5 8439 dcd9 fcb8 4aa1 27b8 5de4 223a
000001e0: 2cc6 4cb9 caba 1d38 7e21 6c39 5f6d bdb8
000001f0: b1b2 37b9 53af 53b9 9130 0bb8 a040 09b9
00000200: aca6 fcb9 7738 04b8 22e0 0839 0ff7 fd38
00000210: 3a72 063a 0f23 8939 200c ce39 4d17 0f3a
00000220: 2eb3 583a 5aa7 58ba 6bb9 f838 a545 d3b7
00000230: dc29 0839 7088 bbb9 eadb 8fb8 67a8 95b8
00000240: d0bf 9638 80fc 9139 d11c 89b8 072f a339
00000250: be1e e6b9 ea69 d5b8 ad3a 0339 4c04 85b8
00000260: c92e 8039 74d2 5c3a 8356 25b9 9a23 2a39
00000270: 1dc0 2439 c724 ff36 ee37 8938 2ad6 7339
00000280: e620 2bb8 f82b 0639 5c38 9538 6306 8bb9
00000290: a7ef 12ba 78f0 2fb9 596a f3b8 70f1 c5b9
000002a0: b8b9 b437 8544 f2b6 3401 7c39 9b5e 8f38
000002b0: 01d2 0e3a ddae 3339 d944 3b3a 5000 17ba
000002c0: 1896 f039 b529 33b6 538c 1839 2de8 44b9
000002d0: e12a 74b9 9a6b ea39 487a deb9 b0b9 90b9
000002e0: 0354 9239 238d e9b7 7676 df38 dc6e 0bb7
000002f0: 1c31 78b6 5e54 bfb9 0466 9539 dd85 d938
00000300: 9909 8338 1151 80b9 7f31 cdb7 081f 0b39
00000310: 5000 00b9 17cd 89b9 ff9b 4ab8 04d7 a4b9
00000320: e444 4cba 0651 e438 80fc a9b8 3f7d 8639
00000330: bef4 e9b8 e058 c6b9 c736 4b39 666e 7e39
00000340: 3073 ecb7 baf2 f5b6 80c1 02ba c8c3 54b9
00000350: f773 d239 4621 7fb9 1c3a 04b9 17cd e4b8
00000360: 6a78 b6b9 e2e4 6eb9 1655 9a39 c40b f839
00000370: 1064 023a da9f cc37 d0b5 3d38 eec5 0039
00000380: 6198 8937 85c0 9739 3432 8e39 43d4 6c39
00000390: c78e da38 7536 56b7 6f0a 0c37 1aef 71b9
000003a0: aea0 dc39 d156 81b8 e521 82b7 4620 d439
000003b0: 8ce4 2d39 3690 f2b9 95a7 0d39 7bdb 0e39
000003c0: 391c 8fb9 2214 9539 b29a 093a 00f7 c0b9
000003d0: 927a cd39 c7e6 94b8 2314 73b9 d7aa 0bb8
000003e0: 49de 0436 52e2 8639 4445 0937 319e a339
000003f0: a8f0 84b9 70c0 9738 f63d 0fb9 5753 eeb8

exp_avg_sq f4 [512]
9.552151e-07 2.2816143e-06 1.8065289e-06 1.3662493e-06 1.1558244e-06 7.0148997e-07 1.8212679e-06 1.7373874e-06
1.0198452e-06 2.4737344e-06 7.6095733e-07 2.1125238e-06 3.0733972e-06 2.1140465e-06 9.4594435e-07 1.3611606e-06
3.9873711e-07 8.5987796e-07 8.00848e-07 1.9382958e-06 1.9581917e-06 2.4493597e-06 1.2264577e-06 1.6301358e-06
1.4281597e-06 7.7734063e-07 7.6094176e-07 1.0293046e-06 1.1323344e-06 1.2927336e-06 9.60869e-07 2.9647485e-06
1.2289963e-06 1.2562474e-06 1.5616225e-06 1.9845702e-06 1.4320141e-06 1.2512436e-06 1.5089219e-06 1.3248759e-06
7.9497806e-07 1.3464299e-06 2.4406618e-06 6.239821e-07 1.7549553e-06 1.0646438e-06 1.5981486e-06 1.7987276e-06
2.8266247e-06 7.428515e-07 9.1532416e-07 9.424524e-07 2.1852384e-06 4.1811793e-07 1.2771418e-06 1.609147e-06
1.0149554e-06 1.3517133e-06 1.3695134e-06 5.188948e-07 1.0077953e-06 9.505236e-07 1.0884606e-06 8.648047e-07
2.4310818e-06 1.8073766e-06 1.554732e-06 2.0676819e-06 3.1055376e-06 1.432579e-06 1.4435246e-06 2.0019197e-06
1.4666454e-06 1.7513902e-06 2.3977934e-06 2.5413392e-06 1.8573694e-06 1.008091e-06 1.0229567e-06 9.3935364e-07
1.3522778e-06 8.597269e-07 1.5417709e-06 1.883802e-06 2.3266678e-06 1.9504014e-06 2.276823e-06 2.2049137e-06
1.3290602e-06 1.8903561e-06 1.5387626e-06 1.9029619e-06 1.651899e-06 1.1095967e-06 1.355396e-06 1.2081485e-06
1.6972733e-06 8.086336e-07 2.2669558e-06 2.1385838e-06 1.0387146e-06 1.3054348e-06 1.4560698e-06 1.6369975e-06
2.1086885e-06 1.1854721e-06 2.2993925e-06 1.2003705e-06 1.8371591e-06 1.0783323e-06 1.9476481e-06 2.666615e-06
1.6842763e-06 1.71137e-06 3.4098941e-06 2.7979381e-06 1.1141749e-06 1.8695852e-06 2.1134235e-06 1.9521797e-06
9.827845e-07 9.57101e-07 1.1505749e-06 2.4878582e-06 1.5146999e-06 4.5152415e-06 1.1911166e-06 1.5762423e-06
2.5030065e-06 1.3001538e-06 1.0110076e-06 1.076152e-06 2.511419e-06 3.1346428e-07 1.9671238e-06 2.0743196e-06
1.927492e-06 1.6238199e-06 2.7270655e-06 1.4198629e-06 2.148802e-06 6.753358e-07 1.0285886e-06 1.0414079e-06
1.0224063e-06 3.3374781e-06 1.5124314e-06 1.7311235e-06 1.5091642e-06 8.357556e-07 2.742016e-06 9.767434e-07
1.8925795e-06 2.6639243e-06 1.1062972e-06 1.8549719e-06 1.4835831e-06 1.4505465e-06 1.2944378e-06 1.3001779e-06
5.954919e-07 4.2625516e-07 1.9225301e-06 1.4469757e-06 2.8751995e-06 1.6364396e-06 1.4515535e-06 2.653621e-06
2.1582741e-06 1.3524941e-06 8.493126e-07 2.0158705e-06 9.685921e-07 1.038806e-06 1.9148338e-06 1.8055055e-06
1.3887181e-06 1.0946262e-06 1.1888555e-06 7.9201277e-07 2.7444287e-06 2.945399e-06 1.1773307e-06 4.195085e-06
1.6835152e-06 1.2617211e-06 7.1944953e-07 8.16851e-07 6.895921e-07 1.7093313e-06 8.4149457e-07 2.0399013e-06
1.9199927e-06 1.3572302e-06 1.1704605e-06 2.5899262e-06 2.264774e-06 1.4067525e-06 9.722006e-07 2.2488882e-06
1.5776196e-06 3.053411e-06 1.1425542e-06 1.3325888e-06 2.6889118e-06 1.3307309e-06 7.806882e-07 2.261033e-06
9.1603096e-07 9.466174e-07 2.15782e-06 2.0387342e-06 1.4174317e-06 1.6599889e-06 8.9526173e-07 1.9353033e-06
1.7509478e-06 2.9291498e-06 1.1075499e-06 1.806027e-06 2.3769664e-06 7.4183134e-07 2.3888572e-06 2.0238108e-06
6.629124e-07 1.209576e-06 1.1812274e-06 7.8741056e-07 9.343563e-07 1.5922427e-06 2.033539e-06 2.635305e-06
4.6225298e-07 1.4638014e-06 2.4938938e-06 1.9155052e-06 2.1537423e-06 2.1913156e-06 1.1062773e-06 1.2776297e-06
1.7052183e-06 1.2814803e-06 3.9226697e-06 1.7453872e-06 1.4840164e-06 1.2270032e-06 9.4083424e-07 1.5942285e-06
1.1828909e-06 9.462934e-07 1.5560508e-06 3.36148e-06 1.5636946e-06 2.3353275e-06 1.3704017e-06 1.8050782e-06
00000000: f134 8035 d61d 1936 dc77 f235 f85f b735
00000010: d321 9b35 064e 3c35 4a72 f435 2d30 e935
00000020: 9de1 8835 6f02 2636 9744 4c35 e2c4 0d36
00000030: 9040 4e36 0bdf 0d36 cdec 7d35 1fb1 b635
00000040: 0312 d634 5dd2 6635 dbf9 5635 ab13 0236
00000050: 7a69 0336 ae5f 2436 c49c a435 0acb da35
00000060: 32af bf35 71aa 5035 8543 4c35 a326 8a35
00000070: b7fa 9735 fd81 ad35 35f7 8035 fef5 4636
00000080: fef3 a435 559c a835 f198 d135 a82e 0536
00000090: a133 c035 67f0 a735 2986 ca35 64d2 b135
000000a0: 7a66 5535 fbb6 b435 40ca 2336 b97f 2735
000000b0: ce8b eb35 e2e4 8e35 f87f d635 cf6b f135
000000c0: 0bb1 3d36 5e68 4735 99b4 7535 d6fc 7c35
000000d0: 1ca6 1236 b179 e034 426a ab35 dff9 d735
000000e0: 9a39 8835 846c b535 1fd0 b735 2e4a 0b35
000000f0: 9543 8735 7c27 7f35 3917 9235 ed24 6835
00000100: ab25 2336 fd94 f235 2fac d035 81c2 0a36
00000110: bb68 5036 0a47 c035 21bf c135 b858 0636
00000120: 8dd9 c435 4f11 eb35 c7e9 2036 e08b 2a36
00000130: ba4a f935 be4d 8735 864c 8935 e427 7c35
00000140: e97f b535 fcc7 6635 d8ee ce35 f2d6 fc35
00000150: d923 1c36 a4e3 0236 85cb 1836 21f8 1336
00000160: 2962 b235 24b8 fd35 7b87 ce35 4669 ff35
00000170: d1b6 dd35 74ed 9435 0deb b535 ab27 a235
00000180: decd e335 e110 5935 0122 1836 9784 0f36
00000190: f669 8b35 6636 af35 2d6e c335 ceb6 db35
000001a0: fe82 0d36 831c 9f35 434f 1a36 6b1c a135
000001b0: 4e94 f635 37bb 9035 57b4 0236 19f4 3236
000001c0: 4b0f e235 3ab2 e535 89d5 6436 36c4 3b36
000001d0: c28a 9535 75ee fa35 57d4 0d36 3102 0336
000001e0: 38e8 8335 bd75 8035 746d 9a35 14f5 2636
000001f0: b14c cb35 a181 9736 74de 9f35 468f d335
00000200: 53f9 2736 f280 ae35 f5b1 8735 4d70 9035
00000210: da89 2836 344a a834 ee02 0436 8a34 0b36
00000220: 0f5a 0136 07f2 d935 a102 3736 1e92 be35
00000230: 2334 1036 b948 3535 090e 8a35 81c6 8b35
00000240: 9d39 8935 70f9 5f36 bffe ca35 f358 e835
00000250: 7d8e ca35 b058 6035 7a03 3836 a618 8335
00000260: 8904 fe35 dfc5 3236 157c 9435 59f8 f835
00000270: 871f c735 66b0 c235 8bbc ad35 c681 ae35
00000280: e4d9 1f35 10d8 e434 d104 0136 b535 c235
00000290: 8df3 4036 a3a3 db35 00d3 c235 dd14 3236
000002a0: ded6 1036 5887 b535 51fc 6335 6448 0736
000002b0: 9200 8235 1a6d 8b35 9880 0036 b254 f235
000002c0: fe63 ba35 12eb 9235 c490 9f35 b49a 5435
000002d0: ed2c 3836 92a9 4536 c604 9e35 81c3 8c36
000002e0: 24f5 e135 6858 a935 3220 4135 9345 5b35
000002f0: 691c 3935 2d6c e535 11e3 6135 3de5 0836
00000300: 39d9 0036 132a b635 b718 9d35 98ce 2d36
00000310: 85fc 1736 a6cf bc35 8f7c 8235 9beb 1636
00000320: 99be d335 34e9 4c36 dd59 9935 67db b235
00000330: 2773 3436 919b b235 7c90 5135 40bc 1736
00000340: 2be5 7535 0d1b 7e35 11cf 1036 30d1 0836
00000350: 953e be35 c9cc de35 eb51 7035 42e0 0136
00000360: 1c02 eb35 6992 4436 20a7 9435 9d66 f235
00000370: f983 1f36 4322 4735 4150 2036 ced0 0736
00000380: fef2 3135 b758 a235 aa8a 9e35 715e 5335
00000390: 7ad0 7a35 0bb5 d535 ef77 0836 32da 3036
000003a0: 912b f834 d577 c435 c55c 2736 218c 0036
000003b0: 0389 1036 840e 1336 667b 9435 067b ab35
000003c0: dbde e435 54ff ab35 7a9f 8336 0c43 ea35
000003d0: 6a2e c735 82af a435 a38d 7c35 46f9 d535
000003e0: d2c3 9e35 ca04 7e35 80d9 d035 c995 6136
000003f0: 23e0 d135 9fb8 1c36 a5ee b735 0446 f235
