ldm_checkpoints/ldm_epoch_60.pth (torch, 798986 bytes, 12 tensors)

model.0.weight f4 [512, 64]
0.034890097 -0.003316764 0.045327086 0.093456015 0.11585327 -0.114299305 -0.022177445 -0.007927261
-0.09027033 0.019779276 0.005478365 -0.0690334 0.12260462 -0.022248073 0.12529229 0.01904242
0.00011098723 -0.081504755 -0.020718675 -0.10977409 -0.04663349 -0.08867322 -0.038274355 0.03300123
-0.10017651 0.06466944 0.077624254 0.09964811 -0.07706585 -0.05996327 0.10739888 0.0021077485
-0.06251994 0.06094838 0.011236335 0.101413645 0.10296916 0.03503682 0.041073073 0.06933487
0.08159936 -0.09612914 0.032070406 -0.1508065 -0.093886755 0.051817186 -0.09560102 0.07664877
-0.110011674 -0.09609657 0.051393397 -0.07406828 0.12518667 0.044511467 -0.123158194 -0.022814658
0.101764955 0.010609449 0.025349213 0.012332439 -0.045527045 -0.10833447 -0.005301327 -0.06568035
-0.015373853 -0.07477434 -0.056215677 0.09974961 0.14054568 -0.049291026 0.07777571 0.06179782
0.06331977 0.04156388 -0.049199596 0.1353838 0.08479649 0.014303325 0.07194677 -0.046437096
0.00022275171 0.08252763 0.027672615 0.16101117 0.05726384 0.06659426 0.17417985 -0.07338217
0.14059533 -0.14383137 0.029142318 -0.05511578 -0.10285076 0.10761673 -0.016491916 0.06096839
-0.07656882 0.12139633 -0.11281763 -0.047663435 -0.065592244 -0.08629022 0.04367751 -0.042950965
-0.033115204 0.0088068815 -0.032585107 -0.0227125 -0.1637487 -0.1264017 0.011887487 -0.153383
-0.06228434 -0.07022624 0.065902114 0.002561109 0.051703226 -0.022095557 -0.07135335 0.046164278
0.15743975 -0.088419326 0.044186093 -0.060818188 -0.014380351 0.011751856 0.07387767 0.018542085
-0.11374155 -0.055293936 -0.03165795 -0.12937734 -0.02260899 -0.1212156 -0.030064628 -0.14604516
0.046909045 0.03450479 -0.15938596 0.1464593 0.10970018 0.014967195 0.087424934 0.044394825
0.1351414 0.0051787053 -0.07487972 0.044106368 -0.13267502 -0.11454921 -0.04903545 0.015854094
0.09527828 0.12237134 0.032475114 0.04188808 0.11498691 0.021158205 0.089902245 -0.015101456
-0.04167172 0.017139137 0.07322908 0.07074963 0.06954005 0.033536427 0.11225423 -0.016838687
0.11678885 -0.10354605 -0.06262445 -0.02039904 0.063125506 0.12953007 -0.027841048 -0.049380977
0.057313096 -0.055686742 0.038583834 -0.024733339 -0.052305378 -0.09788738 0.07606445 0.038201775
0.07430807 0.118246205 -0.057948478 0.12229017 -0.026045242 -0.0033071039 0.00030621848 -0.006958116
0.0051949653 0.0676843 -0.098845206 0.046286784 -0.08774828 -0.061176583 -0.039197847 -0.10199411
-0.020039385 -0.12936147 0.06529817 -0.014355162 0.019091506 -0.08690947 0.066500664 0.017261647
0.03168925 -0.10151146 0.09332503 -0.15092885 -0.08374332 0.0443295 0.11523159 -0.04403994
-0.046558492 -0.093982056 0.05177342 0.0066584502 0.05543941 -0.08648236 0.028993437 -0.02461753
0.09928643 0.025078842 0.14131838 0.0651408 0.10549014 -0.06046691 -0.115017064 -0.03673722
0.06566827 -0.078859344 0.08327244 -0.025727188 0.057820003 -0.087401375 0.09045467 0.076804176
0.06629112 -0.039981432 0.08794171 -0.08154404 -0.017233893 -0.022346484 0.07730417 -0.004406895
0.09648107 -0.033323113 -0.10421248 0.031774897 -0.017839603 -0.028792888 0.08948121 -0.034073815
00000000: ebe8 0e3d 115e 59bb e5a8 393d de65 bf3d
00000010: 7b44 ed3d c115 eabd 79ad b5bc 58e1 01bc
00000020: a7df b8bd 2608 a23c db83 b33b 6261 8dbd
00000030: 2218 fb3d 9741 b6bc 9f4c 003e d9fe 9b3c
00000040: d1c1 e838 f7eb a6bd 36ba a9bc 3dd1 e0bd
00000050: c202 3fbd 4e9a b5bd 92c5 1cbd 4c2c 073d
00000060: 5829 cdbd 6971 843d 77f9 9e3d 4f14 cc3d
00000070: b3d4 9dbd 0c9c 75bd f2f3 db3d 2722 0a3b
00000080: 740a 80bd 02a5 793d 9b18 383c f5b1 cf3d
00000090: 7fe1 d23d c582 0f3d 3d3c 283d 71ff 8d3d
000000a0: 911d a73d 5bdf c4bd 425c 033d 056d 1abe
000000b0: b347 c0bd 423e 543d 78ca c3bd 08fa 9c3d
000000c0: cd4d e1bd 47ce c4bd e281 523d 1cb1 97bd
000000d0: ef30 003e a851 363d 5d3a fcbd cee5 babc
000000e0: 256a d03d 41d3 2d3c 27a9 cf3c 000e 4a3c
000000f0: 917a 3abd 76de ddbd c1b6 adbb 6b83 86bd
00000100: 9de2 7bbc 4a23 99bd 6942 66bd 8649 cc3d
00000110: 35eb 0f3e 63e5 49bd df48 9f3d b61f 7d3d
00000120: ccad 813d e33e 2a3d 8485 49bd 0da2 0a3e
00000130: c8a9 ad3d 7e58 6a3c d458 933d d334 3ebd
00000140: 7592 6939 3f04 a93d aeb1 e23c 1de0 243e
00000150: 7d8d 6a3d 9262 883d 345c 323e 6449 96bd
00000160: 39f8 0f3e 8848 13be dfbb ee3c 16c1 61bd
00000170: 6ba3 d2bd 2966 dc3d 0e1a 87bc feb9 793d
00000180: 1dd0 9cbd a49e f83d ee0c e7bd bc3a 43bd
00000190: 3a55 86bd edb8 b0bd 30e7 323d 5aed 2fbd
000001a0: cfa3 07bd bd4a 103c f677 05bd 910f babc
000001b0: bdad 27be 726f 01be bcc3 423c 6f10 1dbe
000001c0: dd1d 7fbd c6d2 8fbd b0f7 863d 47d8 273b
000001d0: c3c6 533d be01 b5bc b521 92bd c116 3d3d
000001e0: e337 213e 3115 b5bd 7afc 343d 7e1c 79bd
000001f0: 909b 6bbc db8a 403c 2d4d 973d 92e5 973c
00000200: 54f1 e8bd e57b 62bd c4ab 01bd 7e7b 04be
00000210: 7d36 b9bc e23f f8bd 184a f6bc dd8c 15be
00000220: b323 403d e554 0d3d 1336 23be 6df9 153e
00000230: 7daa e03d f738 753c d80b b33d 59d7 353d
00000240: 8262 0a3e 21b2 a93b 8a5a 99bd e1a8 343d
00000250: f6db 07be c798 eabd 65d9 48bd 72e0 813c
00000260: 4221 c33d d39d fa3d a004 053d d692 2b3d
00000270: 427e eb3d f953 ad3c ab1e b83d 196c 77bc
00000280: f7af 2abd 6067 8c3c 21f9 953d 2fe5 903d
00000290: 046b 8e3d 7e5d 093d 8ce5 e53d 49f1 89bc
000002a0: fe2e ef3d f40f d4bd 3f41 80bd e31b a7bc
000002b0: f247 813d 88a3 043e e912 e4bc b543 4abd
000002c0: 23c1 6a3d c817 64bd 150a 1e3d 929d cabc
000002d0: 2a3e 56bd 2e79 c8bd aec7 9b3d 7779 1c3d
000002e0: d42e 983d 112b f23d 625b 6dbd 4573 fa3d
000002f0: d55c d5bc ffbb 58bb f38b a039 e800 e4bb
00000300: 873a aa3b 119e 8a3d 5b6f cabd 3697 3d3d
00000310: 5fb5 b3bd 4c94 7abd ec8d 20bd 4ae2 d0bd
00000320: a329 a4bc 5577 04be 0cbb 853d ea31 6bbc
00000330: ca65 9c3c 98fd b1bd 8031 883d 4c68 8d3c
00000340: 96cc 013d 3ee5 cfbd 3121 bf3d 188d 1abe
00000350: 9e81 abbd da92 353d 8afe eb3d 3963 34bd
00000360: 1eb4 3ebd aa79 c0bd 5e10 543d 212f da3b
00000370: 6f14 633d aa1d b1bd a583 ed3c b4aa c9bc
00000380: af56 cb3d 2572 cd3c c4b5 103e 8a68 853d
00000390: 370b d83d 27ac 77bd 118e ebbd c479 16bd
000003a0: 167d 863d 0281 a1bd be8a aa3d d3c1 d2bc
000003b0: abd4 6c3d 7eff b2bd 4c40 b93d 824b 9d3d
000003c0: a4c3 873d 92c3 23bd c91a b43d 9000 a7bd
000003d0: 182e 8dbc f90f b7bc a651 9e3d b767 90bb
000003e0: de97 c53d d17d 08bd 5a6d d5bd 6526 023d
000003f0: 5c24 92bc 10df ebbc ed41 b73d fc90 0bbd

model.0.bias f4 [512]
-0.11617683 0.086853646 0.009360361 0.037541833 -0.14945608 -0.09450324 0.01402963 -0.049160875
-0.12697162 0.027409812 0.035794873 -0.036101975 0.11464359 0.090600625 -0.049920782 -0.08324755
-0.14592068 -0.10287132 -0.1261819 -0.03384092 -0.048219785 0.047486134 0.090590626 -0.09866648
-0.159937 0.04171179 -0.052847534 -0.0025533496 -0.12114441 -0.12697837 -0.026194993 0.027819892
-0.17434746 -0.09675177 -0.031121898 0.060828056 -0.027275966 0.017782254 -0.005075195 -0.118155986
-0.12207444 -0.0067145363 0.072001554 -0.0025903152 0.031403556 -0.069461726 -0.09363313 0.013666051
-0.0500589 -0.008773746 -0.013503194 -0.035621133 -0.029868174 -0.17840217 0.08667636 0.0067145545
0.01782076 -0.08752656 -0.025158564 -0.057237346 0.07294293 -0.13318098 0.02835501 -0.018312678
0.08161773 -0.08752042 -0.0604571 -0.03833306 0.055837378 -0.07206938 -0.01451359 0.06745515
0.016080076 0.0857485 -0.0965354 -0.10644139 0.0437153 -0.08971338 -0.15210421 -0.10739876
-0.12400502 0.026869418 0.055137876 -0.104525924 -0.019094832 -0.08183624 0.03081408 0.03194795
0.006960072 -0.03087004 -0.11550883 -0.084001064 -0.13794798 -0.105956756 -0.12860805 -0.043687783
-0.0636883 -0.052515093 -0.0068116626 0.022108361 -0.120895185 -0.09080219 -0.02928485 -0.040303666
-0.017868293 -0.019972706 -0.058200512 0.06678913 -0.06476293 0.042356614 -0.07876495 0.005720693
0.0631579 -0.086365655 -0.08491775 -0.034073237 -0.16158542 -0.10004638 -0.084579974 -0.10363537
-0.17567658 -0.11588535 -0.043785077 0.06683674 0.021131514 0.09627766 0.018002301 -0.10424535
-0.06773169 0.06100393 0.011487267 -0.07341264 -0.025736766 -0.1244041 -0.0061675617 -0.02036925
0.0018528681 0.03629556 -0.08406459 0.06260459 -0.088350475 0.021659572 -0.12470417 -0.07425107
-0.10533277 -0.0061713615 -0.11075658 0.037563078 -0.00056247483 -0.07272599 0.075709194 -0.114225306
0.01106365 0.010387948 -0.06869868 -0.08773213 -0.13916416 -0.015740102 0.01266425 -0.14653549
-0.0067275404 -0.0986301 -0.08861577 -0.10866255 0.086629115 -0.16431491 -0.026974866 -0.03485165
-0.006036125 0.04663197 -0.16596648 0.030617222 -0.0878089 -0.0024373042 -0.054376952 -0.11383013
0.06808838 0.033158056 0.06409476 -0.008047826 0.005794985 0.081339635 -0.06651521 -0.0873092
-0.0801878 0.021080196 0.0077619734 0.021202045 -0.07529082 -0.09783278 0.08714477 0.08927203
-0.11800932 0.015013045 -0.072886616 -0.057491302 -0.033843055 0.0056502256 0.0274837 0.035773758
0.0346105 0.119827054 -0.026691174 -0.055349562 -0.12792754 0.051722664 -0.15295844 -0.022947498
-0.124109164 -0.02002598 -0.02794953 0.031567458 -0.01890359 0.03541936 0.0013073806 0.037566036
0.04523988 -0.0076934393 -0.040206835 -0.07430098 -0.048745338 -0.1430569 -0.11334881 0.05147356
-0.14422455 -0.077496655 -0.014001754 -0.13077794 -0.0028543298 -0.09091725 -0.068999745 0.10007755
-0.17556025 -0.16694671 -0.051886648 -0.007528837 -0.12742256 -0.082528256 -0.029171787 -0.08679654
0.012133506 -0.053589888 -0.071677975 0.020938236 -0.04008628 0.083568364 -0.13978402 -0.09917318
0.039691836 -0.11284949 0.04312043 0.039182536 -0.10185444 -0.012770158 0.046894606 0.0595154
00000000: 1eee edbd 53e0 b13d 335c 193c 77c5 193d
00000010: 040b 19be ea8a c1bd 89dc 653c ea5c 49bd
00000020: d904 02be 8b8a e03c a59d 123d aadf 13bd
00000030: 42ca ea3d d28c b93d bc79 4cbd b17d aabd
00000040: 3b6c 15be 33ae d2bd d435 01be c79c 0abd
00000050: 1c82 45bd d280 423d 9487 b93d a711 cabd
00000060: 86c6 23be fbd9 2a3d a876 58bd 1956 27bb
00000070: 8f1a f8bd 9e06 02be e296 d6bc 8be6 e33c
00000080: 2488 32be cb25 c6bd 5af3 febc d726 793d
00000090: d971 dfbc 17ac 913c d24d a6bb c4fb f1bd
000000a0: 2a02 fabd 9d05 dcbb 8d75 933d 47c2 29bb
000000b0: 04a1 003d f341 8ebd bac2 bfbd 93e7 5f3c
000000c0: 900a 4dbd c2bf 0fbc 803c 5dbc 77e7 11bd
000000d0: 1aae f4bc 0faf 36be 6083 b13d c405 dc3b
000000e0: d8fc 913c 2041 b3bd 5519 cebc b571 6abd
000000f0: 1a63 953d 9860 08be c448 e83c 7804 96bc
00000100: 3227 a73d e83d b3bd dda1 77bd 2003 1dbd
00000110: bcb5 643d 1c99 93bd 69ca 6dbc ed25 8a3d
00000120: 5dba 833c e99c af3d 5ab4 c5bd f2fd d9bd
00000130: d00e 333d a6bb b7bd 35c1 1bbe e2f3 dbbd
00000140: 58f6 fdbd 411d dc3c 41d8 613d b011 d6bd
00000150: c46c 9cbc c299 a7bd cf6d fc3c dbdb 023d
00000160: 5111 e43b 2be3 fcbc e58f ecbd c008 acbd
00000170: 3c42 0dbe dbff d8bd d4b1 03be f6f1 32bd
00000180: 036f 82bd 111a 57bd 5e34 dfbb 981c b53c
00000190: e597 f7bd 80f6 b9bd c8e6 efbc 7515 25bd
000001a0: 8760 92bc cd9d a3bc a963 6ebd bdc8 883d
000001b0: 6da2 84bd 217e 2d3d 854f a1bd a774 bb3b
000001c0: ee58 813d 7ae0 b0bd 5be9 adbd 6190 0bbd
000001d0: a676 25be 1ee5 ccbd 4438 adbd c83e d4bd
000001e0: 90e4 33be 4c55 edbd fb57 33bd b3e1 883d
000001f0: ff1b ad3c 392d c53d 9079 933c 967e d5bd
00000200: eab6 8abd 42df 793d 1735 3c3c 5e59 96bd
00000210: e9d5 d2bc 94c7 febd 4219 cabb 6add a6bc
00000220: f0db f23a a7aa 143d 0e2a acbd d636 803d
00000230: 18f1 b4bd 6a6f b13c e664 ffbd f210 98bd
00000240: b5b8 d7bd 2239 cabb 59d4 e2bd bedb 193d
00000250: 0c73 13ba 5df1 94bd 6c0d 9b3d f5ee e9bd
00000260: 5044 353c 3632 2a3c e5b1 8cbd e7ac b3bd
00000270: 0d81 0ebe 63f1 80bc b77d 4f3c 660d 16be
00000280: b372 dcbb 94fe c9bd 2f7c b5bd 798a debd
00000290: 9b6a b13d 2b42 28be 65fa dcbc 9bc0 0ebd
000002a0: b0ca c5bb 2a01 3f3d 1ef3 29be f8d0 fa3c
000002b0: 27d5 b3bd 2ebb 1fbb 5eba 5ebd c51f e9bd
000002c0: ec71 8b3d bed0 073d 1d44 833d 07db 03bc
000002d0: dce3 bd3b 6595 a63d 2039 88bd 2acf b2bd
000002e0: 8039 a4bd 60b0 ac3c 2758 fe3b e9af ad3c
000002f0: 1332 9abd 8d5c c8bd f578 b23d 41d4 b63d
00000300: dfae f1bd 46f9 753c 9445 95bd 007c 6bbd
00000310: 049f 0abd 8725 b93b 7f25 e13c 8187 123d
00000320: bdc3 0d3d e367 f53d 73a7 dabc 39b6 62bd
00000330: 70ff 02be 25db 533d 23a1 1cbe 64fc bbbc
00000340: f22c febd 860d a4bc 6af6 e4bc e14c 013d
00000350: b4db 9abc e413 113d 6a5c ab3a d8de 193d
00000360: 744d 393d 3f19 fcbb ecaf 24bd 1d2b 98bd
00000370: 31a9 47bd 827d 12be 6c23 e8bd f1d5 523d
00000380: 9aaf 13be 91b6 9ebd 9d67 65bc a7ea 05be
00000390: b50f 3bbb d332 babd bd4f 8dbd 75f5 cc3d
000003a0: 11c6 33be 14f4 2abe 1887 54bd 76b4 f6bb
000003b0: 0f7b 02be 9304 a9bd acf9 eebc 62c2 b1bd
000003c0: 9dcb 463c 1281 5bbd e7cb 92bd aa86 ab3c
000003d0: 8331 24bd e425 ab3d 8b23 0fbe 4f1b cbbd
000003e0: e893 223d a21d e7bd 0c9f 303d de7d 203d
000003f0: 1099 d0bd ed39 51bc 8f14 403d 6cc6 733d

model.2.weight f4 [64, 512]
-0.032546747 -0.031008774 -0.03128611 0.012451533 0.031806357 -0.051988866 0.01086381 -0.031544935
0.04432585 -0.07882612 0.050724823 0.011840638 -0.032066237 0.026984962 -0.0097122 -0.09723872
0.0041950503 -0.0031584068 -0.02364542 -0.05169008 0.0027168123 -0.06360107 0.046645995 0.02492605
0.02406619 -0.016560655 0.033825714 -0.0011946474 0.0071273814 0.029235853 0.028380865 0.009917319
-0.04059522 -0.00257068 -0.07231726 0.0005975495 -0.00014142944 0.047818296 0.0028872692 -0.039677057
0.016889073 -0.017551754 0.049238745 0.043417748 -0.018728122 -0.019754322 -0.08510408 0.068657696
-0.013982643 -0.0011358723 -0.009809995 0.06790167 0.11027808 0.010390382 0.028612057 0.04212417
0.04302418 0.013068386 -0.032579027 0.003928338 -0.09287448 0.08383019 -0.036596045 0.058029875
0.0059784567 -0.067931786 -0.01304666 0.017143458 -0.037589233 0.04891694 -0.076577686 0.04931504
0.019598804 -0.060044065 -0.03908069 -0.04297481 0.045091387 0.045096464 0.039687626 -0.015311467
-0.025495464 -0.007918202 0.023118893 0.036807995 -0.060086895 0.024221176 0.014028692 -0.021984827
-0.033183903 0.019310696 0.02710946 0.02414831 -0.05780937 -0.00040322737 -0.01720132 0.026504384
0.024263924 -0.022256063 -0.039522324 -0.009557434 -0.03602147 -0.026741639 0.046309862 0.09074599
0.0043713334 0.040574167 -0.024686748 0.019569764 0.02888558 -0.006651367 0.04405768 -0.008587438
-0.04357978 -0.0129338335 0.061916694 0.051361285 0.008804175 0.027099606 0.0143997455 0.0031187173
0.0076117115 0.026417784 0.086897254 0.051944673 0.030190853 0.075921305 0.040694963 -0.027499668
0.016820334 -0.0068765534 0.016571067 0.01341689 -0.043880228 0.016694613 0.017319614 -0.04623159
-0.07394525 -0.004402903 0.028224688 0.056526795 0.011015514 -0.029649295 0.033697292 -0.008389466
-0.04707925 0.06295651 0.020875841 -0.012528667 0.056943327 0.022283742 0.04464322 0.0055616084
-0.039833114 -0.032125093 -0.078833155 0.030667463 -0.044878602 0.0037921835 -0.014280934 0.06124638
-0.01004292 0.017827375 0.014310198 0.0062844376 -0.023593228 0.11159992 0.014540093 0.019331012
-0.046277754 -0.020359363 -0.042519275 -0.011743574 -0.0071348003 -0.060615636 -0.060788963 0.07657639
0.030198481 0.026758336 0.0524791 -0.019707184 -0.05328548 -0.03629154 -0.012588642 -0.019877424
0.00023278408 -0.029785777 -0.017522393 0.0258908 -0.02564024 0.06172824 0.022291783 0.033778664
-0.07768538 0.044574577 -0.025258724 -0.042745605 -0.039678767 0.03132178 -0.01130553 0.01570632
0.051478397 0.018207805 0.014291195 0.03777595 -0.02878574 0.01107483 -0.03108291 0.01785643
-0.0304056 0.018787654 0.04475112 0.009132924 -0.020925647 0.043518167 0.03745585 0.01648356
0.05153329 -0.039266612 -0.047795106 -0.03284328 -0.08631499 -0.030341713 -0.024424812 -0.005394619
0.05621566 0.012107549 0.052069817 0.030182917 -0.0026122956 0.061888453 -0.040734544 -0.0070980466
-0.04772208 -0.0042191884 0.070912264 -0.06594023 0.032230143 0.003560799 -0.030063327 0.037570927
0.027552763 0.03611806 -0.014035695 0.071200006 0.023628665 -0.0094376085 -0.03960381 -0.03966332
-0.018600203 -0.034193188 -0.021154864 -0.014426165 0.010658339 0.033814847 0.03432893 -0.010278689
00000000: bd4f 05bd 1d06 febc dd25 00bd 8401 4c3c
00000010: 6247 023d 47f2 54bd 1ffe 313c 4335 01bd
00000020: 068f 353d 976f a1bd d5c4 4f3d 3cff 413c
00000030: e357 03bd 910f dd3c eb1f 1fbc 1825 c7bd
00000040: a276 893b 46fd 4ebb 0ab4 c1bc fab8 53bd
00000050: 8c0c 323b 4741 82bd df0f 3f3d b731 cc3c
00000060: 7526 c53c 36aa 87bc d58c 0a3d b795 9cba
00000070: cf8c e93b 0780 ef3c fd7e e83c 407c 223c
00000080: 2c47 26bd db78 28bb 121b 94bd dea4 1c3a
00000090: ad4c 14b9 1edd 433d 5738 3d3b 6984 22bd
000000a0: f45a 8a3c b2c8 8fbc 91ae 493d cfd6 313d
000000b0: b86b 99bc d1d3 a1bc 0c4b aebd 689c 8c3d
000000c0: 7517 65bc 8de1 94ba 1aba 20bc 0810 8b3d
000000d0: 79d9 e13d 6c3c 2a3c d563 ea3c 658a 2c3d
000000e0: 1f3a 303d c91c 563c 9671 05bd 4ab9 803b
000000f0: fa34 bebd 2aaf ab3d bce5 15bd bcb0 6d3d
00000100: eee6 c33b d21f 8bbd a9c1 55bc 7070 8c3c
00000110: 2bf7 19bd 215d 483d c3d4 9cbd 91fe 493d
00000120: ac8d a03c c4f0 75bd 1313 20bd 5b06 30bd
00000130: bfb1 383d 12b7 383d 7e8f 223d f3dc 7abc
00000140: dddb d0bc 59bb 01bc d563 bd3c fbc3 163d
00000150: ad1d 76bd 7d6b c63c 99d8 653c 8619 b4bc
00000160: d8eb 07bd 7731 9e3c a914 de3c add2 c53c
00000170: 85c9 6cbd 4368 d3b9 c8e9 8cbc b91f d93c
00000180: 23c5 c63c 5952 b6bc 29e2 21bd c996 1cbc
00000190: 408b 13bd 4811 dbbc 69af 3d3d 09d9 b93d
000001a0: 673d 8f3b 1931 263d dd3b cabc c550 a03c
000001b0: 74a1 ec3c b6f3 d9bb d375 343d 53b2 0cbc
000001c0: b680 32bd 6ee8 53bc 5c9c 7d3d 3660 523d
000001d0: 633f 103c feff dd3c e9ec 6b3c 6563 4c3b
000001e0: aa6b f93b 1c6a d83c 30f7 b13d f0c3 543d
000001f0: cf52 f73c a17c 9b3d c3af 263d fc46 e1bc
00000200: ccca 893c b654 e1bb 0cc0 873c 84d2 5b3c
00000210: c1bb 33bd 24c3 883c dde1 8d3c 565d 3dbd
00000220: 9b70 97bd 3a46 90bb 7637 e73c a488 673d
00000230: 6a7a 343c 14e3 f2bc 2c06 0a3d f973 09bc
00000240: 2cd6 40bd 58ef 803d d003 ab3c 0a45 4dbc
00000250: 683d 693d 658c b63c cfdb 363d 273e b63b
00000260: 0c28 23bd 9a95 03bd 4773 a1bd 553a fb3c
00000270: a0d2 37bd 4886 783b 94fa 69bc 7cdd 7a3d
00000280: 0f8b 24bc b70a 923c 5275 6a3c afed cd3b
00000290: 9646 c1bc 808e e43d 9239 6e3c 125c 9e3c
000002a0: be8d 3dbd aec8 a6bc b128 2ebd 1f68 40bc
000002b0: 0bcb e9bb 1a48 78bd d9fd 78bd 15d4 9c3d
000002c0: ce62 f73c 4c34 db3c 53f4 563d f670 a1bc
000002d0: e041 5abd 70a6 14bd 9740 4ebc fbd5 a2bc
000002e0: 8017 7439 4d01 f4bc 1f8b 8fbc f118 d43c
000002f0: 7b0b d2bc c0d6 7c3d 429d b63c 7f5b 0a3d
00000300: 8319 9fbd d593 363d 62eb cebc 0416 2fbd
00000310: 3486 22bd 444b 003d d43a 39bc 8aaa 803c
00000320: 03db 523d 8928 953c 9e25 6a3c f4ba 1a3d
00000330: 12d0 ebbc 3473 353c 96a1 febc a647 923c
00000340: 2a15 f9bc 91e8 993c f34c 373d 42a2 153c
00000350: 436c abbc 1b40 323d 4e6b 193d 8808 873c
00000360: 9214 533d 07d6 20bd cdc4 43bd ad86 06bd
00000370: eac5 b0bd 2f8f f8bc 8b16 c8bc 58c5 b0bb
00000380: 6442 663d be5e 463c 2947 553d 2a42 f73c
00000390: 0c33 2bbb bf7e 7d3d 44d9 26bd bb96 e8bb
000003a0: 3a78 43bd 1e41 8abb 733a 913d ac0b 87bd
000003b0: c103 043d 4b5c 693b 5e47 f6bc f9e3 193d
000003c0: 55b6 e13c 88f0 133d f9f5 65bc 4fd1 913d
000003d0: e790 c13c 33a0 1abc 9b37 22bd 0176 22bd
000003e0: 745f 98bc 280e 0cbd f74c adbc b95b 6cbc
000003f0: 50a0 2e3c 7081 0a3d 7e9c 0c3d f267 28bc

model.2.bias f4 [64]
-0.004183299 0.04550531 0.00680127 0.002395653 -0.012502719 0.015792048 0.008429106 -0.0036692673
-0.02964683 0.018217387 -0.01574537 -0.01803565 -0.023216192 0.019769104 0.0221211 0.028185295
-0.034549482 -0.027989868 -0.0041471086 0.021687832 -0.016457653 0.00908215 -0.033215635 -0.047542524
0.028854767 -0.028534228 -0.011519397 -0.041809574 0.011791211 -0.018423583 -0.038294997 -0.0009979038
0.00981613 -0.011263712 0.009581364 -0.026491053 0.013378906 -0.03803129 0.031751737 -0.0327227
-0.009523594 0.022949662 -0.020728977 0.017341267 0.033567604 0.034576852 0.04185031 0.0003933187
0.0029894398 -0.00416339 0.024186945 0.02034826 -0.034846235 -0.018123804 -0.030034896 0.04327947
0.029829727 0.0290681 0.021303637 0.034512002 -0.037967686 -0.022004455 0.023582628 0.029253893
00000000: 0e14 89bb c763 3a3d 30dd de3b 6300 1d3b
00000010: 34d8 4cbc 535e 813c 3c1a 0a3c 1778 70bb
00000020: e9dd f2bc a13c 953c 6ffc 80bc 80bf 93bc
00000030: e22f bebc d1f2 a13c 4f37 b53c d9e4 e63c
00000040: c283 0dbd 024b e5bc 78e4 87bb aeaa b13c
00000050: 33d2 86bc 4ccd 143c 1e0d 08bd f3bb 42bd
00000060: d560 ec3c 9dc0 e9bc dabb 3cbc 8440 2bbd
00000070: ec2f 413c 0eed 96bc 37db 1cbd 18cc 82ba
00000080: d5d3 203c 6f8b 38bc 27fb 1c3c c403 d9bc
00000090: 3333 5b3c b3c6 1bbd 1c0e 023d 3d08 06bd
000000a0: d908 1cbc ee00 bc3c d1cf a9bc 460f 8e3c
000000b0: 2f7e 093d 75a0 0d3d 3b6b 2b3d 5836 ce39
000000c0: 7aea 433b 0c6d 88bb b323 c63c 65b1 a63c
000000d0: edba 0ebd 5f78 94bc be0b f6bc d045 313d
000000e0: 795d f43c 3920 ee3c f784 ae3c 755c 0d3d
000000f0: 0184 1bbd b042 b4bc 5b30 c13c dca5 ef3c

exp_avg f4 [512, 64]
-7.70829e-05 -0.00029000232 -0.00029278474 -0.00034296524 5.053599e-06 0.0002933534 -0.0007157577 2.9034556e-05
-0.00041935118 -0.0004106534 0.0001537784 0.00039977746 0.00035523137 0.00016446493 0.00010436272 -0.0004403258
-6.7364206e-05 0.00024802051 0.00019661056 0.00025060453 0.00044798298 -9.426118e-06 0.000163977 -0.00017573315
-0.00039105985 0.0005149426 3.4527675e-05 -0.00025572925 -0.00040945358 0.00045025873 0.0001719484 -0.00043738916
2.5292626e-05 -0.00020295683 8.748894e-05 5.1551735e-05 6.559466e-05 -0.0003614201 1.2323577e-05 -0.0002535326
-0.0005963345 0.000257443 0.00021431185 0.000114608585 9.3605115e-05 8.266727e-05 -0.00038495607 -0.00012800672
-0.0002451405 -0.00043101455 -0.00041584077 0.00016023812 0.00011312285 -0.00046226266 -0.0005359602 -0.00017661563
-9.986074e-05 8.7871966e-05 -0.00037621806 -0.0004285589 9.878858e-05 0.0002176375 -0.00025277512 -0.0003103911
0.00015776728 -9.703487e-05 0.000105713785 -0.00021433285 -0.00012563798 -0.00013274343 -0.0003115379 0.00019829716
0.00015148088 8.956684e-05 1.03456805e-05 0.00018356918 -0.00055896625 0.00015534033 0.00013789149 1.1640744e-05
-7.384995e-06 -0.00016215748 -0.00037827273 -0.00026307403 4.2542986e-05 0.00010929598 -0.0007413619 0.00020034902
-0.00060985214 0.00012156086 3.8292532e-05 0.00056385185 9.2483984e-05 0.00048936665 0.00057566375 -7.507286e-05
0.00012937353 -0.000118183176 0.0003949988 -5.7079e-05 -0.00021162804 -0.00013877566 1.2056482e-05 0.00027308008
0.00039276463 0.00016697087 0.00010736241 -0.00027650196 -0.00017494583 0.00015800104 0.00012841054 0.00026753568
-0.00015695558 -0.00016185631 9.802822e-05 4.193995e-05 -0.000105419735 0.00016595854 0.00067765894 0.00034944474
4.627467e-05 8.256529e-05 -9.2032256e-05 0.00059432565 -0.00027848253 -0.00010946633 0.00029903036 8.4322266e-05
0.00021689103 0.00030728886 0.0005087103 -0.00033833188 -0.00014849419 0.000384188 -1.2223409e-05 0.0005880609
-0.0005862945 -0.0008130591 -0.0003268668 0.0009866704 -0.00052190357 0.00072850316 0.0003281157 -0.00026185048
-0.00044985706 -0.0007984996 -0.000550449 -0.0004965485 -0.00018714943 -0.00036272462 -0.00029405174 -0.00021508452
-0.00080535497 0.00014521315 -0.0006900331 0.0004195674 0.00065853016 -0.0006130834 0.00020664527 -0.0001286038
0.00034667828 -2.8153429e-05 0.00035095186 -0.0007141673 -5.7519912e-05 -0.00015704951 4.3829505e-06 0.00040120294
-0.00013107301 0.0001714593 7.667712e-05 -0.00025037548 0.0003227626 7.572424e-05 0.00021825288 -5.9660913e-05
0.00068508903 -0.0004041444 -1.6739914e-05 0.0008261476 0.0002534902 0.0008897098 0.0003359532 0.00017714257
9.07768e-05 -0.00011684695 -0.00045119063 0.0007660623 -0.000117735326 0.0002446688 0.0001245294 0.00073971215
-5.541599e-06 -8.9016066e-05 2.5276866e-05 -5.935198e-05 -1.5403477e-05 0.0001288505 -9.224849e-05 -3.2719145e-05
-4.9240476e-05 -0.00012965285 -4.256765e-05 6.9370726e-05 0.000127437 8.939201e-05 -4.49365e-05 -4.1805928e-05
3.4601257e-05 0.00014472213 7.14985e-05 2.7276921e-05 0.00013517895 -3.3930875e-05 -2.5416648e-05 3.2763866e-05
2.6837219e-05 0.000119572964 7.536655e-05 -9.128083e-05 -0.000104383944 0.00016388505 0.00010794841 -0.00013498438
-3.062773e-06 -1.8909945e-05 -7.0406284e-05 5.341975e-05 2.3305704e-05 -0.00011787717 -2.7035692e-06 -7.556963e-06
-6.256384e-05 0.00015220049 -6.518683e-05 0.0001314221 -1.070167e-05 -4.7463425e-05 -4.7773017e-05 -5.9573675e-05
2.01432e-05 -6.7459034e-05 -6.765157e-05 7.05197e-05 4.5145796e-05 -5.321084e-05 1.5990634e-05 -7.431055e-05
-2.7014108e-05 -0.000106977044 -0.00013369117 3.5657579e-06 0.00012280645 1.1820726e-05 -0.00012239191 -0.00014922635
00000000: 91a7 a1b8 740b 98b9 e780 99b9 04d0 b3b9
00000010: 1692 a936 3acd 9939 b0a1 3bba 3c8f f337
00000020: 5ddc dbb9 f74c d7b9 933f 2139 3999 d139
00000030: 593e ba39 3874 2c39 4fdd da38 87db e6b9
00000040: e245 8db8 c008 8239 3f29 4e39 9263 8339
00000050: 42df ea39 de24 1eb7 3ef1 2b39 0245 38b9
00000060: 2a07 cdb9 37fd 063a cfd1 1038 6613 86b9
00000070: eeab d6b9 b410 ec39 0c4d 3439 6151 e5b9
00000080: 802b d437 cfd0 54b9 447a b738 4139 5838
00000090: dd8f 8938 fc7c bdb9 5cc1 4e37 92ec 84b9
000000a0: 5553 1cba 6af9 8639 e6b8 6039 045a f038
000000b0: dd4d c438 a75d ad38 eed3 c9b9 8b39 06b9
000000c0: 3386 80b9 cbf9 e1b9 3405 dab9 9805 2839
000000d0: 5e3c ed38 d85b f2b9 ae7f 0cba e631 39b9
000000e0: 546c d1b8 e747 b838 223f c5b9 34b0 e0b9
000000f0: b72c cf38 9f35 6439 e786 84b9 fdbb a2b9
00000100: 556e 2539 337f cbb8 a8b2 dd38 89be 60b9
00000110: b0bd 03b9 0b31 0bb9 e955 a3b9 fded 4f39
00000120: d7d6 1e39 d5d5 bb38 5c92 2d37 7a7c 4039
00000130: 9787 12ba dae2 2239 f796 1039 9d4c 4337
00000140: a0cc f7b6 d108 2ab9 e852 c6b9 33ed 89b9
00000150: 2f70 3238 d535 e538 f457 42ba c814 5239
00000160: 7cde 1fba 7dee fe38 4b9c 2038 75cf 133a
00000170: f6f3 c138 d748 003a 24e8 163a 6f70 9db8
00000180: 71a8 0739 1cd9 f7b8 d717 cf39 1c68 6fb8
00000190: 78e8 5db9 4f84 11b9 3246 4a37 302c 8f39
000001a0: faeb cd39 e714 2f39 c127 e138 77f7 90b9
000001b0: aa71 37b9 15ad 2539 f1a5 0639 0844 8c39
000001c0: 7194 24b9 f9b7 29b9 8094 cd38 aee8 2f38
000001d0: ca14 ddb8 2805 2e39 eca4 313a ae35 b739
000001e0: 0c17 4238 e726 ad38 7101 c1b8 85cc 1b3a
000001f0: 4b01 92b9 4a91 e5b8 2dc7 9c39 2cd6 b038
00000200: 3e6d 6339 9d1b a139 f85a 053a 2362 b1b9
00000210: 1bb5 1bb9 d76c c939 2413 4db7 1928 1a3a
00000220: 8fb1 19ba 7923 55ba 525f abb9 2a53 813a
00000230: 5bd0 08ba 05f9 3e3a f206 ac39 fa48 89b9
00000240: cbda ebb9 6752 51ba 024c 10ba ce2a 02ba
00000250: 8b3d 44b9 132c beb9 f52a 9ab9 5088 61b9
00000260: 751e 53ba 5c44 1839 56e3 34ba 62f9 db39
00000270: 36a1 2c3a 55b7 20ba ebae 5839 d2d9 06b9
00000280: 5fc2 b539 072b ecb7 f6ff b739 f536 3bba
00000290: 8941 71b8 a8ad 24b9 4211 9336 8c58 d239
000002a0: a570 09b9 c1c9 3339 b7cd a038 d444 83b9
000002b0: 7638 a939 24ce 9e38 d0da 6439 6b3c 7ab8
000002c0: 8c97 333a 58e3 d3b9 b16c 8cb7 d491 583a
000002d0: e1e6 8439 6a3b 693a e022 b039 59bf 3939
000002e0: 6c5f be38 bb0b f5b8 c88d ecb9 92d1 483a
000002f0: ace8 f6b8 e446 8039 1b94 0239 3ee9 413a
00000300: f9f1 b9b6 23ae bab8 a809 d437 b4f0 78b8
00000310: b736 81b7 0b1c 0739 8875 c1b8 ea3b 09b8
00000320: 8f87 4eb8 6cf3 07b9 ab8a 32b8 207b 9138
00000330: 9ca0 0539 f877 bb38 337a 3cb8 c658 2fb8
00000340: d120 1138 8dc0 1739 77f1 9538 bed0 e437
00000350: d3be 0d39 0051 0eb8 d635 d5b7 ef6b 0938
00000360: 7d20 e137 3fc3 fa38 1c0e 9e38 066e bfb8
00000370: b4e8 dab8 8fd8 2b39 5c62 e238 988a 0db9
00000380: 0a8a 4db6 cca0 9eb7 16a7 93b8 050f 6038
00000390: 9e80 c337 d334 f7b8 f76e 35b6 d191 fdb6
000003a0: b534 83b8 0298 1f39 eab4 88b8 5ace 0939
000003b0: 538b 33b7 7713 47b8 e35f 48b8 bfde 79b8
000003c0: 31f9 a837 cb78 8db8 29e0 8db8 fae3 9338
000003d0: ee5a 3d38 b42e 5fb8 a023 8637 2cd7 9bb8
000003e0: 5b9c e2b7 dd58 e0b8 732f 0cb9 414b 6f36
000003f0: 9bc5 0039 a251 4637 5456 00b9 a579 1cb9

exp_avg_sq f4 [512, 64]
6.301788e-07 2.0735426e-06 1.0406101e-06 2.7335666e-06 4.1315508e-07 1.2701325e-06 8.6831653e-07 7.323203e-07
9.0674087e-07 8.911054e-07 7.878988e-07 1.910052e-06 8.9851727e-07 6.7731423e-07 7.281615e-07 1.0679654e-06
8.9762773e-07 1.253437e-06 1.054474e-06 5.5150315e-07 1.0048601e-06 2.1490478e-06 1.086495e-06 5.8484517e-07
1.7584134e-06 2.5528204e-06 9.946597e-07 1.4437455e-06 2.2796762e-06 1.2666677e-06 8.2240314e-07 1.044994e-06
2.4094115e-06 9.1211945e-07 9.690968e-07 5.2987536e-07 8.671897e-07 1.0383689e-06 1.0386555e-06 3.967352e-07
7.585379e-07 9.685801e-07 5.856564e-07 8.135556e-07 8.299313e-07 1.0442707e-06 7.91512e-07 1.7260036e-06
1.5193808e-06 1.907995e-06 2.0560651e-06 6.7815e-07 1.9747213e-06 1.0348083e-06 6.7814784e-07 6.9524816e-07
5.3822106e-07 1.0096803e-06 1.442706e-06 1.9366323e-06 1.9571942e-06 4.2584324e-07 1.1113767e-06 5.1980584e-07
2.0813793e-06 2.8838463e-06 1.6183493e-06 4.484799e-06 1.7058953e-06 2.1430951e-06 2.7526933e-06 2.5496274e-06
2.8571267e-06 2.1215803e-06 4.065393e-06 2.9492733e-06 2.9289438e-06 3.0112908e-06 1.7949375e-06 3.1396446e-06
1.8588977e-06 3.2820985e-06 2.6576786e-06 1.7876908e-06 2.9671735e-06 3.5186295e-06 2.132495e-06 2.21216e-06
3.7003178e-06 2.771076e-06 3.4976877e-06 2.9129453e-06 2.0638347e-06 3.1573006e-06 1.7122273e-06 3.3892627e-06
3.3772874e-06 2.2403456e-06 2.4657368e-06 2.6777946e-06 1.4904525e-06 2.0535347e-06 2.5975164e-06 1.6386376e-06
1.9328738e-06 1.7065731e-06 2.2572278e-06 1.71067e-06 1.4667512e-06 2.4780004e-06 1.389539e-06 2.5604309e-06
2.229651e-06 3.85466e-06 4.028459e-06 2.7019082e-06 2.7389365e-06 2.5945938e-06 2.5304814e-06 1.3944981e-06
1.785421e-06 2.6384282e-06 1.8206863e-06 2.7645965e-06 1.901084e-06 1.8123285e-06 1.6099802e-06 1.858737e-06
1.041651e-06 2.1182625e-06 1.4824376e-06 2.7490375e-06 1.0939473e-06 1.2472608e-06 1.7449469e-06 2.8371628e-06
2.0160626e-06 3.185086e-06 2.1289145e-06 2.94784e-06 2.66323e-06 3.2983362e-06 1.3594432e-06 1.9920424e-06
1.3339711e-06 3.1768943e-06 2.7893448e-06 1.4364305e-06 2.972321e-06 1.5225604e-06 3.0314077e-06 2.2883662e-06
2.031966e-06 3.5615642e-06 2.9055468e-06 2.1675396e-06 2.0926639e-06 2.3114446e-06 1.8917647e-06 2.8705394e-06
3.0720446e-06 1.610086e-06 2.6417285e-06 1.7629352e-06 1.2140473e-06 1.8240324e-06 2.7240228e-06 1.3195672e-06
1.9270997e-06 1.6505968e-06 1.7270064e-06 2.3618945e-06 1.6015349e-06 9.193154e-07 1.7111554e-06 2.155464e-06
1.4812357e-06 2.4299927e-06 2.2941745e-06 2.9165835e-06 2.9353084e-06 2.1857354e-06 2.2893037e-06 2.2524434e-06
2.233607e-06 1.9251008e-06 1.3821e-06 2.4853323e-06 2.6362613e-06 1.5158716e-06 2.3257621e-06 1.7365795e-06
7.635742e-07 1.4480358e-06 1.1942751e-06 2.261272e-06 6.962068e-07 1.1586801e-06 1.0396711e-06 1.4900202e-06
1.1133997e-06 1.1421599e-06 1.4408629e-06 1.5117738e-06 8.2822805e-07 1.1233534e-06 1.1195166e-06 6.2155283e-07
8.037642e-07 1.2414965e-06 9.710656e-07 7.9743734e-07 8.381152e-07 1.429417e-06 1.4836535e-06 7.4577616e-07
1.2560062e-06 1.7092492e-06 8.167523e-07 1.5335194e-06 1.3713735e-06 1.3106469e-06 7.3786623e-07 9.368183e-07
2.0605958e-06 1.2525009e-06 1.0253777e-06 5.8313174e-07 8.441744e-07 1.0010177e-06 8.484749e-07 7.6745675e-07
8.7973365e-07 1.4223835e-06 8.4591943e-07 8.0971057e-07 1.2962652e-06 8.4207005e-07 9.137201e-07 1.2832726e-06
1.2145822e-06 1.4765669e-06 1.6467961e-06 1.0034815e-06 1.7797679e-06 1.054177e-06 1.1404275e-06 8.59505e-07
5.769177e-07 8.7177847e-07 1.1126737e-06 1.4247069e-06 1.5699338e-06 7.445806e-07 9.046086e-07 6.18012e-07
00000000: 8f29 2935 3127 0b36 17ab 8b35 5172 3736
00000010: 9acf dd34 6c79 aa35 4216 6935 ab94 4435
00000020: c266 7335 4c34 6f35 fe7f 5335 722e 0036
00000030: a331 7135 aed0 3535 e176 4335 0357 8f35
00000040: 82f4 7035 c43b a835 7387 8d35 020b 1435
00000050: bbde 8635 5c38 1036 afd3 9135 41fe 1c35
00000060: a002 ec35 1f51 2b36 3f80 8535 b8c6 c135
00000070: 8afc 1836 5f02 aa35 1dc3 5c35 b841 8c35
00000080: 60b1 2136 5fd8 7435 ea11 8235 c23c 0e35
00000090: d3c8 6835 155e 8b35 ee67 8b35 dffe d434
000000a0: 549e 4b35 2900 8235 0036 1d35 1d63 5a35
000000b0: 72c8 5e35 de28 8c35 4a78 5435 08a9 e735
000000c0: 87ed cb35 1b0b 0036 eefa 0936 1d0a 3635
000000d0: 7485 0436 bee3 8a35 f709 3635 17a1 3a35
000000e0: 457a 1035 5a84 8735 00a3 c135 17f7 0136
000000f0: 5758 0336 739f e434 9d2a 9535 c988 0b35
00000100: d3ad 0b36 1a88 4136 0f36 d935 217c 9636
00000110: 1ef6 e435 18d2 0f36 e9ba 3836 441a 2b36
00000120: 10bd 3f36 7960 0e36 7669 8836 21ec 4536
00000130: df8e 4436 9515 4a36 95e9 f035 afb2 5236
00000140: 3d7f f935 0642 5c36 925a 3236 97f0 ef35
00000150: a71f 4736 9821 6c36 fc1b 0f36 9f74 1436
00000160: fa52 7836 b9f6 3936 d1b9 6a36 057c 4336
00000170: 6980 0a36 03e2 5336 afcf e535 1773 6336
00000180: 5ba5 6236 d858 1636 0979 2536 29b4 3336
00000190: 8f0b c835 75cf 0936 fe50 2e36 29ef db35
000001a0: 85b6 0136 680d e535 e17a 1736 2c9a e535
000001b0: 30dd c435 b94b 2636 3280 ba35 ded3 2b36
000001c0: 1da1 1536 4757 8136 332c 8736 6e52 3536
000001d0: 92ce 3736 c81e 2e36 57d1 2936 972a bb35
000001e0: 99a2 ef35 da0f 3136 4e5e f435 6887 3936
000001f0: c028 ff35 223f f335 8016 d835 b879 f935
00000200: dbce 8b35 7927 0e36 2bf8 c635 1b7c 3836
00000210: bed3 9235 8e67 a735 eb33 ea35 1666 3e36
00000220: b14b 0736 5cbf 5536 79de 0e36 81d3 4536
00000230: f1b9 3236 fc58 5d36 1d76 b635 07af 0536
00000240: e60a b335 a132 5536 9430 3b36 60cb c035
00000250: 1678 4736 c75a cc35 306f 4b36 d591 1936
00000260: e95c 0836 3503 6f36 eafc 4236 0c76 1136
00000270: b16f 0c36 511e 1b36 8ae8 fd35 7ea3 4036
00000280: 5329 4e36 221a d835 8d48 3136 fe9d ec35
00000290: 59f2 a235 47d1 f435 5bce 3636 fc1b b135
000002a0: 5253 0136 138a dd35 7dcb e735 0a81 1e36
000002b0: 52f4 d635 e0c6 7635 daaa e535 97a6 1036
000002c0: dfce c635 f512 2336 9ef5 1936 86ba 4336
000002d0: 37fc 4436 a6ae 1236 f0a1 1936 af28 1736
000002e0: 13e5 1536 fb30 0136 9880 b935 afc9 2636
000002f0: a0ea 3036 f474 cb35 4a14 1c36 6b14 e935
00000300: 6bf8 4c35 225a c235 fb4a a035 5bc0 1736
00000310: f8e2 3a35 f283 9b35 d48a 8b35 b4fc c735
00000320: 1f70 9535 514c 9935 ac63 c135 27e8 ca35
00000330: 6653 5e35 21c6 9635 4c42 9635 c9d8 2635
00000340: 41c2 5735 7fa1 a635 8f55 8235 7a0f 5635
00000350: d7fa 6035 65da bf35 f221 c735 5931 4835
00000360: 0b94 a835 5b69 e535 ca3e 5b35 53d3 cd35
00000370: 0910 b835 7ce9 af35 c811 4635 aa79 7b35
00000380: c448 0a36 9a1b a835 b69f 8935 8288 1c35
00000390: 399b 6235 b55a 8635 c0c2 6335 3a03 4e35
000003a0: d626 6c35 bae8 be35 2413 6335 e35a 5935
000003b0: 55fb ad35 9d0a 6235 5e46 7535 e93c ac35
000003c0: ba04 a335 742e c635 7c07 dd35 5daf 8635
000003d0: 5ce0 ee35 3f7d 8d35 ca10 9935 bcb8 6635
000003e0: 7cdd 1a35 2904 6a35 2d57 9535 8e38 bf35
000003f0: 84b6 d235 30df 4735 3bd4 7235 76e5 2535

exp_avg f4 [512]
-9.864256e-05 -0.00041739095 0.00028041666 -0.00012025164 -0.00012571135 -6.146683e-05 0.00023964772 -0.000141359
0.00016110072 -1.2161625e-05 -0.00029655476 -4.9380775e-05 -0.0001287663 -0.00015649047 0.00011201733 -0.00031205593
-4.9312388e-05 -4.2916858e-05 8.295757e-05 0.0001304949 -3.2485284e-05 -0.00018823783 -0.00011357584 -0.0006039039
-0.00029090748 -0.00020871802 0.00020820399 4.443027e-05 -0.00010052307 -6.1174054e-05 0.00075545005 -0.00033331633
7.996591e-05 -0.00028129062 0.00021037797 0.0003382948 -0.00019082414 -8.099575e-05 -0.00021632783 5.472164e-05
8.759723e-05 0.00038635745 -0.0003544543 -0.00040853096 -4.121904e-06 -0.00015372701 -0.00021184063 5.5160644e-06
-7.3071125e-05 0.00015728029 9.3451185e-05 -0.00022591057 0.00067639595 6.206297e-05 0.0002932489 -5.83895e-05
0.00049033295 -0.00013226455 0.00012836557 -3.5725083e-05 -0.00023802646 -0.0001548314 -4.326407e-05 7.941245e-05
-0.00025833573 -7.1616785e-05 -0.0005050374 3.7211852e-05 0.0005760644 9.590509e-05 0.00018314004 -0.00046044152
-0.00020791453 -0.00031325183 0.00056396634 0.0003435674 0.0004671092 -0.00030191077 -0.0003138479 -0.00036831238
-0.00012091881 0.0004430202 9.621689e-05 -1.8983017e-05 0.00018640184 0.00013490993 0.0003316853 0.0003148297
-0.000102023965 0.00047638803 -0.0002505593 -0.00035344402 4.3318563e-05 0.00013166011 -0.00018425722 0.00032298782
1.7988254e-05 0.00017916254 -0.00020649654 0.00040404976 -0.00033038712 -9.300523e-05 4.6923782e-05 -0.00013298482
0.00036607124 0.00018309739 0.00010197881 0.00019287763 0.00033389305 9.992333e-05 -0.00031211198 -0.00023979152
-0.00017327105 -7.927888e-06 0.00022343836 -0.00019186971 0.0001257007 9.293958e-05 4.950983e-05 0.00046147333
-7.352771e-05 0.00028059943 -0.00027812124 -0.00035804638 0.00018874774 -0.00031335495 6.612132e-05 -0.00016712748
-5.9554193e-05 -0.00013770758 8.561138e-05 -0.00012575687 -0.0005137574 -5.656685e-06 0.000442253 0.00013264675
3.0215022e-05 0.00019223904 -5.6433983e-05 -5.8114747e-06 -5.4436976e-05 -9.9875295e-05 -0.00017157514 -8.56722e-05
-0.00012897924 0.00073547725 0.00035373514 0.0001455157 -0.00019817764 0.0001755175 0.00023796925 7.557128e-05
0.00019235889 -0.00017719179 -0.00011712074 0.000119463366 -0.00020355648 -4.7469395e-05 3.7008042e-06 -0.00044757308
-0.00016192188 -0.0001191465 0.00028188957 -1.9850087e-05 0.0006449626 -0.00018801422 -0.00023306801 -5.2012503e-05
0.00060863775 0.00021531203 0.0002496825 -0.00014022083 -0.0002527784 7.0507e-05 -0.00025463814 -3.0135703e-05
4.3505867e-08 0.0002794175 0.00024967603 0.00021092981 1.7312237e-05 -0.00010979279 4.265879e-06 5.2526993e-05
-3.889386e-05 5.6583787e-05 -0.000108837536 0.00015848469 -0.00014301497 -0.0002707989 -3.4523055e-05 -0.000111316775
-0.00012325894 0.00052467413 0.00012849882 -0.0001182715 0.0005482295 0.00029682412 0.00012343176 -7.4698335e-05
-0.0003162203 -0.00031979143 0.00028280084 0.00020767943 -0.00017105881 7.825703e-05 -0.0002140507 -0.00059612584
0.00055363245 -0.00029782136 -0.00046048465 -9.250691e-05 -3.0158988e-05 -7.99418e-05 -0.00034556162 -0.00049338164
-9.926437e-06 -0.00026324022 -0.00029299557 -0.00023151154 0.00014293136 -9.359347e-05 0.00030663417 -0.00013761983
4.2926218e-05 -0.00014079553 -0.00027560745 -0.0002778445 -8.92377e-06 -0.00027657894 5.7167017e-05 0.00026249635
-0.0001975887 0.00012417929 -6.9850124e-05 0.0006984194 3.7862126e-05 0.0006708762 5.3548618e-05 -2.0608486e-05
1.1278687e-05 -0.00014888316 0.00027117511 -0.00023153095 -0.00020220876 0.00012968342 0.00038592526 0.0002552245
-0.000105049025 -5.470954e-05 6.2239465e-05 -3.7895323e-05 0.00014529181 -0.00029432136 -1.0165335e-05 0.00039261545
00000000: 52de ceb8 44d5 dab9 e304 9339 9c2f fcb8
00000010: 62d1 03b9 c1e7 80b8 f249 7b39 c539 14b9
00000020: 25ed 2839 c809 4cb7 e87a 9bb9 341e 4fb8
00000030: 7105 07b9 9717 24b9 d9ea ea38 709b a3b9
00000040: c6d4 4eb8 a001 34b8 82f9 ad38 75d5 0839
00000050: cf40 08b8 b561 45b9 912f eeb8 4e4f 1eba
00000060: f184 98b9 51db 5ab9 5551 5a39 a45a 3a38
00000070: eacf d2b8 924a 80b8 6509 463a f6c0 aeb9
00000080: 5fb3 a738 307a 93b9 e898 5c39 295d b139
00000090: f717 48b9 43dc a9b8 0fd6 62b9 ea84 6538
000000a0: 68b4 b738 0590 ca39 0dd6 b9b9 1930 d6b9
000000b0: e34e 8ab6 c831 21b9 8921 5eb9 a216 b936
000000c0: c33d 99b8 9beb 2439 39fb c338 68e2 6cb9
000000d0: 2a50 313a ce27 8238 33bf 9939 40e7 74b8
000000e0: b089 003a 7fb0 0ab9 df99 0639 84d7 15b8
000000f0: be96 79b9 3d5a 22b9 7176 35b8 3c8a a638
00000100: 3c71 87b9 f830 96b8 7c64 04ba ec13 1c38
00000110: 0703 173a a720 c938 4809 4039 6a67 f1b9
00000120: a203 5ab9 f33b a4b9 24d7 133a d620 b439
00000130: 56e6 f439 c749 9eb9 f48b a4b9 0d1a c1b9
00000140: cb95 fdb8 2a45 e839 0dc8 c938 b83d 9fb7
00000150: dd74 4339 9c76 0d39 0ce6 ad39 ba0f a539
00000160: b3f5 d5b8 b8c3 f939 805d 83b9 744e b9b9
00000170: f4b0 3538 3e0e 0a39 2c35 41b9 b156 a939
00000180: 7be5 9637 94dd 3b39 fe86 58b9 a4d6 d339
00000190: cf37 adb9 cd0b c3b8 07d0 4438 d771 0bb9
000001a0: 40ed bf39 d5fd 3f39 75dd d538 323f 4a39
000001b0: 5e0e af39 ee8d d138 f6a2 a3b9 8c70 7bb9
000001c0: 18b0 35b9 0502 05b7 c74a 6a39 a230 49b9
000001d0: 86ce 0339 8fe8 c238 c6a8 4f38 e7f1 f139
000001e0: e432 9ab8 6b1d 9339 cdd0 91b9 2cb8 bbb9
000001f0: 96ea 4539 ca49 a4b9 9daa 8a38 f13e 2fb9
00000200: d4c9 79b8 9965 10b9 428a b338 9add 03b9
00000210: adad 06ba 8ece bdb6 31de e739 1717 0b39
00000220: 4476 fd37 c693 4939 87b3 6cb8 3000 c3b6
00000230: 4253 64b8 2474 d1b8 dae8 33b9 eaaa b3b8
00000240: 9a3e 07b9 0bcd 403a 8775 b939 9395 1839
00000250: e8cd 4fb9 1f0b 3839 6287 7939 067c 9e38
00000260: f2b3 4939 8fcc 39b9 b89e f5b8 6888 fa38
00000270: c771 55b9 e019 47b8 555b 7836 3ea8 eab9
00000280: 93c9 29b9 4ade f9b8 94ca 9339 bd83 a6b7
00000290: b512 293a af25 45b9 b863 74b9 0028 5ab8
000002a0: fd8c 1f3a 62c5 6139 d1e7 8239 3e08 13b9
000002b0: 5887 84b9 28dd 9338 f480 85b9 eecb fcb7
000002c0: 35db 3a33 c87e 9239 f3e6 8239 0a2d 5d39
000002d0: bf39 9137 8e40 e6b8 9f23 8f36 6e50 5c38
000002e0: f721 23b8 6154 6d38 b53f e4b8 e92e 2639
000002f0: 4af6 15b9 03fa 8db9 d9cc 10b8 bd72 e9b8
00000300: 123f 01b9 498a 093a a4bd 0639 8708 f8b8
00000310: 0fb7 0f3a 0f9f 9b39 766d 0139 5da7 9cb8
00000320: 5fca a5b9 aea9 a7b9 e344 9439 86c4 5939
00000330: 405e 33b9 ec1d a438 cc72 60b9 5445 1cba
00000340: a521 113a e824 9cb9 346d f1b9 4500 c2b8
00000350: effd fcb7 6da6 a7b8 7f2c b5b9 4856 01ba
00000360: b989 26b7 8103 8ab9 339d 99b9 e8c1 72b9
00000370: d8df 1539 9d47 c4b8 bec3 a039 0b4e 10b9
00000380: ad0b 3438 83a2 13b9 687f 90b9 a8ab 91b9
00000390: 4db7 15b7 cc01 91b9 9ec6 6f38 aa9f 8939
000003a0: d02f 4fb9 2036 0239 807c 92b8 2216 373a
000003b0: 26ce 1e38 bddd 2f3a 6499 6038 63e0 acb7
000003c0: 9839 3d37 851d 1cb9 822c 8e39 1ec7 72b9
000003d0: 0008 54b9 a1fb 0739 0356 ca39 a7cf 8539
000003e0: c44d dcb8 ec77 65b8 8f86 8238 cbf1 1eb8
000003f0: 7959 1839 254f 9ab9 c88b 2ab7 f4d7 cd39

exp_avg_sq f4 [512]
1.0268473e-06 2.2651782e-06 1.9999138e-06 1.0235453e-06 8.7776885e-07 7.1496123e-07 1.3856205e-06 1.4119689e-06
1.164275e-06 1.5743287e-06 6.056218e-07 1.2754238e-06 1.8203497e-06 1.4275021e-06 7.099729e-07 1.7950013e-06
5.4011366e-07 8.4190134e-07 7.9090916e-07 1.1813586e-06 1.0206173e-06 1.6505011e-06 1.2089637e-06 1.6392987e-06
8.977536e-07 6.9042045e-07 6.9367115e-07 8.0916493e-07 8.647028e-07 6.5110714e-07 1.1843765e-06 1.580141e-06
9.055404e-07 1.2678146e-06 1.2223542e-06 1.9138702e-06 1.3599018e-06 1.4652477e-06 1.3218294e-06 1.5107453e-06
1.0167703e-06 1.079172e-06 2.024193e-06 8.330233e-07 1.4957543e-06 9.627546e-07 1.2717526e-06 1.7725124e-06
2.387342e-06 1.0262544e-06 9.074261e-07 8.455068e-07 1.9354002e-06 4.754801e-07 1.3449637e-06 1.6776416e-06
1.1297218e-06 1.4087095e-06 1.0143677e-06 7.3386553e-07 1.0416386e-06 1.078885e-06 9.380481e-07 9.0702173e-07
2.4141775e-06 1.23556e-06 1.6242543e-06 1.5142514e-06 2.044358e-06 1.0796379e-06 1.3367357e-06 2.0124448e-06
1.2690434e-06 1.2214618e-06 1.6827219e-06 1.6948649e-06 1.4199109e-06 8.3028476e-07 8.4336375e-07 1.3279802e-06
1.2939482e-06 8.8388197e-07 1.6651251e-06 1.4779423e-06 1.2634074e-06 1.3455865e-06 2.3776124e-06 1.2816515e-06
1.0780109e-06 1.3148945e-06 9.924046e-07 1.8585695e-06 1.4090847e-06 8.6518355e-07 1.2902848e-06 1.5552381e-06
1.3611519e-06 7.6906804e-07 1.6536368e-06 2.0746634e-06 1.0363201e-06 1.1568104e-06 1.5415711e-06 1.008884e-06
1.5303862e-06 1.2004627e-06 1.6232102e-06 1.3246886e-06 1.132328e-06 1.3474403e-06 1.915778e-06 1.471415e-06
1.3013106e-06 1.3480478e-06 1.8341577e-06 1.5622948e-06 1.38709e-06 1.5855542e-06 1.5924924e-06 1.1207776e-06
1.0118483e-06 1.0253233e-06 1.2012874e-06 2.2230233e-06 1.1469299e-06 2.4379317e-06 8.9839557e-07 1.6135566e-06
1.8387306e-06 1.1157299e-06 1.1285812e-06 9.887341e-07 1.989527e-06 4.3435642e-07 1.9674499e-06 1.1989176e-06
1.4988921e-06 1.270313e-06 2.0441316e-06 1.1198218e-06 1.5750694e-06 7.6925e-07 1.0634633e-06 1.1273208e-06
1.0326296e-06 2.4314638e-06 8.995297e-07 1.5189403e-06 1.2407112e-06 9.850452e-07 1.6445788e-06 7.3060403e-07
1.1524717e-06 2.153966e-06 1.2201697e-06 1.1428846e-06 1.6766763e-06 1.0236809e-06 9.4388764e-07 1.3376024e-06
7.426353e-07 5.7032287e-07 1.252216e-06 8.1662665e-07 1.8634157e-06 1.0157373e-06 1.3243465e-06 2.209568e-06
1.3183776e-06 1.02632e-06 9.759104e-07 1.2967056e-06 1.4818628e-06 8.8890135e-07 1.1342714e-06 1.1929894e-06
1.1197139e-06 1.0133639e-06 1.2950991e-06 9.289072e-07 2.0760224e-06 1.642656e-06 1.1125472e-06 1.9179415e-06
9.611235e-07 1.0740231e-06 7.160303e-07 1.0027558e-06 7.087367e-07 9.436572e-07 1.1049045e-06 2.0353175e-06
1.5254764e-06 1.5492087e-06 9.225106e-07 2.1774267e-06 1.7436358e-06 1.0209615e-06 1.185494e-06 1.6252334e-06
1.1537078e-06 2.5514003e-06 9.4694235e-07 1.3565927e-06 1.8825488e-06 1.410553e-06 7.817163e-07 2.0198859e-06
9.2263633e-07 1.025883e-06 1.8602716e-06 1.7048137e-06 1.1388265e-06 1.2226578e-06 7.8641165e-07 1.3690272e-06
1.2368272e-06 1.7630957e-06 1.1401114e-06 1.6049804e-06 2.1013825e-06 7.9791477e-07 2.1333062e-06 1.6407845e-06
8.548494e-07 1.1120425e-06 9.140879e-07 1.0166572e-06 9.844448e-07 1.1256711e-06 1.5200338e-06 2.0267967e-06
5.943265e-07 1.1281278e-06 1.8488527e-06 1.0556221e-06 1.6998994e-06 1.7470404e-06 1.2506307e-06 1.1820956e-06
1.2424351e-06 1.0959751e-06 2.3642492e-06 1.4979908e-06 1.0666048e-06 1.2079264e-06 1.0603128e-06 1.1928483e-06
8.229366e-07 1.0428384e-06 1.4794199e-06 1.7000107e-06 1.5027113e-06 2.0434056e-06 9.999651e-07 1.4775658e-06
00000000: 34d2 8935 7703 1836 4236 0636 c060 8935
00000010: d19f 6b35 c3eb 3f35 8ff9 b935 e282 bd35
00000020: 2f44 9c35 864d d335 0392 2235 3a2f ab35
00000030: bd52 f435 9998 bf35 f794 3e35 c6eb f035
00000040: 54fc 1035 05ff 6135 dd4e 5435 2c8f 9e35
00000050: 25fc 8835 c986 dd35 ad43 a235 e005 dc35
00000060: 28fd 7035 5555 3935 b834 3a35 6435 5935
00000070: ed1d 6835 bec7 2e35 def6 9e35 3b15 d435
00000080: 4314 7335 c729 aa35 c50f a435 0a70 0036
00000090: df85 b635 87a9 c435 b669 b135 d0c4 ca35
000000a0: f677 8835 11d8 9035 5fd7 0736 ed9c 5f35
000000b0: bac1 c835 ff37 8135 16b1 aa35 10e7 ed35
000000c0: 3936 2036 d5bd 8935 d995 7335 c9f6 6235
000000d0: ece1 0136 7d45 ff34 9a84 b435 542b e135
000000e0: f2a0 9735 e412 bd35 6925 8835 dbfe 4435
000000f0: 6ece 8b35 35ce 9035 2dce 7b35 0f7a 7335
00000100: 4103 2236 85d5 a535 f400 da35 483d cb35
00000110: ce31 0936 13e8 9035 e469 b335 8a0d 0736
00000120: 0054 aa35 1cf1 a335 e2d9 e135 1d7b e335
00000130: c493 be35 bce0 5e35 8463 6235 0d3d b235
00000140: b9ab ad35 e843 6d35 437d df35 b65d c635
00000150: 5992 a935 009a b435 128f 1f36 3605 ac35
00000160: 2cb0 9035 6e7b b035 c332 8535 f673 f935
00000170: c81f bd35 f63e 6835 d92d ad35 93bd d035
00000180: d3b0 b635 f471 4e35 87f2 dd35 723a 0b36
00000190: b017 8b35 b443 9b35 fbe7 ce35 fe68 8735
000001a0: ab67 cd35 961f a135 14dd d935 f4cb b135
000001b0: 7efa 9735 b2d9 b435 d190 0036 6f7d c535
000001c0: b1a8 ae35 92ee b435 2e2d f635 0ab0 d135
000001d0: 0d2c ba35 3acf d435 9fbd d535 a06d 9635
000001e0: d8ce 8735 d79d 8935 ec3b a135 402f 1536
000001f0: 36f0 9935 599b 2336 4629 7135 6291 d835
00000200: 4dca f635 30c0 9535 c179 9735 a5b4 8435
00000210: d083 0536 7e31 e934 8808 0436 7fea a035
00000220: 8a2d c935 9f7f aa35 ea2d 0936 c94c 9635
00000230: f966 d335 757e 4e35 52bc 8e35 734e 9735
00000240: e298 8a35 3b2c 2336 3677 7135 64de cb35
00000250: 8386 a635 e535 8435 4cbb dc35 ba1e 4435
00000260: a0ae 9a35 db8c 1036 b6c4 a335 3765 9935
00000270: 290a e135 6865 8935 775f 7d35 ab87 b335
00000280: 8259 4735 4a18 1935 d011 a835 2836 5b35
00000290: 7a1a fa35 7854 8835 33c0 b135 1748 1436
000002a0: 1cf3 b035 16c0 8935 07fc 8235 770a ae35
000002b0: 6be4 c635 d69c 6e35 453d 9835 ce1e a035
000002c0: 1449 9635 eb02 8835 44d3 ad35 045a 7935
000002d0: cb51 0b36 3b79 dc35 d552 9535 fcb5 0036
000002e0: f4ff 8035 2727 9035 3a35 4035 6d96 8635
000002f0: 0440 3e35 a14f 7d35 3b4c 9435 7d96 0836
00000300: f8be cc35 68ee cf35 72a2 7735 e81f 1236
00000310: df06 ea35 f807 8935 441d 9f35 9822 da35
00000320: 19d9 9a35 b938 2b36 6231 7e35 2c14 b635
00000330: e2ab fc35 3b52 bd35 23d7 5135 608d 0736
00000340: 16ab 7735 12b1 8935 72ae f935 f4d0 e435
00000350: c8d9 9835 341a a435 cc19 5335 6bbf b735
00000360: 0f01 a635 82a3 ec35 ee05 9935 b56a d735
00000370: 7a05 0d36 4930 5635 ec29 0f36 ed38 dc35
00000380: ce78 6535 7d41 9535 a45f 7535 1374 8835
00000390: 4421 8435 c415 9735 f703 cc35 1a04 0836
000003a0: ce89 1f35 2d6a 9735 1826 f835 e6ae 8d35
000003b0: 1928 e435 da7b ea35 58db a735 7fa8 9e35
000003c0: bfc1 a635 6b19 9335 7ea9 1e36 920e c935
000003d0: 4328 8f35 0920 a235 1250 8e35 f519 a035
000003e0: c6e7 5c35 a8f7 8b35 7b90 c635 ec2b e435
000003f0: c4b0 c935 7121 0936 8a36 8635 c650 c635
