ldm_checkpoints/ldm_epoch_60.pth (torch, 798986 bytes, 12 tensors)

model.0.weight f4 [512, 64]
0	0x3dd7c0ac	0.10534796
1	0x3d6caca1	0.05778182
2	0xbda2d83a	-0.07951398
3	0xbdacd98c	-0.08439931
4	0x3df4cdf5	0.11953346
5	0x3dbda27b	0.09259506
6	0x3da1542d	0.078773834
7	0x3dba9d94	0.09112087
8	0xbe041dc5	-0.12901981
9	0x3d4b5de1	0.049650077
10	0x3d9374f1	0.07200039
11	0x3df1ba6c	0.11803135
12	0xbd8befc0	-0.06832838
13	0x3d501231	0.0507986
14	0x3d18a6b0	0.03726834
15	0x3cf2a48d	0.02961948
16	0xbd13606b	-0.035980623
17	0xbde6fd1a	-0.11278744
18	0xbdbb1711	-0.09135259
19	0xbdd123e7	-0.10211926
20	0x3ca12a03	0.019673353
21	0x3c93a9f4	0.018025376
22	0x3b448992	0.0029989225
23	0xbd5d5c83	-0.054043304
24	0x3d3654ad	0.044514347
25	0xbb802519	-0.0039106724
26	0x3d30958a	0.04311136
27	0xbdb71ee6	-0.0894144
28	0x3c3f5705	0.011678462
29	0xbd1e20b1	-0.038605396
30	0x3e0cf431	0.13765027
31	0xbc72f96b	-0.014829974
32	0xbcfd1e1d	-0.030898148
33	0x3da915a2	0.08256079
34	0xbd904682	-0.07044698
35	0xbdd3cdbc	-0.10341975
36	0x3d3f67ad	0.046729732
37	0x3d68dc64	0.056850806
38	0x3e096e91	0.13421084
39	0x3db7c276	0.08972637
40	0xbc7872f9	-0.01516413
41	0x3e0208c0	0.1269865
42	0x3cb7841e	0.022401866
43	0x3da9df37	0.08294528
44	0xbc45898b	-0.012056719
45	0x3d60877d	0.05481671
46	0x3d85ca24	0.06532696
47	0x3d67e7dc	0.056617603
48	0x3ca6d166	0.02036352
49	0xbbc7737c	-0.006086765
50	0x3dbaadc2	0.09115173
51	0xbce7d35c	-0.028299026
52	0xbdfb78d8	-0.122789085
53	0x3d825db8	0.06365532
54	0xbda29532	-0.07938613
55	0x3c1420f3	0.009041059
56	0x3d972a94	0.07381168
57	0xbd68a2c2	-0.056795843
58	0x3d1e3b5b	0.038630825
59	0xbd51dd2e	-0.051236324
60	0x3d91634b	0.07099017
61	0x3dc5b5f8	0.096538484
62	0xbcceeb2f	-0.025258629
63	0x3d818fba	0.06326242
64	0xbd4c33d5	-0.04985412
65	0xbcd6d14b	-0.026222846
66	0x3c0ec404	0.008713726
67	0xbd9b42e8	-0.07581121
68	0xbd18310f	-0.03715616
69	0x3db94260	0.09045863
70	0xbdc69724	-0.096967965
71	0x3bb70599	0.005585384
72	0xbd98859f	-0.07447361
73	0x3d82ed16	0.06392877
74	0xbd9a06cd	-0.075208284
75	0x3c7a7aa9	0.0152880335
76	0x3ce074b1	0.027399393
77	0x3d5e597f	0.05428457
78	0xbb895de3	-0.0041921004
79	0xbd1ff942	-0.03905607
80	0xbe0512b3	-0.12995414
81	0xbd2781b8	-0.040895194
82	0xbda0e2fa	-0.07855792
83	0x3d8a0713	0.067396306
84	0x3d23ff33	0.0400383
85	0x3db706f2	0.089368716
86	0x3ca9161a	0.020640422
87	0xbdbc551c	-0.09195921
88	0xbdb81b56	-0.08989589
89	0x3dec31af	0.11532914
90	0xbd83f80b	-0.06443795
91	0xbd396d43	-0.045270216
92	0x3d9c293c	0.07625052
93	0x3d02c9a1	0.03193057
94	0x3d782168	0.060578734
95	0xbcbf8129	-0.023377018
96	0xbd9d5e51	-0.07684005
97	0x3dac4a1a	0.08412571
98	0xbd878d54	-0.06618753
99	0xbd8f46b3	-0.06995907
100	0x3d9ec166	0.077517316
101	0xbda5fc7f	-0.081048004
102	0x3bbdbd1b	0.0057903654
103	0xbcb82db5	-0.022482732
104	0x3d562afb	0.052287083
105	0x3cc006ac	0.023440681
106	0xbde03daa	-0.109492615
107	0xbd9300c9	-0.07177884
108	0xbd5b2780	-0.053504467
109	0xbdd1d974	-0.10246554
110	0x3a4be0dd	0.00077773427
111	0x3d180254	0.037111595
112	0x3d0121ac	0.031526253
113	0x3d883cea	0.066522434
114	0xbdb1259f	-0.08649754
115	0xbd23d0c0	-0.039994
116	0x3df4bf69	0.11950571
117	0x3dbf5598	0.093424976
118	0xbda41ddd	-0.080135085
119	0x3d865c43	0.06560566
120	0x3b99d5d8	0.0046946816
121	0x3de1d2f3	0.110265635
122	0xbd1a1ca6	-0.037624978
123	0x3dad8294	0.084721714
124	0x3d961b9b	0.07329484
125	0x3dfe1f79	0.12408347
126	0xbdc772f3	-0.09738722
127	0xbd520ea3	-0.05128349
128	0xbd105e41	-0.035246138
129	0x3de8175e	0.11332582
130	0x3c45c18c	0.012070071
131	0x3da9aa68	0.082844555
132	0x3dc2a080	0.09503269
133	0xbe16ddd1	-0.14733054
134	0xbcb9c85d	-0.022678548
135	0xbd0ccabf	-0.03437304
136	0x3cae7e36	0.021300416
137	0xbc1c5aa6	-0.009543097
138	0xbdb03cb7	-0.086053304
139	0x3debb1a0	0.11508489
140	0xbdf37352	-0.1188723
141	0x3dd04df9	0.10171122
142	0x3de77e8d	0.113034345
143	0xbd482de3	-0.048871886
144	0xbcd25583	-0.02567554
145	0xbd768c21	-0.06019223
146	0x3dc30bea	0.09523757
147	0x3d1bb781	0.0380168
148	0xbdd919b2	-0.10600604
149	0x3d7a9cfe	0.061184876
150	0x3e0fe5af	0.14052461
151	0xbdc0fb8e	-0.0942298
152	0xbd3b78be	-0.045769446
153	0x3d2364a1	0.03989089
154	0x3c4fa097	0.012672565
155	0x3d89fbc9	0.06737477
156	0xbca5c899	-0.020237254
157	0xbcb1494b	-0.021641394
158	0xbda99243	-0.0827985
159	0x3e19de46	0.15026197
160	0x3dfe84d6	0.1242768
161	0x3c4838ee	0.012220604
162	0xbcffb777	-0.031215413
163	0x3c96231a	0.018327285
164	0xbbf9fcea	-0.0076290267
165	0xbd289834	-0.041160777
166	0xbb8013a2	-0.0039085904
167	0x3ce0c8b4	0.027439453
168	0xbdfd5cdc	-0.12371227
169	0xbda431db	-0.08017322
170	0x3da4774a	0.08030565
171	0xbdbc489c	-0.09193537
172	0xbde57a3e	-0.112049565
173	0x3e103f3d	0.14086623
174	0xbda28c5f	-0.0793693
175	0x3ce336ca	0.027736086
176	0x3d1c755b	0.038197856
177	0xbd2299d6	-0.03969749
178	0xbc174ca1	-0.009234578
179	0xbda49311	-0.08035863
180	0xbde6f5c3	-0.11277344
181	0xbd58c151	-0.052918736
182	0xbdf6b7f4	-0.12046805
183	0x3d6ea292	0.058260508
184	0xbdc00a3b	-0.09376951
185	0x3d6b5992	0.057458468
186	0x3e13ad46	0.14421567
187	0x3d1e2367	0.03860798
188	0xbdfdd361	-0.12393833
189	0xbdb8aef8	-0.09017748
190	0x3d6b900a	0.057510413
191	0xbccca9be	-0.024983283
192	0x3d5981c0	0.053102255
193	0xbdda73ff	-0.10666656
194	0x3b92e45b	0.0044827885
195	0xbde55e01	-0.111995704
196	0xbc858f58	-0.016303703
197	0x3c44524e	0.011982514
198	0xbd742fb5	-0.05961581
199	0xbd625c19	-0.055263612
200	0xbd408e2f	-0.047010597
201	0xbe0d4afd	-0.13798137
202	0xbcbfefce	-0.023429777
203	0xbd9ec35b	-0.07752105
204	0xbd32477d	-0.043525208
205	0x3c6cf99f	0.014463811
206	0xbce1e670	-0.027575701
207	0x3d966902	0.073442474
208	0xbd2c8ef5	-0.042128522
209	0x3d44a96e	0.048013143
210	0xbd81e2a4	-0.063420564
211	0xbd575030	-0.052566707
212	0xbdfa32a1	-0.12216688
213	0xbdc67631	-0.09690512
214	0x3d9f0410	0.07764447
215	0x3ddac95d	0.10682938
216	0x3cd8c1bf	0.026459573
217	0xbda39b9c	-0.079886645
218	0xbda4d992	-0.08049311
219	0x3c56116a	0.013065675
220	0x3d25040c	0.040287063
221	0x3cb6c324	0.022309847
222	0x3d34ac16	0.044109426
223	0xbd8990fb	-0.06717106
224	0xbc8d5f28	-0.017257288
225	0xbd7cfdbc	-0.061765417
226	0x3e0163ea	0.1263577
227	0xbd0be83f	-0.034157034
228	0x3d0ffe93	0.03515489
229	0x3e00b090	0.12567353
230	0xbdd51a38	-0.104053915
231	0xbd6160ee	-0.05502408
232	0x3d6c9330	0.057757556
233	0x3d0a1c62	0.033718474
234	0xbd853cd8	-0.06505746
235	0x3de2e83c	0.110794514
236	0x3c4da91c	0.012552526
237	0x3d8ad775	0.067793764
238	0xbd2e1e23	-0.04250921
239	0xbe05e1a0	-0.1307435
240	0x3cfc0fee	0.030769315
241	0x3d730384	0.059329525
242	0x3c9fa820	0.019489348
243	0xbd911f37	-0.07086032
244	0xbc18bcec	-0.009322386
245	0xbda60972	-0.0810727
246	0xbc1b6d9e	-0.009486584
247	0xbce287a9	-0.027652578
248	0xbd96233a	-0.07330938
249	0x3da72c30	0.08162725
250	0x3c9ea114	0.019363917
251	0x3e163410	0.14668298
252	0xbd6b0784	-0.057380214
253	0x3c6ed5a9	0.014577308
254	0x3c0a5988	0.0084441975
255	0xbd5f6ba2	-0.054546006

model.0.bias f4 [512]
0	0x3bea93a1	0.007158712
1	0x3d19343c	0.03740333
2	0xbb4ad5df	-0.003095023
3	0xbe14e33f	-0.14539813
4	0xbdea2f78	-0.11434835
5	0xbd5a38c9	-0.05327681
6	0xbda096aa	-0.07841237
7	0xbe059354	-0.13044482
8	0x390a7758	0.00013205165
9	0xbda98c03	-0.08278658
10	0x3c436002	0.0119247455
11	0xbd31c68d	-0.043402243
12	0x3d07926f	0.033098634
13	0xbdc93937	-0.09825366
14	0x3da26b81	0.07930661
15	0xbd6b3ae0	-0.057429194
16	0xbe242ddd	-0.1603312
17	0xbbaa6174	-0.0051996056
18	0xbdf6cddd	-0.12050984
19	0x3d4a9aea	0.049464144
20	0xbdf72a05	-0.120685615
21	0xbdf2f51e	-0.11863159
22	0xbda98c6e	-0.08278738
23	0xbd280ce4	-0.04102792
24	0x3c80841f	0.015688
25	0xbcfcc17d	-0.030853981
26	0x3d12357e	0.035695545
27	0x38c9a465	9.615048e-05
28	0xbdd37d58	-0.10326642
29	0x3ca48d63	0.02008695
30	0xbe009b6a	-0.12559286
31	0xbaa55ae0	-0.0012615584
32	0xbd40360f	-0.046926554
33	0x3d372fff	0.044723507
34	0xbc6a01e9	-0.014282682
35	0xbdb3efbf	-0.08785962
36	0x3cdbca4f	0.026829867
37	0xbcbdc4fa	-0.023165215
38	0x3c874634	0.016512968
39	0x3dbefb82	0.09325315
40	0x3dbd431e	0.09241317
41	0x3d00d7f7	0.03145596
42	0x3d308ff8	0.04310605
43	0x3c964968	0.01834555
44	0x3d50530b	0.050860446
45	0xbd72576d	-0.059165407
46	0xbd6166d3	-0.0550297
47	0xbd165126	-0.036698483
48	0xbc880fa5	-0.016609022
49	0x3d076d40	0.033063173
50	0xbc91f5ec	-0.01781746
51	0xbd31b7af	-0.043388065
52	0x3d8289ee	0.06373964
53	0x3cf86a0d	0.030324006
54	0xbe2b2fe8	-0.16717494
55	0xbcf32c4a	-0.029684205
56	0x3a962412	0.0011454842
57	0xbd6c4765	-0.057685275
58	0x3c9ab636	0.018885713
59	0x3dbed095	0.093171276
60	0xbe2cfc19	-0.16893043
61	0xbdeecaff	-0.11659812
62	0xbd9c45c2	-0.07630493
63	0x3d975494	0.07389179
64	0xbce058f7	-0.027386172
65	0xbd9ea12d	-0.077455856
66	0xbd8b2deb	-0.067958675
67	0xbca20835	-0.019779304
68	0x3c7cc37e	0.015427468
69	0x3c9d1b6b	0.019178113
70	0x3bcc5e4e	0.006236828
71	0x3c6a6fe4	0.014308903
72	0xbcc6da52	-0.024274025
73	0xbc94c302	-0.018159393
74	0xbc968f3e	-0.01837885
75	0x3ca44cb6	0.02005611
76	0xbdbb890b	-0.09156998
77	0x3c85ce24	0.016333647
78	0xbd4c572d	-0.049887825
79	0xbd62bbec	-0.055354998
80	0xbdb6d513	-0.089273594
81	0xbd644710	-0.055731833
82	0xbccfd688	-0.025370851
83	0xbc957aa2	-0.018246952
84	0x37e1101f	2.6829597e-05
85	0xbe2c2655	-0.16811498
86	0xbe07cbaa	-0.13261285
87	0x3d5ba715	0.05362614
88	0x3d647f0a	0.055785216
89	0xbd8475f6	-0.06467812
90	0x3d15a73f	0.03653645
91	0x3bc4f094	0.0060101245
92	0x3cdb2486	0.026750814
93	0xbca1b9c4	-0.0197419
94	0x3da624fc	0.08112523
95	0x3c40f165	0.011776303
96	0xbccac596	-0.02475242
97	0xbde314d5	-0.11087958
98	0xbc1a7ccc	-0.009429168
99	0xbd828ce5	-0.0637453
100	0xbce7de8c	-0.02830436
101	0xbccaa953	-0.024738943
102	0x3d5d7a91	0.054071967
103	0xbde6d196	-0.11270444
104	0xbbf1e4f6	-0.0073820306
105	0xbc488efb	-0.01224112
106	0x3ddb6ae7	0.107137494
107	0x3c1923da	0.009346927
108	0xbdf0a8a3	-0.11750915
109	0xbd4b9c5c	-0.049709663
110	0x3b0a86e3	0.0021137528
111	0xbd9f119d	-0.07767031
112	0xbd8b914f	-0.06814825
113	0xbd4fb90e	-0.05071359
114	0xbe60cb08	-0.2195245
115	0xbe05fa4a	-0.13083759
116	0xbdf550d1	-0.11978305
117	0xbe052887	-0.13003741
118	0xbdab7601	-0.08372117
119	0xbd9d4468	-0.07679063
120	0xbdee4019	-0.116333194
121	0xbb6cf97a	-0.0036159442
122	0xbcc4983a	-0.023998369
123	0xbe1ca151	-0.15295912
124	0xbc6b66b1	-0.014367745
125	0x3cb218d8	0.021740362
126	0x3a4327cd	0.00074445904
127	0xbcbaa55f	-0.022783933
128	0xbd10fa26	-0.03539481
129	0x3c021a49	0.007940837
130	0x3d97e5f3	0.07416906
131	0xbc075011	-0.008258835
132	0x3d356c0b	0.04429249
133	0x3c62287e	0.013803599
134	0x3dba9c89	0.09111888
135	0xbc9ea7e4	-0.019367166
136	0xbcb069ea	-0.021534879
137	0xbdc91db2	-0.09820117
138	0x3cdfe0b0	0.027328819
139	0xbd1cdc9e	-0.038296334
140	0x3d333cfd	0.043759335
141	0xbdd5f932	-0.10447921
142	0xbdafaf8c	-0.08578405
143	0xbd5e6b59	-0.054301593
144	0xbd7e222d	-0.06204431
145	0xbe24e174	-0.16101629
146	0xbde7485e	-0.112931
147	0xbc3de509	-0.011590251
148	0xbe214f59	-0.15752925
149	0xbcdde9ae	-0.027088966
150	0xbdd7cb55	-0.105368294
151	0xbdc96a1d	-0.098346926
152	0xbe12533c	-0.14289564
153	0xbdc1230c	-0.09430513
154	0x3d636b01	0.05552197
155	0xbd9adfe5	-0.07562236
156	0xbd2b6e4a	-0.041853227
157	0x3d816b84	0.06319335
158	0x3d6abfc1	0.057311777
159	0x3d374613	0.044744562
160	0x3d393aaa	0.045221962
161	0xbe08549c	-0.13313526
162	0x3d12d7b7	0.035850253
163	0x3d8423f1	0.06452168
164	0x3d7c7043	0.0616305
165	0x3c87e0b3	0.016586637
166	0xbe39c59e	-0.18141791
167	0x3b8c3ea2	0.0042799274
168	0xbc3921cb	-0.011299561
169	0xbd9e9d7c	-0.077448815
170	0xbdbd0826	-0.0923007
171	0xbdedf9ac	-0.11619887
172	0xbd8a7155	-0.067598976
173	0x3b70b2bf	0.0036727635
174	0xbc982a57	-0.018574877
175	0xbd41b406	-0.047290824
176	0xbde20a39	-0.11037106
177	0xbd1b75ae	-0.037954025
178	0xbd7250db	-0.05915914
179	0xbd07780d	-0.033073474
180	0xbe2e3858	-0.17013681
181	0xbd982c33	-0.07430305
182	0xbe16e1dd	-0.14734598
183	0xbc7d9c60	-0.015479177
184	0x3d44e60e	0.04807096
185	0xbdd70118	-0.104982555
186	0xbdaffbd8	-0.08592957
187	0x3dd5228e	0.104069814
188	0xbe12dc0b	-0.14341752
189	0x3b250684	0.0025180886
190	0xbcb87944	-0.022518761
191	0xbe0c1d3f	-0.13683031
192	0xbdc0e640	-0.09418917
193	0x3d36dbf2	0.04464335
194	0x3d11b168	0.03556958
195	0xbda18b3c	-0.07887885
196	0xbd96c316	-0.073614284
197	0xbcfb9b02	-0.030713562
198	0xbd7a10ee	-0.0610513
199	0xbb2556d6	-0.002522876
200	0x3ccc1f4d	0.02491727
201	0xba55308d	-0.000813254
202	0xbdfa334b	-0.122168146
203	0xbe39fb5a	-0.1816229
204	0x3c900173	0.017578816
205	0xbcd0b5cd	-0.025477314
206	0x3d629a03	0.05532266
207	0xbc2a1b0f	-0.010382428
208	0xbe28fc2a	-0.16502443
209	0xbd92e2ac	-0.071721405
210	0xbd81cd91	-0.06338037
211	0xbd7a3d4b	-0.06109361
212	0x3c86bb6a	0.016446788
213	0x3d72d70f	0.059287127
214	0x3d203935	0.039117057
215	0xbd6449d6	-0.055734478
216	0x3ca8582f	0.020549862
217	0xbce037f1	-0.027370425
218	0x3cf27dc2	0.029600982
219	0xbd4c3a78	-0.049860448
220	0xbda91d8b	-0.08257588
221	0x3db24f30	0.0870651
222	0xbc97ebbc	-0.018545024
223	0xbd724e04	-0.059156433
224	0xbd7ee897	-0.062233534
225	0x3c94d246	0.018166672
226	0xbe1eb1ab	-0.15497462
227	0xbe1d2478	-0.15345943
228	0xbc8cd6bc	-0.017192237
229	0xbe005cab	-0.1253535
230	0xbd9cf2a0	-0.076634645
231	0xbd134230	-0.035951793
232	0x3c3748c6	0.011186784
233	0x3d593393	0.0530277
234	0xbdfdf004	-0.12399295
235	0xbdee77b0	-0.11643922
236	0xbdc837ac	-0.097762436
237	0xbe14753d	-0.14497848
238	0x3d29451a	0.041325666
239	0x3d673b5b	0.05645309
240	0x3d495f6d	0.04916327
241	0xbccab0e8	-0.024742559
242	0xbdee260e	-0.11628352
243	0x3a8a342e	0.0010544115
244	0xbdfdda4a	-0.12395151
245	0x3cafb3b5	0.021447996
246	0xbdcd72dc	-0.10031673
247	0xbd4c633c	-0.049899325
248	0x3d7d2858	0.061806053
249	0xbd443749	-0.047904287
250	0xbcb0a235	-0.021561721
251	0xbe0ea8da	-0.139316
252	0x3d269288	0.040667087
253	0xbcecca40	-0.028905034
254	0xbd1584d6	-0.036503635
255	0x3d5d9615	0.054098208

model.2.weight f4 [64, 512]
0	0x3c93bcfa	0.018034447
1	0x3cf9b7a8	0.030483082
2	0x3b2a054b	0.0025943096
3	0x3bd26328	0.0064205118
4	0xbcba7a5c	-0.022763424
5	0xbd639b70	-0.05556816
6	0x3d05f4fc	0.03270434
7	0x3d99b614	0.07505432
8	0xbd8347af	-0.06410157
9	0x3cd23077	0.025657875
10	0xbd0474ee	-0.032338075
11	0xbd26ac6e	-0.040691786
12	0xbcffeba4	-0.031240292
13	0x3cdcf829	0.0269738
14	0xba779bdd	-0.00094455277
15	0xba4b19e6	-0.00077476946
16	0x3c04d2ff	0.008106946
17	0xbcaa3819	-0.020778703
18	0x3d3b3ab3	0.045710277
19	0xbd3d21f2	-0.04617495
20	0x3d7aaeb7	0.061201777
21	0xbc3492c8	-0.0110213235
22	0xbd787f3d	-0.06066822
23	0x3c9be260	0.019028842
24	0x3d40bc1c	0.047054395
25	0x3cd2ea01	0.025746347
26	0xbd6f458f	-0.058415946
27	0x3db7cd04	0.089746505
28	0x3cc1a2a4	0.023637123
29	0x3d07777e	0.03307294
30	0xbdb543f4	-0.08850852
31	0xbd119653	-0.03554375
32	0x3c523658	0.012830339
33	0x3d711b3f	0.058863875
34	0xbc9ce632	-0.019152734
35	0x3ca6f709	0.020381467
36	0xbb7f0b73	-0.0038916736
37	0x3cbc669d	0.022998149
38	0x3cb7c660	0.02243346
39	0xbd2bedc8	-0.041974813
40	0x3cb33f02	0.02188063
41	0xbd8e6186	-0.06952195
42	0x3d7ab30a	0.0612059
43	0x3c7b3863	0.015333268
44	0x3c8686ef	0.016421763
45	0x3cded5ff	0.02720165
46	0xbd2324a8	-0.03982988
47	0x3bd61ca1	0.0065341746
48	0x3ca36d4b	0.019949576
49	0x3d81cf43	0.0633836
50	0xbb3ca3d3	-0.002878417
51	0xbd583e7c	-0.052793965
52	0x3cc1c4cc	0.02365341
53	0x3ca4094c	0.020023964
54	0xbc2f0234	-0.010681678
55	0x3c26d2f5	0.010182132
56	0xbc446ae1	-0.011988373
57	0xbd9f88f5	-0.07789794
58	0xbc2fe21a	-0.010735059
59	0x3b2fb3b2	0.0026809988
60	0xbd4ea209	-0.050447498
61	0xbd57ce4d	-0.052686978
62	0xbcf98048	-0.030456677
63	0xbc982067	-0.018570138
64	0xbd012ae3	-0.03153504
65	0x3d0f3068	0.034958273
66	0x3d334f0d	0.04377656
67	0xbdad23bf	-0.08454084
68	0x3d539864	0.051659003
69	0x3d1267a4	0.03574337
70	0xbd0d9a0a	-0.03457073
71	0xbd3be5cd	-0.045873452
72	0x3d508eba	0.050917365
73	0xba5ad476	-0.0008347699
74	0xbc8a5f7e	-0.016891237
75	0xbd5fb744	-0.054618135
76	0x3d0fbca5	0.035092015
77	0x3d3e8645	0.04651477
78	0x3d502615	0.050817568
79	0x3ad6aa6c	0.0016377694
80	0x3b6fb288	0.0036574919
81	0x3d72c6b8	0.059271544
82	0xbbdfc50b	-0.0068289093
83	0xbd86c5f2	-0.06580724
84	0x3d0a7dc7	0.033811357
85	0xbb376534	-0.0027983906
86	0x3d263159	0.040574405
87	0x3bb42d28	0.005498547
88	0xbc9c91f2	-0.01911256
89	0xbd4ef514	-0.050526693
90	0x3d73e725	0.05954661
91	0x3d26982d	0.04067247
92	0xbcacbf1d	-0.021087224
93	0x3aa71f65	0.0012750445
94	0x3d667a24	0.056268826
95	0x3c128d08	0.008944757
96	0xbb824ea8	-0.0039766617
97	0xbccd4410	-0.025056869
98	0xbcbd0744	-0.023074754
99	0xbd69d71c	-0.05708991
100	0x3ca2c6c4	0.01987017
101	0xbbdecb86	-0.006799164
102	0xbc960f55	-0.018317858
103	0x3c1a8149	0.009430238
104	0xbd89502c	-0.06704745
105	0xbbd769cc	-0.0065738913
106	0xbd92f27a	-0.07175155
107	0x3d35a48e	0.044346385
108	0x3d63fe35	0.055662353
109	0x3bb61733	0.005556965
110	0xbc0bd483	-0.008534553
111	0xbc3d774e	-0.011564089
112	0x3d5976ad	0.053091694
113	0xbba29677	-0.0049617845
114	0xbc29c22b	-0.010361235
115	0x3ce1ee6a	0.027579505
116	0xbcb4fe41	-0.022093894
117	0xba4c8220	-0.00078013726
118	0x3d8f6f29	0.07003624
119	0xbd864594	-0.0655624
120	0x3c7c196c	0.01538692
121	0x3d048332	0.03235168
122	0x3dbca5b0	0.0921129
123	0x3b432ef2	0.002978262
124	0x3d03e72a	0.032202877
125	0x3bfac539	0.0076529053
126	0xbd5f244e	-0.054477982
127	0xbd2cc008	-0.042175323
128	0x3bf2aaac	0.0074055996
129	0xbb428853	-0.0029683306
130	0x3cb62f22	0.022239272
131	0xbdb6b087	-0.08920389
132	0xbcc16b83	-0.023610836
133	0xbc8610f6	-0.01636551
134	0x3c14d31e	0.009083537
135	0x3b2efb54	0.0026700096
136	0x3c4aa883	0.012369278
137	0x3d185aa5	0.03719582
138	0xbca0cc15	-0.019628564
139	0xbd0be2d1	-0.034151856
140	0xbb8e3298	-0.0043395273
141	0x3cd90f9a	0.026496697
142	0x3d579104	0.052628532
143	0xbc4c39b4	-0.012464929
144	0x3c2abfd1	0.010421709
145	0xbd862de3	-0.06551721
146	0x3b706e90	0.0036686994
147	0xb86fb26a	-5.71482e-05
148	0x3c99c56c	0.018770896
149	0xbd2edb5b	-0.042689662
150	0x3ca049ab	0.019566378
151	0x3d3174fc	0.043324456
152	0x3ce8635b	0.028367689
153	0x3cbf1304	0.023324497
154	0x39ca0d11	0.00038538178
155	0x3d8e9942	0.06962825
156	0xbd33123a	-0.043718554
157	0x3d3cef5b	0.046126705
158	0xbcd3410e	-0.025787856
159	0x3d0c33bd	0.03422903
160	0xbd36a7b2	-0.04459352
161	0x3d0cd0f9	0.03437898
162	0xbcd6adc3	-0.026205903
163	0x3cbcd196	0.023049157
164	0xbcd5c2e8	-0.026093915
165	0xbbfaf93b	-0.007659105
166	0x3db09a8c	0.086232275
167	0xbcadf6a9	-0.02123578
168	0x3c5ecea5	0.013599073
169	0x3c997e10	0.01873687
170	0xbd9d374a	-0.07676561
171	0xbd13ec7b	-0.036114197
172	0x3d081966	0.033227347
173	0xbcc7e65c	-0.024401836
174	0x3d9450f0	0.07242
175	0xbbab474a	-0.005227004
176	0xbd185543	-0.037190687
177	0x3d662f2d	0.056197334
178	0xbc07e781	-0.008294941
179	0x3ce47d79	0.027891861
180	0xbc7f9573	-0.015599596
181	0x3be0f05f	0.006864592
182	0xba4560e6	-0.00075293926
183	0x3bb2313f	0.0054379995
184	0x3ce5d005	0.028053293
185	0xbcdce6dc	-0.026965551
186	0xbd66f2b0	-0.05638379
187	0x3d6b627d	0.057466973
188	0x3c3d003b	0.0115356995
189	0x3d21eedf	0.039534446
190	0xbce4e1e1	-0.027939739
191	0x3cb14782	0.021640543
192	0xbc8c8dae	-0.017157402
193	0xbb84cae7	-0.004052508
194	0x3cb38ff2	0.021919224
195	0xbc1d86e7	-0.009614683
196	0x3b450c45	0.0030067128
197	0xbd8c37f7	-0.06846612
198	0x3d14f948	0.036370546
199	0xbd2418aa	-0.040062584
200	0xbbf4812d	-0.007461688
201	0xbd137618	-0.036001295
202	0xbc769f0f	-0.015052571
203	0x3cb22f81	0.021751167
204	0xbcaac7ff	-0.020847319
205	0xbcc5224d	-0.024064207
206	0xbd4f470c	-0.050604865
207	0x3d3cb439	0.04607031
208	0x3c708a45	0.0146814035
209	0x3cf04e26	0.02933414
210	0x3cda79b7	0.026669366
211	0x3cd44bc3	0.025915032
212	0x3ce30be0	0.027715623
213	0x3d731b29	0.059352074
214	0xbd862299	-0.06549568
215	0xbd4f9772	-0.05068154
216	0xbc045bb9	-0.008078509
217	0x3ca4cdd5	0.02011768
218	0x3bc853cf	0.0061135064
219	0xbba6dfc7	-0.0050925943
220	0x3d72b451	0.059253994
221	0x3d05aaef	0.032633718
222	0xbd206497	-0.03915843
223	0x3d0f82d7	0.035036888
224	0x3c871a70	0.016492099
225	0xbd97091e	-0.07374786
226	0x3c9d9c9a	0.019239713
227	0xbc15645c	-0.009118166
228	0xbc5b5cda	-0.013388837
229	0xbb88db09	-0.0041765017
230	0x3d2bd29b	0.041948896
231	0xbbee523a	-0.0072729858
232	0xbc0bc98a	-0.008531937
233	0x3d2e7f88	0.042602092
234	0x3cec42d4	0.02884046
235	0xbc1a31ad	-0.009411258
236	0x3c68b0c0	0.014202297
237	0x3d01714b	0.031602185
238	0x3cbd01fb	0.023072233
239	0x3cfab1c8	0.03060235
240	0xbabdd853	-0.0014484025
241	0x3c818df9	0.015814768
242	0xbc94d4d2	-0.018167887
243	0xba5a6627	-0.0008331262
244	0x3cb19320	0.0216766
245	0xbd82530b	-0.063634954
246	0xbd2120c0	-0.039337873
247	0xbca57ef6	-0.020202141
248	0x3d868e59	0.065701194
249	0x3d981afc	0.07427022
250	0x3cf1c804	0.02951432
251	0xbc958247	-0.018250598
252	0xbda1614a	-0.078798845
253	0xbc8ed0a4	-0.017433472
254	0xbc952916	-0.018208068
255	0x3d1aace9	0.037762556

model.2.bias f4 [64]
0	0x3ceeafce	0.029136565
1	0xbc472426	-0.012154615
2	0x3cfa34c6	0.030542742
3	0x3d057d42	0.03259016
4	0x3cfb8f92	0.030708108
5	0x3d2d2ffc	0.04228209
6	0xbccf5c99	-0.025312709
7	0x3d144212	0.036195822
8	0x3c6a1b3f	0.014288723
9	0x3ca8ece1	0.020620765
10	0xbce6db9d	-0.028180892
11	0xbc9d2353	-0.019181883
12	0xbd12a84f	-0.035805043
13	0xba7d699e	-0.0009666922
14	0xbcd3ed20	-0.025869906
15	0xb74ba8c3	-1.2139036e-05
16	0xbcc87796	-0.024471086
17	0x3d41ad01	0.04728413
18	0x3c6eb5a1	0.014569671
19	0xbd073018	-0.03300485
20	0xbc958892	-0.018253598
21	0x3bf728b1	0.0075426926
22	0x3c8dcc97	0.01730947
23	0x3adcf00a	0.0016856205
24	0xbcac26fb	-0.021014681
25	0x3c5090a2	0.012729796
26	0x3cf5f50c	0.030024074
27	0x3b83c45b	0.00402121
28	0xbd04f6ad	-0.03246181
29	0x3d145617	0.036214914
30	0xbcc71a28	-0.024304464
31	0xbb249139	-0.0025110974
32	0xbbfc406b	-0.007698109
33	0x3d364777	0.044501748
34	0xbc6171bb	-0.013760026
35	0xbc96128f	-0.018319396
36	0x39effd3f	0.00045774315
37	0xbd19a7e8	-0.037513644
38	0xbca8752f	-0.02056369
39	0x3d377d2f	0.04479712
40	0xbcf1f947	-0.02953781
41	0x3ba881e3	0.005142437
42	0x3cbdcdfc	0.02316951
43	0x3beb10c4	0.0071736295
44	0x3ca96375	0.020677308
45	0x3c45423f	0.01203972
46	0xbc88d9c0	-0.016705394
47	0xbc865be1	-0.016401233
48	0x3d156df8	0.036481827
49	0xbd2775c4	-0.040883794
50	0x3d4dd9f8	0.0502567
51	0x3d1a7d37	0.03771707
52	0xbd0f9168	-0.03505078
53	0x3d4b5ea3	0.0496508
54	0xbcc43195	-0.023949424
55	0x3b155200	0.0022784472
56	0xbcd48083	-0.025940185
57	0x3ba3938d	0.0049919547
58	0x3c8b54e0	0.017008245
59	0x3c2d0324	0.010559831
60	0xbd03afba	-0.032150008
61	0x3c3680da	0.011139119
62	0xbd17effd	-0.037094105
63	0x3cba0ddb	0.022711685

exp_avg f4 [512, 64]
0	0x3a3aee6c	0.00071308645
1	0x39b0c0f5	0.000337131
2	0xba44353b	-0.00074847386
3	0x389c6ebd	7.459286e-05
4	0x386aaeaf	5.5952634e-05
5	0x3978664b	0.0002368923
6	0xba03e144	-0.00050308206
7	0x39087a03	0.00013015424
8	0xb9fac9d5	-0.00047834092
9	0xb9ad46af	-0.00033049795
10	0xb84f36a6	-4.940354e-05
11	0xb9b32db3	-0.0003417559
12	0x39d51dde	0.0004064878
13	0x37e9c293	2.786637e-05
14	0x3950b3dc	0.00019903429
15	0xb9aa38f6	-0.00032467366
16	0xb9322f9d	-0.0001699314
17	0x39edd990	0.0004536626
18	0x3836b831	4.3563723e-05
19	0xb96a3eaf	-0.0002233933
20	0x39874893	0.0002580328
21	0xb9894cdc	-0.0002618794
22	0x3581ba06	9.665389e-07
23	0xb9a366db	-0.00031166416
24	0xb972fe31	-0.00023173612
25	0x390f9861	0.00013694308
26	0x3990d6e7	0.00027625935
27	0x388fcf5c	6.857395e-05
28	0xb7a22a19	-1.9331508e-05
29	0x370d1b98	8.41068e-06
30	0x3818f48c	3.6467376e-05
31	0x37863ed8	1.6003309e-05
32	0x396cf5ef	0.00022598331
33	0x39ad9c15	0.00033113422
34	0xb94a2823	-0.00019279173
35	0xba0a62bb	-0.0005278994
36	0xb99261ea	-0.00027920242
37	0x391b16a5	0.00014790388
38	0xb9cba26d	-0.00038840194
39	0xb654ae88	-3.1692052e-06
40	0xb9ed2476	-0.00045231328
41	0xb9798626	-0.00023796465
42	0x390ecaac	0.00013617676
43	0x395531c8	0.00020331808
44	0xb8224214	-3.868535e-05
45	0x398291a2	0.00024904037
46	0x37699f2e	1.3924944e-05
47	0xb9426828	-0.00018540083
48	0xb8da8e09	-0.00010421506
49	0x381af773	3.6946916e-05
50	0xb931427e	-0.00016904806
51	0xb953bf36	-0.0002019376
52	0xb83249eb	-4.250735e-05
53	0x38cadc29	9.6731186e-05
54	0xb9cb700f	-0.00038802667
55	0xb88d44ce	-6.73622e-05
56	0xb8e5b76b	-0.00010953735
57	0x3903406d	0.00012517134
58	0xb95531ed	-0.00020331862
59	0xba07148e	-0.0005152904
60	0x39a6d740	0.0003182236
61	0x398080ec	0.00024510117
62	0x381482f3	3.5407906e-05
63	0xb8c051c5	-9.170504e-05
64	0x39bbc3f4	0.00035813416
65	0x3962e284	0.00021637423
66	0xba165b93	-0.00057356915
67	0x393dc0a1	0.00018096204
68	0x3894eb29	7.100992e-05
69	0x394f378f	0.00019761756
70	0xb99ac8f0	-0.0002952288
71	0x389a3e5d	7.354908e-05
72	0xb993423d	-0.00028087376
73	0xb93b81f1	-0.00017882117
74	0xb97b8e6d	-0.00023990283
75	0xb9bfe7e3	-0.00036603128
76	0x39db08e2	0.00041777553
77	0xb8989c77	-7.277069e-05
78	0x38d4d3ed	0.00010148422
79	0x397a0bb3	0.00023846216
80	0xb90e0a3c	-0.00013545988
81	0x39bf6ca0	0.0003651129
82	0x38082b2b	3.246513e-05
83	0xb932cb5d	-0.00017051162
84	0x39291623	0.00016125343
85	0xb9ad02df	-0.0003299927
86	0x388555a1	6.357884e-05
87	0xb94931c3	-0.00019187391
88	0xb8c863a9	-9.555306e-05
89	0x38e7a84c	0.00011046286
90	0x39ba2e62	0.00035511242
91	0x39863313	0.00025596525
92	0xb91ccd6c	-0.00014953845
93	0xb7a155c9	-1.9232642e-05
94	0x37910002	1.728535e-05
95	0x38e6cc47	0.00011005304
96	0x38e99af1	0.00011139166
97	0x354ca5cf	7.6237205e-07
98	0xb67da9ce	-3.7798777e-06
99	0xb93916a1	-0.00017651405
100	0xb97a40c0	-0.00023865979
101	0x37344346	1.0744499e-05
102	0xb8ac16dd	-8.205858e-05
103	0xb926b73f	-0.00015899258
104	0xb9189df5	-0.00014554693
105	0xb8cbf6bb	-9.7257514e-05
106	0xb835435c	-4.3216496e-05
107	0x3987e889	0.0002592246
108	0xb917557e	-0.0001443233
109	0xb874c49e	-5.8357247e-05
110	0xb8270a98	-3.982577e-05
111	0xb804582f	-3.155338e-05
112	0x37b37b0f	2.1395766e-05
113	0xb7e244d0	-2.6973343e-05
114	0xb902d8ff	-0.00012478603
115	0x38de8dc7	0.00010612193
116	0x38ec8997	0.00011278985
117	0x38deb672	0.00010619768
118	0xb95b84d0	-0.00020934944
119	0xb70c2511	-8.3532805e-06
120	0xb7b01cd4	-2.099426e-05
121	0xb80cfbc6	-3.3613083e-05
122	0xb9aadbf7	-0.00032588813
123	0xb98d6413	-0.00026968177
124	0x39792b5c	0.00023762643
125	0x3988c480	0.00026086345
126	0x3982c597	0.00024942748
127	0x36666295	3.4330053e-06
128	0xb84968b4	-4.8019647e-05
129	0x36876be0	4.035872e-06
130	0x39c57cd4	0.00037667772
131	0x36c72f9a	5.9362037e-06
132	0x364d9a69	3.063726e-06
133	0x3937e090	0.00017535896
134	0x3920a790	0.00015321211
135	0x38136c01	3.5148118e-05
136	0x39ae33d9	0.00033226496
137	0xb92aa9ae	-0.00016275674
138	0xb97a140f	-0.0002384933
139	0xb926e25e	-0.00015915322
140	0x3931aea1	0.0001694509
141	0x383ec196	4.547982e-05
142	0xb95ff8fa	-0.00021359688
143	0x3a64c0f4	0.0008726262
144	0x3971a996	0.00023046727
145	0xb7c080e1	-2.2948198e-05
146	0xb78c65bb	-1.6736672e-05
147	0xb9a2456f	-0.0003095078
148	0xb9a3ae54	-0.00031219667
149	0x36ffdc64	7.625249e-06
150	0xb96e0411	-0.00022698964
151	0x3938bcb2	0.00017617902
152	0x39fed681	0.00048606473
153	0xb8865120	-6.4047286e-05
154	0x398846cd	0.00025992692
155	0xb909fa68	-0.00013158622
156	0x39c9f639	0.00038521158
157	0x38dc9300	0.000105177984
158	0x3936fb6e	0.00017450537
159	0x3990a1b6	0.00027586304
160	0x38fe2acf	0.000121196375
161	0xb8b000af	-8.392461e-05
162	0xb746a8ef	-1.1841053e-05
163	0x382c9b51	4.1152645e-05
164	0xb8a120d7	-7.683195e-05
165	0x39a96fe8	0.0003231757
166	0x392c3511	0.00016422967
167	0xb8518e36	-4.9961927e-05
168	0x3a124880	0.00055802613
169	0xb842efff	-4.6476718e-05
170	0xb950b483	-0.00019903672
171	0x398ca658	0.00026826817
172	0xb9e23bc2	-0.00043150602
173	0xb89ddc97	-7.5274314e-05
174	0x39939bfe	0.00028154248
175	0x37c64396	2.3634911e-05
176	0x3a265b73	0.00063460245
177	0x3814b012	3.5449928e-05
178	0xb7f7c191	-2.953483e-05
179	0x392cc494	0.0001647643
180	0xb883cf48	-6.285176e-05
181	0x39edbdac	0.0004534548
182	0x3a297d6a	0.00064655265
183	0xb84e07c2	-4.9121452e-05
184	0x37a4711a	1.960299e-05
185	0xb9e22ab4	-0.00043137895
186	0x385f5996	5.3250777e-05
187	0x391143b1	0.00013853495
188	0x39564900	0.00020435825
189	0xb8c8e449	-9.5792646e-05
190	0x389a00c3	7.343434e-05
191	0xb8850357	-6.342556e-05
192	0x37189d95	9.096596e-06
193	0x384a34ac	4.8209607e-05
194	0xb87cd2be	-6.027775e-05
195	0x3932335b	0.00016994534
196	0x39771a0a	0.00023565456
197	0xb8bd18f7	-9.016872e-05
198	0x398f2082	0.00027299306
199	0xb88b5a93	-6.644907e-05
200	0xb99f8a33	-0.0003042981
201	0x3886702d	6.410512e-05
202	0x392fbdef	0.00016760056
203	0xb8f1ca97	-0.00011529511
204	0x3929ea75	0.00016204438
205	0x388e8f3c	6.797767e-05
206	0xb9a91426	-0.00032249204
207	0x381301b0	3.5049103e-05
208	0xb97dc8c4	-0.00024202751
209	0x397fdf3b	0.00024401855
210	0x390b0ecf	0.0001326159
211	0x389a73bf	7.3648516e-05
212	0xb98798ee	-0.00025863148
213	0xb9481caf	-0.00019084172
214	0x39169bb3	0.00014363117
215	0xb97c8511	-0.00024082164
216	0x38c02c31	9.163505e-05
217	0xb937b71e	-0.00017520456
218	0xb98b4afe	-0.0002656802
219	0x393cf619	0.00018020756
220	0xb96f928e	-0.00022847412
221	0xb94a2d24	-0.00019281037
222	0xb9545168	-0.00020248222
223	0xb8a41e24	-7.8257435e-05
224	0x38837656	6.2686086e-05
225	0xb7804f58	-1.5295736e-05
226	0x3818b981	3.6412388e-05
227	0xb8895a69	-6.549509e-05
228	0x388415cd	6.298311e-05
229	0xb944aebd	-0.00018757112
230	0xb7f281da	-2.8909115e-05
231	0xb8a87334	-8.0323225e-05
232	0x38702c10	5.7261495e-05
233	0xb9c7b59c	-0.00038091547
234	0x36ed600b	7.0743313e-06
235	0xb8e8ad3a	-0.00011094888
236	0x3984b842	0.00025314285
237	0xb98d5802	-0.00026959187
238	0xb93138aa	-0.00016901144
239	0xb85c7f75	-5.257079e-05
240	0xb8ed6cc3	-0.00011321299
241	0x38833bb9	6.257691e-05
242	0x371875d9	9.087345e-06
243	0x398a2bff	0.0002635419
244	0xb970a303	-0.0002294891
245	0xb920bd18	-0.00015329232
246	0xb9d44013	-0.0004048353
247	0xb9110f60	-0.00013834005
248	0xb7ab28de	-2.0403819e-05
249	0x389a751b	7.365105e-05
250	0x3914fbd6	0.00014208196
251	0x39a5f909	0.00031656798
252	0xb8ef54a4	-0.000114121736
253	0x398deca8	0.00027069938
254	0x37ce19cf	2.4569132e-05
255	0xb7ebc05e	-2.8103761e-05

exp_avg_sq f4 [512, 64]
0	0x363967b4	2.7627511e-06
1	0x364fd67c	3.097025e-06
2	0x3686aff6	4.0139957e-06
3	0x367e6b9a	3.7911582e-06
4	0x359d1d09	1.1705862e-06
5	0x35e9bc75	1.7414701e-06
6	0x35fcd2aa	1.8836774e-06
7	0x3606f1ba	2.010826e-06
8	0x36244a99	2.4481326e-06
9	0x35fcfb7c	1.8848655e-06
10	0x3668f149	3.471114e-06
11	0x364fb3b9	3.0950016e-06
12	0x35d2396c	1.5662931e-06
13	0x36664bcc	3.431679e-06
14	0x35cedf79	1.5413235e-06
15	0x363a4758	2.7757687e-06
16	0x35de25f0	1.655133e-06
17	0x35fc45f4	1.8795822e-06
18	0x362c963d	2.5717447e-06
19	0x35f3ce65	1.816498e-06
20	0x3626dd91	2.4864896e-06
21	0x35fc06f7	1.877749e-06
22	0x35cfe045	1.5487973e-06
23	0x35c47712	1.4637792e-06
24	0x360b107e	2.0722214e-06
25	0x35fc37af	1.8791669e-06
26	0x35f68a7d	1.8368734e-06
27	0x36016362	1.9280346e-06
28	0x358aee87	1.0351222e-06
29	0x362b6e8a	2.5545328e-06
30	0x357a16cb	9.3165426e-07
31	0x365e00d3	3.3081058e-06
32	0x362db0c7	2.5881907e-06
33	0x3642e93a	2.9044008e-06
34	0x368bae84	4.162839e-06
35	0x3680834a	3.8299813e-06
36	0x35c0bc49	1.4359913e-06
37	0x36785530	3.7004465e-06
38	0x3642a78e	2.9005782e-06
39	0x36347b08	2.6893704e-06
40	0x35b41ac9	1.3418841e-06
41	0x35a0d907	1.1984092e-06
42	0x35e05dbc	1.6716581e-06
43	0x35dfb0dd	1.6666269e-06
44	0x35b48710	1.3450353e-06
45	0x358c1d6b	1.0439375e-06
46	0x358caeed	1.0481723e-06
47	0x35b59ac0	1.3530589e-06
48	0x361334fa	2.1935543e-06
49	0x3613a35b	2.1999792e-06
50	0x3659bcf9	3.2445516e-06
51	0x3643042c	2.9059693e-06
52	0x361644dc	2.2391823e-06
53	0x35e3bb39	1.6967307e-06
54	0x3643128a	2.9068055e-06
55	0x35acbcae	1.2869912e-06
56	0x3619873d	2.2877496e-06
57	0x3610c0a9	2.1569815e-06
58	0x3638298d	2.7442322e-06
59	0x36083333	2.029538e-06
60	0x36159523	2.228954e-06
61	0x3601e423	1.935529e-06
62	0x36000565	1.9076626e-06
63	0x35c9c035	1.5031607e-06
64	0x35fa9301	1.8669235e-06
65	0x362de2e9	2.5911088e-06
66	0x362f62db	2.6134574e-06
67	0x369ac8ae	4.61292e-06
68	0x3581a0a4	9.658002e-07
69	0x35d2c339	1.5703037e-06
70	0x35fc88fe	1.8815333e-06
71	0x36147555	2.2122015e-06
72	0x35fb5e7c	1.8728456e-06
73	0x361f83e3	2.3769614e-06
74	0x360bdc7a	2.0840948e-06
75	0x36638914	3.3905426e-06
76	0x35d24453	1.5666104e-06
77	0x3615ddc3	2.2331812e-06
78	0x35ec1a52	1.759103e-06
79	0x36539f6a	3.1534241e-06
80	0x35b93b3a	1.3800811e-06
81	0x35e070a7	1.6722087e-06
82	0x361b0c67	2.310402e-06
83	0x35d178cf	1.5606873e-06
84	0x3615df9a	2.2332883e-06
85	0x3642d416	2.9031703e-06
86	0x35e2fe02	1.6912238e-06
87	0x35b5c183	1.354187e-06
88	0x3622a807	2.4237686e-06
89	0x35d05353	1.5521458e-06
90	0x36198678	2.2877048e-06
91	0x35fc8307	1.8813597e-06
92	0x35c9c508	1.5033011e-06
93	0x35d73b72	1.6036049e-06
94	0x3546516c	7.387923e-07
95	0x3629256b	2.5204743e-06
96	0x3626287a	2.4759488e-06
97	0x36088d36	2.0347775e-06
98	0x365358bd	3.1493103e-06
99	0x3633f18f	2.6813684e-06
100	0x358dfc94	1.0578829e-06
101	0x35f38e60	1.8146347e-06
102	0x3609d8f7	2.054088e-06
103	0x360507b4	1.9823028e-06
104	0x35c918d7	1.4982896e-06
105	0x360b1305	2.0723685e-06
106	0x359c6fbf	1.1655428e-06
107	0x358717db	1.0065227e-06
108	0x35de56f3	1.6565594e-06
109	0x35a8d7d0	1.2579785e-06
110	0x35839546	9.803705e-07
111	0x35c3944d	1.4571793e-06
112	0x360f7995	2.137943e-06
113	0x36128d3f	2.1837911e-06
114	0x3610c0b2	2.1569836e-06
115	0x362c730e	2.5696968e-06
116	0x362c68be	2.5690965e-06
117	0x361a3d62	2.2983518e-06
118	0x3640a9a8	2.8708982e-06
119	0x35879b8c	1.0103554e-06
120	0x36020a3a	1.9377462e-06
121	0x36014f6a	1.9268723e-06
122	0x35d4c349	1.5852066e-06
123	0x35e2953c	1.6881745e-06
124	0x361344b5	2.19447e-06
125	0x35bb65ed	1.396225e-06
126	0x35b24f0f	1.3285043e-06
127	0x35bc245a	1.4017671e-06
128	0x35b4a30a	1.3458496e-06
129	0x3608cd2a	2.0385e-06
130	0x35934d0c	1.0974777e-06
131	0x360893b5	2.0351556e-06
132	0x35429324	7.248475e-07
133	0x359aea39	1.1542062e-06
134	0x35f79ab9	1.8447964e-06
135	0x35b501a4	1.3486028e-06
136	0x35a79abd	1.2487504e-06
137	0x360037fa	1.910607e-06
138	0x35b50e76	1.348976e-06
139	0x35822e7f	9.699287e-07
140	0x35a9bdbe	1.2646703e-06
141	0x35b5731b	1.3519051e-06
142	0x35dee164	1.6605886e-06
143	0x36081c04	2.0281886e-06
144	0x354bd11a	7.5927676e-07
145	0x35b859c0	1.3735189e-06
146	0x359932f3	1.1414216e-06
147	0x35b7f7fb	1.3706734e-06
148	0x35d58f5e	1.5911462e-06
149	0x357c24b6	9.3930737e-07
150	0x3568aa1d	8.667428e-07
151	0x356223ef	8.424385e-07
152	0x36040de4	1.9677618e-06
153	0x36182753	2.2672655e-06
154	0x3599ddc1	1.1463927e-06
155	0x359ce48d	1.1689423e-06
156	0x35fb59b4	1.8727064e-06
157	0x3608459a	2.0306093e-06
158	0x35a113f6	1.2001244e-06
159	0x35f4afad	1.8230545e-06
160	0x35ed23db	1.7668311e-06
161	0x362a558d	2.5381771e-06
162	0x35e87265	1.731864e-06
163	0x35bb80d4	1.397008e-06
164	0x35961cf2	1.1184295e-06
165	0x35b461a6	1.3439465e-06
166	0x35805519	9.56151e-07
167	0x35dbfe1e	1.6390729e-06
168	0x35d47b9f	1.5831209e-06
169	0x35de891d	1.6580194e-06
170	0x35b9868d	1.3822734e-06
171	0x35af374f	1.3054613e-06
172	0x35b94e7c	1.3806416e-06
173	0x358aed9c	1.0350955e-06
174	0x35e55160	1.7085513e-06
175	0x35bc856a	1.404592e-06
176	0x35c100d0	1.4379857e-06
177	0x35bb0a91	1.3935661e-06
178	0x35c994fb	1.5019026e-06
179	0x35eff55b	1.7878295e-06
180	0x35df8120	1.6652375e-06
181	0x35979c38	1.1295842e-06
182	0x361b2d70	2.3123248e-06
183	0x357f9f16	9.5226403e-07
184	0x35988eec	1.1366478e-06
185	0x358a40d3	1.0300668e-06
186	0x35a557cb	1.2319009e-06
187	0x35ec9fdd	1.7629897e-06
188	0x35c86480	1.493041e-06
189	0x3592cd46	1.093759e-06
190	0x35c4473c	1.462387e-06
191	0x356be45b	8.7876623e-07
192	0x35885ffe	1.0160727e-06
193	0x357ba27a	9.374122e-07
194	0x3587ce87	1.0118391e-06
195	0x3608df71	2.039564e-06
196	0x350bce7d	5.2082015e-07
197	0x3539228b	6.8968137e-07
198	0x355e5b7c	8.283457e-07
199	0x35afe1e3	1.3104258e-06
200	0x353c1871	7.0071025e-07
201	0x353d141f	7.0437267e-07
202	0x3557f0a4	8.044392e-07
203	0x35a92d3f	1.260465e-06
204	0x35936355	1.0981263e-06
205	0x355ca226	8.2192344e-07
206	0x3574010f	9.0898624e-07
207	0x35513c69	7.7946476e-07
208	0x353d6e38	7.0568376e-07
209	0x35cf509a	1.544616e-06
210	0x35c8daae	1.4964805e-06
211	0x3513fc8b	5.5129266e-07
212	0x3577bbb1	9.22878e-07
213	0x354a743c	7.542001e-07
214	0x35893e5a	1.0225442e-06
215	0x353fc26a	7.1435954e-07
216	0x355a4a81	8.1319746e-07
217	0x35b92e74	1.3797094e-06
218	0x35a7f007	1.2512327e-06
219	0x3534d374	6.736293e-07
220	0x352246ab	6.045254e-07
221	0x352658fe	6.196932e-07
222	0x3504d6b0	4.9486243e-07
223	0x35c746d9	1.4847275e-06
224	0x3585f085	9.979273e-07
225	0x356e47ce	8.87664e-07
226	0x358e4e3b	1.0602593e-06
227	0x357f6c69	9.515266e-07
228	0x350cff5c	5.252566e-07
229	0x35bfc3d6	1.4287605e-06
230	0x352df13d	6.479857e-07
231	0x34f3a756	4.538403e-07
232	0x35953dae	1.1119316e-06
233	0x355601ad	7.972365e-07
234	0x353b0208	6.9665884e-07
235	0x3567bf02	8.633216e-07
236	0x357ef2c6	9.4975655e-07
237	0x34fa73cc	4.6650382e-07
238	0x356b184b	8.7579673e-07
239	0x35815cff	9.638314e-07
240	0x34d151e1	3.8988858e-07
241	0x351e3810	5.894117e-07
242	0x353ae011	6.961646e-07
243	0x3572d5fb	9.046341e-07
244	0x35883ef4	1.0151111e-06
245	0x358779f2	1.0093775e-06
246	0x358eb9e7	1.0633929e-06
247	0x35802811	9.548404e-07
248	0x355cd554	8.226682e-07
249	0x354bda59	7.594113e-07
250	0x357c5a20	9.4008465e-07
251	0x35ade8b9	1.2957236e-06
252	0x35c23172	1.4468517e-06
253	0x356b820d	8.773357e-07
254	0x359eadfd	1.1822555e-06
255	0x35437436	7.281227e-07

exp_avg f4 [512]
0	0x39606cbf	0.00021402816
1	0xb6ee63a6	-7.1045533e-06
2	0xb99bedef	-0.00029741178
3	0x398ac319	0.0002646677
4	0x38ed80b4	0.000113250135
5	0xb892baf1	-6.996643e-05
6	0x382139f9	3.8439382e-05
7	0xb7a89bef	-2.0099773e-05
8	0x39a47460	0.00031367224
9	0xb6acb51b	-5.147083e-06
10	0x38e9bf06	0.00011145887
11	0x398024a0	0.0002444135
12	0x3966400a	0.00021958366
13	0xb8815ff8	-6.169075e-05
14	0x37a007a1	1.9077039e-05
15	0xb9257246	-0.00015778196
16	0x396bf3d1	0.00022502175
17	0xb8cc9e2a	-9.7569384e-05
18	0x39a2f4f0	0.0003108154
19	0xb994fefc	-0.00028418738
20	0xb9296dd8	-0.00016158016
21	0xb70e4b52	-8.481396e-06
22	0xb8e06aaa	-0.0001070102
23	0x38aec5e3	8.333826e-05
24	0xb941d034	-0.00018483476
25	0x39b00d18	0.00033579092
26	0x3668315f	3.4599432e-06
27	0x39130a6a	0.00014022892
28	0x387854ec	5.9206897e-05
29	0xb92e7210	-0.00016636425
30	0xb948aa27	-0.00019136873
31	0x39527307	0.00020070012
32	0xb89cc2f2	-7.474971e-05
33	0x39ba9a68	0.00035591726
34	0x39008e2a	0.00012259991
35	0x395e64c3	0.00021209106
36	0xb893dd6e	-7.050751e-05
37	0xb9e2e92d	-0.0004327981
38	0x39a3c3d5	0.0003123569
39	0x38841eeb	6.3000094e-05
40	0x3a02d818	0.0004991307
41	0x3887c399	6.4737345e-05
42	0x3989692f	0.00026209044
43	0x39726c81	0.0002311934
44	0x39d3683b	0.00040322714
45	0x3789ddaa	1.6434893e-05
46	0x39961612	0.00028626673
47	0x39ac1923	0.00032825125
48	0x3890697c	6.886103e-05
49	0x3990e565	0.00027636733
50	0xb8541e1e	-5.0572788e-05
51	0xb61aba7c	-2.3056336e-06
52	0x3871feca	5.769617e-05
53	0x39338579	0.00017120493
54	0x38ebb1a0	0.000112387585
55	0x386d81dd	5.6626148e-05
56	0x39dc6dce	0.0004204348
57	0x382b955b	4.0908675e-05
58	0x39e8d35d	0.00044407966
59	0x39b79770	0.0003501731
60	0xb60faa03	-2.140762e-06
61	0xb99e225d	-0.0003016171
62	0x39a7ebd1	0.0003202842
63	0x39910fc7	0.0002766831
64	0x38f2d967	0.000115799536
65	0x38e184cd	0.00010753572
66	0x38a7c926	8.000647e-05
67	0xb75dfc78	-1.3231409e-05
68	0x37000e11	7.63267e-06
69	0x392cef2a	0.00016492294
70	0xb7ff8187	-3.0458685e-05
71	0xb8adf842	-8.2955245e-05
72	0x39a0acfd	0.00030646464
73	0x3925c862	0.00015810275
74	0x39196802	0.00014629963
75	0x39bee39b	0.00036409203
76	0xb997f03f	-0.00028979962
77	0x38d5f9c1	0.00010203152
78	0x3983b12a	0.00025118265
79	0x38b73adf	8.7370856e-05
80	0xb8219c8f	-3.8531198e-05
81	0x392dcda1	0.00016575168
82	0xb8882652	-6.492123e-05
83	0x3934b4be	0.0001723347
84	0xb8a40cd4	-7.822519e-05
85	0x38f64e16	0.00011744739
86	0x3887c22d	6.47347e-05
87	0x39603176	0.0002138073
88	0xb8bd7b09	-9.0351394e-05
89	0x39084375	0.000129951
90	0xb90524fe	-0.00012697649
91	0x38957d63	7.128229e-05
92	0xb89bcdcd	-7.429309e-05
93	0x37171eb8	9.007454e-06
94	0x38ae7e1c	8.320456e-05
95	0x39bbf490	0.00035849633
96	0xb9727f35	-0.00023126307
97	0xb75ea3e9	-1.3270394e-05
98	0xb70dba75	-8.447668e-06
99	0x393c0f1a	0.00017934703
100	0xb8fec85b	-0.00012148983
101	0xb811c18f	-3.475096e-05
102	0xb8c27863	-9.273065e-05
103	0xb771b448	-1.4406694e-05
104	0x391e9329	0.00015122876
105	0x39941a6f	0.00028248454
106	0xb8c6f99c	-9.487869e-05
107	0xb965cc01	-0.00021915139
108	0x37c4a0f4	2.343997e-05
109	0x39d1b351	0.00039997188
110	0x399294fc	0.00027958292
111	0xb88a7a5a	-6.6031425e-05
112	0x39099982	0.00013122524
113	0xb83e2009	-4.5329365e-05
114	0x38abf4f9	8.199545e-05
115	0x392ef301	0.00016684459
116	0xb9b9688b	-0.0003536384
117	0x39fd3d1a	0.00048301445
118	0x38eb5cb5	0.00011222941
119	0xb6e92c43	-6.949094e-06
120	0xb80576f6	-3.1820462e-05
121	0xb94bc26f	-0.00019432021
122	0xb955592d	-0.00020346484
123	0x38a4533d	7.835634e-05
124	0x39e2c59a	0.00043253304
125	0x3878730b	5.923495e-05
126	0x39574574	0.00020529871
127	0x398802d1	0.0002594204
128	0xb91c0b7b	-0.00014881596
129	0x3941783b	0.00018450704
130	0xb972849d	-0.00023128321
131	0x3a0d6165	0.0005393236
132	0x39cbd34f	0.00038876614
133	0x3922a502	0.00015510994
134	0xb8e77f13	-0.00011038608
135	0x39887008	0.0002602341
136	0x3994a60e	0.0002835248
137	0x397eec97	0.00024311464
138	0x38ca58b4	9.648633e-05
139	0x3995f53c	0.00028602208
140	0xb8ac329a	-8.2110244e-05
141	0x380a2094	3.2932105e-05
142	0x38cf71a3	9.891696e-05
143	0x38fbe8ad	0.00012011952
144	0xb7c3a113	-2.3320817e-05
145	0x39fe1125	0.0004845943
146	0x39cdd4c2	0.00039259164
147	0x37ab8f36	2.0451476e-05
148	0xb8dea94b	-0.00010617318
149	0x3834f5cc	4.314426e-05
150	0xb791535f	-1.732417e-05
151	0x38d31484	0.000100650854
152	0x398bf7b9	0.00026696714
153	0xb9846576	-0.00025252596
154	0x370c861d	8.375876e-06
155	0x37b69a7f	2.1768034e-05
156	0x39127748	0.00013968081
157	0x39293949	0.00016138436
158	0xb9a2adcb	-0.00031028534
159	0x379caf55	1.8678295e-05
160	0x38e46202	0.000108901426
161	0x37c7ced8	2.3818968e-05
162	0x39bbd751	0.00035827843
163	0x38195cd9	3.6564514e-05
164	0x38ee2508	0.00011355622
165	0x39239146	0.0001559901
166	0x393c132d	0.0001793622
167	0x39b1cd3b	0.0003391298
168	0x38eea351	0.000113791444
169	0x397bd9cd	0.00024018362
170	0x389be084	7.432795e-05
171	0xb97f4ec6	-0.0002434804
172	0x38871d1b	6.442723e-05
173	0xb7f6a09e	-2.9400278e-05
174	0x38f693db	0.00011757734
175	0x395da631	0.00021138114
176	0x37a1278f	1.9211117e-05
177	0xb8f90231	-0.000118736534
178	0xb6b3423d	-5.342327e-06
179	0x38340d9e	4.2928026e-05
180	0xb862dbd1	-5.408732e-05
181	0x39fa7634	0.00047771784
182	0xb8d86891	-0.000103191596
183	0x396cc5f9	0.00022580464
184	0x38f69ce8	0.0001175942
185	0x38ead009	0.00011196739
186	0x37cab7ef	2.4165927e-05
187	0x3952c840	0.0002010176
188	0x391e0424	0.00015069597
189	0x386d7e5e	5.6622892e-05
190	0x3849df49	4.8130085e-05
191	0xb8173913	-3.605436e-05
192	0xb90abae6	-0.0001323033
193	0x39bf5b40	0.00036498345
194	0x38f512bc	0.00011686
195	0xb93551b5	-0.00017291943
196	0x38e54c62	0.00010933798
197	0x39ee2864	0.0004542499
198	0x39b7a285	0.00035025566
199	0xb8bd9b6c	-9.041172e-05
200	0xb8f1e071	-0.00011533581
201	0xb8ca226c	-9.638522e-05
202	0x38e58d61	0.00010945905
203	0xb8958f3d	-7.131554e-05
204	0xb88c2390	-6.682344e-05
205	0xb910e307	-0.00013817484
206	0xb8af4768	-8.357951e-05
207	0x3857f03b	5.1483727e-05
208	0x36dd7333	6.599724e-06
209	0x39a85e51	0.00032113728
210	0x39048525	0.00012638101
211	0x398fee10	0.00027452456
212	0x38b3385b	8.545882e-05
213	0xb925dc82	-0.00015817772
214	0x39851e5b	0.00025390353
215	0xba063e06	-0.00051209365
216	0xb9319755	-0.00016936411
217	0x3852d9f0	5.027087e-05
218	0x3883ee04	6.290901e-05
219	0xb96f7d36	-0.00022839461
220	0x3903c968	0.00012568163
221	0x39005701	0.00012239443
222	0x3987b895	0.0002588673
223	0x399fb081	0.0003045835
224	0x39275e6b	0.00015961535
225	0x39c1c65c	0.00036959618
226	0x393a0e8b	0.0001774376
227	0x388977d9	6.5549924e-05
228	0xb81ca7db	-3.7349626e-05
229	0xb8184a2c	-3.6308702e-05
230	0x398581c8	0.0002546443
231	0x39523fd5	0.0002005094
232	0x381d7125	3.753709e-05
233	0xb9da3f87	-0.00041627532
234	0x37dbfe67	2.62253e-05
235	0x3943a41d	0.00018657786
236	0x39a7cc0b	0.00032004746
237	0x38dbb18c	0.000104758044
238	0xb88bea81	-6.671716e-05
239	0x3972d825	0.00023159439
240	0x398cfe80	0.00026892498
241	0x39c2027b	0.00037004412
242	0x390f1d23	0.00013648397
243	0x3965e312	0.00021923732
244	0x39299dce	0.00016175883
245	0xb7ac7f1e	-2.0563191e-05
246	0x39953758	0.0002846073
247	0x37d58c12	2.5456804e-05
248	0xb94f46ae	-0.00019767389
249	0x3874b887	5.8345988e-05
250	0xb9459c7f	-0.00018845683
251	0xb801d930	-3.095827e-05
252	0x3939b202	0.00017709288
253	0x392eea8e	0.00016681312
254	0x38aa0fb2	8.109155e-05
255	0x398a63ee	0.00026395865
