ldm_checkpoints/ldm_epoch_0.pth (torch, 9142 bytes, 12 tensors)

conv1.weight f4 [4, 4, 3, 3]
0	0x3d3fa39c	0.04678689
1	0x3e0e15e0	0.13875532
2	0x3dd24c0d	0.10268412
3	0x3de74f18	0.11294383
4	0xbdf9c3f3	-0.121955775
5	0x3d89aaad	0.06722007
6	0xbe27f16d	-0.1640069
7	0x3dfc0462	0.123055235
8	0xbd848a30	-0.0647167
9	0xbdb632cf	-0.0889641
10	0x3d2ce218	0.042207807
11	0x3d3dce32	0.04633922
12	0xbde5d213	-0.11221709
13	0x3d905046	0.07046561
14	0xbdb5aac9	-0.08870465
15	0x3df00183	0.11719038
16	0xbce35df0	-0.027754754
17	0x3e00ef41	0.12591268
18	0x3c271985	0.010198955
19	0x3e0f9500	0.14021683
20	0x3c4bf96b	0.012449603
21	0x3e29ccf8	0.16582096
22	0xbcc9bd35	-0.024626354
23	0xbdc56470	-0.096382976
24	0xbe279861	-0.16366722
25	0x3cac4d93	0.021033084
26	0x3ca22c26	0.019796442
27	0xbd517689	-0.051138435
28	0x3df3e7cf	0.11909448
29	0xbe1b94d2	-0.15193489
30	0x3d8c3e53	0.06847825
31	0xbe1aff50	-0.15136456
32	0xbdcdedc4	-0.10055116
33	0x3d839a98	0.06425971
34	0xbba492df	-0.005022391
35	0x3c497c13	0.012297648
36	0xbe0d17b6	-0.13778576
37	0xbe12dbc0	-0.1434164
38	0x3e2a669c	0.16640705
39	0x3d667930	0.056267917
40	0x3d608fa1	0.054824475
41	0xbe04f6c8	-0.12984765
42	0xbb856e68	-0.0040719993
43	0x3b573344	0.0032836953
44	0x3deaf71d	0.11472914
45	0xbe14da02	-0.14536288
46	0x3d2b7ec5	0.041868944
47	0xbe14322c	-0.14472264
48	0xbda614ef	-0.081094615
49	0x3d08b7a2	0.03337825
50	0xbca2daa5	-0.019879648
51	0xbe01df05	-0.12682731
52	0x3e12595b	0.14291899
53	0xbd9730da	-0.073823646
54	0xbda7832c	-0.08179316
55	0x3d147449	0.03624371
56	0x3d86a431	0.06574286
57	0x3dff3dfa	0.12462993
58	0x3d679f3a	0.056548335
59	0x3d0665c4	0.032811895
60	0xbe0c0f65	-0.13677748
61	0x3e2ac2ac	0.16675824
62	0x3d9e3bb6	0.07726233
63	0x3cc367ee	0.023853268
64	0xbe27dca8	-0.16392767
65	0x3df4987e	0.11943148
66	0xbd1f9a3a	-0.03896544
67	0xbdf09ae9	-0.11748297
68	0x3e07c7f1	0.13259865
69	0x3e0a5f91	0.13513018
70	0x3dbb75dc	0.09153339
71	0xbd4a2b48	-0.049357682
72	0x3e2147ae	0.1575
73	0x3cdc324f	0.026879458
74	0x3e085292	0.13312748
75	0xbde4abb1	-0.1116556
76	0xbdbfe7a9	-0.093703575
77	0xbdca1880	-0.09867954
78	0x3cb2d2ce	0.021829035
79	0x3e2b21f7	0.16712175
80	0xbdc3a08c	-0.09552106
81	0x3e1ab2e2	0.15107301
82	0x3d797367	0.060901072
83	0xbc4b8afa	-0.012423271
84	0xbe0e476e	-0.13894436
85	0xbe1e0ad2	-0.15433815
86	0xbd2bf8de	-0.041985385
87	0x3d729ead	0.059233356
88	0xbe13436a	-0.14381185
89	0x3c858d12	0.01630262
90	0x3d409ad6	0.047022663
91	0xbd007714	-0.03136356
92	0x3dde5f0b	0.10857972
93	0x3da6f800	0.08152771
94	0x3e27dd80	0.1639309
95	0xbdcff3e7	-0.101539426
96	0x3dd90510	0.10596669
97	0xbdc289f9	-0.094989724
98	0x3d5bc6f1	0.053656522
99	0xbb9683a5	-0.00459333
100	0x3cb07a56	0.02154271
101	0xbcfd16ed	-0.03089472
102	0x3e0a31c9	0.13495554
103	0xbdb73c0c	-0.08947
104	0xbd8b0ee9	-0.06789953
105	0xbe031d10	-0.12804055
106	0x3d6ac580	0.057317257
107	0x3dc19309	0.09451873
108	0x3d9ab102	0.07553293
109	0x3dfc2b2c	0.12312922
110	0x3e0e7c94	0.1391471
111	0x3e261768	0.16219866
112	0xbe1fc0f4	-0.1560095
113	0xbdbaae85	-0.09115318
114	0xbe214c54	-0.15751773
115	0x3ddb2ee3	0.10702302
116	0xbe260f02	-0.16216663
117	0x3c5e9ef9	0.013587707
118	0x3cf4bbae	0.029874649
119	0xbe0972e3	-0.13422732
120	0x3d91a5d1	0.07111705
121	0x3de96080	0.11395359
122	0xbb25aaea	-0.0025278875
123	0x3dc9a26b	0.09845432
124	0xbd8210de	-0.063508734
125	0x3da3391d	0.07969878
126	0x3de50106	0.11181836
127	0x3e1aa296	0.15101084
128	0x3df0e543	0.11762478
129	0xbe1c8160	-0.15283728
130	0xbe195122	-0.14972356
131	0x3e1dd66b	0.15413825
132	0x3cb083b4	0.021547176
133	0xbe0b6ceb	-0.13615768
134	0xbe283c02	-0.16429141
135	0xbd536cd1	-0.051617447
136	0x3df35e43	0.11883213
137	0xbd0422fb	-0.032259922
138	0x3d880e5b	0.06643363
139	0xbe15cb20	-0.14628267
140	0xbd6c2434	-0.057651713
141	0x3db25088	0.08706766
142	0xbdf7eef4	-0.121061236
143	0xbaf7288e	-0.0018856691

conv1.bias f4 [4]
0	0xbcf873f8	-0.030328736
1	0x3e18cc29	0.14921631
2	0xbd9d82ba	-0.0769095
3	0x3d216214	0.039400175

conv2.weight f4 [4, 4, 3, 3]
0	0xbc34ce15	-0.011035462
1	0x3e138a4f	0.1440823
2	0xbe286cff	-0.16447829
3	0x3e101a30	0.1407249
4	0x3e1bb439	0.15205468
5	0xbcc24012	-0.023712192
6	0x3e069e67	0.13146363
7	0x3d1613cc	0.036639974
8	0x3de2e60b	0.110790335
9	0x3d4c2ce4	0.0498475
10	0x3da6ec2d	0.08150516
11	0xbe07ca6c	-0.13260812
12	0xbe18cebc	-0.14922613
13	0xbd629098	-0.055313677
14	0x3e15e57b	0.14638321
15	0x3e0f28fe	0.13980481
16	0xbdb65290	-0.08902466
17	0x3d363973	0.04448838
18	0x3d4343a9	0.047671948
19	0xbd05c256	-0.032656036
20	0xbe201dd8	-0.15636384
21	0x3c2515f7	0.010076038
22	0x3e070478	0.13185298
23	0x3e022b95	0.12711938
24	0xbd6d9337	-0.058001723
25	0xbd0037be	-0.03130316
26	0x3dca372d	0.09873805
27	0xbdabe573	-0.08393373
28	0x3c093e22	0.00837663
29	0xbd39d915	-0.04537304
30	0xbd4241c6	-0.047426008
31	0xbdbb02bd	-0.09131382
32	0x3dc95d66	0.098322675
33	0xbc5432f0	-0.012951598
34	0x3e230d70	0.15923095
35	0x3cb935f0	0.022608727
36	0x3e25e5d0	0.16200948
37	0x3e29cfc7	0.16583167
38	0x3e12eb22	0.14347509
39	0x3de35ebe	0.11102055
40	0x3bb3901a	0.0054798247
41	0x3bf4adca	0.0074670063
42	0xbd0b13bd	-0.03395437
43	0xbd1ecc41	-0.03876901
44	0xbdbd6d32	-0.09249343
45	0x3d0db550	0.03459674
46	0xbe0858ad	-0.13315077
47	0xbce0fece	-0.02746525
48	0x3e287b65	0.16453321
49	0xbc1c06e1	-0.009523124
50	0x3cc65e62	0.024214927
51	0xbe19c817	-0.15017734
52	0x3dc56eb2	0.09640254
53	0x3d873280	0.06601429
54	0xbd82a386	-0.06378846
55	0xbdefd7e6	-0.11711101
56	0x3b328946	0.0027242466
57	0x3da3ecf0	0.080041766
58	0xbddaa9e0	-0.10676932
59	0x3d4d77d8	0.05016312
60	0x3c853ab4	0.016263343
61	0xbda2c934	-0.07948533
62	0xbca9a90b	-0.020710489
63	0xbe19143f	-0.1494913
64	0x3dd64930	0.10463178
65	0xbdcbd293	-0.09952273
66	0xbb9c40c1	-0.0047684615
67	0x3d5bb3c5	0.05363824
68	0x3ddbabc2	0.107261196
69	0xbd8e0ee1	-0.06936432
70	0x3d25ca08	0.040475875
71	0xbcbaee0b	-0.022818586
72	0xbd18943b	-0.03725074
73	0x3b321964	0.0027175779
74	0x3cc6922b	0.02423962
75	0x3d827cb7	0.06371444
76	0x3d6e1ffe	0.05813598
77	0xbdd86271	-0.10565651
78	0x3d9262a2	0.07147719
79	0x3dedf8df	0.11619734
80	0xbe13e317	-0.14442097
81	0xbd67c148	-0.05658081
82	0x3de0902e	0.10965
83	0x3d2e1364	0.04249896
84	0x3d9d2930	0.076738715
85	0x3d404d0a	0.04694847
86	0x3d2eabb4	0.042644218
87	0xbda9cdb9	-0.082911916
88	0x3ce30e3f	0.027716754
89	0x3dde4868	0.10853654
90	0xbd8ca43a	-0.06867261
91	0xbd9fbcc1	-0.07799674
92	0xbd5688aa	-0.052376427
93	0xbd343c9b	-0.04400311
94	0x3e06a275	0.1314791
95	0x3de1405c	0.10998604
96	0x3e15c779	0.14626874
97	0x3d4916d0	0.04909402
98	0x3e13360e	0.14376089
99	0xbd0e3e13	-0.034727167
100	0xbd51e904	-0.05124761
101	0x3da4a4e1	0.08039261
102	0x3c926d34	0.017874338
103	0x3e13ba9b	0.14426653
104	0x3de92751	0.11384452
105	0x3d0b6fc7	0.034042146
106	0xbd88138d	-0.06644354
107	0xbc1c0740	-0.009523213
108	0xbceee957	-0.029164
109	0x3e18b25c	0.14911789
110	0x3dfe111c	0.12405607
111	0x3da8a3cb	0.08234366
112	0xbdf8e053	-0.121521614
113	0xbb0dbb68	-0.0021626595
114	0x3df0a4e5	0.11750201
115	0x3e22239f	0.15833901
116	0x3e22ea73	0.15909748
117	0xbcc84893	-0.024448669
118	0xbc61bccb	-0.013777922
119	0x3dddae26	0.10824232
120	0xbcfc422d	-0.030793274
121	0xbe0b9be9	-0.13633694
122	0x3e1ea010	0.15490746
123	0x3c98d9a9	0.018658476
124	0xbdcd1ee5	-0.10015658
125	0x3e08decd	0.13366242
126	0x3dc424be	0.095773205
127	0xbcc43384	-0.023950346
128	0x3d069a30	0.03286189
129	0xbdf10a6a	-0.117695644
130	0xbd8a79b4	-0.06761494
131	0x3d442aab	0.047892254
132	0xbe26638f	-0.16248916
133	0xbb747c38	-0.0037305485
134	0xbd50a43d	-0.05093788
135	0xbcfea104	-0.031082638
136	0xbd025952	-0.031823464
137	0xbd548bf9	-0.0518913
138	0xbd19169b	-0.037375074
139	0xbc97597b	-0.018475285
140	0xbdcd8a5c	-0.100361556
141	0xbe08de7f	-0.13366126
142	0x3bd2bde4	0.006431328
143	0xbbb74a34	-0.0055935625

conv2.bias f4 [4]
0	0xbcda0f8b	-0.02661874
1	0xbbafa450	-0.0053601637
2	0xbcc24ebe	-0.023719188
3	0x3e058ff9	0.13043202

exp_avg f4 [4, 4, 3, 3]
0	0xbba0bfc1	-0.0049056713
1	0xbbe89080	-0.007097304
2	0xbbaf18aa	-0.0053435164
3	0xbbc7ed2a	-0.00610127
4	0xbc14a6b3	-0.009072947
5	0xbbef9a4f	-0.007312096
6	0xbb934cea	-0.004495253
7	0xbbd57ec5	-0.0065153562
8	0xbbb2d811	-0.005457886
9	0xbba8b234	-0.0051481966
10	0xbbbaf5fd	-0.0057055936
11	0xbb85909a	-0.0040760757
12	0xbc02d6b0	-0.007985756
13	0xbc2193b6	-0.009861877
14	0xbbf36eef	-0.007428996
15	0xbbde7dfd	-0.0067899213
16	0xbc11c7be	-0.00889772
17	0xbbdc3729	-0.006720443
18	0x3b4d1847	0.0031294988
19	0x3a407a92	0.0007342483
20	0xbacc795d	-0.0015600134
21	0x3b315084	0.0027056048
22	0x39b1c18a	0.0003390427
23	0xbada27d2	-0.0016643947
24	0x3a50b8ac	0.00079620886
25	0xb956c8af	-0.00020483391
26	0xba507166	-0.0007951468
27	0xbc43006a	-0.011901954
28	0xbc868b14	-0.01642374
29	0xbc65afdc	-0.014018979
30	0xbc5e48b0	-0.013567135
31	0xbc99134a	-0.018685956
32	0xbc7ed487	-0.0155536
33	0xbc1086af	-0.008821174
34	0xbc495bb4	-0.01228993
35	0xbc250397	-0.010071657
36	0xbaa4ab86	-0.0012563325
37	0xba58e117	-0.0008273287
38	0xb8411b50	-4.6040223e-05
39	0xba28dc6f	-0.00064415386
40	0xb977199c	-0.00023565296
41	0x393a6f4d	0.00017779805
42	0x3953e403	0.00020207469
43	0x3a0bc6f3	0.0005332075
44	0x3a049f02	0.00050590944
45	0xbb70a51d	-0.003671951
46	0xbb6a19d3	-0.003572096
47	0xbb2f2719	-0.0026726185
48	0xbb4c15df	-0.0031140966
49	0xbb4ae024	-0.0030956352
50	0xbb2ca6ac	-0.0026344461
51	0xbaa907d2	-0.0012896007
52	0xbaa214c6	-0.001236581
53	0xbab88621	-0.001407806
54	0xbc041a6c	-0.00806294
55	0xbc012476	-0.007882228
56	0xbb758d9d	-0.0037468441
57	0xbc300211	-0.01074268
58	0xbc30de02	-0.010795118
59	0xbbb3638f	-0.005474515
60	0xbc0849f9	-0.008318418
61	0xbc07e8a8	-0.008295216
62	0xbb8ad04f	-0.004236258
63	0xbbc5f098	-0.006040644
64	0xbb6c0fa6	-0.003602007
65	0x39f9982e	0.00047606364
66	0xbbe26d36	-0.0069099916
67	0xbb815a80	-0.003947556
68	0x3a540d79	0.0008089166
69	0xbb92a6af	-0.0044754366
70	0xbb202ac7	-0.002443956
71	0x3a3b772e	0.0007151243
72	0xbb24a3bc	-0.0025122007
73	0xbb41d170	-0.0029574297
74	0xbb0a821b	-0.0021134678
75	0xbb2bd845	-0.0026221436
76	0xbb562e16	-0.0032681278
77	0xbb235164	-0.0024920339
78	0xbab4596b	-0.0013759559
79	0xbaf9b5e1	-0.0019051397
80	0xbacd6267	-0.0015669585
81	0x3adcfca9	0.0016859967
82	0x3b0fbbcc	0.0021932004
83	0x3abdd1ef	0.0014482121
84	0x3b0d8eb1	0.0021599943
85	0x3b3f5c29	0.002919922
86	0x3b070bc9	0.002060639
87	0x3ae1d48e	0.0017229484
88	0x3b1702b4	0.0023042383
89	0x3ad16705	0.0015976137
90	0xbbf52536	-0.0074812425
91	0xbc109564	-0.00882468
92	0xbbc3b0bd	-0.0059719966
93	0xbbf2eb98	-0.007413339
94	0xbc0981e5	-0.008392786
95	0xbbb2480b	-0.005440717
96	0xbb778a4d	-0.0037771643
97	0xbb801b0b	-0.003909474
98	0xbb1a33f3	-0.00235295
99	0x3b606fa8	0.003424624
100	0x3bc7421c	0.006080879
101	0x3bc66472	0.0060544545
102	0x3b5a99fb	0.003335594
103	0x3bc273da	0.0059342207
104	0x3bbe6d21	0.005811349
105	0x3ad6356c	0.0016342825
106	0x3b3c1ed4	0.0028704898
107	0x3b331071	0.0027323032
108	0xbb086a9d	-0.00208155
109	0xbb06246b	-0.0020468484
110	0xba867b3b	-0.0010260114
111	0xbadb9620	-0.0016753115
112	0xbaaff823	-0.0013425391
113	0xb9d365b1	-0.00040320822
114	0xb9e5f97b	-0.0004386416
115	0x386b1a20	5.6052697e-05
116	0x39fabf6d	0.0004782634
117	0xba04cf00	-0.0005066246
118	0x374388f1	1.165479e-05
119	0x3a28c832	0.0006438523
120	0xb9fdc69f	-0.00048403905
121	0x3928b23c	0.00016088126
122	0x3a77a3c8	0.00094467076
123	0xb947e959	-0.00019065048
124	0x39abe775	0.0003278811
125	0x3a5f4a6b	0.0008517864
126	0xbba6201f	-0.005069747
127	0xbbbbaf34	-0.005727673
128	0xbb796a15	-0.0038057615
129	0xbbf0aeaf	-0.0073450427
130	0xbc047a3f	-0.008085786
131	0xbbac7019	-0.0052623865
132	0xbbc02f39	-0.0058650044
133	0xbbcbfbb9	-0.006225076
134	0xbb806c56	-0.0039191647
135	0x3bde8550	0.0067907944
136	0x3c1c3f35	0.009536554
137	0x3c04dbab	0.008109014
138	0x3c13672b	0.008996765
139	0x3c4944b3	0.012284446
140	0x3c25d171	0.0101207355
141	0x3bdf902b	0.006822606
142	0x3c1681ea	0.009186247
143	0x3bf4d2c6	0.007471415

exp_avg_sq f4 [4, 4, 3, 3]
0	0x354ddc1b	7.6688747e-07
1	0x35d864cf	1.6122593e-06
2	0x3578a8d5	9.263288e-07
3	0x359e561f	1.1796982e-06
4	0x362e6042	2.598405e-06
5	0x35e25eb1	1.6865871e-06
6	0x352dc7eb	6.473844e-07
7	0x35b4d380	1.34726e-06
8	0x357c9f13	9.41088e-07
9	0x35636187	8.470601e-07
10	0x3586dbe0	1.004777e-06
11	0x3504fc13	4.954065e-07
12	0x360a2219	2.058345e-06
13	0x364d4a75	3.059072e-06
14	0x35e4503d	1.7010676e-06
15	0x35c8f479	1.4972312e-06
16	0x3627399b	2.491847e-06
17	0x35bb7fed	1.3969817e-06
18	0x34c7690c	3.714307e-07
19	0x3327c667	3.9063163e-08
20	0x33b6c2bd	8.510458e-08
21	0x349802f6	2.831436e-07
22	0x32b15718	2.0645118e-08
23	0x33d5beaa	9.953267e-08
24	0x335a12d1	5.0774194e-08
25	0x328de857	1.6520216e-08
26	0x33213672	3.753525e-08
27	0x3693e1c5	4.4072244e-06
28	0x370cef6b	8.400394e-06
29	0x36cd5c4a	6.12022e-06
30	0x36c058ac	5.7323687e-06
31	0x3736bb69	1.089168e-05
32	0x36fce154	7.536417e-06
33	0x362116a6	2.4004053e-06
34	0x369d94e5	4.696298e-06
35	0x3654109e	3.1600134e-06
36	0x33802c2b	5.9684986e-08
37	0x32f83545	2.8895224e-08
38	0x30947fbd	1.0804723e-09
39	0x32945000	1.7265847e-08
40	0x31d316be	6.1434937e-09
41	0x311766d2	2.2031839e-09
42	0x314fb43d	3.0224918e-09
43	0x322d0392	1.0070737e-08
44	0x32110266	8.440656e-09
45	0x34e7c0dd	4.316743e-07
46	0x34d930d7	4.0454935e-07
47	0x347313a2	2.2638281e-07
48	0x34a96f80	3.155983e-07
49	0x34a4a6d0	3.0668753e-07
50	0x346a8530	2.1841402e-07
51	0x336f40e4	5.570554e-08
52	0x3358d0bf	5.0481272e-08
53	0x3383f94f	6.145512e-08
54	0x3607bcf1	2.0226546e-06
55	0x36024cf8	1.9416311e-06
56	0x34ebada0	4.389849e-07
57	0x3670c974	3.5880048e-06
58	0x36738fd7	3.6293548e-06
59	0x35792659	9.281553e-07
60	0x3611e856	2.174192e-06
61	0x3610d26f	2.158016e-06
62	0x3516d21d	5.618511e-07
63	0x35956615	1.1131075e-06
64	0x34d33de3	3.934684e-07
65	0x3283259f	1.5267515e-08
66	0x35c1fabe	1.4452596e-06
67	0x34fa09d3	4.6573277e-07
68	0x331273de	3.4098655e-08
69	0x35205873	5.9733355e-07
70	0x343bd6a2	1.7493815e-07
71	0x330ccac2	3.2780697e-08
72	0x3461a1b6	2.1013588e-07
73	0x349ce4d1	2.922375e-07
74	0x3422fece	1.5180123e-07
75	0x3474ceae	2.279946e-07
76	0x34c26dc8	3.6215192e-07
77	0x3469a9ef	2.1761637e-07
78	0x338b75ab	6.4940956e-08
79	0x3408f6cd	1.2755773e-07
80	0x33c126ea	8.994341e-08
81	0x33cf82c1	9.6629726e-08
82	0x342cdb62	1.6098559e-07
83	0x339cc4de	7.300126e-08
84	0x3425ef6b	1.5453922e-07
85	0x349532d4	2.7790395e-07
86	0x34189cf0	1.4213197e-07
87	0x33cd525d	9.561038e-08
88	0x34346f55	1.6804309e-07
89	0x33b162ee	8.2602e-08
90	0x35f27109	1.8063303e-06
91	0x3629744e	2.525066e-06
92	0x359aa2d9	1.1521289e-06
93	0x35eda936	1.7707123e-06
94	0x3618f5c6	2.2792824e-06
95	0x357fb391	9.5256206e-07
96	0x34fe9df9	4.7426127e-07
97	0x35071b80	5.0331437e-07
98	0x344127e8	1.7989043e-07
99	0x34c712de	3.7080366e-07
100	0x359e2eaa	1.1785498e-06
101	0x359d01c9	1.1697931e-06
102	0x34bee0af	3.5553737e-07
103	0x3597b275	1.1302315e-06
104	0x35916525	1.0832779e-06
105	0x33bc9eb4	8.7833e-08
106	0x34910b7c	2.701671e-07
107	0x34866ca3	2.503849e-07
108	0x341e1f1e	1.4726217e-07
109	0x341b6729	1.447303e-07
110	0x332e791a	4.0622673e-08
111	0x33d5b38c	9.951245e-08
112	0x339ceca7	7.307363e-08
113	0x327c1f33	1.4675424e-08
114	0x3240029b	1.1176463e-08
115	0x3206cb20	7.846012e-09
116	0x324dc4b7	1.1977298e-08
117	0x322b6db5	9.9784545e-09
118	0x30b2145e	1.2956993e-09
119	0x32767651	1.4345987e-08
120	0x32317950	1.0330339e-08
121	0x315b7c9b	3.1939524e-09
122	0x32ece92f	2.7580056e-08
123	0x321b0544	9.023385e-09
124	0x322403d9	9.546931e-09
125	0x32c7f9ae	2.328019e-08
126	0x355dae34	8.2582415e-07
127	0x358e261c	1.0590916e-06
128	0x35001d72	4.7726564e-07
129	0x35e4cdb3	1.704719e-06
130	0x360b3e58	2.0748903e-06
131	0x356e8c13	8.8865744e-07
132	0x35936fc7	1.0984885e-06
133	0x35a56d7a	1.232532e-06
134	0x3503e11e	4.912889e-07
135	0x35bdd21c	1.4142747e-06
136	0x363b8170	2.7940514e-06
137	0x3607b617	2.0222558e-06
138	0x36285aab	2.5086727e-06
139	0x369cad9d	4.6693735e-06
140	0x36542fdd	3.1618322e-06
141	0x35c28853	1.4493802e-06
142	0x36300869	2.623094e-06
143	0x35e7f83b	1.7283086e-06

exp_avg f4 [4]
0	0x3bfbbd21	0.007682458
1	0x3ab17148	0.0013537789
2	0xbc39b33b	-0.011334236
3	0xbbcfbeba	-0.006339875

exp_avg_sq f4 [4]
0	0x35fb6f05	1.8733268e-06
1	0x33c546ee	9.1864294e-08
2	0x3688316d	4.0588698e-06
3	0x35a8ad3a	1.2567391e-06

exp_avg f4 [4, 4, 3, 3]
0	0xbb1575d8	-0.0022805836
1	0xbb075336	-0.0020648963
2	0xbae1c757	-0.0017225546
3	0xbb5d7ff7	-0.0033798197
4	0xbb522add	-0.0032069006
5	0xbb36a65d	-0.0027870156
6	0xbb9307d7	-0.0044870186
7	0xbb8fef37	-0.0043925303
8	0xbb800dbb	-0.003907887
9	0xbb2a9f5c	-0.0026034927
10	0xbb151bbf	-0.0022752134
11	0xbafd3a73	-0.0019319787
12	0xbae0b316	-0.0017143216
13	0xba928fbf	-0.0011181756
14	0xba254832	-0.00063050084
15	0xba699324	-0.000891017
16	0x36deafc0	6.6365756e-06
17	0x3a2f2df3	0.0006682567
18	0x39ecb913	0.0004515132
19	0x3902dbd4	0.00012479658
20	0xb955e22e	-0.00020397521
21	0x39956ca3	0.00028500435
22	0x38162396	3.579593e-05
23	0xb984f594	-0.00025359972
24	0xb9e7c676	-0.00044207618
25	0xba2451e9	-0.0006268309
26	0xba58b67c	-0.00082669384
27	0xb9be641a	-0.00036314205
28	0xba7c597a	-0.000962637
29	0xbad99e95	-0.0016603047
30	0xba937c28	-0.0011252211
31	0xbafbe570	-0.0019218158
32	0xbb33aee0	-0.0027417466
33	0xbb20aca2	-0.002451696
34	0xbb5b2206	-0.0033437028
35	0xbb86acb2	-0.0041099424
36	0xbad9b6e0	-0.0016610287
37	0xbaa6c517	-0.0012723532
38	0xba56180f	-0.0008167037
39	0xbaa623a9	-0.0012675422
40	0xba49e3c3	-0.00077014806
41	0xb96ce7d3	-0.00022593075
42	0xba9011e9	-0.0010991666
43	0xba107be1	-0.00055116235
44	0x385d5f01	5.2778985e-05
45	0x3b076227	0.0020657869
46	0x3b2fb793	0.00268123
47	0x3b592ed0	0.0033139475
48	0x3b57061c	0.0032810038
49	0x3b828b3c	0.003983883
50	0x3b959753	0.0045651584
51	0x3b81c213	0.003959903
52	0x3b9924a8	0.004673559
53	0x3ba89f42	0.005145938
54	0x3b19643f	0.0023405699
55	0x3b17c0ee	0.0023155767
56	0x3b05c9ac	0.0020414395
57	0x3afe4d2e	0.0019401663
58	0x3af4ca3d	0.0018675994
59	0x3ad1cb42	0.001600601
60	0x3a98bc15	0.0011652733
61	0x3a873ddf	0.0010318122
62	0x3a4bb8e6	0.00077713875
63	0xbb85c529	-0.004082341
64	0xbba929bf	-0.005162447
65	0xbbbd65b7	-0.0057799476
66	0xbb720213	-0.0036927506
67	0xbba0e45b	-0.0049100346
68	0xbbb987b0	-0.005661927
69	0xbb3c7dd7	-0.002876153
70	0xbb84c1dd	-0.0040514306
71	0xbb9e2cd8	-0.004827123
72	0x3adb3eb4	0.0016727061
73	0x3a9456ac	0.0011317334
74	0x3a3a2613	0.00071010104
75	0x3a19c200	0.0005865395
76	0xb9bcecf6	-0.00036034704
77	0xba855106	-0.0010171242
78	0xba189368	-0.0005820305
79	0xbae42001	-0.0017404557
80	0xbb20cc9e	-0.0024536024
81	0xbc190564	-0.009339664
82	0xbc078335	-0.008271028
83	0xbbba0dce	-0.005677915
84	0xbc180d99	-0.009280586
85	0xbc064dde	-0.008197276
86	0xbbb9025e	-0.005646034
87	0xbbff22a0	-0.00778611
88	0xbbdb44ca	-0.00669155
89	0xbb8e7681	-0.004347623
90	0xbb1b9dff	-0.0023745296
91	0xbb5fb6cc	-0.0034136055
92	0xbb8275c2	-0.003981323
93	0xbb3805f7	-0.0028079727
94	0xbb7c0e76	-0.0038460768
95	0xbb8efd28	-0.0043636747
96	0xbb3c4d6b	-0.0028732668
97	0xbb759aba	-0.0037476257
98	0xbb86f45b	-0.004118485
99	0x3c0f7352	0.008755522
100	0x3c286fa3	0.0102805225
101	0x3c2dffc0	0.010620058
102	0x3bac4cac	0.0052581634
103	0x3be4c337	0.0069812792
104	0x3c016053	0.007896501
105	0x3a84c5a7	0.0010129706
106	0x3b28cb34	0.0025755884
107	0x3b7da1d7	0.00387012
108	0x3bfbfa09	0.0076897186
109	0x3bd976e0	0.0066364855
110	0x3ba24531	0.004952096
111	0x3c11e04d	0.008903575
112	0x3bfe037f	0.0077518816
113	0x3bc166b5	0.005902136
114	0x3c160342	0.00915605
115	0x3c03bf0d	0.0080411555
116	0x3bcd8a11	0.0062725623
117	0x3b429337	0.0029689798
118	0x3b6c33c3	0.0036041595
119	0x3b83115e	0.003999873
120	0x3b890b0c	0.004182225
121	0x3bb6c495	0.0055776336
122	0x3bd1d95f	0.0064040865
123	0x3baf5101	0.0053502326
124	0x3bed4855	0.0072412887
125	0x3c083f17	0.008315823
126	0x3b072c16	0.0020625643
127	0x3b0924b5	0.002092642
128	0x3b079030	0.0020685308
129	0x3b1c9cde	0.002389721
130	0x3b0f35f6	0.0021852232
131	0x3afae11b	0.0019140573
132	0x3b2805c0	0.0025638193
133	0x3b107072	0.002203968
134	0x3ae8ed98	0.0017771004
135	0x3c0eaad5	0.008707722
136	0x3c011f74	0.007881034
137	0x3bcf4666	0.006325531
138	0x3c0b7003	0.008510592
139	0x3bfb58a9	0.007670481
140	0x3bcbd46c	0.006220391
141	0x3bfe9837	0.0077696103
142	0x3be6964e	0.0070369607
143	0x3bc0a85e	0.005879446

exp_avg_sq f4 [4, 4, 3, 3]
0	0x34390cb9	1.7234096e-07
1	0x34195e5b	1.4283562e-07
2	0x33d9659a	1.0123331e-07
3	0x34c997e6	3.7549688e-07
4	0x34b5f876	3.3894656e-07
5	0x348a32ec	2.5741554e-07
6	0x35310a6e	6.5952815e-07
7	0x35297327	6.3124975e-07
8	0x35062bb4	4.9982486e-07
9	0x348121f5	2.405283e-07
10	0x3445729b	1.8388748e-07
11	0x340d659f	1.3168618e-07
12	0x3401b6b5	1.208053e-07
13	0x3387a11d	6.315734e-08
14	0x33041986	3.075686e-08
15	0x3356e7fa	5.003674e-08
16	0x32bc7d63	2.19431e-08
17	0x330a04f4	3.2135134e-08
18	0x32169b71	8.766492e-09
19	0x317a8fa7	3.6461445e-09
20	0x31af074c	5.094e-09
21	0x31e37137	6.6194406e-09
22	0x31ad372d	5.0412354e-09
23	0x32001095	7.454351e-09
24	0x324645dc	1.1541001e-08
25	0x329f4b49	1.8544272e-08
26	0x32f057c5	2.797959e-08
27	0x31a402a0	4.7733266e-09
28	0x32ff1937	2.9697373e-08
29	0x33bb7a1e	8.730079e-08
30	0x3332a7b9	4.1596397e-08
31	0x33fc809f	1.17580605e-07
32	0x347f7e9c	2.3794786e-07
33	0x34510644	1.9466921e-07
34	0x34bf0307	3.5578725e-07
35	0x350f89b6	5.3472047e-07
36	0x33c5f31d	9.2177494e-08
37	0x336f69bc	5.574269e-08
38	0x32d43acb	2.4706784e-08
39	0x336a089d	5.4490204e-08
40	0x32c296ab	2.2653088e-08
41	0x31b064b4	5.133723e-09
42	0x3333f723	4.1901455e-08
43	0x326f84df	1.3941842e-08
44	0x319cd32a	4.564204e-09
45	0x342e96fb	1.6259939e-07
46	0x3486f84d	2.5140108e-07
47	0x34c61421	3.689502e-07
48	0x34c8cb9c	3.7401048e-07
49	0x350ee9fe	5.3239626e-07
50	0x3538475e	6.8649194e-07
51	0x350ed1c6	5.320438e-07
52	0x354292d5	7.24843e-07
53	0x35691879	8.6834876e-07
54	0x34411089	1.7980541e-07
55	0x343dd3f1	1.76791e-07
56	0x3415415f	1.3900488e-07
57	0x3405313e	1.2404504e-07
58	0x33f8147a	1.15521246e-07
59	0x33b90cef	8.6170864e-08
60	0x3342dd2f	4.537031e-08
61	0x331acc9b	3.6042007e-08
62	0x32b878a6	2.1475284e-08
63	0x3514fa4d	5.549853e-07
64	0x356a6669	8.732082e-07
65	0x35912723	1.0814732e-06
66	0x34f00c69	4.4712513e-07
67	0x355123ce	7.791067e-07
68	0x358983f1	1.0245695e-06
69	0x34908488	2.691852e-07
70	0x350d35b8	5.2604764e-07
71	0x35462558	7.381509e-07
72	0x33cdad33	9.577561e-08
73	0x334a3b1d	4.7085553e-08
74	0x32c21da9	2.259806e-08
75	0x3295743a	1.7398737e-08
76	0x32258403	9.63428e-09
77	0x331e8d2f	3.6915647e-08
78	0x329e858f	1.8454356e-08
79	0x33dee7f9	1.0379876e-07
80	0x34532b78	1.966672e-07
81	0x3637c8b4	2.738595e-06
82	0x360ffd4e	2.1456103e-06
83	0x3588d48c	1.0194649e-06
84	0x3635ea98	2.7107653e-06
85	0x360dd7a8	2.1136166e-06
86	0x3587dad2	1.0121969e-06
87	0x360185c6	1.9300364e-06
88	0x35bfc7b7	1.4288734e-06
89	0x3525f743	6.1827103e-07
90	0x344077ea	1.7925018e-07
91	0x34c96684	3.7513757e-07
92	0x3509ddec	5.1359416e-07
93	0x34876fd5	2.5227078e-07
94	0x34ffccb9	4.7646407e-07
95	0x352537db	6.154857e-07
96	0x348f5324	2.6696318e-07
97	0x34f45e90	4.5517345e-07
98	0x3513cca4	5.505956e-07
99	0x362436c2	2.4469778e-06
100	0x3661a77d	3.3625104e-06
101	0x3670a369	3.5857904e-06
102	0x3573d766	9.0838e-07
103	0x35d36daa	1.5752642e-06
104	0x36068ed1	2.0050686e-06
105	0x3385cf0d	6.2309574e-08
106	0x34814183	2.4075788e-07
107	0x35076319	5.0435625e-07
108	0x35ffb67e	1.9052093e-06
109	0x35bf58ac	1.4256416e-06
110	0x3557418c	8.0189125e-07
111	0x362b3a2d	2.5514848e-06
112	0x3602561f	1.9421639e-06
113	0x35986b34	1.1356083e-06
114	0x36353db3	2.7007015e-06
115	0x360c4d3b	2.090658e-06
116	0x35ac0270	1.2815708e-06
117	0x34a2a863	3.029737e-07
118	0x34e6ec81	4.3012918e-07
119	0x350a6c9b	5.156705e-07
120	0x3517d950	5.6568115e-07
121	0x358451c9	9.858569e-07
122	0x35ac5f19	1.2842676e-06
123	0x357284e3	9.03454e-07
124	0x35dbddf4	1.6381368e-06
125	0x36101317	2.1468784e-06
126	0x341f1b6b	1.4818004e-07
127	0x34219355	1.5047893e-07
128	0x341d0dc8	1.4626778e-07
129	0x3451d0df	1.9540629e-07
130	0x342f0a82	1.6301968e-07
131	0x3406bff4	1.2549555e-07
132	0x346e0c94	2.2170053e-07
133	0x34304318	1.6415686e-07
134	0x33e6a07c	1.07394015e-07
135	0x361f911e	2.3777316e-06
136	0x36027f34	1.9445552e-06
137	0x35a7989c	1.2486885e-06
138	0x361a10fb	2.2957672e-06
139	0x35fa7888	1.8661531e-06
140	0x35a4bec5	1.2274473e-06
141	0x36020c0b	1.937852e-06
142	0x35d630dd	1.5958464e-06
143	0x35961d01	1.1184312e-06

exp_avg f4 [4]
0	0xbc58872c	-0.013215821
1	0xbbbafbcf	-0.0057062875
2	0x3c68107c	0.014164086
3	0x3ce101fd	0.027466768

exp_avg_sq f4 [4]
0	0x36bdef5a	5.660503e-06
1	0x35a8795e	1.2552298e-06
2	0x36e7cff7	6.9085468e-06
3	0x37c2ecd8	2.3236891e-05
