vae_weights/weights.pth (torch, 13911 bytes, 18 tensors)

encoder_conv.0.weight f4 [16, 3, 3, 3]
00000000: f44f 1c3d d476 e0bd 63ef 953d c5d1 1f3e
00000010: 2a31 4d3d f01e 58bd 465f 7d3d 9a91 b9bc
00000020: ce20 12be da6c b43d e3b2 943c c7a3 07bd
00000030: 03f8 5f3d bc67 acbd 1655 43be 9ebf fa3d
00000040: b9b9 40bd d69a 3fbe b617 33be 7dc8 d43c
00000050: 0238 11be 8202 34be 98a1 9bbd 7a30 0f3e
00000060: 0b05 7dba 8b25 c33d 5932 f7bd 394b a33d
00000070: 051b 273e 55c4 32be eb4b 023e c0e3 343e
00000080: ea47 16bd 9bbd e7bd 088e 9ebc 7588 82bb
00000090: 0c93 19be ecd4 143e 2d42 5ebd 0868 cdbd
000000a0: 242e 863d d173 c93c 263f d7bd e5d2 353d
000000b0: 69c8 0ebe 9773 063e 74b4 863d 75e0 06be
000000c0: 8b9c 843d 4624 183d 5b86 32bd 2ed4 19bd
000000d0: 7adb 083c 2a21 323c a3ad b7bd a864 26be
000000e0: 319f 16bd 3f82 e63b 15c1 373e 3eda 8ebd
000000f0: 1a4b e0bd 15d1 cd3b 574d 2e3e 3588 273e
00000100: 1380 be3d 9943 693b ea85 0cbe 1e12 773d
00000110: b393 1e3d cb18 14be 0db4 6e3d 85b9 f83d
00000120: 7ada abbd ff17 21bd 3bc4 123e 8849 1ebe
00000130: 19cf 033d 8e73 213e 1273 1bbe 786a 6d3d
00000140: d100 d93d a171 0abd 94a1 19bd cbd1 0c3c
00000150: 5774 e93c adf5 bb3d fc8d 263e ca1e 973d
00000160: 537e 363e fc16 883d 05dd 30be 73f6 bebd
00000170: f3e9 b23d e501 843d 615f d23d 1703 08be
00000180: f6f5 b9bd fd19 19be 4830 3e3d 6fca 08bd
00000190: 675c 143e 4373 273e 53a2 d5bd 913a edbc
000001a0: c812 963d 751a 9bbd ad8c b5bd dd6d 0dbe
000001b0: 1fd9 c3bd 1651 d23d 28a6 83bd 5a92 553d
000001c0: 857f 263e 2733 6e3d 3680 22be 8a69 3cbe
000001d0: 2681 b5bd 544e edbd 2925 a1bd ad24 d7bd
000001e0: f217 053e 69b3 173e f6d4 dfbd fa87 e2bd
000001f0: b8f8 b23d 51ee 0fbd c8c4 403e 51b1 09bd
00000200: f200 b33d 811e 10be 80d9 d33d 0766 ea3d
00000210: 8604 fd3c 9bd8 d03c f730 7d3c 54c3 353e
00000220: b118 9bbd c171 e63d 9539 0cbe 678c fc3d
00000230: 08e0 183e 9a24 f03d 00e1 7ebd 519e 01be
00000240: 2de7 443c 87a3 e7bd 5c1c 93bd f2ab 023d
00000250: b137 4a3c 13df eabd a144 323e 7a1a 263e
00000260: b6f1 afbd 2a67 2a3e 5dd9 3bbe a015 033e
00000270: f265 123d 5a2c b4bd f63a d63d f0c3 adbd
00000280: d90b aabd 30f7 233d b12f e73d e3fb 1cbd
00000290: 02ff c7bc 10e1 3f3d 43ab abbd ee2f 84bd
000002a0: f91e 073e 8a2e 1ebe 1326 a53c a03f b73d
000002b0: d648 143e 1348 c03a b2cc 953d 69e4 873d
000002c0: c63d a6bd a94b 58bd ef38 4ebd 4bba 163d
000002d0: 2e8b fcbd 42f2 06bc 1806 0a3e 0bac 9ebc
000002e0: 2193 84bd 8055 40bd 0ca7 bebc 6577 31bd
000002f0: 660e 2d3d 6ee3 5f3d 9d74 c63d f520 d7bd
00000300: a9c5 57bd f00e c7bd 1d49 1bbd 76f4 8cbd
00000310: 46c7 e73c eac6 d1bd 0b1b 19be c3f8 76bd
00000320: dc2c 373e 0bd8 28be e404 f6bd 09a4 5dbd
00000330: 633d 3e3c cfc2 d23d 2d12 a33d 5cfc dc3d
00000340: ae7d 34bd 618e 33be fd94 1fbe 524e 4b3d
00000350: 67d3 f03d 2a51 2cbe dada e03d bb8a 06be
00000360: 66ef 333c ecfd 303d 32f1 2fbd 959b c93d
00000370: cef7 293e 24b3 0c3e 3578 bb3d 0603 39be
00000380: 8880 b2bd 95b9 0fbc d74d 40be e773 2b3c
00000390: 5734 c8bd a79d de3d aae9 28bd 3a7a 3bbe
000003a0: d98e 52bd 9179 193e 162d b8bd 129b b5bd
000003b0: 251b f0bc 0ce8 1bbe 6fb6 7b3d 5fbe 87bd
000003c0: 04c3 47bd 6323 1f3e 2042 f2bc bb08 c4bd
000003d0: 5fff 0c3d 06f6 cbbd 5a51 23bd da66 c53d
000003e0: 5922 073e 5777 033e 2996 a53c 60f5 d63d
000003f0: d2c9 1e3e afa2 3d3e 8574 1b3e 24fa 8abd
0.038162187 -0.10960165 0.0732105 0.15607364 0.050095715 -0.05276388 0.061858438 -0.022652436
-0.14270326 0.08809824 0.018151706 -0.033115175 0.05467988 -0.08418223 -0.19075426 0.12243579
-0.04705212 -0.18711409 -0.17489514 0.025974507 -0.14181522 -0.17579082 -0.07599181 0.13983336
-0.00096519355 0.09528645 -0.1207015 0.07973332 0.16318901 -0.17457707 0.12724273 0.17665005
-0.036689676 -0.11315461 -0.019354835 -0.003983552 -0.149975 0.14534348 -0.05426233 -0.10029608
0.065517694 0.024591358 -0.105100915 0.044390578 -0.13943638 0.13130032 0.065773875 -0.13171561
0.06475171 0.037143968 -0.043585163 -0.037555866 0.008353109 0.010872165 -0.089686655 -0.16249335
-0.03677291 0.0070345695 0.17944749 -0.0697522 -0.109518245 0.006281028 0.1702169 0.16360553
0.09301772 0.003559327 -0.13722959 0.060320012 0.038715076 -0.14462583 0.05827718 0.1214476
-0.083912805 -0.039329525 0.14332668 -0.15457737 0.032179926 0.15766737 -0.15180615 0.057962865
0.10595859 -0.03379977 -0.03750761 0.00859494 0.028497858 0.09177718 0.162651 0.073789194
0.17821626 0.06645009 -0.17271812 -0.0932435 0.087360285 0.06445674 0.10272098 -0.13282429
-0.090801165 -0.1495132 0.046432763 -0.03339618 0.14488374 0.16352563 -0.104313515 -0.02895859
0.07327801 -0.07573406 -0.088647224 -0.13811441 -0.09562897 0.10269372 -0.06428176 0.052141525
0.16259582 0.05815425 -0.15869221 -0.18399635 -0.08862524 -0.115872055 -0.07868416 -0.10505042
0.12997416 0.14814533 -0.10929291 -0.11061092 0.087388456 -0.035139386 0.18825066 -0.033616368
0.08740415 -0.14074136 0.10344219 0.114452414 0.030885946 0.02549391 0.015453569 0.17750293
-0.07573069 0.112521656 -0.13693841 0.12331467 0.14929211 0.11725731 -0.062226295 -0.12658049
0.012018007 -0.11310487 -0.071831435 0.03190226 0.012342379 -0.11468329 0.17408992 0.16221038
-0.085910246 0.16640916 -0.18344636 0.12801218 0.035741754 -0.08797522 0.10460465 -0.08484638
-0.08303041 0.04003066 0.11288393 -0.038326155 -0.02441359 0.046845496 -0.08382275 -0.06454454
0.13195409 -0.1544744 0.020159757 0.089476824 0.1448091 0.0014669917 0.07314433 0.06635363
-0.08117251 -0.05280653 -0.050347265 0.036798757 -0.12331234 -0.00823647 0.13478887 -0.019369146
-0.06473375 -0.04695654 -0.023273014 -0.043326754 0.04225006 0.054660253 0.09690211 -0.10504333
-0.052678738 -0.09719646 -0.037911523 -0.06882565 0.028293263 -0.10243018 -0.14951722 -0.06029583
0.17888206 -0.16488664 -0.120126516 -0.054111514 0.011611315 0.10291063 0.07962451 0.10790321
-0.04406517 -0.17534782 -0.15584178 0.04963524 0.11759072 -0.16827837 0.109792426 -0.13138859
0.01098237 0.04321091 -0.04295463 0.09844128 0.16598436 0.13740212 0.09153787 -0.1806756
-0.08715922 -0.008772274 -0.18779694 0.010464645 -0.09775608 0.108699135 -0.041238464 -0.18308344
-0.05140576 0.1498778 -0.089929745 -0.08867468 -0.029309819 -0.15225238 0.06145328 -0.06628107
-0.048769966 0.15540843 -0.029572546 -0.09571978 0.03442323 -0.099590346 -0.039872505 0.09638758
0.13196696 0.12838493 0.020213204 0.1049602 0.15506676 0.1851909 0.15181167 -0.06785992

encoder_conv.1.weight f4 [16]
00000000: 5bf4 7f3f f317 803f 6bd8 7f3f 02e4 7f3f
00000010: 87ec 7f3f 8b1c 803f 80d4 7f3f 88d8 7f3f
00000020: b3d0 7f3f 4207 803f 8f17 803f 5acb 7f3f
00000030: f1c9 7f3f d91b 803f 960e 803f d317 803f
0.9998223 1.0007309 0.999396 0.9995729 0.9997029 1.0008711 0.99933624 0.99939775
0.99927825 1.0002215 1.000719 0.99919665 0.99917513 1.0008498 1.0004451 1.000727

encoder_conv.1.bias f4 [16]
00000000: 47e4 6fba b7cd 6d3a a2a3 813a 0464 3a3a
00000010: 06fb 4eba aae9 773a ed2e 30ba 7fe1 78ba
00000020: 5c5a 6dba 81eb 763a 27b3 b0b9 e4e5 eab9
00000030: 4a1b 6aba 4ee5 763a 8711 763a 9611 933a
-0.00091511424 0.00090714864 0.0009890685 0.00071102404 -0.0007895682 0.0009457121 -0.00067208597 -0.0009494051
-0.0009054297 0.0009419248 -0.00033702815 -0.0004480324 -0.0008930458 0.00094183243 0.0009386767 0.0011220451

encoder_conv.1.running_mean f4 [16]
00000000: c375 0fbe 1886 263c 7a92 413d b8f8 033d
00000010: a329 cbbb 8daa 983d cd80 853b f3af 2dbe
00000020: 81af 98bd 34e0 873c d130 fd3d 9abd 0b3e
00000030: 82d0 643e f4b6 2f3e e155 71be 7d33 71be
-0.14009766 0.010163806 0.04725883 0.03221962 -0.006200032 0.07454405 0.004074192 -0.1696165
-0.0745535 0.0165864 0.123628266 0.13646546 0.22345164 0.17159635 -0.23567916 -0.23554797

encoder_conv.1.running_var f4 [16]
00000000: a7f1 0e3d 5894 ba3a 9d32 cb3b 4f35 563b
00000010: 919a 963a 32b5 203c ea68 013a b2b6 493d
00000020: 43b7 2a3c 97a5 f43a 1736 da3c 7db9 043d
00000030: 251a af3d adb5 503d 8b95 c73d f7fb c23d
0.034898426 0.0014234884 0.006201102 0.0032685583 0.0011490156 0.009808825 0.0004936593 0.049246497
0.01041967 0.0018665072 0.02663712 0.032403458 0.085499085 0.05095451 0.0974532 0.09520715

encoder_conv.3.weight f4 [3, 16, 3, 3]
00000000: 71b2 55bd a82a 243d 2c3e 68bb 802e 2c3d
00000010: 489e 8d3d 93fd 323c dc6e 86bd e232 d1bc
00000020: 265e 2fbd cd11 80bd e608 8c3d 707e 7e3d
00000030: a73d 85bd 970a 503d d659 a3bd 1136 6dbd
00000040: b931 003c 9c3e 40bd 16d9 293d 3b30 83bd
00000050: ed2e 8dbc 6700 82bd 0f30 f53c 4840 c53c
00000060: f6c2 9bbd 795d 32bd ebda 84bd f838 273d
00000070: f598 743d 795c 7abd 374e 9abd f094 98bd
00000080: 8966 20bd 742d 143d cf8f a9bd 1a25 f2bc
00000090: 0afe 873d 3e7e 5fbd 5b51 0f3d 30f9 a8bc
000000a0: 0745 913d db2d 30bd 81f7 00ba de84 af3b
000000b0: 6968 1bbd 857c 60bd ac08 9ebd 6d0a a8bd
000000c0: bd29 f9bc 464f 223c 0f67 603d 0c19 503d
000000d0: 6271 c63c a554 6ebd d6f4 733d 4065 163c
000000e0: e5d6 11bd 98c4 8abc cb79 5e3c b15a 5fbd
000000f0: b7e9 67bd 373e 613c 6ab2 23bd 1301 0d3d
00000100: dd90 283d 5523 72bc 2c64 383d 867e d3bb
00000110: efa1 b83c 043e b43c ea86 593d 8ba7 b2bc
00000120: 9cdb c73c c261 babb c518 5abd 5706 29bd
00000130: 9a7b 3f3d 413c 72bc 16d9 18bd 02df 5d3d
00000140: 5af5 43bd db2c 19bc 3c96 923c e2fb 863d
00000150: c6c9 20bd cb46 833d 835d 913d 2bc1 81bd
00000160: a2d7 a03c 35ee 7abd ebf9 5fbb 2c54 28bd
00000170: 0f01 dc3b 08c8 b83c e3a6 0b3d 1bca e0ba
00000180: 5960 553d e111 8f3c 9787 15bd 00c7 26bd
00000190: f85d 0fbd 1844 0dbd ff90 553d 5878 bd3c
000001a0: 679e 98bd 0fbf 86bb 9755 6d3d 3fd4 323d
000001b0: 8429 7a3d e2d4 aebb da4c 783d 1613 80bd
000001c0: 6e09 0b3d f7ff b9bc 9311 47bd f1bd 473d
000001d0: dbc7 ac3c a1c7 3abc a4ed 923d ffbb 833d
000001e0: 1202 babc c8f8 873d afb2 543c 9132 acbd
000001f0: b5bf 783c 135e 913d da1d 96bc ad10 8fbd
00000200: ccd2 d5bc a01e 90bd 98fa cabc fcf6 59bc
00000210: 181c 033d 4a67 9e3c 9469 33bd cf4c 4fbd
00000220: a147 1fbd 250b 36bc b79a 923d e08f 7fbd
00000230: 209b 6a3d 4dcd d5bc 2469 4ebd 8655 553d
00000240: 51db a3bc a0ec 8fbd 73fd 103d 97ba a3bd
00000250: 907e d5bc 1fa6 83bd b1a3 693d 2e16 1f3d
00000260: 18b2 55bc fb0f 313c c8dd 4cbb 068e 463d
00000270: 10ae ea3c 2d1f b6bc 59c9 883d 7c46 483c
00000280: 3e84 803c f97a eebc 41fd 85bd 2a35 a6bd
00000290: f54b a0bd e6dd 173d 606c 5b3d a345 98bd
000002a0: 30d0 c33c def8 17bc d2e9 89bd 0e1c 853d
000002b0: 4eb0 36bd f1ca a0bb 8d2a 5cbd 86bd 8dbd
000002c0: 7626 8bbb 300c 23bd 62ec 4b3d 953d cf3c
000002d0: edb1 febc 6ebf 8e3d b16f d3bc 7428 abbd
000002e0: 2cfe 5bbd e94b adbc 7081 8a3d 619c 2dbc
000002f0: 69ab 223c 7813 9e3c ec33 903d 4563 05bc
00000300: 70fe 263d c7bf cabc da62 4f3d 916d b2bc
00000310: 543c 513c a482 013d 13f8 a3bd 9491 b8bc
00000320: 8638 24bd 64b4 153d 77c4 9c3d 57e4 a8bd
00000330: d842 07bd 517d c23c 1f39 923d 11e1 4d3d
00000340: a4d7 fa3b e76c 16bc 2774 4d3c 7568 903d
00000350: 340f 9fbd fd80 db3c 0aaf d9bc 7f09 b93c
00000360: 71f7 85bd bf84 9c3d 7c6b e3bc 36ef b93c
00000370: 305c 6a3d e5a1 a23d 6988 81bd ef40 803d
00000380: a69f 46bd 98b0 983c 9e26 733c 8a29 a3bd
00000390: 63ef 423d 1a50 3a3d 4bc9 943d 4d22 453b
000003a0: 6222 1f3c 6048 ba3c ab1d f53c 2b00 9abd
000003b0: e56e a8bd 1153 613d 07a6 6e3a c0c6 c3bc
000003c0: 8323 503d 911c b83a 9278 233d a80f 85bd
000003d0: 2e48 96bd b1c5 a13c 9c89 8ebd 3ec3 71bd
000003e0: 500a ebbb f048 33bb 7567 8ebc 1cea 703d
000003f0: ad80 a5bd b6d8 58bd d078 01bd 3336 eebb
-0.052172128 0.040079743 -0.0035437448 0.042036533 0.069149554 0.010924715 -0.065641135 -0.025536958
-0.042814396 -0.06253395 0.06837635 0.0621323 -0.065059 0.05079135 -0.07976119 -0.05791289
0.007824355 -0.04693471 0.041466795 -0.064056836 -0.01723429 -0.06347733 0.029930143 0.024078503
-0.07605545 -0.043546174 -0.06487068 0.040825814 0.059716184 -0.061123345 -0.075344495 -0.074502826
-0.039160285 0.03617616 -0.082793824 -0.029558707 0.06640251 -0.054563753 0.034989696 -0.020626634
0.07093244 -0.04301248 -0.00049196935 0.005356415 -0.03794137 -0.05480625 -0.07716498 -0.082051136
-0.03041541 0.009906596 0.054785784 0.050805137 0.024223987 -0.058186192 0.059559666 0.009179413
-0.03560533 -0.016939446 0.013578842 -0.05452985 -0.056619372 0.013747743 -0.03996507 0.034424853
0.041153777 -0.014778932 0.045017406 -0.0064542918 0.022538153 0.022002228 0.05310718 -0.021808406
0.02439671 -0.005687923 -0.05324628 -0.04126581 0.046748735 -0.014784873 -0.037316404 0.054167755
-0.047841407 -0.009349073 0.017893903 0.065910116 -0.039254926 0.06409987 0.07097914 -0.06335672
0.019634072 -0.06126233 -0.0034176062 -0.041095898 0.0067139934 0.02255632 0.034094702 -0.0017150076
0.052093837 0.01746458 -0.03650626 -0.040717125 -0.035001725 -0.034488767 0.052140232 0.023128673
-0.07452088 -0.0041121314 0.057942953 0.043659445 0.06107475 -0.005335436 0.060620166 -0.0625364
0.03394454 -0.022705061 -0.048600744 0.048765127 0.021091392 -0.011400134 0.071742326 0.06432342
-0.022706065 0.06639248 0.012982055 -0.08408082 0.015182425 0.07098021 -0.018324781 -0.069856025
-0.026101492 -0.07037091 -0.024777696 -0.013303515 0.032009214 0.019336361 -0.04380186 -0.05061036
-0.03888667 -0.0111110555 0.07158416 -0.06239307 0.057276845 -0.026098872 -0.05039324 0.052083515
-0.02000204 -0.070275545 0.035397958 -0.079945736 -0.026061326 -0.064281695 0.057040874 0.03883951
-0.013042949 0.010807033 -0.0031260122 0.048475288 0.028647453 -0.022231663 0.06679029 0.012223836
0.015688058 -0.029111372 -0.06542445 -0.08115609 -0.07826988 0.037076853 0.05357015 -0.07435157
0.023902982 -0.009275643 -0.06734051 0.06499492 -0.04460173 -0.004907005 -0.053751517 -0.06920914
-0.0042465283 -0.039806545 0.04978598 0.02529792 -0.031090701 0.06970106 -0.025810095 -0.08357325
-0.053709194 -0.02115436 0.067629695 -0.010596366 0.009928563 0.019296393 0.07041153 -0.0081413435
0.040769994 -0.02474965 0.05063138 -0.021780761 0.012770731 0.03161873 -0.08006301 -0.022530355
-0.040092967 0.036548987 0.0765466 -0.08246677 -0.03302273 0.023741396 0.07139801 0.05026347
0.007655101 -0.009181238 0.0125399 0.070511736 -0.07766572 0.026794905 -0.026572723 0.022587536
-0.06541336 0.07642507 -0.027761213 0.022697072 0.057216823 0.07941035 -0.06324846 0.06262385
-0.048492096 0.018638894 0.01484075 -0.07966907 0.04759158 0.045486547 0.07264956 0.003008026
0.009712787 0.02273959 0.029921373 -0.07519563 -0.082242765 0.05501086 0.00091037195 -0.023898482
0.050815117 0.0014046599 0.039909907 -0.06497127 -0.07337986 0.019747587 -0.06959841 -0.059024088
-0.00717286 -0.0027356707 -0.017383317 0.058817014 -0.080811836 -0.052941047 -0.031609356 -0.0072696446

encoder_conv.4.weight f4 [3]
00000000: 5a17 7e3f 37c5 7d3f 25bf 7f3f
0.9925438 0.9912905 0.9990104

encoder_conv.4.bias f4 [3]
00000000: 973b 0dbc af8a 24bc f9c5 8aba
-0.008620164 -0.01004283 -0.0010587565

encoder_conv.4.running_mean f4 [3]
00000000: 162c 5dbe 6612 31be b073 ea3e
-0.21598849 -0.17292175 0.45791388

encoder_conv.4.running_var f4 [3]
00000000: 61bf 7d3d 2da5 fc3d 859d 473e
0.06195009 0.12336192 0.19493683

decoder_conv.0.weight f4 [2, 16, 3, 3]
00000000: 2800 76bc d9f2 83bd dcd8 74bd d981 81bd
00000010: d762 55bd c085 253d c57d 07bd 1e59 a13d
00000020: 3775 6fbd af67 033d ae2a 873d 593e 3bbd
00000030: 84a8 973d 7752 803d aeae 1cbd d7fc 0abd
00000040: 7a9e 38bd 65d1 4ebc 346f 903c 6537 a2bd
00000050: c8a8 49bd a131 2fbd 62b3 b0bc 3e3e 0fbd
00000060: cc23 6bbd 3773 38bd a8c6 32bd e302 6e3d
00000070: a1f3 2abd 6b5f 7ebd 5425 85bd 308b 23bd
00000080: 1c06 913c 4fa0 8d3d ada1 7dbd 5981 1bbd
00000090: 0154 79bd 49d3 dbbc 61ba 753d 7cff e83a
000000a0: a2c3 32bb c29b c93b f7fc 833d e363 1f3b
000000b0: b8f4 80bc 0c17 9bbd e8b4 9c3d ec81 893d
000000c0: baf5 89bc 6359 823d a424 5fbc 96ea f4bc
000000d0: 0b1a 3f3d f7c0 60bd 0a73 993d 8427 9cbd
000000e0: f121 a13d ab03 b03c a64a 8b3d 9469 92bc
000000f0: 568e 7abc 5dce 1e3b 1289 b8bc cc42 d3bc
00000100: 3146 a9bb 9524 9f3d f34c 603d c440 ac3b
00000110: ff09 833d 365c 6a3d 44d5 5d3d 725d a8bc
00000120: 272a 9cbd 51d5 4dbc eef9 94bd 2310 d9ba
00000130: 9fb6 6d3d d619 84bd b81d 57bd 23b9 9d3d
00000140: 3b6b 0fbd f751 553d 5deb 67bd f355 5dbd
00000150: b204 c33a 3796 823c 4526 61bc 277d a83d
00000160: 1e97 673d 5a91 25bd e68d 95ba 5d3e 35bd
00000170: f0ae 6cbd dac1 713d 7c30 9d3d 4617 4a3d
00000180: 3e7f b0bd 60dd c9bc ddb9 933d 60f5 643d
00000190: 13c2 90bc 63f4 bb3c 3fa0 18bd 58af a93d
000001a0: 172d 8bbc 4b83 cc3b ae23 0a3d 2ff1 813d
000001b0: 2392 8e3c 6ddb 593d cd85 b3ba 8248 7bbd
000001c0: 8827 84bc 929c 7ebd 5ff1 09bd 562a 4c3d
000001d0: 00a9 89bc 5bcf 3dbd 6808 2d3d 82b9 a03c
000001e0: 8912 983d b443 fdbc 8397 adbd 29ad 23bd
000001f0: bf2c 0f3d c440 a03c f5c5 8b3d 0c64 8a3d
00000200: 3685 303d d0c9 9dbd b2a6 363d 3e61 983d
00000210: cb60 02bd f6c6 84bd e225 a4bd 940d d7bc
00000220: 79bc 453d 08f7 d73c e362 96bd b1f7 983d
00000230: 969b 8bbd d3b8 8e3d 1d6a 8ebd 1aa4 43bc
00000240: 9784 44bd 60dc 98bd 5660 6b3d 07a4 33bb
00000250: 022e ad3d da61 9f3d a03e 92bc a0c3 b53b
00000260: 96a8 80bd d540 fabc 08ba 9b3d 4941 1cbc
00000270: 5289 93bd a1d6 45bd 2109 0d3d 2402 61bd
00000280: d8d9 393d db89 71bd 084f 39bd 18b8 e13c
00000290: 22cf c1bc c11b 8b3d e796 3abd d3ea e1bc
000002a0: 3805 a4bd 54de 453d 1e34 983c a1f9 31bc
000002b0: d9e1 74bd f3c1 803d 572a 96bd 7827 7b3d
000002c0: b75f 34bd 931f 5cba a842 913d 8141 e3bc
000002d0: 660e e0bc b679 afbd f7e0 1c3d 9e6c 923d
000002e0: e8b0 533d 144c 7dbd c9b0 173d 60d2 ca3c
000002f0: 3e3f 093d 989a fc3c dd25 2cbd cb84 35bd
00000300: 84db 06bd e505 973d f67c e23c 3ff2 fabc
00000310: 1c4d 74bc d92b a5bc 17fb ab3c 0e5e 4cbd
00000320: c660 9fbc 3ee2 42bd 9245 913d 21a4 013d
00000330: de19 3b3d 4b0c cebc 7e3d 2abd 8e47 9c3c
00000340: 690e 983d 64e1 85bc f8f8 6a3d 924d d5bc
00000350: 22ad 9dbd 4643 a9bd 3b45 043b a985 0ebc
00000360: 5b31 eb3a fc50 a3bd 5697 813c 5d46 193b
00000370: a2d8 ff3c c6f1 2b3c 0748 993d 3f7c 64ba
00000380: e1ff f6bc 4bf8 9abd 9653 073d d8ef daba
00000390: 352c 50bd 010c f5bc 211c 31bd 359b 2cbb
000003a0: 2e1a 83bd 892d febc 48b9 ad3a b911 983c
000003b0: 3c14 463d 8418 78bd a715 a9bc 9f59 3cb9
000003c0: 76dc 67bd c457 71bc c5f4 723d 9a7c 343b
000003d0: debf b3bc 9249 3e3d 7fde 50bd fee7 3cbc
000003e0: e87c 6a3c 0f3c 2a3d 8e50 76bd 5cbc 6ebc
000003f0: 2c91 d7bb 00aa 8bbc 7176 623d 70c6 763d
-0.015014686 -0.06442804 -0.059777126 -0.063235946 -0.052096214 0.040410757 -0.033078928 0.07878326
-0.058461394 0.032081302 0.065999374 -0.045713756 0.07405189 0.06265729 -0.038252525 -0.033932533
-0.04507301 -0.012623166 0.01763115 -0.07920722 -0.049233228 -0.04277194 -0.021569911 -0.03497147
-0.057407185 -0.045031752 -0.043646485 0.05810822 -0.04173625 -0.062102716 -0.065012604 -0.03992766
0.017703108 0.06915342 -0.061921764 -0.037965152 -0.060871128 -0.026834147 0.059992198 0.0017776336
-0.002727725 0.006152601 0.064447336 0.0024321012 -0.015741691 -0.07572755 0.07651693 0.06714234
-0.016840804 0.063647054 -0.013619576 -0.029897016 0.046655696 -0.054871526 0.07492645 -0.076247245
0.07867802 0.021486124 0.068013474 -0.01787261 -0.015292725 0.0024231889 -0.022526298 -0.025788687
-0.005165838 0.07770649 0.054760884 0.005256744 0.06398391 0.057216845 0.054158464 -0.02055237
-0.076252274 -0.012563066 -0.07274233 -0.0016560595 0.05803549 -0.0645024 -0.052518576 0.07701328
-0.035014372 0.05208012 -0.056620944 -0.054037046 0.0014878719 0.015940769 -0.013742034 0.08226996
0.0565406 -0.04042182 -0.0011410087 -0.044248927 -0.05778402 0.059022762 0.07675263 0.0493386
-0.086180195 -0.024641693 0.07213185 0.05589807 -0.017670667 0.022943681 -0.037262198 0.08285397
-0.016989274 0.0062412373 0.033725433 0.0634483 0.017403668 0.053187776 -0.0013696492 -0.061348446
-0.016132131 -0.062161036 -0.033677455 0.049845062 -0.016804218 -0.046340328 0.042244345 0.019619707
0.0742541 -0.030916072 -0.08476164 -0.03996006 0.034954783 0.019562133 0.06824867 0.06757364
0.04309579 -0.07704508 0.044592567 0.074404225 -0.03183059 -0.06483261 -0.08015038 -0.026251592
0.048275445 0.02636291 -0.0734308 0.074691184 -0.06816785 0.06968846 -0.06953833 -0.01194098
-0.04797801 -0.07463908 0.05746492 -0.0027411 0.08456041 0.077823356 -0.017852128 0.005547002
-0.06282155 -0.030548492 0.07603842 -0.00953705 -0.07203926 -0.04830039 0.034432534 -0.054933682
0.045373768 -0.05896936 -0.045241386 0.027553603 -0.023658339 0.06792403 -0.045554068 -0.027577793
-0.08008808 0.04830773 0.018579539 -0.010862739 -0.059785698 0.06286993 -0.073322944 0.061316937
-0.044036593 -0.0008397039 0.07092792 -0.027741196 -0.027350616 -0.085681364 0.03830048 0.07149623
0.051682383 -0.061840132 0.03703383 0.024758518 0.033507578 0.030835435 -0.042028297 -0.044316094
-0.03292419 0.07374171 0.027647477 -0.03063309 -0.014910962 -0.02016251 0.020993752 -0.049894385
-0.019455325 -0.047579043 0.070933476 0.031650666 0.045678966 -0.025152346 -0.04156255 0.019077089
0.074246235 -0.016342826 0.05736634 -0.026037965 -0.07699038 -0.082647845 0.0020182866 -0.008698859
0.0017943786 -0.07974431 0.015819233 0.0023387887 0.031231228 0.010494655 0.07484441 -0.0008716024
-0.03015131 -0.075668894 0.033038698 -0.0016703559 -0.05082341 -0.02991295 -0.043239716 -0.0026337628
-0.06401478 -0.031027572 0.0013254071 0.018563138 0.04835914 -0.060570255 -0.020640207 -0.00017962464
-0.056606732 -0.014730398 0.05931546 0.0027540089 -0.021942075 0.04645688 -0.05099344 -0.011529921
0.0143120065 0.041561183 -0.060135417 -0.014571276 -0.006578585 -0.017048836 0.055288736 0.06024784

decoder_conv.0.bias f4 [16]
00000000: 8098 66bc ec7c 553c 5434 e2bc 50d2 813b
00000010: 6965 fbbb 4d94 63bd c716 94bd 1f14 973b
00000020: 963f 563c 593a 92bd 72c7 43bb 2658 85bd
00000030: c9cd f33c 8772 8dbc d9f1 a1bc 27bf 9dbd
-0.014074445 0.013030272 -0.027612843 0.003961839 -0.007672001 -0.055561353 -0.07230907 0.004610553
0.0130766835 -0.07140035 -0.0029873517 -0.065109536 0.029761212 -0.017266525 -0.019768642 -0.07702475

decoder_conv.1.weight f4 [16]
00000000: 6b2a 7f3f 352c 7e3f 0b67 7f3f 8099 803f
00000010: 66f4 7d3f 054b 7e3f 240d 7e3f 3829 7e3f
00000020: d229 7e3f 913e 7e3f e989 7e3f 3ae5 803f
00000030: 140b 7e3f f717 813f f025 7e3f 6bb3 803f
0.996741 0.99286205 0.99766606 1.0046844 0.9920105 0.9933322 0.992388 0.99281645
0.9928256 0.9931422 0.99429184 1.0069954 0.99235654 1.0085438 0.9927664 1.0054754

decoder_conv.1.bias f4 [16]
00000000: c9d6 cf3b 0fb6 bebb 8dd9 103b 46c9 133c
00000010: 759c 05bc 5843 58bb 12a4 e9bb 417b f4bb
00000020: d603 b7bb d2a0 e5bb 0083 13ba 05f0 023c
00000030: 7bbf fcbb 04f2 0e3c ef25 ecbb cfa2 0b3c
0.006342743 -0.005820043 0.0022102327 0.009020155 -0.008154978 -0.0032999124 -0.0071301544 -0.007460982
-0.005585174 -0.0070076967 -0.00056271255 0.007991795 -0.007713256 0.008724693 -0.0072066705 0.008522703

decoder_conv.1.running_mean f4 [16]
00000000: 7097 ccbc dd69 a63b 312f 5fbd 109e 01bc
00000010: 5148 0e3b 5be0 67bd c08f 89bd 63cc 6a3c
00000020: 94dc ac3b f0b9 c1bd 2e73 12bb 2248 71bd
00000030: 76fb e93c 4235 503c 21ee 91bc 57a6 7abd
-0.024974555 0.005078538 -0.054488365 -0.00791122 0.0021710584 -0.056610446 -0.06716871 0.014330956
0.0052753184 -0.09459293 -0.0022346484 -0.05890668 0.028562289 0.01270801 -0.017813744 -0.06119379

decoder_conv.1.running_var f4 [16]
00000000: 9eec 6e41 4e95 0f41 f024 1341 f64d 3241
00000010: 231f 5f41 b9d9 fc40 3c00 6d41 9ec9 cf40
00000020: 6ddd 0541 76ee 9c40 3bf0 3e41 3b55 c440
00000030: c4c7 3941 9367 3941 9021 4141 10c1 9141
14.932768 8.973951 9.196518 11.144033 13.945102 7.9015775 14.812557 6.4933615
8.366559 4.904109 11.93365 6.135404 11.611271 11.587787 12.070694 18.219269

decoder_conv.3.weight f4 [16, 3, 3, 3]
00000000: ac81 153e 6147 813d c807 2cbe 6cf3 d83d
00000010: c027 efbb ebe6 b43b 40a8 e6bd 4769 30bd
00000020: 9215 543d 961f bc3d 4ddc 293e 64d0 aabc
00000030: e30d 61bd f9e7 2dbe 5e94 41be 0f27 9d3d
00000040: d499 31bc 0f2e 303e e60e c9bc a244 47be
00000050: 1fe0 d3bd 27b5 303e 2eb1 943c b1cb 193e
00000060: 574e 4bbe d663 e8bd 5170 57bc f43c 283e
00000070: 9ba7 19be a49e 083e 4c48 04be eefa a5bd
00000080: 0360 d8bd 05de cb3d 1a8a 093d c597 9b3d
00000090: 0589 fbbc 543c a63d 57cc 4dbc 5838 3b3e
000000a0: 24c5 c43c 9641 b7bd 9c2e 703d e13d 4abe
000000b0: 5675 ebbc 69fc 6e3d 4d21 173e 0663 e23d
000000c0: 7b7e 8dbd 0125 cebd c6ce f1ba 6b86 133e
000000d0: dc50 bbbd ad14 aabd 6638 d9bd 4376 40bc
000000e0: d2d7 1fbe 27ae 3abe 8500 253d 2b82 0d3e
000000f0: 796e a3bd d23c 09be f3ff efbd c5b4 ce3d
00000100: d740 55bc 8379 32be f70f 17be 82e9 88bd
00000110: 50d3 b5bc 8f57 003e 6c58 0d3e eaf1 cc3d
00000120: fc0c 973d 334c 0ebd 5868 323e 050a 0abe
00000130: cf81 633d 66d5 d8bb cbf7 933a e1b2 9e3d
00000140: b609 3d3e f8d0 8fbd 4238 fdbd 66d6 0cbe
00000150: 48e2 b83d 3917 c43d d124 c3bd 5da9 803d
00000160: 8872 a1bd 3dbc 873b df1b 71bd 61d0 f03d
00000170: 1a63 e23d 8faa d3bd 83ff 3d3c eb61 283e
00000180: c4cb 06be 1a57 0cbe 3b27 f9bc c234 ba3d
00000190: 945d 213d 6dba 343e 557d 45be 06e8 ba3d
000001a0: f7b0 18be c05d 1bbe 8978 02be d303 d93d
000001b0: 1713 46bc e59b 143e be57 26be f229 ee3d
000001c0: 7c3e 2cbe d304 c1bd a67f 053e d015 663b
000001d0: e28d 5b3d 0937 03bd a9a8 d83c 6ce6 213e
000001e0: 4580 893d 11d0 2f3e 31d5 ec3c f20e 2e3e
000001f0: 7a49 3bbe aa18 8ebd b111 bb3c 9437 29be
00000200: b138 05be 1f53 223e afb5 0d3e 1318 103e
00000210: 81d2 46be 375b f3bc 8710 2f3e 6d0d 093e
00000220: 5d69 4bbe 035f d2bd 359d 84bd 0ce3 343e
00000230: 6978 bebd 0029 20be cd11 2d3e 9719 bc3c
00000240: 6d57 b0bc 416b 063d 890a fdbc 1064 cc3d
00000250: 5f1c 92bc a178 fb3d e2d0 dd3d 3207 ec3d
00000260: 893f bb3d a1ec 293d 3dec e7bd 4228 29be
00000270: da64 2ebc d2d7 ff3d 331e 1ebe 1480 0cbe
00000280: f2e1 bdbc 9a5d bebd e62c a83d 8959 17be
00000290: 8053 06be 9ec7 013e 66d9 a8bd 1512 bbbd
000002a0: 87b6 203e 4c8c b93d 1d25 c7bd 5a7f 1b3d
000002b0: 8507 39bc 0ed3 39bb 19b4 f1bd 6932 293e
000002c0: a534 393e 3548 fb3d 232c d33d 5b08 443d
000002d0: 1619 69bd c3ca 1dbd 04c9 153e fbea 223d
000002e0: f820 18be 7eaf 6ebd e35a 07bc 67d7 173e
000002f0: 871c 1cbe 28b4 13be 9b5b e23d bdbb 213d
00000300: 1e8c 6f3d a84b eebc 0d96 64bd 69d4 abbd
00000310: b29e ad3c 13f1 1a3e 9456 e63d df15 24be
00000320: 491a 223e 3e0a 053e c1c6 233e a226 da3d
00000330: 53ad a63d c320 06be b38b eabd 4804 053e
00000340: f3ae 23be 826e 1c3e 99de b63d 9ec7 3fbe
00000350: 01d3 393e ea8f babd ec73 32be 1f64 d7bd
00000360: 8e90 0dbe 7b93 10bd c810 293e e302 47be
00000370: 60d2 003e 85bc 3c3d 2350 fc3d 8f4d ecbd
00000380: 3c3c 3dbd 7de6 3fbe 115b 163e 6873 eb3d
00000390: fc29 f53d c0b1 083e 1295 323e 9336 32bc
000003a0: 8ba2 06be cb9e a1bd 6538 79bd 5b11 fcbd
000003b0: 841b 203d 0dec cd3d d0b7 643d 176e 0dbe
000003c0: 6ef8 cbbd 49a2 d93c 2896 94bd 52bb 3c3e
000003d0: 5f09 403b 83f8 a1bd 0dad b13d 223e 273e
000003e0: 18b3 333d f6cd 193e 0dc3 efbd 79bc 7fbd
000003f0: 1d9b aebd 58bf 2fbe ac23 083e 79a0 d23d
0.14600247 0.063124426 -0.16799843 0.10593304 -0.0072984397 0.0055206916 -0.1126256 -0.04306915
0.051778384 0.09185712 0.16587944 -0.020851322 -0.054944884 -0.16983022 -0.18904254 0.076734655
-0.010839898 0.1720507 -0.024543237 -0.19459775 -0.10345482 0.17256604 0.018150892 0.15019108
-0.19854103 -0.11347167 -0.013149337 0.16429502 -0.15005343 0.13341767 -0.12918204 -0.08104502
-0.10565188 0.09954456 0.03357897 0.07597307 -0.030704984 0.081169754 -0.012560925 0.18283212
0.024019785 -0.089480564 0.0586382 -0.19750167 -0.028742474 0.058346186 0.14758797 0.110540435
-0.0690889 -0.10065652 -0.0018448464 0.14406745 -0.09146282 -0.08304725 -0.1060646 -0.011746946
-0.15609673 -0.18230496 0.0402837 0.13819186 -0.07980055 -0.13402107 -0.1171874 0.10093073
-0.013015947 -0.17429166 -0.14752184 -0.06685163 -0.022195488 0.12533401 0.13803262 0.10007079
0.073755234 -0.034740638 0.17422616 -0.13480385 0.055543717 -0.006617236 0.0011289058 0.07748962
0.18460736 -0.070222795 -0.12364246 -0.13753662 0.09027535 0.09574742 -0.095285065 0.062823035
-0.07883173 0.004142313 -0.05886447 0.11758495 0.110540584 -0.10335266 0.011596563 0.16443603
-0.13163668 -0.13705102 -0.030414214 0.09092094 0.039395884 0.17649241 -0.19286092 0.09126286
-0.14911257 -0.15172482 -0.12741293 0.105964325 -0.012089512 0.14512594 -0.16244408 0.11629094
-0.16820711 -0.09424748 0.13036975 0.0035108216 0.053602107 -0.032034907 0.02644761 0.15810555
0.067139186 0.17169215 0.028910251 0.16997889 -0.18289748 -0.06938298 0.022835584 -0.16525108
-0.13009907 0.1585202 0.13838838 0.14071684 -0.19416238 -0.02970658 0.17096148 0.13384028
-0.19864412 -0.10272028 -0.06475297 0.17664737 -0.0930031 -0.1564064 0.16901322 0.022961421
-0.021526063 0.03281713 -0.030888813 0.09980023 -0.017835794 0.122788675 0.10830857 0.1152481
0.09142978 0.041485433 -0.11324356 -0.16519263 -0.010644162 0.12492336 -0.15441208 -0.13720733
-0.023179028 -0.09295197 0.08211689 -0.14780249 -0.1311779 0.12673804 -0.082445905 -0.09134308
0.15694629 0.09059963 -0.09723876 0.03796325 -0.011293297 -0.0028354558 -0.11801929 0.16523136
0.18086489 0.12269632 0.10311153 0.04785953 -0.05690869 -0.038523447 0.14627463 0.039774876
-0.14856327 -0.05827283 -0.008261415 0.14828263 -0.15245257 -0.14424193 0.110526286 0.03948568
0.058483236 -0.02908881 -0.055807162 -0.083901234 0.021193836 0.15131025 0.11246982 -0.16023968
0.1583034 0.12992188 0.15993787 0.106519 0.08138528 -0.13098435 -0.11452427 0.12989914
-0.15984707 0.1527653 0.08929176 -0.18728492 0.18146898 -0.09109481 -0.17427033 -0.105171435
-0.13824674 -0.0352969 0.16510308 -0.19434695 0.12580252 0.046078224 0.12319972 -0.11538231
-0.046200022 -0.18740268 0.14683177 0.11496621 0.119708985 0.13349056 0.17439678 -0.010877269
-0.13147943 -0.078916155 -0.060844798 -0.12307998 0.03908874 0.10054789 0.05583936 -0.13811527
-0.099594936 0.026566641 -0.072552025 0.18430832 0.002930246 -0.07908728 0.08675585 0.16332296
0.04387197 0.15019974 -0.11707125 -0.0624356 -0.08525679 -0.17162836 0.13294858 0.10284514

decoder_conv.3.bias f4 [3]
00000000: 92c2 723d 4633 e5bc a8ba 63bd
0.059267588 -0.02797855 -0.05559793
